trained_policy_function.pt (torch, 20840 bytes, 6 tensors)

model.0.weight f4 [64, 1]
0	0xbf21dac9	-0.63224465
1	0x3e10600d	0.1409914
2	0x3f08815d	0.5332239
3	0xbe9a310e	-0.3011555
4	0xbf24eeaf	-0.644267
5	0x3f382fe0	0.7194805
6	0xbfbb0d1e	-1.4613378
7	0x3f836319	1.0264617
8	0xbe84faef	-0.25972697
9	0x3f8b0d5f	1.0863456
10	0x3f95499b	1.1663088
11	0x3df41e03	0.11919787
12	0x3f05a7b4	0.5220902
13	0xbf810f10	-1.0082722
14	0x3f7ee585	0.9956897
15	0x3f5086b9	0.8145557
16	0xbe97bb0a	-0.29634887
17	0x3f1c2d70	0.6100683
18	0xbe08ceb4	-0.13360101
19	0x3f8c84c9	1.0978023
20	0x3f22a11d	0.6352709
21	0x3f8cf870	1.1013317
22	0xbfb52e8b	-1.4154829
23	0x3fadb7ec	1.3571754
24	0x3f0281d1	0.50979334
25	0x3f1ca971	0.6119605
26	0x3ed7c8c1	0.4214535
27	0x3f595daa	0.84908545
28	0x3fa1b95c	1.2634692
29	0xbe3abf13	-0.18236952
30	0xbfa8f4cf	-1.319971
31	0x3fa1b215	1.2632471
32	0xbea16098	-0.31519008
33	0xbf36af13	-0.7136089
34	0x3f76b3d0	0.9636812
35	0x3f6b431f	0.91899294
36	0x3e80ec17	0.25180122
37	0xbe09d3b3	-0.13459663
38	0xbf04563d	-0.5169409
39	0x3f9b4377	1.2129964
40	0x3f62175a	0.8831688
41	0x3f7c9410	0.98663425
42	0x3f672337	0.9028811
43	0xbf5380d1	-0.82618433
44	0x3e86aab6	0.26302117
45	0xbfd2ee68	-1.6479006
46	0x3f5e6ab5	0.8688157
47	0xbfafba17	-1.3728665
48	0xbfb28a60	-1.3948479
49	0xbfc3b431	-1.5289365
50	0x3f73520b	0.9504706
51	0x3e761c08	0.2403413
52	0xbe4e60d5	-0.20154126
53	0x3e203a60	0.15647268
54	0xbf1c32a8	-0.61014795
55	0xbeedcf6c	-0.46447313
56	0xbf7eb08c	-0.9948814
57	0xbee08a1b	-0.43855366
58	0xbf5c76ff	-0.86119074
59	0x3e0502cb	0.12989347
60	0x3f8f5622	1.1198161
61	0xbf913b84	-1.1346288
62	0x3f255a3a	0.645908
63	0xbf8d7aae	-1.1053064

model.0.bias f4 [64]
0	0xbf258b27	-0.64665455
1	0xbe839db0	-0.25706244
2	0xbd6aa5e3	-0.05728711
3	0x3ecaee14	0.39634764
4	0xbe59c2de	-0.21265742
5	0xbef74d48	-0.48301148
6	0xbd4740cb	-0.048645776
7	0xbc9b2155	-0.018936792
8	0xbf914eeb	-1.1352209
9	0xbf4212b8	-0.7580981
10	0xbed8b157	-0.423228
11	0xbeeb138c	-0.4591335
12	0xbf52288d	-0.82093126
13	0xbf2cd4df	-0.67512316
14	0x3f1d1ee5	0.61375266
15	0x3f42eb33	0.76140136
16	0xbf3372d9	-0.7009712
17	0xbf79c900	-0.97572327
18	0xbf3e1030	-0.7424345
19	0x3eac81bd	0.33692732
20	0x3e1b4620	0.1516347
21	0xbe9e5558	-0.30924487
22	0xbf0efa7e	-0.5585097
23	0xbe93e11c	-0.28882682
24	0xbee6c27b	-0.45070252
25	0x3e954fe6	0.2916252
26	0xbf2bd92b	-0.6712825
27	0x3ecf6bad	0.40511838
28	0x3d85fdff	0.065425865
29	0xbf0d6201	-0.5522767
30	0xbf2c5fdd	-0.67333776
31	0x3f6dcb6c	0.9288852
32	0xbf0ac2bd	-0.542034
33	0x3ebeaa75	0.37239423
34	0xbf09cb39	-0.5382572
35	0xbf777b8e	-0.96672904
36	0xbf85a556	-1.0441082
37	0xbf8705eb	-1.0548681
38	0xbf2a023f	-0.6640968
39	0xbe67fe8f	-0.226557
40	0x3f343a97	0.704019
41	0xbf68286a	-0.90686667
42	0x3eb948ae	0.36188263
43	0x3f27a2c6	0.6548275
44	0xbeaa5045	-0.33264366
45	0x3cf72cd6	0.030172747
46	0xbd84dc5d	-0.064873435
47	0x3edf135e	0.43569463
48	0x3f21ae0b	0.63156193
49	0x3dff1cfe	0.12456702
50	0xbebde58c	-0.37089193
51	0xbf371e8f	-0.71531004
52	0xbfba8eb7	-1.4574803
53	0xbe3ee895	-0.1864341
54	0xbf853776	-1.040755
55	0xbf4b81a3	-0.79494685
56	0xbd9ea8da	-0.0774705
57	0x3edec7b3	0.43511733
58	0x3f383556	0.71956384
59	0xbf82236b	-1.0167059
60	0x3f4d65aa	0.8023325
61	0x3f5939da	0.848539
62	0x3f12628e	0.5718163
63	0x3d3a4e49	0.045484815

model.2.weight f4 [64, 64]
0	0xbe045440	-0.12922764
1	0xbe2ab98f	-0.16672347
2	0xbe9e0a40	-0.30867195
3	0xbe969eba	-0.29417974
4	0xbe68505f	-0.22686909
5	0xbe9f6be9	-0.31137016
6	0xbe927e8d	-0.28612176
7	0xbdf798f9	-0.12089724
8	0xbe2964ee	-0.16542408
9	0xbde5beaf	-0.11218011
10	0xbe5da616	-0.21645388
11	0xbe92aaa3	-0.2864581
12	0xbe1351fd	-0.14386745
13	0xbe576a68	-0.21036685
14	0xbe4e80ea	-0.20166364
15	0xbe8b72e3	-0.2723609
16	0xbe32246f	-0.17396711
17	0xbea02853	-0.31280765
18	0xbe0486ef	-0.12942098
19	0xbddf51e4	-0.10904291
20	0xbe35a740	-0.17739582
21	0xbdfe87d9	-0.12428255
22	0xbe2be27f	-0.1678562
23	0xbe867c0b	-0.26266512
24	0xbea8419d	-0.3286256
25	0xbe47a080	-0.1949482
26	0xbe176f04	-0.14788443
27	0xbe662877	-0.22476374
28	0xbe4d23b5	-0.20033152
29	0xbe0bacb7	-0.13640104
30	0xbe3cc359	-0.18433894
31	0xbe0256b2	-0.12728384
32	0xbe57f8fd	-0.21091075
33	0xbe5d49dc	-0.21610206
34	0xbe80f7b3	-0.2518898
35	0xbe7a157e	-0.24422261
36	0xbe96de86	-0.29466647
37	0xbe100666	-0.14064941
38	0xbdce008b	-0.10058697
39	0xbe244b3f	-0.16044329
40	0xbe610895	-0.2197593
41	0xbe869764	-0.26287377
42	0xbeae18e7	-0.34003374
43	0xbe803251	-0.25038388
44	0xbe9e1be4	-0.30880654
45	0xbea73571	-0.3265796
46	0xbe79b9e5	-0.2438732
47	0xbe885af0	-0.2663188
48	0xbe5bacdd	-0.21452661
49	0xbeab3982	-0.33442312
50	0xbe0868cb	-0.13321225
51	0xbeaf7be3	-0.34274206
52	0xbe8a7e5a	-0.27049524
53	0xbe8a7e60	-0.2704954
54	0xbe5f6eaa	-0.21819559
55	0xbe36144a	-0.17781177
56	0xbe889d05	-0.26682296
57	0xbe55111f	-0.20807312
58	0xbe85f67f	-0.26164624
59	0xbe8f2aee	-0.2796244
60	0xbe7571c8	-0.23969185
61	0xbe567c9f	-0.20945977
62	0xbeae2580	-0.34012985
63	0xbea2e678	-0.3181646
64	0xbe37b7f6	-0.1794127
65	0xbe3f662c	-0.18691319
66	0xbe6e6eb4	-0.23284417
67	0xbe831f1b	-0.2560967
68	0xbe854bf9	-0.26034525
69	0xbe460a50	-0.19339871
70	0xbee57b68	-0.44820714
71	0xbe7c4b22	-0.24638036
72	0xbebbb81e	-0.36663908
73	0xbe99119d	-0.2989625
74	0xbe67a295	-0.22620614
75	0xbe8379b0	-0.25678778
76	0xbe058da0	-0.13042307
77	0xbe89869a	-0.26860505
78	0xbe768600	-0.24074554
79	0xbe6d24b9	-0.2315854
80	0xbe3ce8be	-0.18448159
81	0xbe854221	-0.26027015
82	0xbe8c1d1f	-0.27365968
83	0xbe74c6a5	-0.23903902
84	0xbea963c6	-0.33083934
85	0xbe64ee56	-0.22356543
86	0xbef28910	-0.47370195
87	0xbe8541e5	-0.26026836
88	0xbe9ca41f	-0.30593964
89	0xbe07d8e1	-0.13266326
90	0xbeb44ed6	-0.35216397
91	0xbdcb8e6f	-0.099392764
92	0xbe1e489f	-0.1545739
93	0xbeac28f6	-0.33625
94	0xbe70e11b	-0.23523371
95	0xbe7a2a77	-0.24430262
96	0xbebc6358	-0.36794543
97	0xbe984353	-0.29738864
98	0xbe17ada3	-0.14812331
99	0xbea9007a	-0.33008176
100	0xbe802b31	-0.25032952
101	0xbe4a559c	-0.1975922
102	0xbe9a8580	-0.30179977
103	0xbe3f23c9	-0.18665995
104	0xbe8d01c1	-0.275404
105	0xbe949583	-0.29020318
106	0xbdfb2b81	-0.12264157
107	0xbebdf04b	-0.3709739
108	0xbe749a22	-0.23886922
109	0xbea9ac9f	-0.33139512
110	0xbe93c098	-0.28857875
111	0xbe90cb6e	-0.28280205
112	0xbee352ba	-0.44399053
113	0xbe7d89f9	-0.24759664
114	0xbe203f4f	-0.1564915
115	0xbe86e848	-0.26349092
116	0xbeae75fc	-0.3407439
117	0xbe6f96cc	-0.23397368
118	0xbe69350f	-0.22774146
119	0xbeac5162	-0.3365584
120	0xbea39798	-0.31951594
121	0xbec663ce	-0.3874802
122	0xbed49353	-0.4151865
123	0xbe873b03	-0.2641221
124	0xbded4dce	-0.11587106
125	0xbea100e0	-0.3144598
126	0xbe42f7cd	-0.19039841
127	0xbeb7ad64	-0.35874474
128	0xbe9ccd96	-0.306256
129	0xbe5a214a	-0.21301761
130	0xbe7dd35b	-0.24787657
131	0xbe1d85af	-0.15383027
132	0xbe424c26	-0.18974361
133	0xbe8a568d	-0.27019158
134	0xbedbd699	-0.42937163
135	0xbe5c3dfe	-0.21508023
136	0xbe968f5d	-0.29406253
137	0xbe2ce71a	-0.16885033
138	0xbe4796e9	-0.19491161
139	0xbe8a46e0	-0.27007198
140	0xbe22f093	-0.15912084
141	0xbe85a303	-0.2610093
142	0xbe438d73	-0.19096927
143	0xbe44096e	-0.19144222
144	0xbe5c0df4	-0.21489698
145	0xbe696733	-0.22793274
146	0xbe1457a5	-0.14486559
147	0xbd52418c	-0.05133204
148	0xbe467b75	-0.19383033
149	0xbe18d79c	-0.14925998
150	0xbeb3ab48	-0.35091615
151	0xbd3e5486	-0.046467327
152	0xbe8bb52f	-0.2728667
153	0xbe79ee47	-0.24407302
154	0xbe9eec7e	-0.31039804
155	0xbdcee473	-0.10102167
156	0xbd767710	-0.06017214
157	0xbe84ca7f	-0.25935742
158	0xbec4800a	-0.38378936
159	0xbe0db27d	-0.13837619
160	0xbeae1ff5	-0.34008756
161	0xbe643585	-0.22286041
162	0xbdcc461c	-0.0997431
163	0xbe20a5a9	-0.15688194
164	0xbe37ebf6	-0.17961106
165	0xbe3d2af3	-0.18473415
166	0xbe1bb6c3	-0.15206437
167	0xbd3b32bb	-0.045702677
168	0xbe23d9ea	-0.16001096
169	0xbdd6cbec	-0.10488114
170	0xbe54a256	-0.20765051
171	0xbe591810	-0.21200585
172	0xbe7a85a6	-0.24465045
173	0xbf288a53	-0.65836066
174	0xbde666ad	-0.112500526
175	0xbec27e32	-0.37986904
176	0xbecbd2b7	-0.398092
177	0xbedeca18	-0.4351356
178	0xbe176647	-0.1478511
179	0xbe1f5623	-0.15560202
180	0xbe24d6dc	-0.16097587
181	0xbe86b386	-0.2630884
182	0xbe89cbcf	-0.26913306
183	0xbe69ba8e	-0.22825071
184	0xbeb10cd1	-0.3458009
185	0xbeaf5cb6	-0.3425042
186	0xbe91453f	-0.28373143
187	0xbe02f7d2	-0.12789848
188	0xbe745b72	-0.23863009
189	0xbe634bc8	-0.22196877
190	0xbe20d083	-0.15704541
191	0xbe992e21	-0.29918006
192	0xbe9f95c3	-0.31168947
193	0xbe40f64e	-0.18843958
194	0xbdc03b39	-0.09386296
195	0xbe29ef22	-0.16595128
196	0xbea7c552	-0.3276773
197	0x3dc4fefd	0.09618948
198	0xbf5ffe08	-0.87496996
199	0xbd9b4a07	-0.07582479
200	0xbe451b82	-0.19248775
201	0x3e168681	0.14699747
202	0xbce349da	-0.027745176
203	0x3cfaa74e	0.030597355
204	0x3d046549	0.032323156
205	0xbef0f88a	-0.4706462
206	0x3d50dc5c	0.0509914
207	0x3c92a750	0.017902046
208	0xbe5e6f18	-0.21722066
209	0xbd34e586	-0.044164203
210	0x3b7abf81	0.0038261118
211	0x3d929215	0.07156769
212	0xbdcfbdcf	-0.10143625
213	0xbc27c656	-0.010240158
214	0xbf2d4b15	-0.6769269
215	0x3dde3a61	0.10850979
216	0xbcce62e7	-0.025193645
217	0xbe05f45b	-0.13081495
218	0xbe15f990	-0.14645982
219	0xbd5bcabf	-0.05366015
220	0x3d8ed040	0.06973314
221	0xbe0d4bb0	-0.13798404
222	0xbf492b1e	-0.78581417
223	0xbd14ed2b	-0.036358994
224	0xbd4e1c90	-0.050320208
225	0xbec74dc7	-0.38926527
226	0xbda685bd	-0.08130977
227	0x3dcabd4e	0.09899388
228	0x3d6a370a	0.057181396
229	0xbe7c6dda	-0.2465128
230	0xbea28b8b	-0.31747088
231	0xbc216a47	-0.009851999
232	0x3dc33ea5	0.09533433
233	0xbd3d6006	-0.046234153
234	0xbc2526f1	-0.010080085
235	0xbe640a89	-0.22269644
236	0xbdf74946	-0.12074523
237	0xbf8008f6	-1.0002735
238	0xbdc23afa	-0.09483905
239	0xbf330507	-0.69929546
240	0xbf179b4a	-0.5922133
241	0xbf4b33e5	-0.7937606
242	0x3dca18f6	0.09868042
243	0xbdb96ba3	-0.09053733
244	0xbe109333	-0.14118652
245	0xbdc9ee67	-0.09859925
246	0xbe3d1be5	-0.18467672
247	0xbe6b81e4	-0.22998768
248	0xbf099bbd	-0.5375326
249	0xbe6e7637	-0.23287283
250	0xbe98e957	-0.29865524
251	0x3cb7d625	0.02244098
252	0xbd1435a5	-0.036183972
253	0xbf176740	-0.5914192
254	0xbe10e880	-0.14151192
255	0xbf1a7892	-0.60340226

model.2.bias f4 [64]
0	0xbeb33c36	-0.35006875
1	0xbe8ddd16	-0.27707738
2	0xbe890af8	-0.2676618
3	0xbe93d977	-0.2887685
4	0xbe87c26a	-0.26515514
5	0xbde99950	-0.11406195
6	0xbeaa8432	-0.33303982
7	0xbe07255a	-0.13197842
8	0xbd38c711	-0.04511172
9	0xbbeee480	-0.007290423
10	0xbe9c6a8a	-0.30550033
11	0xbe7c8d2b	-0.24663226
12	0xbd281a5b	-0.04104076
13	0xbe0c1d5c	-0.13683075
14	0xbe964da3	-0.29356107
15	0xbe92ccc5	-0.28671852
16	0xbdf3224d	-0.11871777
17	0x3c37e1c9	0.011223265
18	0xbe7f5562	-0.24934915
19	0xbe6846b1	-0.22683217
20	0xbe2a2a2b	-0.16617648
21	0xbe5e1139	-0.21686257
22	0xbd2b919f	-0.041886922
23	0xbe97a207	-0.29615805
24	0xbb74b7b0	-0.0037340932
25	0xbd8f18ac	-0.06987128
26	0xbe5ca99f	-0.2154908
27	0xbe1bdec1	-0.15221693
28	0xbd146caf	-0.03623646
29	0xbe924d63	-0.28574666
30	0xbeb78710	-0.35845232
31	0xbd41fe17	-0.04736146
32	0xbe8533f4	-0.260162
33	0xbdf9b990	-0.12193596
34	0xbcfe7651	-0.031062277
35	0xbe64b4f6	-0.22334656
36	0xbe2f4b34	-0.17118531
37	0xbdeb7bfe	-0.11498259
38	0xbe870b35	-0.26375738
39	0xbc41d3db	-0.011830295
40	0xbe1d3c0d	-0.15354939
41	0xbe05ecce	-0.13078615
42	0xbe10a2f3	-0.1412466
43	0xbd50688c	-0.050880954
44	0xbe94004f	-0.28906485
45	0xbe43f778	-0.1913737
46	0xbe4bcc19	-0.19902076
47	0xbe32505c	-0.17413467
48	0xbb79a3f2	-0.0038092104
49	0xbcca718d	-0.024712348
50	0xbeaab6ac	-0.33342493
51	0xbe8665ba	-0.26249486
52	0xbda2b955	-0.079455055
53	0xbd1c3e76	-0.038145505
54	0xbe3d1b63	-0.18467478
55	0xbe11485b	-0.14187758
56	0xbe1b7882	-0.15182689
57	0xbe286d81	-0.16448022
58	0xbe198745	-0.14993007
59	0xbe60c74f	-0.2195103
60	0xbdf00e53	-0.11721482
61	0xbe83a790	-0.25713778
62	0xbe05f326	-0.13081035
63	0xbd551d52	-0.052029915

model.4.weight f4 [3, 64]
0	0xbda42731	-0.08015288
1	0xbca5c156	-0.020233791
2	0xbc01b9e0	-0.007917851
3	0x3e1dbd8b	0.15404336
4	0xbd822b5f	-0.06355929
5	0x3dcd34b7	0.1001982
6	0xbee09dc7	-0.43870375
7	0x3e0d08d4	0.13772899
8	0x3d40a0f8	0.04702851
9	0x3e27a4b4	0.16371423
10	0xbdc157e0	-0.09440589
11	0x3b3f355a	0.0029176087
12	0x3d68ffec	0.05688469
13	0xba905011	-0.001101019
14	0x3e1f37d5	0.15548642
15	0x3ddfbb54	0.10924402
16	0x3d0287bb	0.031867724
17	0x3ca46f9f	0.020072756
18	0xbcfc2173	-0.030777669
19	0x3de36c84	0.11104682
20	0x3d92edc5	0.07174257
21	0x3defe668	0.117138684
22	0x3d8ef650	0.06980574
23	0x3d70206c	0.05862467
24	0x3e126a0a	0.14298263
25	0x3c2c22f6	0.010506382
26	0x3ab989b1	0.0014155415
27	0x3bd4d130	0.0064946637
28	0x3dfee634	0.124462515
29	0x3e1129d2	0.1417611
30	0x3c763661	0.015027613
31	0x3d4f83aa	0.050662674
32	0x3d7eb758	0.06218657
33	0x3dc2046e	0.09473501
34	0x3daa6a9c	0.083211154
35	0x3dde1c1e	0.10845207
36	0xbe4c659a	-0.19960633
37	0x3de2486d	0.1104897
38	0x3e23db6f	0.16001676
39	0x3d9d02dd	0.07666562
40	0x3dbaafc1	0.09115554
41	0x3d96b29a	0.07358284
42	0x3db2fa2f	0.08739125
43	0x3f8f9df1	1.1220075
44	0x3c2204d5	0.009888847
45	0xbdb8d90e	-0.09025775
46	0x3dc32b1f	0.09529709
47	0x3d7f71a6	0.062364243
48	0x3c872892	0.016498838
49	0x3c7ee86e	0.015558345
50	0x3dbd4fc9	0.092437334
51	0x3e169576	0.14705452
52	0x3e2bd714	0.16781265
53	0x3e116f76	0.14202675
54	0x3c1c8c86	0.009554988
55	0x3e184ff3	0.14874248
56	0x3e31ef5b	0.17376463
57	0x3d9e6513	0.07734122
58	0xbdc678f1	-0.096910365
59	0x3c42d97a	0.011892671
60	0xbe827c8c	-0.25485647
61	0x3db1f50a	0.086893156
62	0x3e10b438	0.14131248
63	0x3e13a6bb	0.14419071
64	0x3d4f3bb1	0.050594036
65	0x3cfdac61	0.030965986
66	0x3cf770df	0.030205188
67	0x3cb38b17	0.02191691
68	0x3da659b7	0.081225805
69	0xbdb38dd8	-0.08767289
70	0xbebd895a	-0.37018853
71	0x3df792f4	0.12088576
72	0x3d56e646	0.0524657
73	0x3dd70e99	0.10500831
74	0x3d9bbfaf	0.0760492
75	0x3b8f3d58	0.0043713264
76	0x3e036e91	0.12835146
77	0x3c369aa0	0.011145264
78	0x3da3b927	0.079942994
79	0x3d83fb19	0.064443775
80	0x3dd52e60	0.10409236
81	0x3e0c814b	0.13721196
82	0x3cbd67f2	0.023120854
83	0x3d0cfe15	0.034422
84	0xbd806468	-0.06269151
85	0x3dca3172	0.09872712
86	0xbcd82bfe	-0.026388165
87	0xbe07d654	-0.13265353
88	0x3dcac0c6	0.0990005
89	0x3b8a8df8	0.00422835
90	0x3ce12e0d	0.027487779
91	0x3e26d26d	0.16291209
92	0x3bd2cbdf	0.0064329947
93	0x3d2d64ce	0.042332463
94	0x3dd9a3c4	0.10626939
95	0x3e07dbe7	0.1326748
96	0xbdb2e954	-0.0873591
97	0xbdea5a14	-0.11442962
98	0xbd3b77e0	-0.04576862
99	0x3dd3526b	0.10318454
100	0xbda4484d	-0.08021603
101	0xbce37320	-0.027764857
102	0x3d2b6d61	0.04185236
103	0x3d1c4c4d	0.038158704
104	0x3e0c7093	0.13714819
105	0x3dce1a12	0.10063566
106	0xbd90adeb	-0.07064422
107	0x3f9041ec	1.1270118
108	0xbc5bd5c9	-0.01341767
109	0x3da7eed0	0.08199847
110	0x3de7255d	0.11286423
111	0x3d7f56f8	0.0623388
112	0x3d743ed5	0.059630234
113	0x3dec919f	0.115512125
114	0x3e071079	0.13189878
115	0x3dd04173	0.101687334
116	0x3c80f41d	0.015741402
117	0xbcdd682e	-0.027027216
118	0x3d30679e	0.043067567
119	0x3d0692d2	0.032854863
120	0x3de370ff	0.11105537
121	0x3e09ffa0	0.1347642
122	0x3dd2dcfb	0.10296055
123	0x3d84b40d	0.064796545
124	0xbe97deaa	-0.29662067
125	0x3d994f3b	0.07485815
126	0x3c2bcda2	0.010486038
127	0x3ba10b35	0.004914666
128	0xbd332445	-0.04373576
129	0x3d2d9ad1	0.042383973
130	0xbc200c7f	-0.009768604
131	0x3dc70a88	0.097188056
132	0x3ceef703	0.029170519
133	0xbdffeb73	-0.1249608
134	0xbe55ccf4	-0.20878965
135	0x3df8995a	0.121386245
136	0x3d7aab2b	0.061198395
137	0xbd93c676	-0.07215588
138	0x3db3d868	0.087815106
139	0xbdc20d69	-0.09475214
140	0x3dd6eb95	0.104941525
141	0x3dfe73f2	0.124244586
142	0x3db6a0da	0.08917399
143	0x3db13fdf	0.086547606
144	0x3d464aff	0.048411366
145	0x3da3cb34	0.07997742
146	0xbd3e0596	-0.046392046
147	0x3dd2547d	0.10270021
148	0x3d4a99c1	0.049463037
149	0x3daa8cba	0.08327623
150	0x3db58c96	0.08864705
151	0xbd4f0a8a	-0.05054716
152	0xbd07640b	-0.033054393
153	0xbd874b4e	-0.0660616
154	0xbd97159b	-0.07377168
155	0x3d194d27	0.037427094
156	0x3db5112c	0.08841166
157	0x3da054e5	0.07828692
158	0x3d9e7888	0.07737833
159	0x3d9fb92f	0.07798993
160	0xbda1e3e0	-0.07904792
161	0xbde1b853	-0.11021485
162	0xbdfba84d	-0.1228796
163	0x3dfdfa79	0.124012895
164	0x3eb0a609	0.34501675
165	0x3d9f05ab	0.07764753
166	0x3de55fa8	0.111998856
167	0xba0e3206	-0.0005424324
168	0x3d60b31a	0.054858305
169	0x3dcd49ce	0.10023843
170	0xbe04a2c4	-0.12952715
171	0x3f9322b5	1.1494967
172	0x3c6c46ac	0.014421146
173	0x3d4db0dc	0.050217494
174	0x3a8b0939	0.0010607607
175	0x3d3449e9	0.0440158
176	0x3d801cd6	0.062555
177	0x3d82d8c5	0.06389002
178	0x3d99ae02	0.075038925
179	0x3dda145d	0.10648415
180	0x3bb22ab8	0.0054372214
181	0x3d1b9ee3	0.037993323
182	0x3ddfadad	0.10921798
183	0x3db063a1	0.08612753
184	0x3baeaf50	0.0053309575
185	0x3dd98c24	0.10622433
186	0x3d95be79	0.073117204
187	0xbd8f0860	-0.06984019
188	0xbdb66de6	-0.0890768
189	0x3d6976c0	0.056998014
190	0xbd8e5600	-0.06949997
191	0x3dd36253	0.10321488

model.4.bias f4 [3]
0	0xbe334329	-0.17506088
1	0xbe303cf3	-0.1721075
2	0xbe753b66	-0.2394844
