trained_value_function.pt (torch, 24244 bytes, 8 tensors)

trunk.0.weight f4 [64, 3]
0	0x3f55f39b	0.8357484
1	0x3f760b2c	0.96110797
2	0x4137a362	11.477388
3	0x3ed90985	0.42390075
4	0x3f6f1b43	0.93400973
5	0x41474042	12.453188
6	0xbd0015bd	-0.03127073
7	0x3ede85f1	0.43461564
8	0x413183a0	11.094635
9	0x3f2e7309	0.6814428
10	0x3f48c3ef	0.7842397
11	0x4143730e	12.21559
12	0x3f38a600	0.72128296
13	0x3f996fa2	1.1987193
14	0x4148d32e	12.551558
15	0xbe78926f	-0.2427461
16	0xbf3f096c	-0.7462375
17	0x408aae1d	4.333754
18	0x3f299ff9	0.66259724
19	0x3f886b20	1.0657692
20	0x4150037a	13.000849
21	0xbe42a207	-0.19007121
22	0xbf41b00a	-0.7565924
23	0x4134d207	11.301276
24	0xbf2cfd42	-0.6757394
25	0xbf093880	-0.5360184
26	0x412cd7ad	10.802655
27	0x3e9f0ee7	0.31066057
28	0x3f74dee0	0.9565258
29	0x4138c250	11.54744
30	0x3f03bbeb	0.51458615
31	0x3f678024	0.904299
32	0x41346c12	11.276384
33	0x3f3214ba	0.69562876
34	0x3f589f61	0.8461819
35	0x413fe5f6	11.993643
36	0x3e9cf056	0.30652112
37	0x3f79d082	0.9758378
38	0x413feabc	11.994808
39	0xc0d41ae5	-6.628283
40	0xc0e4d4d5	-7.1509805
41	0xc1443d1d	-12.26492
42	0x3f843022	1.0327189
43	0x3f84fbfd	1.0389401
44	0x4147419f	12.453521
45	0x3ed101a1	0.40821555
46	0x3ff9944f	1.9498385
47	0x40d37846	6.608432
48	0x3ef5fff8	0.4804685
49	0x3f855ad8	1.0418348
50	0x414852de	12.520231
51	0xbdffc4fd	-0.124887444
52	0xc08fc420	-4.492691
53	0x40f927b5	7.786097
54	0xbeb50b39	-0.35360125
55	0xbfa5632b	-1.2920889
56	0x413012c9	11.004586
57	0x3ed05e63	0.4069701
58	0x3f3d11e8	0.7385545
59	0x413d6761	11.837739
60	0x3d4b15e7	0.049581435
61	0x3f10f74b	0.5662734
62	0x412a97a4	10.662022
63	0x3f18176a	0.5941073
64	0x3f7dce25	0.99142677
65	0x413e29aa	11.885172
66	0x3e052e8b	0.13006036
67	0x3efd7607	0.4950411
68	0x413b9680	11.724243
69	0xbe38041b	-0.17970316
70	0xc083afce	-4.1152105
71	0x41152c28	9.32328
72	0x3ec4a480	0.38406754
73	0x3f46a082	0.77588665
74	0x41443c54	12.264729
75	0xbfc0f9a9	-1.507619
76	0xbf3dfc0a	-0.74212706
77	0x412022db	10.00851
78	0xbc5b13c4	-0.013371412
79	0xbfbe9b55	-1.4891154
80	0xc0b19616	-5.549571
81	0x3f7a3d6d	0.9774998
82	0xc0f8e4be	-7.7779226
83	0x40ecb0d2	7.3965845
84	0x3ef1c247	0.47218534
85	0x3f2ae116	0.66749704
86	0x413dd8c6	11.865423
87	0x403dfb81	2.9684756
88	0x40946ceb	4.6382957
89	0x402d7820	2.7104568
90	0xbf21af05	-0.63157684
91	0xbc8501a9	-0.016236143
92	0x41297dbb	10.593196
93	0x3ed0b1d2	0.40760666
94	0x3e2fd011	0.17169215
95	0x41371a8a	11.443979
96	0x3f4b342b	0.79376477
97	0x3f5f67b0	0.8726759
98	0x413c6787	11.775275
99	0xbe8f3ec9	-0.2797759
100	0x3f3ef2ca	0.74589217
101	0x412988ab	10.595866
102	0x3f97ed41	1.1869279
103	0x40107534	2.2571535
104	0x4142d78b	12.177623
105	0x3ed5137f	0.41616437
106	0x3ec899b9	0.3917978
107	0x413825ff	11.509276
108	0xbdbdf279	-0.092747636
109	0x3e6ae2eb	0.22938125
110	0x412f5625	10.958531
111	0x3eba1403	0.36343393
112	0x3d2751f2	0.040849634
113	0x4144a5fc	12.290524
114	0xbf09015e	-0.5351771
115	0xc0502e31	-3.2528193
116	0x411dfa41	9.873597
117	0xbeaab99a	-0.33344728
118	0x3eb522ce	0.35378116
119	0x411f5bcd	9.959912
120	0xbf465d4d	-0.77486116
121	0xbff145ca	-1.8849423
122	0x410182f5	8.094472
123	0x3e643d25	0.2228895
124	0x3ec3dd1a	0.38254625
125	0x412d4c11	10.831071
126	0xbee9402c	-0.45556772
127	0xbe498bde	-0.19682261
128	0x41096619	8.587426
129	0x3f5fdea5	0.87449104
130	0x3fd70f1c	1.6801486
131	0x415055e8	13.020973
132	0xbf2f7c85	-0.68549377
133	0x3d152d2c	0.036420032
134	0x4125c00f	10.359389
135	0x3f1848a2	0.5948583
136	0x3f5771ab	0.8415782
137	0x4142eb8c	12.182507
138	0x3eb55a12	0.3542028
139	0x3f419d3d	0.7563055
140	0x41449674	12.286732
141	0x3c9d502f	0.019203274
142	0xbea85ab3	-0.32881698
143	0x40f23bb5	7.5697885
144	0x3eb89434	0.3605057
145	0x3f79a578	0.9751811
146	0x414ac675	12.673451
147	0xbf4d74ed	-0.8025654
148	0xbfca2546	-1.5792625
149	0xc0b2f4c0	-5.5923767
150	0x3f3c815b	0.7363488
151	0x3f9b2226	1.2119796
152	0x414c6a7a	12.775995
153	0x3eb6031b	0.35549244
154	0xbe363104	-0.17792135
155	0x4105be83	8.359012
156	0x3ddb0533	0.10694351
157	0xc09defc5	-4.9355187
158	0x40fc105b	7.8769965
159	0x3f9410cb	1.1567625
160	0x40048aea	2.0709786
161	0x414dac27	12.854529
162	0xbde83546	-0.11338286
163	0x3f0a09ed	0.53921396
164	0x412cdd85	10.804082
165	0x3fae238c	1.3604598
166	0x3fe3128e	1.7740037
167	0x4157a69b	13.478175
168	0x3dafc26b	0.08582004
169	0x3f36967c	0.7132337
170	0x4141f79b	12.122951
171	0x3ed77b2a	0.42086154
172	0x3f8986a1	1.074421
173	0x413ebf66	11.921728
174	0x3e1437ab	0.1447436
175	0x3f623c8b	0.8837363
176	0x41381956	11.506186
177	0x3f1341dd	0.57522374
178	0x3f84c313	1.0372032
179	0x40e00131	7.0001454
180	0xbf42fc5d	-0.76166326
181	0xbedbdfcf	-0.4294419
182	0x4117f6f6	9.497793
183	0x3e3b4147	0.1828662
184	0x3f0a2c7b	0.5397412
185	0x41394e0d	11.581555
186	0x3e25a223	0.16175131
187	0x3e8993c4	0.2687055
188	0x41322105	11.133061
189	0xbe816322	-0.25270945
190	0x3dbbd46d	0.091713764
191	0x41323a3c	11.139217

trunk.0.bias f4 [64]
0	0xbdda2df1	-0.10653294
1	0xbdd7d707	-0.1053906
2	0xbdfbf3a2	-0.12302329
3	0xbe56adad	-0.2096469
4	0xbdc92da6	-0.0982316
5	0x3ff16def	1.8861674
6	0xbe189151	-0.14899184
7	0xbdf2e817	-0.11860674
8	0x3d11e37a	0.03561733
9	0x3d2b9dea	0.041898645
10	0xbdcec45a	-0.10096045
11	0xbe115018	-0.1419071
12	0xbdd3ca17	-0.1034128
13	0x3fd5d2cd	1.6704956
14	0xbe701587	-0.23445712
15	0x40541406	3.3137221
16	0xbdf423b8	-0.11920875
17	0x3f738409	0.95123345
18	0xbdca5e8e	-0.09881316
19	0xbdd3c265	-0.10339812
20	0xbe3e13e0	-0.18562269
21	0xbe810d29	-0.25205353
22	0xbdc45836	-0.095871374
23	0x3eea254b	0.45731577
24	0xbe428355	-0.18995412
25	0xbe58439d	-0.21119542
26	0x400ab2aa	2.1671548
27	0x3fafa0b4	1.3720918
28	0xbe34f0d2	-0.1766999
29	0x4077da50	3.8726997
30	0x3d2d7253	0.042345356
31	0xbe384683	-0.17995648
32	0xbe98982e	-0.29803604
33	0x3e83b122	0.2572108
34	0x3f13b0ad	0.5769146
35	0xbe15fc3d	-0.14647003
36	0xbdff307f	-0.12460422
37	0xbe1b2d15	-0.15153916
38	0x3e4bdc20	0.1990819
39	0x3eb20ff8	0.34777808
40	0x3f695e5a	0.91159594
41	0xbd3a14bd	-0.045429934
42	0x3f8a8c67	1.0824097
43	0x3d2df8ba	0.042473532
44	0x3e6de747	0.23232757
45	0xbe41430c	-0.18873233
46	0xbe229e7f	-0.15880774
47	0x3fc17b76	1.5115802
48	0xbda6b7cd	-0.08140526
49	0x400d11aa	2.2042031
50	0xbde8a2b2	-0.11359157
51	0x3f067276	0.52518404
52	0x3f6f82d1	0.93558985
53	0x3e9ae5fd	0.30253592
54	0x3e40c1a9	0.18823875
55	0xbce1b15f	-0.027550397
56	0xbd22bd29	-0.03973118
57	0xbde4ba61	-0.111683615
58	0xbd499c41	-0.04922128
59	0x40346a5f	2.8189924
60	0x3f1757aa	0.5911814
61	0xbe12e611	-0.14345576
62	0xbe052c36	-0.13005146
63	0xbe05e361	-0.1307502

trunk.2.weight f4 [64, 64]
0	0x3f088eb8	0.5334277
1	0x3f617bd5	0.8807958
2	0xbd163854	-0.036674812
3	0x3ed2caf8	0.41170478
4	0x3fa8d3fe	1.3189695
5	0x3e03db28	0.1287657
6	0x3fab17e5	1.3366667
7	0x3e2ba6db	0.16762869
8	0x3e29b0cd	0.1657135
9	0x3f1244bf	0.5713615
10	0x3ee9968c	0.4562267
11	0x3f6d4fa0	0.92699623
12	0x3f426690	0.7593775
13	0xbffc2b8d	-1.9700791
14	0x3f49e47f	0.7886428
15	0x3e6b7dd0	0.22997212
16	0x3f2031df	0.625761
17	0x3e3108b0	0.1728847
18	0x3b6e0f43	0.0036325015
19	0x3f0c0ddf	0.54708666
20	0xbe2760f8	-0.16345584
21	0x3d7a7e72	0.061155744
22	0x3e7b46f9	0.24538793
23	0x3ed04127	0.40674707
24	0x3eae9b53	0.34102878
25	0xbf1dfb4f	-0.6171159
26	0xbf8377e6	-1.0270965
27	0x3f0319db	0.5121133
28	0x3e98d0b2	0.29846722
29	0x3e50dbc6	0.20396337
30	0xbe342701	-0.17593004
31	0x3e2e3341	0.1701174
32	0x3e2f1868	0.17099154
33	0x3eb66af1	0.35628465
34	0x3fdc15a5	1.7194105
35	0x3eb4bbff	0.3529968
36	0x3b8f722d	0.0043776245
37	0x3ef3c8af	0.47614047
38	0x3e58883f	0.21145724
39	0xbd8b4711	-0.06800664
40	0xbd2bd4ef	-0.041951116
41	0xbe2fdb34	-0.17173463
42	0x3dd725fc	0.10505292
43	0x3fe0a264	1.7549558
44	0x3e0d1b52	0.13779953
45	0x3f2320b4	0.63721776
46	0x3ea94c65	0.33066097
47	0xbe7040a2	-0.23462155
48	0x3f703144	0.93825173
49	0xbf9c602d	-1.221685
50	0x3fb36da0	1.401783
51	0xbe9d28a5	-0.30695072
52	0x3ef5a76f	0.47979304
53	0x4002cdda	2.0438142
54	0x3e825d0b	0.2546161
55	0x3ffe40cc	1.9863524
56	0x3f411068	0.7541566
57	0x3f0d8e8a	0.5529562
58	0x3f1a43c2	0.6025964
59	0x3dca59b7	0.09880393
60	0x3c5c4089	0.013443121
61	0x3e00a729	0.12563767
62	0x3e7ff1d3	0.24994592
63	0xbddc314d	-0.10751591
64	0x3f59c926	0.85072553
65	0x3f06f81c	0.52722335
66	0xbedfa9bf	-0.43684193
67	0x3ddaaeb8	0.10677856
68	0x3fa7c48a	1.3106854
69	0x3d8de870	0.069290996
70	0x3f74cfa4	0.95629334
71	0xbebab84f	-0.3646874
72	0xbeb274a1	-0.34854606
73	0x3f05ad4e	0.52217567
74	0x3edf8c74	0.43661845
75	0x3ef23f2b	0.47313818
76	0x3f061eb1	0.5239058
77	0xc0075d05	-2.1150525
78	0x3f032a3c	0.5123632
79	0x3f44f67b	0.769386
80	0x3f1c41f4	0.61038136
81	0xbe1b72a3	-0.15180449
82	0xbe83105f	-0.25598428
83	0x3ec86fb4	0.39147723
84	0xbed6c538	-0.4194734
85	0xbdad042b	-0.084480606
86	0xbd3a103e	-0.045425646
87	0x3e1c4084	0.15258986
88	0xbe2b295e	-0.16714999
89	0xbf499daa	-0.787562
90	0xbf5c1586	-0.8597034
91	0xbe3a6356	-0.18201956
92	0xbe003036	-0.12518391
93	0x3fbb1aa4	1.4617505
94	0xbf0a22e2	-0.53959477
95	0xbdff8968	-0.1247738
96	0xbda5e458	-0.08100194
97	0x3ec7be26	0.3901226
98	0x40286dc8	2.6317005
99	0xbc71a94f	-0.014749839
100	0xbee671d7	-0.45008728
101	0x3c06580c	0.008199703
102	0xbe59018e	-0.21192
103	0xbdfef82c	-0.12449679
104	0xbf207731	-0.6268187
105	0xbec21d32	-0.379129
106	0xbe9d5f37	-0.30736706
107	0x400ded22	2.2175984
108	0xbe19cbe7	-0.15019189
109	0x3eb10cf7	0.34580204
110	0x3d895760	0.067061186
111	0xbefc0b1d	-0.4922723
112	0x3ef80042	0.48437697
113	0xbf8c0322	-1.0938456
114	0x3f91b686	1.1383827
115	0xbed5e1de	-0.41773885
116	0xbd9c92db	-0.07645198
117	0x402384e8	2.554987
118	0xbbeb32f8	-0.007177707
119	0x400ebca3	2.2302635
120	0x3eaabe40	0.33348274
121	0x3f33892e	0.70131195
122	0x3ecf879d	0.40533152
123	0x3eb15fae	0.3464331
124	0xbe278ac8	-0.16361535
125	0xbe8d3a92	-0.27583748
126	0xbe13b3af	-0.14424013
127	0xbed69cec	-0.41916597
128	0x3eaa9309	0.33315304
129	0xbfac5731	-1.3464109
130	0xbf6b9efb	-0.9203946
131	0xbfd0d70e	-1.631563
132	0xbf5b6a5c	-0.85709167
133	0x4032ae75	2.791898
134	0xbfe0a12a	-1.7549183
135	0xbfd2e476	-1.6475971
136	0xbf98a283	-1.1924595
137	0xbebeea22	-0.37288004
138	0xbd826bbe	-0.063682064
139	0xbf7c48bf	-0.985485
140	0xbf812ce1	-1.0091821
141	0x409d5fb3	4.917932
142	0xbfa03f69	-1.2519351
143	0x401dc1e2	2.4649587
144	0xbf9f269a	-1.2433655
145	0x3ede3f5d	0.43407717
146	0xbfbd0f38	-1.4770269
147	0xbf97f790	-1.1872425
148	0xbe5542cc	-0.20826262
149	0xbf8adf8f	-1.0849475
150	0xbfb426f9	-1.4074394
151	0xbece0f5e	-0.402461
152	0xbffb6368	-1.9639711
153	0xbed572c4	-0.41689122
154	0x4088c53a	4.2740755
155	0x3f050dbb	0.51974076
156	0xbfa168d8	-1.2610121
157	0x4069c144	3.652421
158	0xbf3cc8fe	-0.7374419
159	0xbfb038b2	-1.3767302
160	0xbf8bcabf	-1.0921248
161	0x3e1c23a6	0.15247974
162	0x3fdce189	1.7256328
163	0xbf982d9e	-1.1888921
164	0xbf74110f	-0.9533853
165	0xc01e5020	-2.4736404
166	0xbf54cd89	-0.8312612
167	0x3e37fbe3	0.17967181
168	0x3f1f98cd	0.6234253
169	0xbf1c8ed3	-0.6115543
170	0x3f33ba19	0.7020584
171	0x3dfe3bdf	0.12413763
172	0xbf06b4ce	-0.52619636
173	0xbfc3d199	-1.5298339
174	0xc00019dc	-2.0015783
175	0x3f8629d0	1.048151
176	0xbfc839d3	-1.5642647
177	0x40928b41	4.579499
178	0xbf84c847	-1.037362
179	0x3f063ceb	0.52436703
180	0x3f1186fa	0.5684658
181	0x3f68966f	0.90854543
182	0xbebc2c7b	-0.36752686
183	0x3d5922d8	0.053011745
184	0xbff6cba1	-1.9280893
185	0xbf195d7f	-0.5990829
186	0xbf46f0de	-0.77711284
187	0x3ff265ea	1.8937352
188	0x3cdb237c	0.026750319
189	0xbfa1df8c	-1.2646346
190	0xbf918d28	-1.1371202
191	0xbf99c3f1	-1.2012922
192	0xbfde932d	-1.7388664
193	0xbfea13fe	-1.8287351
194	0xbf53dffc	-0.8276365
195	0xbfb91649	-1.4459926
196	0xc005d87e	-2.0913386
197	0x4069b3bb	3.6515949
198	0xc01e573c	-2.4740744
199	0xbdfed103	-0.124422096
200	0xbb455d1b	-0.003011531
201	0xbf5d17b4	-0.86364293
202	0xbfd6c5b2	-1.6779082
203	0xbfdd1f76	-1.7275226
204	0xbff25a82	-1.8933871
205	0x40c8c1b6	6.2736464
206	0xbfecd5e1	-1.8502771
207	0x400412a9	2.063639
208	0xbfd9de33	-1.7020935
209	0x400e7d4d	2.2263978
210	0x3c65bff0	0.014022812
211	0xbfa636eb	-1.298551
212	0xbf24489b	-0.6417329
213	0xbfc0de6a	-1.5067875
214	0xbf58b493	-0.84650534
215	0x3ff40e5d	1.9066883
216	0xbfc192c7	-1.5122918
217	0xbd8e1303	-0.0693722
218	0x40ae049c	5.4380627
219	0x40277d1b	2.6170108
220	0xbfa543bc	-1.2911296
221	0x3ff16c41	1.8861161
222	0xbd43d56a	-0.04781095
223	0xbeddd511	-0.4332662
224	0xbfcf2bfb	-1.6185297
225	0xbf0b4acd	-0.5441101
226	0xc0012206	-2.0177016
227	0xbf4a428b	-0.79007787
228	0xbf19826e	-0.59964645
229	0xbf4bcb8e	-0.79607475
230	0x3fa18570	1.2618847
231	0x3ef65480	0.48111343
232	0x3fcdda88	1.6082315
233	0x3d244b5d	0.040110935
234	0x3fd2f6f5	1.6481615
235	0xc021e23e	-2.5294337
236	0x3ebf93b7	0.37417385
237	0xbfe4bcb9	-1.7870094
238	0xbfb068ef	-1.3782023
239	0x3fa6b93c	1.3025279
240	0xbfe71339	-1.8052741
241	0x40b2b859	5.5850034
242	0xc009d35a	-2.1535249
243	0x3f477c88	0.77924395
244	0x40317fe4	2.7734308
245	0xc012ba2c	-2.292613
246	0x3df5fd69	0.12011225
247	0xc02bd029	-2.68458
248	0xbf8bf2f8	-1.0933523
249	0xbfe8ba5f	-1.8181876
250	0xbfb1634e	-1.385843
251	0x3fb1e0bd	1.389671
252	0x3f9e760c	1.2379775
253	0xbf6fe3dc	-0.9370706
254	0xbf58bd84	-0.8466418
255	0xbf004848	-0.5011029

trunk.2.bias f4 [64]
0	0xc0e6b701	-7.2098393
1	0xc08edc21	-4.464371
2	0x4149bcf8	12.608635
3	0x412c362c	10.763226
4	0xc0adfe7e	-5.437316
5	0xc08bcefa	-4.3690157
6	0xc0a45f24	-5.136614
7	0xc12be7a8	-10.744057
8	0xc0caba39	-6.3352323
9	0x41318174	11.094105
10	0xc0cb7133	-6.3575683
11	0xc105a43d	-8.352597
12	0xc1232919	-10.197534
13	0xc0bf12ce	-5.9710455
14	0xc0ae2688	-5.4422035
15	0xc0c7e338	-6.2464867
16	0xc10a7a70	-8.654892
17	0xc09e0b1e	-4.938857
18	0xc09b6d20	-4.857071
19	0xc101b15f	-8.1058035
20	0xc109978f	-8.599502
21	0xc10757fd	-8.4589815
22	0xc0a532e8	-5.162464
23	0xc0b12eea	-5.536977
24	0xc0e24669	-7.071095
25	0x4148922c	12.5356865
26	0xc0d3dc6e	-6.620658
27	0xc0c9286f	-6.2861857
28	0xc0a66451	-5.1997457
29	0xc0cb6cbb	-6.357023
30	0xc0a3ea2b	-5.122335
31	0xc0b10629	-5.532002
32	0xc1153c9d	-9.327298
33	0x413b0509	11.688729
34	0xc0a61c0d	-5.190924
35	0xc0d0e19d	-6.5275407
36	0xc0959c88	-4.675358
37	0xc0fe84f7	-7.953731
38	0xc0f01338	-7.502346
39	0xc0d5e946	-6.6847258
40	0xc11744ec	-9.454327
41	0xc0d5bea4	-6.6795216
42	0xc0c95780	-6.291931
43	0xc0a5c19a	-5.179883
44	0xc0f11a30	-7.5344467
45	0xc0c5a679	-6.1765714
46	0xc0a712f0	-5.2210617
47	0xc0bd31ff	-5.912353
48	0x4103900f	8.222671
49	0xc0bf135a	-5.9711123
50	0xc0b767ad	-5.7314057
51	0xc130dbb4	-11.053638
52	0xc1216b00	-10.088623
53	0xc0c80aa9	-6.2513013
54	0xc0ed9a22	-7.425065
55	0x412e6f2d	10.902143
56	0xc0c383cc	-6.1098385
57	0x41428377	12.157096
58	0xc0e0d3b5	-7.025843
59	0x413f3b7d	11.9520235
60	0xc09c2083	-4.8789687
61	0xc09e2934	-4.9425297
62	0xc121b0a9	-10.10563
63	0xc0936326	-4.605853

value_head.weight f4 [3, 64]
0	0x3f93f18a	1.1558087
1	0x3e9de56d	0.308391
2	0xc126ed7f	-10.432982
3	0xc0eae534	-7.340479
4	0x3f011f92	0.504388
5	0x3df97556	0.12180583
6	0x3ef03568	0.46915746
7	0x3fef1248	1.8677454
8	0x3f668fbe	0.90063083
9	0xc1001af6	-8.006582
10	0x3f53ad88	0.8268666
11	0x3fb2cddf	1.3969077
12	0x402a6a4e	2.6627383
13	0x3f54c3d8	0.83111334
14	0x3f3af627	0.7303185
15	0x3f5e1eb9	0.8676563
16	0x4094a78f	4.645454
17	0x3ee459e2	0.44599825
18	0x3f1ce305	0.61283904
19	0x3fa0e09f	1.2568549
20	0x408e316c	4.443533
21	0x3fab43c7	1.3380059
22	0x3f1ca596	0.61190164
23	0x3f45ee66	0.7731689
24	0x3f95b639	1.1696235
25	0xc1230bf2	-10.190416
26	0x3f82c401	1.0216066
27	0x3f446dca	0.76730025
28	0x3f2387f8	0.63879347
29	0x3f52ccf6	0.82343996
30	0x3ed3e161	0.41382888
31	0x3f3222b7	0.6958422
32	0x3fcdd007	1.607911
33	0xc1025d69	-8.147805
34	0x3f2e8538	0.68172026
35	0x3f6dab5e	0.9283961
36	0x3eb19e66	0.3469116
37	0x3f96118e	1.1724107
38	0x3f9d8556	1.2306316
39	0x3f7e4037	0.99316734
40	0x3fea8467	1.8321656
41	0x3f6dfcda	0.92963946
42	0x3f2de12f	0.6792173
43	0x3f2d4a1f	0.67691225
44	0x3f997cd1	1.1991216
45	0x3f7bd0ed	0.9836567
46	0x3f1ce164	0.6128142
47	0x3f26de4a	0.65182936
48	0xc095c430	-4.6801987
49	0x3f6c1e0d	0.92233354
50	0x3f4ddbd2	0.80413544
51	0x40072f3e	2.1122584
52	0x404c5127	3.1924531
53	0x3f7bb069	0.98316056
54	0x3f8b7b98	1.0897093
55	0xc0f78ef9	-7.7362027
56	0x3f574a04	0.84097314
57	0xc11bdde9	-9.741677
58	0x3f89b812	1.0759299
59	0xc0f884aa	-7.7661943
60	0x3efd94cb	0.49527583
61	0x3ee9bd8f	0.45652434
62	0x40555e13	3.3338668
63	0x3efd15cd	0.49430695
64	0x3f9cc0c0	1.2246323
65	0x3f1029ba	0.5631367
66	0xc10bf424	-8.747105
67	0xc10a8c16	-8.659201
68	0x3f5863db	0.8452737
69	0x3f655342	0.89580166
70	0x3f20f3d9	0.6287208
71	0x3ffe3c99	1.9862243
72	0x3f5bbcac	0.85834765
73	0xc0addc2a	-5.4331255
74	0x3f363f39	0.7119022
75	0x3fb83e05	1.4393927
76	0x403294ff	2.790344
77	0x3f8a70f3	1.0815719
78	0x3f538562	0.826254
79	0x3f5c0ffc	0.8596189
80	0x408d4b59	4.4154477
81	0x3f2319f3	0.6371147
82	0x3f4d2646	0.80136526
83	0x3fbd64e9	1.479642
84	0x408dbcd1	4.429299
85	0x3fbd9024	1.4809613
86	0x3f4581c3	0.77151126
87	0x3f44da9d	0.7689608
88	0x3f497314	0.7869122
89	0xc10e2b01	-8.885499
90	0x3f641a45	0.89102584
91	0x3f2fedd7	0.6872229
92	0x3f313e5f	0.69235796
93	0x3f79e529	0.97615296
94	0x3f330cf7	0.6994166
95	0x3f5ef403	0.8709108
96	0x3fdbf998	1.7185545
97	0xc11611a0	-9.379303
98	0x3f3a7fe4	0.72851396
99	0x3f8fe8ff	1.124298
100	0x3f1aff87	0.60546154
101	0x3fb3376b	1.4001287
102	0x3fa48531	1.2853147
103	0x3f6a6276	0.9155649
104	0x3fee6e06	1.8627326
105	0x3f5e3817	0.86804336
106	0x3f59d0e5	0.8508437
107	0x3f2874f7	0.65803474
108	0x3f9a35ce	1.204767
109	0x3f316080	0.6928787
110	0x3f15bf3c	0.58494925
111	0x3f45aaf3	0.7721397
112	0xc0cf7cac	-6.4839687
113	0x3f4cb9b7	0.7997088
114	0x3f549f9a	0.8305603
115	0x400b5de0	2.1776047
116	0x403c74ff	2.9446409
117	0x3f2dd52f	0.6790342
118	0x3f916659	1.1359359
119	0xc0b11b4a	-5.534581
120	0x3f19ba00	0.6004944
121	0xc10f0645	-8.939031
122	0x3f8244b4	1.0177217
123	0xc113396f	-9.201522
124	0x3f2dcba8	0.6788888
125	0x3f20401b	0.6259782
126	0x4052a2d4	3.2911882
127	0x3f312e69	0.6921144
128	0x3fbb210b	1.4619459
129	0x3fd6b293	1.6773247
130	0xc0e84fa4	-7.2597218
131	0xc12ace42	-10.675356
132	0x3fcf9a24	1.6218915
133	0x3fd3581b	1.6511263
134	0x3fdc83fd	1.722778
135	0x3fea6f42	1.8315203
136	0x3fa05298	1.2525206
137	0xc06fdf98	-3.748022
138	0x3fa7cfb0	1.3110256
139	0x3fb73a15	1.43146
140	0x40109753	2.259236
141	0x3fbb6a02	1.4641726
142	0x3fc6b3d5	1.552363
143	0x3fa064d7	1.2530774
144	0x4080a883	4.0205703
145	0x3fc8694a	1.5657132
146	0x3fe196dd	1.7624165
147	0x3fb65bc1	1.4246751
148	0x40795056	3.8955283
149	0x3fbeff33	1.4921631
150	0x3fc128bd	1.5090557
151	0x3fb73122	1.4311869
152	0x3f8f0783	1.1174167
153	0xc0dc06e3	-6.8758407
154	0x3f962c5b	1.1732286
155	0x3fa95bb8	1.3231115
156	0x3fbecaa8	1.4905596
157	0x3fb3e873	1.4055313
158	0x3fcd2cc9	1.6029292
159	0x3fb27a08	1.3943491
160	0x3fc537f0	1.5407696
161	0xc10e32b5	-8.88738
162	0x3fc22d23	1.5170025
163	0x3fccbef2	1.5995772
164	0x3fda6ed6	1.7065074
165	0x3faf8ca3	1.3714794
166	0x3fa4de0a	1.2880261
167	0x3fa4596c	1.2839789
168	0x3fcf05f4	1.6173692
169	0x3fab96eb	1.3405432
170	0x3f9e46ee	1.2365396
171	0x3fbb2c2c	1.4622855
172	0x3f99e498	1.2022886
173	0x3fb98b89	1.4495708
174	0x3fdb2330	1.7120113
175	0x3fb42482	1.4073641
176	0xc112f3b0	-9.184494
177	0x3fa53885	1.2907873
178	0x3fd44553	1.6583656
179	0x400d524d	2.2081482
180	0x402ae943	2.6704872
181	0x3f9db888	1.232194
182	0x3fb69976	1.4265583
183	0xc07e0bdd	-3.969474
184	0x3f9edf97	1.2411984
185	0xc0fb2363	-7.8480697
186	0x3fb0f735	1.3825442
187	0xc110415b	-9.015956
188	0x3fda9e02	1.707947
189	0x3fda9f34	1.7079835
190	0x40333142	2.7998815
191	0x3fd438e9	1.6579868

value_head.bias f4 [3]
0	0xc0cca1b1	-6.3947377
1	0xc0c7896c	-6.235525
2	0xc0894663	-4.289842

grad_head.weight f4 [9, 64]
0	0x3eef4c40	0.46737862
1	0x3f5575aa	0.83382666
2	0x3ff265d6	1.8937328
3	0xc01e18bf	-2.4702604
4	0x3f16e8c9	0.5894895
5	0x3f54210a	0.82862914
6	0x3ef6fd5f	0.48240182
7	0x3ea6d180	0.3258171
8	0x3e63046a	0.22169653
9	0x403f6e7e	2.991119
10	0xbd6796fe	-0.05654048
11	0x3e2e94fb	0.17049019
12	0xbdc970b3	-0.09835949
13	0x3ee046d0	0.43804026
14	0x3ef03553	0.46915683
15	0x3e86df3e	0.26342195
16	0xbebdf54f	-0.37101218
17	0x3e94d0b0	0.29065466
18	0x3f215eb8	0.63035154
19	0x3ec6891a	0.38776475
20	0xbea123c2	-0.31472594
21	0x3eaa2803	0.33233652
22	0x3ee654fb	0.4498671
23	0x3e8b5e8b	0.27220568
24	0xbebd2527	-0.36942407
25	0x4006de85	2.1073315
26	0x3c957b1e	0.018247183
27	0x3e0344a4	0.12819153
28	0x3e9a0bb7	0.30087063
29	0x3eeb2216	0.45924443
30	0x3eeb5aa3	0.45967588
31	0x3eda81f7	0.4267728
32	0x3e0a3576	0.13496956
33	0xbe5d58ff	-0.2161598
34	0x3e60cbf2	0.21952799
35	0x3efa6ef3	0.48912773
36	0x3f1b7f14	0.6074078
37	0x3e90cc96	0.28281087
38	0x3e5a3aa4	0.21311432
39	0x3e9f8bef	0.31161448
40	0x3dde69de	0.10860036
41	0x3e203f91	0.15649249
42	0xbc843216	-0.016137164
43	0x3e76fb4a	0.24119297
44	0xbcfce069	-0.030868726
45	0xbddf4fa9	-0.10903866
46	0x3ee7b932	0.4525848
47	0x3e8d04f1	0.27542832
48	0xc04ad4f2	-3.1692472
49	0x3d1afb51	0.03783733
50	0x3f1df37d	0.6169966
51	0xbcb86c5a	-0.022512604
52	0xbe9a27de	-0.3010854
53	0xbd889538	-0.06669086
54	0x3e4eedaa	0.20207849
55	0x4017af30	2.3700676
56	0xbd978cf5	-0.07399932
57	0x3fb1fefc	1.390594
58	0x3e6860a5	0.22693117
59	0xbf9d9515	-1.2311121
60	0x3f18bd1a	0.59663546
61	0x3f199f6c	0.60008883
62	0xbed1312e	-0.40857834
63	0x3ee1387f	0.43988416
64	0x3f03ed43	0.5153391
65	0x3f63a69b	0.88926095
66	0x4005c753	2.0902908
67	0xc0183991	-2.3785136
68	0x3f277045	0.65405685
69	0x3f86076f	1.0471019
70	0x3ee3e402	0.44509894
71	0x3e86afd1	0.26306012
72	0x3d59832a	0.053103603
73	0x40326d3f	2.7879179
74	0xbdd59bda	-0.10430117
75	0x3e985ad4	0.29756796
76	0xbdafb4f3	-0.08579435
77	0x3f0026a2	0.5005895
78	0x3ef3add5	0.4759356
79	0x3ea88004	0.32910168
80	0xbec64a25	-0.38728443
81	0x3eb61863	0.3556548
82	0x3f0aa7a0	0.54162025
83	0x3eb7b20d	0.3587803
84	0xbefa5680	-0.4889412
85	0x3e9cb81b	0.3060921
86	0x3e88db0b	0.26729617
87	0x3e762923	0.2403913
88	0xbeb720e4	-0.3576728
89	0x40101d72	2.2517972
90	0xbe4e51dd	-0.20148416
91	0x3e811a8e	0.25215572
92	0x3eb6aa9f	0.3567705
93	0x3ea9fbd9	0.33199957
94	0x3f068c14	0.5255749
95	0x3ea07e63	0.31346425
96	0x3dc6a33a	0.09699102
97	0xbe4fd764	-0.20297009
98	0x3ea51597	0.32243034
99	0x3ee81797	0.45330498
100	0x3f354dd5	0.7082189
101	0x3e9fe40b	0.3122867
102	0x3df7b95f	0.120959036
103	0x3e8ee182	0.27906424
104	0x3e09d0dc	0.1345858
105	0x3e134cb8	0.14384735
106	0x3e5b72d8	0.21430528
107	0x3e1e96e4	0.15487248
108	0x3dbc1d16	0.09185235
109	0xba4df2da	-0.0007856317
110	0x3ed1c887	0.40973303
111	0x3ec4901b	0.38391194
112	0xc04c632c	-3.193553
113	0x3e75f278	0.24018276
114	0x3f212c26	0.6295799
115	0x3dd1274c	0.102125734
116	0xbeacba14	-0.33735716
117	0xbd22e3ba	-0.03976796
118	0x3e966d4f	0.2938027
119	0x400fd352	2.247273
120	0xbd9b581b	-0.07585164
121	0x3fae290b	1.3606275
122	0x3e2e7350	0.17036176
123	0xbf9c0c30	-1.2191219
124	0x3f3bef5f	0.73412126
125	0x3f1acf72	0.60472786
126	0xbe81fd94	-0.25388777
127	0x3efc7c74	0.493137
128	0xbdacfc99	-0.08446617
129	0xbe1a3490	-0.15059114
130	0xbe273eb5	-0.16332515
131	0xbe66b03e	-0.22528169
132	0xb9e0c03d	-0.00042867838
133	0xbe983b35	-0.2973267
134	0xbc898d69	-0.016791062
135	0xbe38d7b1	-0.1805103
136	0x3cda97cc	0.02668371
137	0x3e861176	0.26185197
138	0x3e0d8446	0.1381999
139	0xbe134e5c	-0.1438536
140	0x3c972590	0.018450528
141	0x3d77b8e7	0.06047907
142	0xbcb785ca	-0.022402663
143	0x3d677ffd	0.056518544
144	0x3c52385b	0.012830819
145	0xbd3d4406	-0.04620745
146	0x3bae2fe4	0.0053157676
147	0x3b8230ef	0.0039731185
148	0x3d0b8fa6	0.03407254
149	0xbdc37bc8	-0.09545094
150	0x3ddd6325	0.10809926
151	0x3e1089e3	0.141151
152	0x3e1f933f	0.15583514
153	0xbe0bd40f	-0.13655113
154	0x3d661544	0.056172624
155	0x3e42ef9f	0.1903672
156	0x3e038547	0.1284381
157	0xbce3c507	-0.02780391
158	0x3d3abf84	0.0455928
159	0x3d706e08	0.058698684
160	0xbe59b3c4	-0.21259981
161	0x3eb3605c	0.35034454
162	0x3dcc6488	0.09980112
163	0xbdafc5bd	-0.085826375
164	0xbdb86287	-0.090031676
165	0x3c03bd82	0.008040788
166	0x3df574a1	0.11985136
167	0x3e31d968	0.1736809
168	0xbe0bab07	-0.1363946
169	0x3df5128a	0.11966427
170	0x3d6af70f	0.05736452
171	0x3dd45faa	0.10369809
172	0x3d0efc9a	0.03490887
173	0x3d2d69a9	0.042337094
174	0x3d4d779e	0.050162904
175	0x3dbb19c1	0.091357715
176	0xbd31c2df	-0.043398734
177	0x3e1129e2	0.14176133
178	0xbd0df02e	-0.03465288
179	0xbcaeffae	-0.021362152
180	0xbd05f5b1	-0.032705013
181	0x3dcc8917	0.09987085
182	0x3c426cd2	0.011866765
183	0x3ec1c31c	0.3784417
184	0x3df8b982	0.12144758
185	0xbd129206	-0.03578379
186	0x3d2b29ad	0.041787792
187	0x3df7f1eb	0.12106689
188	0xbe13b6c8	-0.14425194
189	0x3d61145d	0.05495106
190	0x3be10404	0.006866934
191	0x3c8c8986	0.01715542
192	0x3ee6b24d	0.45057908
193	0x3f76bf5f	0.9638576
194	0x4035829e	2.8360972
195	0xc04aebaf	-3.170635
196	0x3f3f3bf7	0.74700874
197	0x3fad7e96	1.3554256
198	0x3f26d4b7	0.6516833
199	0x3e359ef2	0.17736414
200	0x3e4a8d7b	0.19780533
201	0x40835fdb	4.105451
202	0xbdcf0c27	-0.1010974
203	0x3ed95847	0.42450163
204	0xbe1f8947	-0.15579711
205	0x3f12fa44	0.57413125
206	0x3f31bccb	0.694287
207	0x3efbfc7d	0.4921607
208	0xbf0ff8ff	-0.5623931
209	0x3f0857ed	0.53259164
210	0x3f6028b1	0.8756209
211	0x3ee26a63	0.44221792
212	0xbf0c0dcd	-0.5470856
213	0x3e90101a	0.28137285
214	0x3f1cd664	0.61264634
215	0x3f073e52	0.5282947
216	0xbea062ec	-0.3132547
217	0x403b0a2b	2.9224956
218	0xbe166aab	-0.14689128
219	0x3e41006c	0.18847817
220	0x3ef38e8e	0.47569698
221	0x3efa462a	0.48881656
222	0x3ef67b7c	0.48141086
223	0x3ee9f712	0.45696312
224	0x3e9841fe	0.29737848
225	0xbf338392	-0.70122635
226	0x3e958b29	0.29207733
227	0x3f426488	0.7593465
228	0x3f87956f	1.0592479
229	0x3e1c6203	0.15271764
230	0x3d15924a	0.036516465
231	0x3ea7ad98	0.3274963
232	0x3e96589f	0.29364488
233	0x3e54b6ac	0.20772809
234	0x3e329df5	0.17443068
235	0x3f0016a4	0.50034547
236	0x3d4d7287	0.05015805
237	0xbcc1085d	-0.023563558
238	0x3f162825	0.58655006
239	0x3ee05a18	0.43818736
240	0xc08cf7f0	-4.405266
241	0x3e857c06	0.26071185
242	0x3f4e9bb1	0.80706316
243	0x3d91f3dd	0.07126591
244	0xbe8936ae	-0.2679953
245	0xbc9fdb3a	-0.019513715
246	0x3eadce6b	0.33946547
247	0x4052f389	3.2961142
248	0xbe0490aa	-0.1294581
249	0x3ff91804	1.9460454
250	0x3ecb1782	0.39666373
251	0xbfdb32e8	-1.712491
252	0x3f56282f	0.83655065
253	0x3f316f9d	0.69310933
254	0xbed48842	-0.41510206
255	0x3f272a23	0.6529867

grad_head.bias f4 [9]
0	0x4003041a	2.0471253
1	0x400377b5	2.0541813
2	0x3f2b6b8d	0.66960984
3	0x4035a810	2.8383827
4	0x40362e9e	2.8465953
5	0x3f4b79b9	0.7948261
6	0x40645f4c	3.5683165
7	0x406817a9	3.626444
8	0x3eda5ebd	0.42650405
