trained_sup_function.pt (torch, 92413 bytes, 14 tensors)

trunk.0.weight f4 [128, 3]
-0.38282186 0.2344074 -0.40424857 -1.1018301 -1.2476945 -1.3653876 1.1382538 -0.69754493
0.21797022 -0.47048926 -0.99513507 1.0225266 -0.13103415 -0.19034283 0.8635623 -0.75912994
0.034003105 0.1431006 0.76565254 -1.2591683 -0.9626146 1.194763 0.56046593 0.8717711
0.20350844 -0.10006183 -0.49301872 -0.86405164 0.13789147 -0.8696625 -0.7159603 -0.5017338
-1.2217008 0.08741458 1.3064413 -1.1842313 0.16663536 -0.89053947 0.043796327 -0.8313221
-1.2032746 -0.5535713 0.8403148 1.1708844 -1.1476666 -0.03265634 -1.3135592 0.5531993
1.2796746 -0.49736407 0.48529065 -0.75859433 -0.33958897 1.1093167 -0.81469387 -1.1134094
-0.68379056 -0.58511007 -0.75490254 0.9035441 0.4284915 1.0142705 0.6124951 1.4109627
0.78278404 -0.14937457 -0.022443948 -0.42954245 -1.0877105 0.08087161 0.04972587 -0.30528998
-0.0852806 -0.7679341 1.0448524 -1.2017915 1.3219228 1.3559852 -1.0468818 0.38333505
0.1448833 -1.0262225 0.760982 -1.1888263 0.40217626 -1.0767181 -0.30712643 1.2060044
0.08802833 0.8958988 0.5372432 0.6487319 0.20177431 -0.7884706 -0.41393125 -0.21393216
-0.57602364 -0.6867174 0.28006852 0.050767906 0.84904623 -0.29435638 1.0128094 -0.10611845
0.900002 0.2767033 -1.262568 1.0142578 -0.59915435 1.012006 0.008081325 0.8839147
-0.21665798 1.4180954 0.91719013 0.5045393 0.8117402 0.44033223 0.43395445 -1.164729
0.12108799 1.0228628 -0.9867883 1.1721802 0.6840846 -0.14762363 -0.79720294 -1.1813693
-0.9654392 0.08241551 1.2848006 -0.4936586 -1.2095798 -0.9452197 1.3850317 0.40096757
0.96960765 -0.94085807 -0.16686885 0.71089816 -0.366616 -0.42211905 -0.13488843 -0.072501086
-0.93448913 0.9387753 -0.46848914 1.3322235 -0.32786945 1.2446675 1.2766931 0.72380286
-0.1609076 1.3371918 1.2617929 0.24094832 -0.71280605 0.4529899 0.96777314 -0.93716043
-0.41382554 -1.3000929 1.3649968 0.43348077 -0.015200017 -0.7501736 -1.2942168 -0.402935
-0.82082266 1.3452407 0.9259324 0.88924456 -0.8093345 0.3126103 1.1680831 -1.3158177
-1.3784993 -0.07007379 0.018566906 -0.96173203 0.056348007 1.0050573 -0.53515506 -0.25326645
-0.19475895 0.35860476 0.8012733 -1.1431367 -0.16521366 1.3394917 0.3260241 -0.64849627
-0.5832942 0.4715027 0.55390996 -0.13803694 -1.4086634 -1.3628556 0.4938096 0.0086390115
-1.2556598 1.3304809 0.46584535 0.07394456 -0.8472224 0.06425894 0.15646079 0.84915066
-0.23094404 1.0001724 0.00016589541 0.69260186 -0.3359597 0.9249531 1.1136273 -1.3840609
-1.0411692 0.74545085 -0.22267157 -0.78840363 1.0119419 -0.40381983 -0.23810647 -0.52867377
-1.0496943 0.1494613 -1.2401828 0.84634954 0.7166559 0.51635045 -0.89247185 0.50916797
0.9209356 -0.0029630421 1.0188609 0.07230267 -0.6074403 0.6819143 -1.2450283 0.48926628
-0.16198272 0.02371716 -1.4124237 -0.88932353 -0.67029935 0.89546216 0.93254006 0.6478046
1.1894267 -0.6169968 -0.7751626 1.3084227 -0.4926562 0.048012845 0.22273874 0.34999067
00000000: 3a01 c4be 7e08 703e abf9 cebe c508 8dbf
00000010: 74b4 9fbf 05c5 aebf 4db2 913f 4e92 32bf
00000020: 9633 5f3e f8e3 f0be 2cc1 7ebf 27e2 823f
00000030: d12d 06be 3be9 42be 6b12 5d3f 5756 42bf
00000040: d746 0b3d f788 123e ce01 443f 6d2c a1bf
00000050: e96d 76bf feed 983f b27a 0f3f 642c 5f3f
00000060: 8464 503e 37ed ccbd f36c fcbe 7d32 5dbf
00000070: 6c33 0d3e 34a2 5ebf 2d49 37bf a071 00bf
00000080: b160 9cbf 6a06 b33d 7839 a73f e494 97bf
00000090: 76a2 2a3e 65fa 63bf c763 333d 86d1 54bf
000000a0: e704 9abf d9b6 0dbf df1e 573f 8adf 953f
000000b0: bde6 92bf a8c2 05bd b522 a8bf 789e 0d3f
000000c0: 61cc a33f 81a6 febe 0478 f83e 3d33 42bf
000000d0: 9bde adbe 17fe 8d3f c78f 50bf 3384 8ebf
000000e0: e60c 2fbf c6c9 15bf 4b41 41bf ab4e 673f
000000f0: 3d63 db3e 9ed3 813f 7bcc 1c3f 6d9a b43f
00000100: 8964 483f a6f5 18be 5fdc b7bc fdec dbbe
00000110: 193a 8bbf 04a0 a53d 5bad 4b3d f84e 9cbe
00000120: 98a7 aebd 5497 44bf b9bd 853f 4ed4 99bf
00000130: c434 a93f ec90 ad3f 3900 86bf 7e44 c43e
00000140: 4a5c 143e 425b 83bf b7cf 423f 762b 98bf
00000150: 0cea cd3e e6d1 89bf ad3f 9dbe 5a5e 9a3f
00000160: 3248 b43d a059 653f c588 093f 4b13 263f
00000170: ed9d 4e3e 36d9 49bf ccee d3be 0811 5bbe
00000180: 4976 13bf b6cc 2fbf 2465 8f3e 02f2 4f3d
00000190: 185b 593f e1b5 96be bda3 813f a154 d9bd
000001a0: 8866 663f 0eac 8d3e d49b a1bf 33d3 813f
000001b0: 2e62 19bf 6a89 813f 8967 043c 3c48 623f
000001c0: 97db 5dbe 2684 b53f f9cc 6a3f 7d29 013f
000001d0: 35ce 4f3f 3a73 e13e 472f de3e d715 95bf
000001e0: fbfc f73d 2bed 823f 289e 7cbf 000a 963f
000001f0: 2b20 2f3f a62a 17be 7e15 4cbf 1c37 97bf
00000200: 0627 77bf 77c9 a83d 5974 a43f d2c0 fcbe
00000210: 83d3 9abf ebf9 71bf b848 b13f 9f4b cd3e
00000220: 3538 783f 13dc 70bf abdf 2abe 6cfd 353f
00000230: 18b5 bbbe fd1f d8be 3120 0abe 737b 94bd
00000240: ae3a 6fbf 9453 703f cfdd efbe 4d86 aa3f
00000250: 81de a7be 4451 9f3f ae6a a33f 254b 393f
00000260: f6c4 24be 1a29 ab3f 6e82 a13f 28bb 763e
00000270: 757a 36bf 4bee e73e fbbf 773f bfe9 6fbf
00000280: f1e0 d3be 7269 a6bf 37b8 ae3f 31f1 dd3e
00000290: 7e09 79bc 610b 40bf e5a8 a5bf 7f4d cebe
000002a0: 6f21 52bf d930 ac3f e809 6d3f 88a5 633f
000002b0: 8c30 4fbf 750e a03e bf83 953f b76c a8bf
000002c0: aa72 b0bf d982 8fbd a019 983c 1234 76bf
000002d0: 2bcd 663d b8a5 803f ecff 08bf 24ac 81be
000002e0: e46e 47be 0b9b b73e 3f20 4d3f 4e52 92bf
000002f0: c52d 29be 7774 ab3f a1ec a63e da03 26bf
00000300: c552 15bf cd68 f13e 0bcd 0d3f 8e59 0dbe
00000310: 154f b4bf 0d72 aebf 9dd4 fc3e a48a 0d3c
00000320: 76b9 a0bf 334d aa3f 4883 ee3e 3f70 973d
00000330: 91e3 58bf 319a 833d 4237 203e f061 593f
00000340: 987c 6cbe a605 803f 36f4 2d39 5b4e 313f
00000350: e902 acbe bac9 6c3f 578b 8e3f e828 b1bf
00000360: 0845 85bf ded5 3e3f 0404 64be d2d4 49bf
00000370: 5087 813f 79c1 cebe 2fd2 73be 2a57 07bf
00000380: 625c 86bf 620c 193e 4fbe 9ebf 5daa 583f
00000390: c376 373f 8b2f 043f 0979 64bf d558 023f
000003a0: 6fc2 6b3f 992f 42bb 096a 823f 6c13 943d
000003b0: 3581 1bbf f091 2e3f 165d 9fbf 1c81 fa3e
000003c0: ccde 25be 7d4a c23c 4dca b4bf b5aa 63bf
000003d0: bd98 2bbf 023d 653f f2ba 6e3f 86d6 253f
000003e0: 223f 983f 81f3 1dbf 0e71 46bf 657a a73f
000003f0: 6f3d fcbe 1ea9 443d a015 643e fa31 b33e

trunk.0.bias f4 [128]
0.008214063 0.011047065 0.010234219 0.009972846 0.008878291 0.008607276 0.010265282 0.011427858
0.0047630323 0.010981566 0.011213628 0.008310302 0.010329867 0.0072730966 0.010798791 0.012087255
0.009838455 0.008644207 0.0088692885 0.01045022 0.009343308 0.011265776 0.010221801 0.009475707
0.009860507 0.011995675 0.01120984 0.009512177 0.011059386 0.006291174 0.010424189 0.01298226
0.009937302 0.009701836 0.0085736 0.009710353 0.010424941 0.013440401 0.007465844 0.010336191
0.00792095 0.009749858 0.010535176 0.0095942775 0.011629302 0.009236449 0.009373032 0.008328653
0.007504437 0.0068521732 0.0087477565 0.010932163 0.012251813 0.010613768 0.009668249 0.010119107
0.009023288 0.009831604 0.010842775 0.010717723 0.009439574 0.011323471 0.009728909 0.0100882705
0.011732161 0.009704427 0.00858639 0.010876817 0.009866566 0.0076742205 0.009398004 0.0077539077
0.011193641 0.011672589 0.008739001 0.0096826395 0.012299145 0.01174959 0.011406236 0.0095824925
0.008278202 0.009814173 0.013786657 0.009795533 0.010485883 0.010803438 0.008944096 0.009897924
0.0077531957 0.01049821 0.009484604 0.010315041 0.011961571 0.009220253 0.010482753 0.010108364
0.010944016 0.01067393 0.006878344 0.011726694 0.009816662 0.012345624 0.009045125 0.009896331
0.008378948 0.008086411 0.012564385 0.010239878 0.0102277035 0.009753793 0.009251527 0.011834628
0.009811535 0.009667372 0.009749698 0.0067790407 0.0122696385 0.008168708 0.009113876 0.010452113
0.0092754075 0.008425186 0.008784031 0.009387725 0.012526169 0.0118797915 0.0068409787 0.009122121
00000000: 4794 063c c0fe 343c 6dad 273c 2665 233c
00000010: 4076 113c 8805 0d3c b72f 283c e93b 3b3c
00000020: 3613 9c3b 07ec 333c 5db9 373c ef27 083c
00000030: 9a3e 293c 2853 ee3b 6aed 303c 9f09 463c
00000040: 7931 213c 6fa0 0d3c 7e50 113c 6637 2b3c
00000050: ad14 193c 1794 383c 5779 273c ff3f 1b3c
00000060: f78d 213c 8289 443c 7aa9 373c f6d8 1b3c
00000070: 6d32 353c 3126 ce3b 38ca 2a3c 8cb3 543c
00000080: 11d0 223c 73f4 1e3c 4978 0c3c 2c18 1f3c
00000090: 5fcd 2a3c 2135 5c3c 0aa4 f43b 2159 293c
000000a0: dfc6 013c debd 1f3c bb9b 2c3c 5131 1d3c
000000b0: d488 3e3c 7a54 173c 5891 193c e774 083c
000000c0: c8e7 f53b 3288 e03b c052 0f3c d11c 333c
000000d0: d4bb 483c 5fe5 2d3c 9367 1e3c 9cca 253c
000000e0: 6ad6 133c bc14 213c e5a5 313c 6399 2f3c
000000f0: 71a8 1a3c 1486 393c 0066 1f3c 4649 253c
00000100: 4038 403c 51ff 1e3c eead 0c3c ad34 323c
00000110: 61a7 213c 0778 fb3b 16fa 193c 7e14 fe3b
00000120: 8965 373c 633e 3f3c 072e 0f3c efa3 1e3c
00000130: 5a82 493c 5a81 403c 39e1 3a3c e3ff 1c3c
00000140: 4ca1 073c a0cb 203c 6ee1 613c 717d 203c
00000150: fbcc 2b3c e700 313c 428a 123c e72a 223c
00000160: 850e fe3b af00 2c3c 5065 1b3c 6b00 293c
00000170: 77fa 433c 8b10 173c dabf 2b3c 8d9d 253c
00000180: 884e 333c b5e1 2e3c bb63 e13b 5221 403c
00000190: 11d6 203c 4d45 4a3c 0132 143c 3824 223c
000001a0: db47 093c de7c 043c dada 4d3c 29c5 273c
000001b0: 1992 273c 5fce 1f3c b793 173c 07e6 413c
000001c0: 8fc0 203c e663 1e3c 33bd 1f3c b722 de3b
000001d0: 9806 493c 0bd6 053c 5e52 153c 573f 2b3c
000001e0: e1f7 173c cb09 0a3c e5ea 0f3c f9ce 193c
000001f0: 903a 4d3c 75a3 423c 4a2a e03b f374 153c

trunk.2.weight f4 [64, 128]
-0.1791651 -0.1541157 -0.16051687 -0.08309163 0.12446492 0.09869842 0.20384613 0.087110855
-0.19020103 -0.011912642 -0.11475303 0.11504322 0.046986856 0.18595694 0.15056914 -0.20907103
-0.105924346 -0.10914942 0.08482391 -0.006535467 0.104671896 -0.088306814 0.088608414 0.17166118
0.17339246 -0.1507461 -0.15676546 -0.038514104 0.014839847 -0.035846595 -0.16042335 -0.084069036
0.04803341 0.09762948 -0.023566205 0.0652607 0.18552445 -0.08917078 -0.21493475 -0.16799583
-0.14967935 0.15607859 -0.0750074 0.0614863 -0.16364847 0.19587348 0.16481823 0.10138469
-0.028932307 0.005509837 -0.04500705 -0.010726753 -0.06476311 -0.14829797 -0.063571714 0.18857223
0.09438056 -0.13687043 -0.1469788 -0.056968942 -0.031203182 0.10618395 0.08317916 0.1942424
-0.040721633 -0.102504864 0.043755755 0.07583245 -0.08054958 -0.01935526 -0.14999717 -0.14982258
0.15449238 0.13162099 0.13307607 0.040452998 -0.07767307 0.08176108 0.12767678 0.016339866
0.12594716 0.014663128 0.03817902 0.18997602 0.21270305 -0.13961424 0.16980678 -0.04859533
0.10641571 -0.097128294 -0.18316814 0.086357154 -0.0031502238 0.046081807 0.15206477 0.026048591
0.08254397 -0.20562255 0.095234 0.056855984 -0.15061155 0.042159196 0.12278014 -0.082018726
-0.03173674 -0.105742164 -0.00028839425 -0.016382452 0.056515936 -0.031368207 0.1527052 -0.17081912
-0.102356985 0.1161787 0.1985513 0.12353465 0.09596484 0.01987224 0.0034262254 -0.20290715
-0.053707633 -0.15184684 0.19362664 -0.19506148 -0.20029807 -0.036007427 0.15276538 0.032186635
-0.14537902 -0.18344815 0.18412383 0.07241522 -0.056144103 0.034612697 -0.0077238143 -0.17341302
-0.023610745 -0.16176163 0.1672606 -0.010879791 0.04458014 -0.12178748 -0.0108356 0.18932955
0.1408744 -0.19364807 0.18895419 -0.16377458 0.17110938 -0.21341816 -0.101062104 -0.19565396
0.12166175 -0.16851139 0.08876516 0.20670426 -0.061133135 -0.034252644 -0.087601066 -0.20085588
0.07018656 0.17370103 -0.20866682 0.21432295 0.01074679 -0.040771116 0.063931786 0.21272364
-0.056285888 0.085749134 -0.06832791 0.029642249 0.13674007 -0.08315628 0.12587546 0.2063844
-0.029149666 -0.09282015 -0.21552677 0.20852068 -0.19570833 0.08126742 0.19999908 -0.120974086
0.10384131 -0.043549754 0.012784527 0.031297397 0.13303515 0.13382253 -0.13980839 0.04845973
0.08222045 0.13756926 -0.17337327 -0.04398658 -0.007753649 0.019310666 -0.13726537 0.061442744
-0.07217727 0.176527 -0.21132945 -0.1608822 0.20442022 -0.017540054 0.08641829 -0.08817586
0.12263904 0.2159961 -0.010492876 -0.016079735 0.06899484 -0.063442126 -0.10309666 0.05125206
0.021935333 0.008742013 0.09460552 -0.15416823 0.14692411 0.08817036 0.21173842 -0.20962767
0.19103463 0.12655234 0.058559887 0.02509146 0.045753907 -0.21640661 0.091148116 0.19523825
-0.13798939 0.15364444 0.015870329 0.16410941 0.18630202 -0.16402413 0.109034784 -0.08948571
-0.20500913 -0.053292118 -0.021107268 -0.10704769 -0.19604544 -0.095639825 0.12722133 0.1959923
0.052953944 -0.14667301 -0.21210225 0.09200544 0.004976098 -0.13048702 -0.033188388 0.16227841
00000000: 0e77 37be 82d0 1dbe 895e 24be f22b aabd
00000010: 77e7 fe3d 6622 ca3d 0abd 503e 2d67 b23d
00000020: 0fc4 42be 3e2d 43bc a303 ebbd c89b eb3d
00000030: 4a75 403d 7f6b 3e3e cc2e 1a3e b716 56be
00000040: ddee d8bd bb89 dfbd 28b8 ad3d 7927 d6bb
00000050: 385e d63d 34da b4bd 5478 b53d f3c7 2f3e
00000060: cb8d 313e 305d 1abe 2087 20be f7c0 1dbd
00000070: d422 733c e1d3 12bd 0546 24be 632c acbd
00000080: aebe 443d f7f1 c73d ea0d c1bc 67a7 853d
00000090: 1ffa 3d3e 2b9f b6bd db17 5cbe 1907 2cbe
000000a0: 8b45 19be 11d3 1f3e 7b9d 99bd 0fd9 7b3d
000000b0: 7793 27be 0f93 483e 1cc6 283e c7a2 cf3d
000000c0: 7203 edbc dd8b b43b 5059 38bd 43bf 2fbc
000000d0: 85a2 84bd 6cdb 17be e331 82bd 1419 413e
000000e0: 984a c13d c327 0cbe 9c81 16be 4458 69bd
000000f0: d19d ffbc f976 d93d d659 aa3d 7be7 463e
00000100: bacb 26bd 12ee d1bd 3c39 333d 0b4e 9b3d
00000110: 2ef7 a4bd ec8e 9ebc dc98 19be 176b 19be
00000120: 4033 1e3e a7c7 063e 1845 083e 0bb2 253d
00000130: 0f13 9fbd 5a72 a73d b4bd 023e 2fdb 853c
00000140: 4bf8 003e 9e3d 703c 9b61 1c3d 1389 423e
00000150: d4ce 593e 09f7 0ebe d4e1 2d3e e60b 47bd
00000160: 7bf0 d93d 33eb c6bd 6e90 3bbe 05dc b03d
00000170: fc73 4ebb 47c0 3c3d deb6 1b3e db63 d53c
00000180: d00c a93d b88e 52be 0b0a c33d d2e1 683d
00000190: ea39 1abe 1faf 2c3d 2774 fb3d 6ff9 a7bd
000001a0: 62fe 01bd 598f d8bd 9f33 97b9 7e34 86bc
000001b0: 417d 673d f37b 00bd c05e 1c3e 35eb 2ebe
000001c0: 8aa0 d1bd 19ef ed3d 0851 4b3e bcff fc3d
000001d0: 3789 c43d 1ccb a23c 868a 603b e4c6 4fbe
000001e0: 89fc 5bbd bd7d 1bbe 1046 463e 32be 47be
000001f0: f01a 4dbe 867c 13bd 876e 1c3e 22d6 033d
00000200: 3dde 14be d5d9 3bbe f58a 3c3e 6e4e 943d
00000210: 5cf7 65bd 0bc6 0d3d 0d18 fdbb 2f93 31be
00000220: 526b c1bc d7a4 25be 5d46 2b3e 2741 32bc
00000230: aa99 363d b76b f9bd cd87 31bc 9bdf 413e
00000240: 6141 103e ae4b 46be 357d 413e 86b4 27be
00000250: 4c37 2f3e 4a8a 5abe a6f9 cebd 8359 48be
00000260: cc29 f93d 408e 2cbe 82ca b53d 48aa 533e
00000270: bd66 7abd 804c 0cbd 3068 b3bd 2aad 4dbe
00000280: f9bd 8f3d afde 313e c1ac 55be 7a77 5b3e
00000290: 4e13 303c 9dff 26bd abee 823d 3ad4 593e
000002a0: 088c 66bd 3e9d af3d 81ef 8bbd 4dd4 f23c
000002b0: 9705 0c3e d74d aabd 7fe5 003e 6f56 533e
000002c0: 48cb eebc 7e18 bebd 0db3 5cbe 7286 553e
000002d0: c467 48be 886f a63d 8fcc 4c3e 43c1 f7bd
000002e0: c1aa d43d 3a61 32bd 3176 513c b331 003d
000002f0: 5e3a 083e c608 093e ee29 0fbe b67d 463d
00000300: 3263 a83d f5de 0c3e c388 31be 462b 34bd
00000310: 5212 febb 6731 9e3c 4b8f 0cbe 63ab 7b3d
00000320: add1 93bd 7ec3 343e bf66 58be 4ebe 24be
00000330: 8953 513e 29b0 8fbc 13fc b03d 8c95 b4bd
00000340: 2d2a fb3d 152e 5d3e 50ea 2bbc a6b9 83bc
00000350: 2b4d 8d3d f2ed 81bd 5724 d3bd aeed 513d
00000360: bab1 b33c a93a 0f3c 8ac0 c13d 47de 1dbe
00000370: 4673 163e a992 b43d f5d1 583e a3a8 56be
00000380: 959e 433e f096 013e 7edc 6f3d 9b8c cd3c
00000390: 7368 3b3d b299 5dbe ddab ba3d 89ec 473e
000003a0: 174d 0dbe f854 1d3e 7e02 823c 4c0c 283e
000003b0: f5c5 3e3e f1f5 27be a14d df3d 4944 b7bd
000003c0: eaed 51be d648 5abd 26e9 acbc d23b dbbd
000003d0: 23c0 48be d0de c3bd 4f46 023e 35b2 483e
000003e0: 3ce6 583d 7331 16be 5531 59be 596d bc3d
000003f0: 890e a33b 649e 05be 8cf0 07bd 502c 263e

trunk.2.bias f4 [64]
0.008323954 0.00982765 0.01033796 0.010544586 0.01235637 0.01 0.009628761 0.010083885
0.008107517 0.01 0.009009679 0.010599471 0.00930039 0.011878095 0.008609026 0.009560892
0.0071339374 0.010839907 0.009453851 0.008990376 0.010579645 0.006079309 0.008550513 0.009946215
0.0126810465 0.011954488 0.010844186 0.009099879 0.009449773 0.010645081 0.00869241 0.009116823
0.011921913 0.012593305 0.009577367 0.009553769 0.0075163557 0.011972492 0.01071362 0.008194024
0.011125113 0.011263302 0.010206768 0.01 0.010494589 0.010175201 0.009963157 0.00704698
0.009599959 0.009155176 0.009464571 0.009900903 0.008545639 0.011065311 0.008655304 0.009304665
0.007927819 0.010123869 0.00826744 0.0096640475 0.00931219 0.0072040097 0.008428541 0.012194396
00000000: 3261 083c 2704 213c 8c60 293c 33c3 2c3c
00000010: 5f72 4a3c 0ad7 233c f3c1 1d3c e136 253c
00000020: 64d5 043c 0ad7 233c 559d 133c 67a9 2d3c
00000030: aa60 183c 579c 423c df0c 0d3c 4aa5 1c3c
00000040: cec3 e93b de99 313c 53e4 1a3c 5f4c 133c
00000050: 3f56 2d3c f134 c73b 7317 0c3c 73f5 223c
00000060: 2ac4 4f3c c2dc 433c d0ab 313c a917 153c
00000070: 38d3 1a3c b568 2e3c 9c6a 0e3c ba5e 153c
00000080: 2154 433c 2654 4e3c 64ea 1c3c 6987 1c3c
00000090: c34b f63b 4528 443c 2e88 2f3c 3a40 063c
000000a0: 1b46 363c b689 383c 4a3a 273c 0ad7 233c
000000b0: 7ff1 2b3c e3b5 263c 823c 233c 5aea e63b
000000c0: 2549 1d3c 97ff 153c 4a11 1b3c 6637 223c
000000d0: 0203 0c3c 474b 353c face 0d3c 9872 183c
000000e0: afe3 013c 96de 253c 2874 073c f455 1e3c
000000f0: 2892 183c 9d0f ec3b dd17 0a3c 01cb 473c

trunk.4.weight f4 [64, 64]
-0.07555954 -0.061552737 0.03454051 0.18970752 0.2926758 -0.10128066 -0.16502917 0.001930754
0.23647985 0.0012061894 0.016127551 -0.2363822 0.23670465 -0.16409674 -0.12953976 0.19753
-0.11307167 -0.23786041 0.30193692 -0.038346466 -0.16835919 0.080649465 -0.07087341 -0.08365207
-0.27732444 0.057007756 -0.107814275 -0.1987859 0.119721584 -0.10527554 -0.21875152 0.049491536
-0.22754279 0.08718742 0.23867123 0.21645354 -0.122240305 -0.2016203 -0.014906576 0.23169295
-0.17234635 -0.054100826 -0.15111808 0.23423299 0.051274266 -0.055333875 -0.1045775 0.13967665
-0.285006 0.01653822 0.22502984 0.0251466 0.20994285 0.053799313 0.1810879 0.19795327
0.17515527 -0.22374105 0.0681333 -0.28578782 0.18202785 -0.16545162 -0.090638734 -0.24668562
0.27173722 0.2987155 0.072029464 0.018283917 0.018189752 0.17440912 0.18466613 -0.09719278
0.04183136 -0.060656905 0.21219377 0.088640325 -0.18118204 -0.1752789 0.13135153 0.111027636
-0.092715845 -0.049551234 -0.08564912 -0.16232957 0.07369498 0.21154988 -0.1262633 0.09482456
-0.18235132 0.12051802 0.05441825 0.07472734 -0.07612567 0.28718984 -0.21487755 0.06650522
-0.28588197 0.2384733 0.09273019 -0.02673176 0.2984669 -0.17456503 0.24981071 0.026998617
0.13603555 0.11477521 -0.13974494 0.0422211 -0.19382907 -0.14593418 0.1794143 0.14477792
-0.30717736 0.114637345 0.20916688 0.01665782 -0.07189153 0.035304904 0.0030532798 -0.10600195
0.11987082 0.20991988 0.26175132 -0.21010318 -0.077707216 0.29323965 0.13405219 -0.18745932
0.0076406333 0.15493812 -0.12755762 -0.26528957 0.12079105 -0.20092571 -0.16113977 0.13624826
-0.006757373 -0.06056744 0.055461265 -0.18188192 -0.17086554 -0.011900037 0.25817636 0.20435865
0.08425146 -0.029608814 -0.05756279 -0.01802423 0.05254348 0.061551105 -0.29062825 0.1694654
0.007444992 0.15799353 0.2949444 0.26357958 0.15042625 0.006657934 -0.24442932 0.3013064
0.06335023 0.17187026 0.09641189 0.20669882 -0.20634061 -0.20403297 0.00953945 -0.28932354
0.0036793947 -0.25524506 -0.10416767 -0.2573485 -0.08605398 0.20421636 -0.05519009 0.07989801
-0.016297998 -0.058590088 -0.2525743 -0.21344529 -0.21371064 0.1462672 0.0265159 0.29068312
0.041403983 -0.20451249 0.17631157 -0.16526353 -0.24274486 -0.1259736 0.26615137 0.10538081
0.30063444 -0.2549285 0.10058451 -0.27493632 0.16466428 0.22133389 -0.112018004 0.19444354
0.12855938 0.09785485 -0.18653336 0.13168229 -0.116031975 0.11328316 -0.12240412 0.19706261
0.113819964 -0.20073026 0.2976363 0.0069108633 0.05901268 -0.305599 0.1465988 0.23111883
-0.19619836 -0.1717212 -0.056283165 -0.14960016 -0.096533105 0.06529488 0.27370948 -0.056425214
-0.26840788 0.09430512 0.19696994 -0.27842626 0.13980018 0.27327666 -0.03420555 -0.18624936
-0.046259686 -0.2831778 -0.09929074 -0.113566935 -0.1860299 -0.28198195 -0.24490474 0.0652961
-0.01013447 0.049440015 0.2008603 -0.14776054 -0.12693867 0.12099383 0.01601159 0.2869066
-0.24820845 -0.010814867 0.1307252 0.039798252 0.093549035 0.100157395 -0.2774571 0.27979335
00000000: f6be 9abd b91e 7cbd 5a7a 0d3d b042 423e
00000010: 9ad9 953e 3c6c cfbd 68fd 28be 5b11 fd3a
00000020: c627 723e 0019 9e3a ed1d 843c 2d0e 72be
00000030: b462 723e fa08 28be 12a6 04be 4e45 4a3e
00000040: 1f92 e7bd ae91 73be 7a97 9a3e 2f11 1dbd
00000050: 5a66 2cbe 8c2b a53d 1426 91bd c751 abbd
00000060: 78fd 8dbe f780 693d bbcd dcbd 888e 4bbe
00000070: 9730 f53d b49a d7bd 6600 60be a3b7 4a3d
00000080: fa00 69be 518f b23d 3b66 743e ffa5 5d3e
00000090: 2059 fabd 8d75 4ebe b63a 74bc eb40 6d3e
000000a0: 907b 30be d498 5dbd b3be 1abe c6da 6f3e
000000b0: f704 523d c6a5 62bd ba2c d6bd 6507 0f3e
000000c0: 4eec 91be 297b 873c 396e 663e 3e00 ce3c
000000d0: 42fb 563e ab5c 5c3d 1b6f 393e 43b4 4a3e
000000e0: e75b 333e 601c 65be 7989 8b3d c852 92be
000000f0: 8265 3a3e 266c 29be cda0 b9bd 289b 7cbe
00000100: 2421 8b3e 3df1 983e 2f84 933d 27c8 953c
00000110: ad02 953c 4e98 323e 1e19 3d3e 020d c7bd
00000120: 5c57 2b3d 6073 78bd 5349 593e 0f89 b53d
00000130: c987 39be 507c 33be 0481 063e 7562 e33d
00000140: cee1 bdbd 3cf6 4abd ce68 afbd b939 26be
00000150: 65ed 963d 88a0 583e 2b4b 01be 6133 c23d
00000160: 4eba 3abe 27d2 f63d ace5 5e3d a60a 993d
00000170: c6e7 9bbd 8c0a 933e dc08 5cbe e433 883d
00000180: 1f5f 92be 5832 743e 53e9 bd3d 90fc dabc
00000190: a7d0 983e 2dc1 32be 61ce 7f3e 342c dd3c
000001a0: e74c 0b3e 440f eb3d 4c19 0fbe 08f0 2c3d
000001b0: 217b 46be c56f 15be 62b8 373e aa40 143e
000001c0: 5a46 9dbe fcc6 ea3d d82f 563e fb75 883c
000001d0: de3b 93bd e09b 103d 8919 483b 8d17 d9bd
000001e0: d57e f53d 3df5 563e 4504 863e 4a25 57be
000001f0: f624 9fbd 8223 963e fa44 093e 56f5 3fbe
00000200: 475e fa3b 19a8 1e3e 779e 02be 09d4 87be
00000210: 4c61 f73d 78bf 4dbe d301 25be aa84 0b3e
00000220: f46c ddbb 9015 78bd 5a2b 633d 413f 3abe
00000230: 60f7 2ebe 5ff8 42bc b12f 843e 6543 513e
00000240: 088c ac3d 2f8e f2bc f6c6 6bbd 8da7 93bc
00000250: d537 573d 031d 7c3d 3acd 94be 5688 2d3e
00000260: 1ff5 f33b 0ec9 213e f402 973e e7f3 863e
00000270: 5709 1a3e cc2a da3b ae4b 7abe d544 9a3e
00000280: c4bd 813d c2fe 2f3e 9973 c53d dba8 533e
00000290: f44a 53be 05ee 50be 5a4b 1c3c 3722 94be
000002a0: 0022 713b 7baf 82be dc55 d5bd 2fc3 83be
000002b0: 123d b0bd 181e 513e 010f 62bd 91a1 a33d
000002c0: 6183 85bc 29fc 6fbd 6b51 81be 6791 5abe
000002d0: f6d6 5abe 12c7 153e df37 d93c 6bd4 943e
000002e0: 3997 293d b96b 51be 058b 343e d83a 29be
000002f0: 1c92 78be 39ff 00be fe44 883e e5d1 d73d
00000300: c2ec 993e fd85 82be 40ff cd3d 74c4 8cbe
00000310: c19d 283e 5aa5 623e b269 e5bd 351c 473e
00000320: 12a5 033e 2068 c83d 9a02 3fbe b9d7 063e
00000330: 2ca2 edbd 0001 e83d 03af fabd c8ca 493e
00000340: 711a e93d 3c8c 4dbe c963 983e 8674 e23b
00000350: 48b7 713d 7977 9cbe ff1d 163e 6aaa 6c3e
00000360: 39e8 48be afd7 2fbe 2d89 66bd c930 19be
00000370: 26b3 c5bd 52b9 853d a623 8c3e 201e 67bd
00000380: c26c 89be 0b23 c13d 7db2 493e e38d 8ebe
00000390: c727 0f3e ebea 8b3e 1e1b 0cbd 27b8 3ebe
000003a0: cc7a 3dbd aefc 90be f258 cbbd c895 e8bd
000003b0: 9f7e 3ebe f05f 90be 4fc8 7abe f6b9 853d
000003c0: 0c0b 26bc 9d81 4a3d 53ae 4d3e 8a4e 17be
000003d0: 36fc 01be 9dcb f73d bd2a 833c 6ce5 923e
000003e0: 5b2a 7ebe d730 31bc d4dc 053e 7e03 233d
000003f0: a396 bf3d 521f cd3d db0e 8ebe 1341 8f3e

trunk.4.bias f4 [64]
0.009371399 0.007291394 0.010724546 0.010986496 0.008820124 0.012313598 0.01 0.009855736
0.011081941 0.0071125706 0.010567244 0.010569822 0.01 0.008257724 0.009621894 0.012528591
0.01 0.01 0.009657466 0.009353252 0.014155417 0.0085507715 0.009761749 0.013768177
0.010008515 0.008712179 0.011826294 0.009876018 0.01 0.01 0.010404148 0.01
0.007865548 0.0085356925 0.008417429 0.01 0.01 0.008410747 0.009391276 0.012073486
0.01 0.007894619 0.01007256 0.007009435 0.010824702 0.010822978 0.013463669 0.008107281
0.008842871 0.0064928117 0.010581686 0.01050123 0.011227963 0.009978083 0.01 0.012080055
0.011180775 0.009844627 0.011705396 0.008836836 0.0119607765 0.0095790215 0.008237762 0.009524295
00000000: 7f8a 193c a5ec ee3b 02b6 2f3c b400 343c
00000010: 4882 103c f9be 493c 0ad7 233c f479 213c
00000020: 0891 353c 9110 e93b 3c22 2d3c 0c2d 2d3c
00000030: 0ad7 233c 684b 073c 26a5 1d3c b844 4d3c
00000040: 0ad7 233c 0ad7 233c 593a 1e3c 623e 193c
00000050: 1fec 673c 8918 0c3c beef 1f3c eb93 613c
00000060: c1fa 233c 87bd 0e3c 12c3 413c 06cf 213c
00000070: 0ad7 233c 0ad7 233c 2976 2a3c 0ad7 233c
00000080: 80de 003c 4ad9 0b3c 42e9 093c 0ad7 233c
00000090: 0ad7 233c 3bcd 093c dedd 193c dfcf 453c
000000a0: 0ad7 233c 6f58 013c 6107 253c 67af e53b
000000b0: 175a 313c dc52 313c b996 5c3c 67d4 043c
000000c0: b0e1 103c a7c1 d43b cf5e 2d3c 5a0d 2c3c
000000d0: 7df5 373c 1d7b 233c 0ad7 233c 6ceb 453c
000000e0: 922f 373c 5c4b 213c fdc7 3f3c 60c8 103c
000000f0: 22f7 433c 54f1 1c3c aef7 063c ca0b 1c3c

value_adapter.0.weight f4 [64, 64]
-0.19835445 0.2156817 -0.065812625 -0.24791133 0.17603317 -0.031271815 -0.14628254 0.05383764
0.24475992 -0.19326773 0.16968781 -0.08255752 0.1933482 -0.06529128 -0.036377784 0.23847845
-0.20885253 0.17406353 -0.0033735875 0.08541399 -0.26943466 -0.0542469 -0.19303666 0.14371118
0.0041243215 -0.2320417 0.009437927 0.2783255 -0.22016507 0.27749935 -0.13204111 0.26233563
0.19233811 -0.29578334 -0.103284635 -0.27012503 0.2816597 -0.22761267 0.16023049 0.1441931
-0.06155978 0.038470212 0.23403718 -0.2482873 0.28050536 0.24297161 0.10473078 -0.078203596
-0.25619966 -0.018172463 -0.036967307 -0.00015663386 -0.113559864 -0.09362427 -0.09593658 0.29650965
-0.05106124 0.13808045 0.16506025 -0.1387486 0.014361098 0.24928464 0.2959552 -0.09027782
0.061719894 -0.2427944 0.25386712 0.26082477 -0.26705918 -0.0027433634 0.10187763 0.2601945
-0.2941468 -0.00028043985 -0.1789196 0.12037948 0.29013947 -0.11837788 -0.076471984 -0.115868926
0.06169361 0.18295938 -0.2000353 -0.2521649 -0.0885451 -0.095582426 -0.2332815 -0.19421154
0.031645417 0.26617482 0.17322251 -0.074465826 0.22373077 0.05864337 -0.06868692 0.029723167
-0.16985866 -0.09961818 -0.22117615 -0.25395295 -0.3001724 0.15734181 0.15657008 -0.13906352
0.124871105 0.18092945 -0.22546682 -0.23941863 -0.22193877 -0.13618182 0.15189955 -0.19861925
-0.12189001 -0.12849097 -0.0043567717 -0.076914296 -0.01000753 0.20602438 0.033660024 0.037611425
0.16426963 0.27884242 -0.13317122 0.0049975812 0.2688683 -0.02485624 -0.039898902 -0.1326536
0.24369192 0.16194639 0.004407806 -0.023252692 0.28262693 0.11613769 -0.12899515 0.16963689
-0.274046 0.019654313 -0.17978404 -0.06722803 0.10151264 -0.11412789 -0.039655726 -0.117984675
-0.107379556 0.15461734 -0.24535517 -0.2537752 -0.13709256 -0.16084519 -0.10279074 -0.09601429
-0.16261353 -0.06672611 0.07642059 -0.1290617 0.19715211 -0.1706724 -0.1119333 0.23254511
0.14491655 0.29445046 -0.0568981 0.22075 -0.1275194 -0.17141494 0.07979575 0.29761824
0.052371174 -0.2183824 -0.042858843 -0.27739778 0.10148167 -0.21011667 -0.04604444 -0.27434543
-0.07838249 0.006657373 -0.30763844 -0.15412779 0.1922421 0.27287808 -0.09030478 -0.12297559
-0.15320249 0.068366736 0.29371345 0.22800505 -0.004722467 -0.21728241 -0.044136874 0.25564077
0.1876103 -0.2950371 0.10885054 0.30302456 -0.024309814 -0.0010283887 -0.14083418 0.28139582
0.16268727 0.2986355 0.11437896 -0.08354963 -0.1557239 0.29017666 0.29546168 0.18564221
0.13866964 -0.27539328 -0.13044307 -0.15769039 -0.17803372 0.27508155 0.13149387 0.105051845
0.17324421 -0.08600034 0.05012718 -0.2182199 0.15750435 -0.08607049 0.13684255 0.076539576
0.11694342 0.16191238 -0.022997081 -0.058815986 0.01242283 -0.18446124 0.013388574 -0.072436735
0.20907494 0.13684371 -0.027481645 -0.1087978 -0.24764368 -0.25200045 0.11143744 0.015900195
0.09781039 0.08093253 -0.20796609 -0.17462264 0.24631563 0.031013787 0.14986622 -0.28741857
0.16670728 -0.017864823 0.19251579 -0.17187764 -0.12799172 -0.25839284 0.013814151 -0.2930406
00000000: 6e1d 4bbe aadb 5c3e c5c8 86bd 78dc 7dbe
00000010: 0a42 343e e016 00bd 17cb 15be db84 5c3d
00000020: 58a2 7a3e fae7 45be a4c2 2d3e eb13 a9bd
00000030: 12fd 453e 6fb7 85bd df00 15bd b233 743e
00000040: 70dd 55be b63d 323e 6817 5dbb 88ed ae3d
00000050: 57f3 89be ff31 5ebd 67ab 45be 0629 133e
00000060: 5125 873b 579c 6dbe 89a1 1a3c ae80 8e3e
00000070: f472 61be 6514 8e3e c935 07be db50 863e
00000080: 48f4 443e ea70 97be e586 d3bd d44d 8abe
00000090: b335 903e 4c13 69be 7613 243e 5ba7 133e
000000a0: 1c26 7cbd f192 1d3d 71a7 6f3e 073f 7ebe
000000b0: 669e 8f3e 8dcd 783e 177d d63d 3529 a0bd
000000c0: 9a2c 83be 6bde 94bc 086b 17bd 153e 24b9
000000d0: 1392 e8bd 15be bfbd 667a c4bd 1dd0 973e
000000e0: 9725 51bd f664 0d3e 8e05 293e 1d14 0ebe
000000f0: d04a 6b3c 7944 7f3e 7187 973e 94e3 b8bd
00000100: 00ce 7c3d 189f 78be dffa 813e d38a 853e
00000110: fbbb 88be 00ca 33bb 38a5 d03d 3738 853e
00000120: 699a 96be 0008 93b9 b336 37be 8489 f63d
00000130: 298d 943e 1a70 f2bd 589d 9cbd b04c edbd
00000140: 70b2 7c3d b459 3b3e 0ed6 4cbe c21b 81be
00000150: 2257 b5bd b8c0 c3bd 58e1 6ebe 64df 46be
00000160: a09e 013d 1148 883e 3e61 313e 8a81 98bd
00000170: ae19 653e 0834 703d baab 8cbd 007e f33c
00000180: 6eef 2dbe 9e04 ccbd 007c 62be 1f06 82be
00000190: 32b0 99be 361e 213e e853 203e ab66 0ebe
000001a0: 6cbc ff3d 9245 393e c6e0 66be 282a 75be
000001b0: eb43 63be 3f73 0bbe 8e8b 1b3e d862 4bbe
000001c0: 78a1 f9bd 2393 03be 40c3 8ebb 3e85 9dbd
000001d0: a0f6 23bc 0ef8 523e 18df 093d 700e 1a3d
000001e0: 4c36 283e 6fc4 8e3e 095e 08be c0c2 a33b
000001f0: 1ba9 893e 509f cbbc 086d 23bd 58d6 07be
00000200: 608a 793e 46d5 253e 5b6f 903b 6e7c bebc
00000210: 7ab4 903e 99d9 ed3d 4e17 04be 4bb5 2d3e
00000220: c24f 8cbe 1502 a13c 4f19 38be d9ae 89bd
00000230: dce5 cf3d e2bb e9bd 0b6e 22bd f3a1 f1bd
00000240: d0e9 dbbd 0254 1e3e 633e 7bbe d3ee 81be
00000250: fe61 0cbe 9ab4 24be f483 d2bd 24a3 c4bd
00000260: 2984 26be b3a7 88bd 6682 9c3d c028 04be
00000270: 3ee2 493e bfc4 2ebe 493d e5bd 4e20 6e3e
00000280: 0165 143e 36c2 963e fb0d 69bd 4a0c 623e
00000290: 7294 02be 6687 2fbe f46b a33d 6b61 983e
000002a0: 2883 563d a39f 5fbe c18c 2fbd 1507 8ebe
000002b0: 9fd5 cf3d d328 57be 1899 3cbd 0177 8cbe
000002c0: 0087 a0bd 1826 da3b c982 9dbe add3 1dbe
000002d0: 1ddb 443e adb6 8b3e b6f1 b8bd a0da fbbd
000002e0: 1de1 1cbe dc03 8c3d 9c61 963e 287a 693e
000002f0: edbe 9abb 487f 5ebe dec8 34bd 59e3 823e
00000300: ea1c 403e 1a0f 97be 08ed de3d 0926 9b3e
00000310: 6025 c7bc 00cb 86ba d636 10be 1d13 903e
00000320: 7e97 263e c1e6 983e 843f ea3d 121c abbd
00000330: 1676 1fbe 0992 943e c146 973e fe18 3e3e
00000340: 6aff 0d3e 5900 8dbe de92 05be 9779 21be
00000350: 794e 36be 7dd7 8c3e 54a6 063e 6c25 d73d
00000360: ee66 313e f220 b0bd 2852 4d3d 0a75 5fbe
00000370: d248 213e ba45 b0bd 7420 0c3e c8c0 9c3d
00000380: 0880 ef3d 5ccc 253e 6064 bcbc 08e9 70bd
00000390: 2089 4b3c 68e3 3cbe c05b 5b3c b659 94bd
000003a0: be17 563e c220 0c3e 3021 e1bc 62d1 debd
000003b0: 4e96 7dbe 3406 81be 5039 e43d 2041 823c
000003c0: d050 c83d f4bf a53d 10f5 54be 47d0 32be
000003d0: 2a3a 7c3e a010 fe3c 8876 193e 8728 93be
000003e0: 50b5 2a3e 4059 92bc dc22 453e b100 30be
000003f0: 4310 03be 114c 84be c054 623c 6b09 96be

value_adapter.0.bias f4 [64]
0.014996257 0.01 0.0052962084 0.01 0.0058445935 0.012986577 0.0083167385 0.014359949
0.0061598173 0.0055156383 0.011901446 0.0069421404 0.014556388 0.01185699 0.009867011 0.0062164646
0.0071436805 0.011145091 0.005203506 0.0059392354 0.0065620653 0.005843003 0.0033052356 0.0093770875
0.01 0.0060904548 0.01 0.0076456736 0.0040938393 0.01 0.01434737 0.014926052
0.013365117 0.013762201 0.009269105 0.00991335 0.013516205 0.0107953455 0.008773119 0.008765926
0.014241516 0.0074078063 0.01 0.009837022 0.0126485415 0.0068549505 0.01 0.015385299
0.0063827075 0.00627875 0.0130952075 0.003995883 0.0067200903 0.01 0.0059514344 0.006167297
0.0057367636 0.0051273005 0.011275202 0.012117439 0.012697897 0.011673173 0.010497845 0.014588027
00000000: dcb2 753c 0ad7 233c d18b ad3b 0ad7 233c
00000010: 0184 bf3b a7c5 543c ee42 083c fe45 6b3c
00000020: 4bd8 c93b 87bc b43b 48fe 423c e57a e33b
00000030: eb7d 6e3c d243 423c 3ea9 213c 7cb3 cb3b
00000040: 8915 ea3b e699 363c 2c82 aa3b eb9d c23b
00000050: 9806 d73b a976 bf3b a79c 583b 5ba2 193c
00000060: 0ad7 233c 7092 c73b 0ad7 233c 8f88 fa3b
00000070: 9d25 863b 0ad7 233c 3b11 6b3c 668c 743c
00000080: 5df9 5a3c db7a 613c 72dd 173c 9b6b 223c
00000090: 1373 5d3c f6de 303c 21bd 0f3c f59e 0f3c
000000a0: 3f55 693c 2fbd f23b 0ad7 233c 762b 213c
000000b0: d43b 4f3c 7e9f e03b 0ad7 233c 9f12 7c3c
000000c0: 0826 d13b f9bd cd3b 488d 563c e5ef 823b
000000d0: 3434 dc3b 0ad7 233c 4004 c33b 0917 ca3b
000000e0: 76fb bb3b ea02 a83b a0bb 383c 3988 463c
000000f0: d70a 503c d640 3f3c 27ff 2b3c 9f02 6f3c

value_head.0.weight f4 [3, 64]
-0.23410319 0.049063474 0.28374672 0.01580748 -0.040318754 -0.10756173 -0.15091915 -0.12866995
0.13095205 0.0072494377 -0.09656308 -0.29321328 -0.12140388 -0.018156148 0.17791936 -0.14702152
-0.103677675 0.18415391 0.27483732 -0.03053727 -0.05519796 -0.26075447 0.2157811 0.2610725
0.21814397 0.15636872 0.14074248 -0.27103448 0.23716019 0.21292093 -0.01232785 -0.30254158
0.011339793 0.19399148 0.047857285 -0.27767506 -0.18251103 -0.15504687 -0.20603088 0.032067865
0.04686317 -0.29300946 -0.21381277 -0.19103067 0.26292783 -0.16000548 -0.2724362 -0.20385481
-0.2065109 -0.19506365 0.18789466 0.07082214 -0.24105996 0.002752751 -0.02586923 -0.18553974
-0.045823738 0.26312703 0.05965307 0.28760186 0.066590995 0.2764362 -0.20165415 -0.18887968
-0.24176738 0.23378125 -0.1638399 0.11368629 0.23641743 -0.063920386 0.17226301 0.1438471
-0.14587706 0.09083197 0.058403883 0.27022073 0.12045682 0.30135274 -0.07776033 0.2385214
-0.26066965 -0.073904894 -0.0938037 0.22817859 0.07914337 0.24532226 0.12564752 0.039954193
-0.017752916 0.21873398 0.18939316 -0.1654175 0.27200642 -0.19151083 0.029298704 -0.14574184
0.09325932 -0.13613483 0.03415492 -0.099700235 0.08447485 -0.088667914 -0.06886768 0.27715555
-0.2416735 -0.2503406 -0.23479488 0.040090695 0.2469468 -0.2154871 0.2547041 0.21969081
0.3007985 -0.10317346 -0.15974681 0.20223235 -0.25983405 -0.20071578 0.118351445 0.21491851
-0.27396712 -0.14334095 -0.22860108 -0.19410013 -0.05447196 -0.12000498 0.14100984 -0.10141664
-0.20815764 -0.27571362 0.17605686 0.050152004 0.2304429 -0.11782247 0.08703686 -0.27555785
0.27934122 0.05423902 -0.16535914 0.21317138 -0.2525 -0.014471827 -0.076588705 0.14579004
0.13669242 -0.034347698 0.28613958 0.084055915 0.028036876 0.25652733 0.22413221 -0.021951858
-0.065205604 0.0009247634 0.26601455 0.0851849 0.08787489 -0.11545701 -0.1261678 -0.12955724
-0.21007706 -0.22445624 -0.22921352 0.057516944 -0.28324848 -0.09493665 0.2555316 0.28779364
-0.21520804 0.16837344 -0.2289232 0.01014169 -0.1177574 0.2327548 -0.07768464 -0.073708214
0.24763636 0.1846148 -0.08459622 0.1489287 0.2171998 -0.1008136 0.20423432 0.21724682
0.17436995 0.2118854 -0.250221 -0.09984434 -0.030436087 -0.068043135 -0.056917775 -0.31192437
00000000: bfb8 6fbe c8f6 483d 4047 913e b07e 813c
00000010: 4725 25bd 5349 dcbd 8d8a 1abe 0ec2 03be
00000020: 4b18 063e b18c ed3b ddc2 c5bd 0d20 96be
00000030: 99a2 f8bd 34bc 94bc 7e30 363e cf8c 16be
00000040: f654 d4bd d892 3c3e 7ab7 8c3e 4c29 fabc
00000050: 4217 62bd 9c81 85be b8f5 5c3e 4bab 853e
00000060: 2261 5f3e 1f1f 203e cc1e 103e 08c5 8abe
00000070: 1fda 723e f207 5a3e c0fa 49bc bbe6 9abe
00000080: 8aca 393c b4a5 463e 0006 443d 6d2b 8ebe
00000090: 2ce4 3abe 9bc4 1ebe c2f9 52be 9859 033d
000000a0: 98f3 3f3d 5605 96be bcf1 5abe 8b9d 43be
000000b0: 7a9e 863e 7ad8 23be c27c 8bbe 51bf 50be
000000c0: 9877 53be c4be 47be 7567 403e 330b 913d
000000d0: 6cd8 76be 8067 343b b5eb d3bc 21fe 3dbe
000000e0: acb1 3bbd 96b8 863e c756 743d 8d40 933e
000000f0: dc60 883d 0c89 8d3e 6d7e 4ebe ad69 41be
00000100: de91 77be 5a64 6f3e a6c5 27be 5cd4 e83d
00000110: 6917 723e b1e8 82bd b765 303e a74c 133e
00000120: cc60 15be 1d06 ba3d e938 6f3d 5f5a 8a3e
00000130: 11b2 f63d e84a 9a3e cf40 9fbd f43e 743e
00000140: 7e76 85be 735b 97bd 271c c0bd a6a7 693e
00000150: eb15 a23d c235 7b3e bea9 003e 02a7 233d
00000160: 906e 91bc cdfb 5f3e 48f0 413e 3563 29be
00000170: 6d44 8b3e 6a1b 44be d603 f03c 593d 15be
00000180: befe be3d ee66 0bbe 08e6 0b3d a32f ccbd
00000190: 2601 ad3d 8697 b5bd 800a 8dbd 55e7 8d3e
000001a0: 4279 77be a52c 80be 126e 70be 2436 243d
000001b0: 9fdf 7c3e a6a8 5cbe 9368 823e a1f6 603e
000001c0: 4302 9a3e 9b4c d3bd ab94 23be ff15 4f3e
000001d0: f808 85be 7088 4dbe 3e62 f23d 9913 5c3e
000001e0: 6b45 8cbe f8c7 12be 6716 6abe 2fc2 46be
000001f0: fd1d 5fbd 2cc5 f5bd e264 103e 87b3 cfbd
00000200: 4727 55be 562a 8dbe 4048 343e 306c 4d3d
00000210: 39f9 6b3e e84c f1bd 6240 b23d eb15 8dbe
00000220: d005 8f3e bc29 5e3d e853 29be 9949 5a3e
00000230: ae47 81be 3e1b 6dbc 8ada 9cbd fc49 153e
00000240: 19f9 0b3e 2cb0 0cbd e380 923e 8225 ac3d
00000250: 97ad e53c 8d57 833e ea82 653e 62d4 b3bc
00000260: 848a 85bd d26b 723a 0f33 883e 6c75 ae3d
00000270: c0f7 b33d ba74 ecbd 2232 01be a7aa 04be
00000280: 711e 57be dbd7 65be f3b6 6abe e396 6b3d
00000290: f205 91be 256e c2bd 0ad5 823e b059 933e
000002a0: 7f5f 5cbe 166a 2c3e d86a 6abe 5529 263c
000002b0: cb2a f1bd 4657 6e3e 2019 9fbd 55f4 96bd
000002c0: 6394 7d3e aa0b 3d3e c840 adbd c480 183e
000002d0: a069 5e3e 5c77 cebd cd22 513e f375 5e3e
000002e0: 098e 323e 7cf8 583e f81c 80be 307b ccbd
000002f0: 1a55 f9bc 335a 8bbd 9d22 69bd 8db4 9fbe

value_head.0.bias f4 [3]
0.0061246664 0.007436514 0.005694767
00000000: 6db1 c83b 00ae f33b 2b9b ba3b

hiring_adapter.0.weight f4 [64, 64]
0.12521584 0.2064565 -0.26418483 -0.21684992 -0.162493 -0.12386331 0.27168658 -0.19005056
-0.0023456763 -0.24573994 -0.00987543 -0.28784558 -0.25097942 0.2863569 0.1894749 0.01091994
-0.19895957 0.23897526 0.23079339 0.16877128 -0.18785211 -0.14376001 0.12560397 0.02241314
-0.21900447 0.008282064 0.009569633 -0.2411688 0.087310284 0.27927503 -0.15321709 -0.15412389
0.044664916 -0.05357138 0.048248507 0.18302426 -0.05367154 -0.17336355 -0.14356384 -0.14587994
0.21544889 0.104334764 0.12141243 -0.048238464 0.12695405 0.0135343755 -0.22710733 -0.11058019
-0.061711423 -0.26418927 -0.14327045 -0.15863524 -0.18131198 0.13278054 -0.0061380863 0.012517439
-0.26412734 -0.103196286 0.22088657 0.20654747 0.18063992 -0.1637299 0.17008416 0.20495313
-0.21154782 -0.21018103 -0.24449876 -0.022963652 -0.044205166 0.091581106 0.21082655 -0.058374565
0.27544957 0.17226548 0.09393349 -0.026463142 0.2509319 0.013547381 0.29831082 0.29406613
0.01628089 -0.15573329 0.29539308 0.24822392 -0.2747156 0.18609694 0.14174476 0.074572854
0.040890034 0.209457 -0.025582636 -0.15846688 -0.27396473 -0.28886682 -0.17969215 0.18036735
0.066238016 -0.021335535 -0.13825916 -0.27847415 0.044609427 -0.27599576 -0.24282698 0.042447932
-0.0010740459 0.2745622 -0.1494751 0.07625186 -0.25513175 0.012220487 0.17231244 -0.3047034
-0.2654736 0.17685466 -0.1645474 -0.15202083 -0.057108764 0.10261541 0.007584214 -0.13839498
0.28000152 0.018040681 -0.03146304 0.1047568 -0.26111022 -0.25893787 -0.24875103 -0.08794907
-0.19671082 -0.022883452 -0.2914072 -0.2405606 -0.052060824 0.218312 0.21273163 -0.10583591
0.2166931 -0.044869184 0.16648124 -0.089885496 -0.19073793 -0.18697813 0.1560432 0.01340631
0.21028474 0.29181334 -0.033996705 0.20715642 -0.27188092 -0.19960868 -0.11786883 0.019577568
0.25309637 0.14879028 0.25439417 0.041705836 -0.17327063 0.1184746 0.072178125 0.28523466
0.12225337 -0.17785792 -0.12530142 -0.24491385 0.008499116 -0.18968807 0.18109417 -0.21791326
0.22848555 -0.0837498 -0.15202565 0.13099559 0.29839915 -0.23859572 0.06913384 -0.082392074
0.26003543 -0.013953255 -0.107686155 -0.25895855 -0.26114264 -0.04280588 -0.18133262 0.14097334
-0.26688775 -0.27054444 -0.1794222 -0.14648525 0.048654657 -0.2626356 0.09706245 0.08682851
0.16640142 0.17164913 -0.019487139 0.1464372 0.20027284 0.034779295 -0.14304811 -0.1375775
-0.027668217 -0.08837016 0.27062201 -0.022039318 0.27334145 -0.026821665 -0.032666195 -0.063894846
-0.24832378 0.2476286 0.05159509 -0.13851516 0.15384868 0.06956424 0.30478352 0.20594956
-0.14618407 -0.25634992 0.08690982 0.18256645 -0.03921634 -0.033812076 -0.2818871 0.14791092
-0.067791015 0.20334584 -0.18107805 0.087662846 0.07086605 0.30800077 0.044848815 0.18474154
0.2513468 0.28812507 -0.026548667 0.0831419 -0.29480082 0.06471307 -0.25700417 -0.24799308
0.29928428 0.29650068 -0.0846723 0.28803623 0.16221625 -0.18302603 -0.026336461 -0.120804936
-0.16959018 0.10604681 -0.19036004 -0.05296825 -0.11741079 0.084023125 -0.14162967 -0.15401275
00000000: 9538 003e 5569 533e 3c43 87be e80d 5ebe
00000010: 9164 26be 0cac fdbd 811a 8b3e 9d9c 42be
00000020: ebb9 19bb 40a3 7bbe 8ecc 21bc 7f60 93be
00000030: 6080 80be 5f9d 923e b505 423e 8ce9 323c
00000040: 0fbc 4bbe eeb5 743e 1a55 6c3e 61d2 2c3e
00000050: 4e5c 40be d335 13be 549e 003e c39b b73c
00000060: b542 60be 7fb1 073c f3c9 1c3c f4f4 76be
00000070: bccf b23d 23fd 8e3e f1e4 1cbe a7d2 1dbe
00000080: 8ff2 363d aa6d 5bbd 3aa0 453d b66a 3b3e
00000090: b0d6 5bbd 3786 31be 6602 13be 8d61 15be
000000a0: a29e 5c3e 77ad d53d 15a7 f83d b295 45bd
000000b0: 3e00 023e 49bf 5d3c d38e 68be de77 e2bd
000000c0: 1ec5 7cbd d143 87be 7db5 12be 4771 22be
000000d0: d9a9 39be 9ff7 073e 0022 c9bb f215 4d3c
000000e0: b33b 87be 9358 d3bd 1730 623e 2e81 533e
000000f0: acf9 383e d0a8 27be 8b2a 2e3e 3cdf 513e
00000100: fe9f 58be b239 57be e25d 7abe 451e bcbc
00000110: 7a10 35bd e08e bb3d eae2 573e 2b1a 6fbd
00000120: ba07 8d3e 5d66 303e 3460 c03d 3bc9 d8bc
00000130: 257a 803e d6f5 5d3c 32bc 983e d68f 963e
00000140: 805f 853c 8c78 1fbe c33d 973e 692e 7e3e
00000150: 86a7 8cbe 3290 3e3e 8a25 113e a7b9 983d
00000160: 4f7c 273d e57b 563e ad92 d1bc 2445 22be
00000170: 1b45 8cbe 5ae6 93be 3801 38be 38b2 383e
00000180: cca7 873d dcc7 aebc cf93 0dbe 2a94 8ebe
00000190: 60b8 363d 514f 8dbe a3a7 78be e2dd 2d3d
000001a0: 00c7 8cba 6b93 8c3e 0010 19be ef29 9c3d
000001b0: a1a0 82be 7038 483c ac72 303e 1602 9cbe
000001c0: 28ec 87be 6319 353e 1d7f 28be 59ab 1bbe
000001d0: e1ea 69bd 0728 d23d 0085 f83b 6ab7 0dbe
000001e0: 5c5c 8f3e 0dca 933c 63df 00bd bc8a d63d
000001f0: 3db0 85be 8193 84be 97b8 7ebe a41e b4bd
00000200: 906e 49be 1476 bbbc 5333 95be 8555 76be
00000210: bb3d 55bd 2e8d 5f3e 52d6 593e 7fc0 d8bd
00000220: cce4 5d3e c0c8 37bd 0f7a 2a3e e315 b8bd
00000230: ce50 43be 3277 3fbe cac9 1f3e 24a6 5b3c
00000240: e254 573e 8f68 953e 2140 0bbd d020 543e
00000250: fa33 8bbe 3866 4cbe 3765 f1bd 2361 a03c
00000260: d995 813e 7b5c 183e f43f 823e bdd3 2a3d
00000270: db6d 31be d0a2 f23d 20d2 933d 470a 923e
00000280: fa5f fa3d 6320 36be 044f 00be b2ca 7abe
00000290: e03f 0b3c 973d 42be c070 393e a724 5fbe
000002a0: 1ef8 693e 0485 abbd 9dac 1bbe b523 063e
000002b0: c6c7 983e 7052 74be 0b96 8d3d 2dbd a8bd
000002c0: 5d23 853e 319c 64bc 8f8a dcbd 3796 84be
000002d0: 7db4 85be 3855 2fbd 42af 39be 515b 103e
000002e0: 83a5 88be cd84 8abe 74ba 37be 3b00 16be
000002f0: 1b4a 473d 2c78 86be aec8 c63d 25d3 b13d
00000300: 2265 2a3e cac4 2f3e 7ea3 9fbc a2f3 153e
00000310: 5314 4d3e bc74 0e3d 347b 12be 1ee1 0cbe
00000320: 75a8 e2bc 6afb b4bd f88e 8a3e cd8b b4bc
00000330: 69f3 8b3e 1cb9 dbbc fdcc 05bd 4ddb 82bd
00000340: 9748 7ebe 5a92 7d3e 6055 533d ebd6 0dbe
00000350: 828a 1d3e b277 8e3d 960c 9c3e 71e4 523e
00000360: 47b1 15be 4c40 83be c7fd b13d b3f2 3a3e
00000370: 50a1 20bd 887e 0abd 8253 90be f675 173e
00000380: 04d6 8abd e439 503e 866c 39be 9488 b33d
00000390: 3822 913d 47b2 9d3e 64b3 373d e32c 3d3e
000003a0: 87b0 803e 2185 933e 977c d9bc 4d46 aa3d
000003b0: 22f0 96be 4988 843d 0d96 83be e6f1 7dbe
000003c0: ca3b 993e f0ce 973e ac68 adbd 7c79 933e
000003d0: 041c 263e 2d6b 3bbe 90bf d7bc 9468 f7bd
000003e0: 0ca9 2dbe 122f d93d beed 42be 3cf5 58bd
000003f0: 1175 f0bd 5114 ac3d 5e07 11be 85b5 1dbe

hiring_adapter.0.bias f4 [64]
0.0088292835 0.011558249 0.012016566 0.012014995 0.010005647 0.012903987 0.0084061 0.0066954982
0.010533305 0.012188597 0.010554951 0.01 0.010825651 0.009524193 0.009354962 0.008589583
0.008042919 0.008053837 0.008927914 0.009101296 0.01 0.011301187 0.008063525 0.01
0.009377999 0.009655272 0.010121326 0.01 0.01061169 0.010820323 0.008860036 0.0070476276
0.008916295 0.01 0.009842207 0.0105044795 0.009725268 0.0109771425 0.009297208 0.010219507
0.009413875 0.009832208 0.01 0.011831794 0.009847285 0.012815327 0.009460165 0.010919512
0.009522602 0.0089206295 0.01 0.0113389455 0.011183956 0.010342257 0.0093494505 0.012391651
0.009093348 0.011286522 0.011670207 0.009169489 0.008556025 0.010498798 0.01195413 0.010103048
00000000: b3a8 103c cf5e 3d3c 21e1 443c 8bda 443c
00000010: baee 233c 3f6b 533c bdb9 093c e965 db3b
00000020: e293 2c3c aeb2 473c acee 2c3c 0ad7 233c
00000030: 125e 313c 5c0b 1c3c 8e45 193c 53bb 0c3c
00000040: 73c6 033c 3ef4 033c 6346 123c 9a1d 153c
00000050: 0ad7 233c 9d28 393c e01c 043c 0ad7 233c
00000060: 2ea6 193c 2531 1e3c ebd3 253c 0ad7 233c
00000070: a7dc 2d3c b947 313c af29 113c c9ef e63b
00000080: a715 123c 0ad7 233c 3541 213c fb1a 2c3c
00000090: bb56 1f3c 79d9 333c 5153 183c b86f 273c
000000a0: a73c 1a3c 4517 213c 0ad7 233c 24da 413c
000000b0: 8256 213c 61f7 513c cffe 1a3c c1e7 323c
000000c0: b004 1c3c d527 123c 0ad7 233c fcc6 393c
000000d0: e93c 373c 9272 293c 702e 193c 5a06 4b3c
000000e0: 44fc 143c 1beb 383c 6534 3f3c a03b 163c
000000f0: 922e 0c3c 2703 2c3c 41db 433c 4187 253c

hiring_head.0.weight f4 [3, 64]
0.041563682 -0.0021444194 -0.013172585 -0.16858295 0.29734764 -0.123745605 0.0848544 0.12285394
-0.12826537 0.21601571 -0.069023274 0.25223044 0.21421751 -0.0225102 0.17580271 0.07966999
0.29779625 0.206763 0.04316143 0.122883804 -0.20560029 -0.23386137 0.19771634 0.0850845
0.2075627 -0.16734847 0.027991232 -0.029747516 -0.06917756 -0.2824113 -0.051462986 0.2516872
0.07604813 0.20928904 -0.15559758 -0.031145534 0.049567573 -0.2768794 0.19722487 -0.17174907
0.28891268 0.20015246 -0.03435731 -0.04894855 0.15431038 -0.060721394 0.22408244 -0.026574312
0.17512284 0.23542237 -0.1420197 -0.06696448 -0.25547722 -0.07563449 -0.060403038 -0.13184406
0.056419753 -0.035147402 -0.06955195 0.28160807 0.23029381 -0.0069433455 -0.20004842 -0.23042391
0.19824189 0.2981896 -0.09218128 -0.21106759 -0.021948276 -0.02619148 0.15361159 0.009293277
-0.27317587 0.24431778 0.1128182 -0.04096517 0.1642919 0.11534437 -0.14430155 -0.096461825
0.30440092 0.026532816 0.26597354 -0.060195815 -0.21889904 0.07449645 -0.021498702 -0.059015498
-0.034466933 0.20693716 -0.22883758 -0.24111134 0.115651734 0.29374564 0.26272446 0.074211754
0.13995194 -0.08098334 0.20096384 0.1591332 -0.14860015 0.18143061 -0.09599877 0.2820581
-0.29471228 0.26943198 -0.2567614 -0.058471184 -0.07313567 -0.12621765 -0.25481334 -0.2859747
0.026200898 0.034682058 0.062120885 -0.11976689 0.12564774 0.1799489 0.26163974 -0.30642253
0.2927502 -0.1458891 -0.21164326 -0.08177952 0.23193735 -0.087059006 -0.2112745 -0.21769838
-0.23452406 0.21498875 -0.17461222 -0.30616775 -0.049398005 0.23696718 -0.23475505 -0.08035287
0.09556816 -0.1432994 -0.2635592 0.22812125 0.023381287 0.15822227 -0.16951026 0.14398478
-0.28383955 -0.019391578 0.14631896 -0.14382693 0.17430714 0.029199613 -0.080802925 -0.11891812
-0.2957336 0.28373882 0.30381754 0.18059868 -0.19903639 0.21887311 0.20057578 -0.009603444
-0.20588626 0.2257826 0.07529889 0.14254867 0.23971707 -0.09533412 -0.12088236 0.27661714
-0.3042474 -0.20200442 -0.2599874 0.049843 0.22510938 0.08886015 -0.107215375 -0.15861382
-0.029418588 -0.083267614 0.0045667887 0.26690838 -0.15132125 0.026889503 0.19555728 -0.19524768
0.05531431 -0.26175717 0.14170389 -0.128388 0.06376116 0.25413054 0.15436247 -0.091106
00000000: ae3e 2a3d 6389 0cbb d3d1 57bc 02a1 2cbe
00000010: f33d 983e 566e fdbd 25c8 ad3d d99a fb3d
00000020: ff57 03be 3933 5d3e 135c 8dbd 5924 813e
00000030: d65b 5b3e 5067 b8bc a005 343e 052a a33d
00000040: c078 983e aeb9 533e 0aca 303d 81aa fb3d
00000050: e288 52be 5b79 6fbe 2776 4a3e c840 ae3d
00000060: 518b 543e 665d 2bbe de4d e53c 10b1 f3bc
00000070: f7ac 8dbd 3798 90be daca 52bd 25dd 803e
00000080: 1fbf 9b3d de4f 563e f954 1fbe eb24 ffbc
00000090: 5e07 4b3d 23c3 8dbe 51f5 493e fdde 2fbe
000000a0: 5dec 933e c4f4 4c3e 40ba 0cbd 467e 48bd
000000b0: 8a03 1e3e ffb6 78bd de75 653e 5fb2 d9bc
000000c0: 6753 333e 9012 713e 9d6d 11be ac24 89bd
000000d0: e9cd 82be 41e6 9abd 2d69 77bd 2102 07be
000000e0: 6618 673d b9f6 0fbd 4171 8ebd ef2e 903e
000000f0: 24d2 6b3e 0185 e3bb 7ed9 4cbe 3ff4 6bbe
00000100: ecff 4a3e 4fac 983e 8ac9 bcbd 1a22 58be
00000110: dfcc b3bc 848f d6bc 5b4c 1d3e d442 183c
00000120: b5dd 8bbe 712e 7a3e 3a0d e73d 18cb 27bd
00000130: 233c 283e ab39 ec3d c9c3 13be c78d c5bd
00000140: 70da 9b3e 595b d93c af2d 883e e38f 76bd
00000150: 1227 60be 9891 983d 0c1e b0bc 3cba 71bd
00000160: 332d 0dbd 56e7 533e 6654 6abe e4e5 76be
00000170: d1da ec3d d465 963e d283 863e 55fc 973d
00000180: 904f 0f3e 98da a5bd 77c9 4d3e d0f3 223e
00000190: a32a 18be f2c8 393e 019b c4bd eb69 903e
000001a0: 87e4 96be fdf2 893e 3b76 83be 7b7f 6fbd
000001b0: 27c8 95bd 333f 01be e576 82be 476b 92be
000001c0: 44a3 d63c c60e 0e3d 7872 7e3d 5848 f5bd
000001d0: cda9 003e 8644 383e a5f5 853e 6ae3 9cbe
000001e0: 5be3 953e f463 15be 03b9 58be 057c a7bd
000001f0: fc80 6d3e fe4b b2bd 5858 58be 53ec 5ebe
00000200: 1327 70be 0326 5c3e 8ccd 32be 05c2 9cbe
00000210: 9055 4abd 86a7 723e a163 70be 0c90 a4bd
00000220: 3db9 c33d 14bd 12be 3bf1 86be 9e98 693e
00000230: 1d8a bf3c 0505 223e 1994 2dbe bf70 133e
00000240: 6b53 91be 16db 9ebc a3d4 153e 5e47 13be
00000250: 927d 323e 0734 ef3c 017c a5bd 588b f3bd
00000260: 656a 97be 3746 913e f98d 9b3e dcee 383e
00000270: 32d0 4bbe 4620 603e bd63 4d3e c357 1dbc
00000280: d9d3 52be 8e33 673e 4e36 9a3d 47f8 113e
00000290: 6478 753e 893e c3bd 2c91 f7bd c3a0 8d3e
000002a0: 51c6 9bbe 3fda 4ebe 121d 85be 2c28 4c3d
000002b0: 1383 663e 4ffc b53d bc93 dbbd a96b 22be
000002c0: 40ff f0bc 3688 aabd 00a5 953b 37a8 883e
000002d0: f5f3 1abe 6047 dc3c 2b40 483e 02ef 47be
000002e0: 4291 623d 0905 86be d31a 113e 2578 03be
000002f0: 3695 823d 661d 823e 3211 1e3e c895 babd

hiring_head.0.bias f4 [3]
0.0072447946 0.009392436 0.008468566
00000000: be65 ed3b bbe2 193c bebf 0a3c
