trained_sup_function.pt (torch, 31273 bytes, 12 tensors)

trunk.0.weight f4 [64, 2]
000000 0b 5d 91 3f 34 fa f1 be cc d8 80 3f 48 6c ad 3f
       1.135652 -0.47261202 1.0066161 1.354867
000010 8b 44 8c bf 26 8d 13 3e 84 3f fe be 65 6e a7 3f
       -1.0958418 0.14409313 -0.49657834 1.3080565
000020 a3 b7 5c be 14 19 a1 be 60 71 93 3f a0 34 92 3e
       -0.21554427 -0.31464446 1.1518974 0.28555775
000030 3a 8a 94 3f 7d dd 21 bf d1 1b c8 bf bb 56 73 3e
       1.1604683 -0.6322859 -1.5633489 0.23763554
000040 46 4d ba 3f 26 9d a6 3f e1 23 3e bf 0d 61 c5 3f
       1.4554832 1.3016708 -0.74273497 1.5420243
000050 a8 43 88 bf fa e8 d0 3f be dd b2 3b 3f b4 47 bf
       -1.0645647 1.6321099 0.0054585626 -0.7800941
000060 0f be da 3e ff 4b b9 3f 9f 12 8a 3f ce 7f 78 bf
       0.42723128 1.4476317 1.0786933 -0.97070014
000070 e0 5f f2 3e 88 f9 32 3f 8a b9 e3 be 56 f9 2d 3e
       0.47338772 0.69912004 -0.44477493 0.16989645
000080 06 cd d4 3f af 3b d3 be 94 99 af 3f 24 a0 b9 bf
       1.6625068 -0.41256472 1.3718743 -1.4501996
000090 a9 12 2f bf f6 56 bc 3e bf 0d 49 bf 31 b2 b0 bf
       -0.6838785 0.36785096 -0.785366 -1.380438
0000a0 b5 af 90 be 3b 54 50 bf 06 0d 29 3f 09 87 4a 3f
       -0.28259054 -0.81378525 0.660355 0.791123
0000b0 b5 cd 95 bf 0f cd 80 3f 81 b8 81 3f 3f fa 8b 3f
       -1.1703402 1.0062579 1.0134431 1.0935744
0000c0 05 20 95 bf 38 a1 b6 bf f9 4c d4 ba 25 2f 27 3f
       -1.1650397 -1.426795 -0.0016197256 0.6530631
0000d0 46 44 38 3f ad f1 b1 bf ac bf ad 3f 27 1a d0 3f
       0.71979177 -1.3901879 1.3574119 1.6257981
0000e0 7c f7 a8 bd ee ef aa 3e 31 a1 74 3e e4 e9 aa bf
       -0.08250329 0.33386177 0.23889615 -1.3352628
0000f0 dc d4 d7 bf 9d 72 87 3f b7 78 b9 3f 0c 94 14 3c
       -1.6861835 1.0581852 1.4489964 0.0090685
000100 05 95 c7 bf 23 91 d6 3c 8f 9c 9f bf e1 14 f5 3e
       -1.5592352 0.026192253 -1.2469653 0.47867492
000110 cb 55 c0 3f 4b 43 d4 3f c2 d9 b9 3f 6b 08 d8 3e
       1.5026182 1.6583036 1.451958 0.42193922
000120 51 d2 d3 3f 75 85 be be 46 16 08 be 7a a4 9c bf
       1.6548558 -0.37211195 -0.13289747 -1.2237694
000130 9d f9 48 3f 3c e1 36 3f d8 1d 4c 3f ca a6 a6 3f
       0.7850588 0.7143743 0.7973304 1.301965
000140 f7 21 b7 3f 8d 17 d6 bf 21 09 1b bf 97 1e b9 bf
       1.430724 -1.6725937 -0.60560805 -1.446246
000150 5d 10 a9 3f 67 a0 5c bd a4 e9 c0 bf 8e ea 42 3f
       1.3208119 -0.05386391 -1.5071301 0.7613915
000160 8b a7 8a bf ec bb 4e bd 18 6b 64 3f 64 e5 69 3f
       -1.083238 -0.050472185 0.8922591 0.9136565
000170 8f 48 88 3f e5 54 95 bc 45 6d 0a be 45 c0 68 bd
       1.0647143 -0.018228957 -0.13518246 -0.056823988
000180 de 94 dc bf d0 d4 21 bf 69 79 a5 3f 67 61 5c 3f
       -1.7232931 -0.6321535 1.2927676 0.86086124
000190 92 89 c8 bf df b0 e9 3e c6 cd e2 3f 8c e4 98 bf
       -1.5666983 0.45642754 1.7719047 -1.1944747
0001a0 a0 e4 49 be a1 4c 81 bf e8 24 da bd 02 d9 54 bf
       -0.1971612 -1.010151 -0.106515706 -0.8314363
0001b0 ce 30 c6 3f 67 13 6f 3f 07 4e d0 be 9c 76 c8 bf
       1.5483644 0.9338898 -0.4068453 -1.5661197
0001c0 07 42 79 bf e3 ec 6b be 12 4e 98 3e d1 8c 53 bf
       -0.97366375 -0.23039584 0.29747063 -0.82636744
0001d0 15 8f 88 bf 75 0a 5f be 3d d0 ae bf a3 b2 cb 3e
       -1.0668665 -0.21781333 -1.3657299 0.39784727
0001e0 2f 64 d2 bf c1 7f be be ca 11 bf bf d0 c3 36 bf
       -1.6436824 -0.37206843 -1.4927304 -0.71392536
0001f0 5c 19 8b bd 65 fb 6d bf bb bb 98 bf 6f 9e 0f 3e
       -0.06791946 -0.9296172 -1.1932291 0.14025281

trunk.0.bias f4 [64]
000000 b0 69 70 3d 4d ce ad bd 5b 40 75 bd 66 68 56 3c
       0.05869454 -0.084866144 -0.059875827 0.013086414
000010 98 8d b5 3c 6c 08 ca 3c 94 23 77 3c c7 27 40 bd
       0.022162244 0.024662219 0.015084166 -0.046912935
000020 2c c6 09 3d d3 61 87 3a ca c3 09 38 fd f1 db 3b
       0.033636257 0.0010328837 3.2845688e-05 0.006712197
000030 f8 c8 f5 3b a8 3a 3d 3d af cd bf 3c 46 a7 4f bd
       0.007500764 0.046198517 0.023413507 -0.050696634
000040 2b b7 06 3d 81 1d f7 3c ba 96 17 bd f6 9f 90 bd
       0.032889526 0.030165436 -0.03700898 -0.0706176
000050 bd 64 0d 3c 5b ca 2d bd 0f 73 6c 3c 2b 75 6b bc
       0.008629975 -0.04242931 0.014431729 -0.014371197
000060 7a 58 89 bd dc 73 6a bc 79 5f db bc e1 0a 9e 3b
       -0.06706329 -0.01430985 -0.026778923 0.004823074
000070 1b df 94 3c 58 b9 32 3b 19 85 3f bb c2 e0 0e 3d
       0.018172791 0.0027271118 -0.002922362 0.034882315
000080 d5 d4 59 bd d8 4c 48 bd ef c5 fd bc 65 27 23 3d
       -0.053181488 -0.04890141 -0.030978171 0.03983249
000090 40 94 66 3c df 24 9b bd d0 1a 54 bc a4 f8 87 ba
       0.0140734315 -0.07575392 -0.012945846 -0.0010373783
0000a0 f3 a0 17 3c 1a 92 38 bd 5f a8 aa 3c 61 9a 43 bc
       0.009254682 -0.04506121 0.020832239 -0.011938662
0000b0 f0 b9 0d bd d3 d7 7d 3b 2a c8 f0 ba f1 dd 73 3c
       -0.034601152 0.0038733378 -0.00183702 0.014884458
0000c0 50 e1 38 bc 5e b1 e6 3c 8d 98 b4 3c 1a 67 82 3d
       -0.011284187 0.028160747 0.022045398 0.06367321
0000d0 b5 6f 4d bd 7e ae 63 ba 25 a2 22 3d 31 00 e8 bc
       -0.05015536 -0.0008685364 0.039705414 -0.028320404
0000e0 b5 df 6e bd 52 f8 af 3c f2 04 14 bd 8b 12 1e bc
       -0.058318812 0.021480713 -0.03613753 -0.009647976
0000f0 43 c0 3c bd fc 86 b2 bc 8f f0 b8 bc 21 64 9d bd
       -0.046081793 -0.021792881 -0.022575645 -0.07685114

trunk.1.weight f4 [64]
000000 2d a5 97 3f 82 07 5f 3f 63 a2 8a 3f b4 a3 6c 3f
       1.1847283 0.8712083 1.0830806 0.9243729
000010 3f 59 7d 3f ea 34 82 3f 9e dc 7d 3f 3c e5 85 3f
       0.98964304 1.0172398 0.9916476 1.0460582
000020 56 98 7b 3f bb 74 80 3f bf cc 80 3f 45 17 64 3f
       0.9827932 1.0035623 1.0062484 0.89098006
000030 4f b9 82 3f 25 33 bf 3f ef f4 83 3f 5b 21 84 3f
       1.0212802 1.4937483 1.0309123 1.0322679
000040 44 ab 80 3f 58 07 80 3f ee 23 86 3f e9 3c 7c 3f
       1.0052266 1.0002241 1.0479715 0.9853044
000050 93 3b 7b 3f e0 39 75 3f 70 0f 76 3f 22 04 7a 3f
       0.9813778 0.95791435 0.96117306 0.97662556
000060 5c 47 82 3f c3 82 86 3f a1 b5 86 3f 3d 61 70 3f
       1.0178027 1.0508655 1.0524179 0.93898374
000070 1f be 8a 3f 85 98 85 3f df f1 89 3f f5 54 86 3f
       1.083927 1.043717 1.0776938 1.0494677
000080 bb 43 84 3f b7 47 8e 3f cc ff 65 3f f0 6b 82 3f
       1.033317 1.1115636 0.8984344 1.018919
000090 dc 08 73 3f 15 cd 83 3f 0b 24 86 3f 77 30 85 3f
       0.94935393 1.0296961 1.047975 1.0405415
0000a0 69 ee 70 3f 30 b3 85 3f c9 3f 80 3f b9 ca 73 3f
       0.94113785 1.0445309 1.0019466 0.95231205
0000b0 69 a5 81 3f 82 bf 70 3f c3 ee 7a 3f 96 73 79 3f
       1.0128604 0.9404222 0.9802057 0.97441995
0000c0 68 30 76 3f 86 9e 77 3f 09 31 79 3f 2a d5 ae 3f
       0.9616761 0.9672626 0.97340447 1.3658803
0000d0 e9 48 87 3f 89 df 89 3f 5a 26 82 3f 79 3c 74 3f
       1.0569125 1.0771343 1.0167954 0.95404774
0000e0 b2 a8 85 3f f1 84 8d 3f c3 f7 7c 3f fe 2e 7a 3f
       1.0442107 1.1056195 0.98815554 0.97727954
0000f0 21 86 81 3f 0e c0 6e 3f c7 e1 89 3f 8f 8e 87 3f
       1.0119058 0.932618 1.0772027 1.059038

trunk.1.bias f4 [64]
000000 bb c0 0e 3e cd 46 0e be 18 d6 9a bd ac 16 c0 bd
       0.13940708 -0.13894196 -0.075603664 -0.09379324
000010 ef 89 45 3c 37 49 42 3c 57 75 2f 3c 16 79 39 bd
       0.012056812 0.011858276 0.010709128 -0.045281492
000020 a5 f7 80 bc e2 a7 31 ba df c3 d2 3b 66 a4 f3 3d
       -0.015743086 -0.00067770306 0.006432041 0.11896591
000030 09 24 f0 3c dd 97 28 bd 78 01 0e 3d a7 81 ea bc
       0.029314058 -0.041160453 0.03466937 -0.028626276
000040 b7 3b 98 3c cd 6e de 3c 8f 9e 19 bd f0 46 df 3b
       0.018583162 0.027152443 -0.03750473 0.0068138763
000050 02 bb 99 3c ac f8 32 bd 9c 6c 44 3d 57 f0 b4 bc
       0.01876593 -0.043694183 0.04795514 -0.02208726
000060 d6 6d 91 bc 0e d4 53 3d 0d 76 82 bd b0 af 82 bd
       -0.01775257 0.051715903 -0.06370173 -0.06381166
000070 b7 fe 51 3d 6b 9b 42 bd 62 e7 d4 bc 1f 8a 41 3d
       0.051268306 -0.0475115 -0.025989238 0.047250863
000080 6e 38 fe bc 01 c8 d6 bd db 69 da bd 7c 78 ae 3c
       -0.031032767 -0.104873665 -0.106647216 0.021297686
000090 80 cb 35 bd 45 08 85 bd 2c 90 4e 3d e6 74 41 3d
       -0.044383526 -0.06495718 0.05043046 0.047230624
0000a0 2a 8b 78 bd 30 6f 93 bd 10 93 8c b9 09 ce 0a 3d
       -0.060679592 -0.07198942 -0.0002681245 0.033887897
0000b0 05 dc 5c bc 52 ec 5b bd c0 08 03 bc 47 06 02 3d
       -0.013480191 -0.05369217 -0.007997692 0.031744268
0000c0 ea 91 18 3d 42 82 e9 bc 3f c3 fb 3c c6 d7 1c 3e
       0.03724853 -0.028504495 0.030732749 0.15316686
0000d0 26 ea 87 bc f6 44 9c bd dc 5f 92 3c b1 84 83 3d
       -0.016591143 -0.07630341 0.017867975 0.06421793
0000e0 0f f3 31 bd af 1e 0e be 9d 9a 29 3c d9 9e a2 3c
       -0.04344469 -0.13878892 0.010351804 0.019851135
0000f0 4b 84 dc bb f3 c6 87 3d ac de 8a bd 41 fb 67 bd
       -0.0067296377 0.066297434 -0.067807525 -0.0566361

trunk.3.weight f4 [64, 64]
000000 26 1d 25 be 67 bc 08 bb c5 d9 a9 3d 03 1b 4c bd
       -0.161244 -0.002086425 0.08293489 -0.049830448
000010 78 37 7e be c5 0a d3 bd e8 1b 42 bd 26 41 de 3d
       -0.24825847 -0.103047885 -0.047389895 0.1085227
000020 b0 ff 86 be 6e 52 48 3e 32 b3 7e 3d f1 94 61 3d
       -0.2636695 0.19562694 0.062182613 0.055073682
000030 bf 2c 5e 3a e0 e7 02 3e 04 01 bd 3d be 5a 6e 3e
       0.00084752956 0.12783766 0.09228709 0.23276803
000040 cc d1 a5 bd 19 a3 26 3e 79 ec 49 3e a2 92 12 3e
       -0.08096656 0.16273154 0.19719113 0.14313748
000050 3b 16 a1 3c 95 3c b5 3d a5 53 58 3d 54 af 33 3e
       0.01966392 0.08849446 0.052814145 0.17547351
000060 fa 06 96 bd 6f 1f ba 3c 8f a2 92 3d f6 38 9e be
       -0.073255494 0.022720067 0.07159912 -0.30902833
000070 b6 2e 62 3d b4 e6 44 be e4 49 30 3e 2b d3 a1 bd
       0.05522033 -0.19228631 0.17215687 -0.07901605
000080 46 cc ca 3d ae 7b 61 be dc 7b f2 3d a2 8b 37 3e
       0.09902243 -0.22019836 0.118400306 0.1792436
000090 4c e2 bd 3d e5 66 dd 3d a6 99 47 be 2a 47 84 3e
       0.09271678 0.10810641 -0.19492206 0.25835544
0000a0 67 26 e3 3d b7 7e 8a be 55 ec c7 bc a0 7f e3 3c
       0.11091309 -0.270498 -0.024404684 0.027770817
0000b0 22 cf fa 3d 3c 1b 22 3d c0 23 61 3e 2a a6 50 bc
       0.12246539 0.039576754 0.21986294 -0.012734929
0000c0 21 ee 07 bd 7e c7 03 bd a8 7e 50 3e 3a de 61 be
       -0.03318608 -0.032172672 0.20360816 -0.22057429
0000d0 3f c3 83 3e b9 c4 c8 bd d7 16 17 3e b4 ef 3f be
       0.25734898 -0.09803147 0.14754806 -0.18743783
0000e0 9c 2b be bd c7 b4 fc 3c 32 3f 95 bc 26 b5 34 be
       -0.092856616 0.03084792 -0.01821861 -0.17647228
0000f0 3d a2 84 be d5 13 73 be c1 10 9d 3e f8 7f 2e 3e
       -0.25905028 -0.23738034 0.30676845 0.17041004
000100 e8 0f 48 bd 9e 57 3a 3e 53 bc 29 bd 41 26 d4 bc
       -0.048843294 0.18197486 -0.041439366 -0.025897147
000110 ee de 3a be ef 3b 41 be ee 0b 66 3e a3 ab 9d 3e
       -0.18249103 -0.18870519 0.22465488 0.3079501
000120 f3 8f 9d be 4d ff f3 3c 77 35 6d 3d d0 1d 24 be
       -0.30773887 0.029784823 0.057912316 -0.16026998
000130 ab 5a 10 be 6b 2a 09 be de f6 a1 3d a9 fb 94 3e
       -0.14097087 -0.13395087 0.07908414 0.2909825
000140 80 e5 ec 3d 15 f7 ab bc 6f 68 8b 3d 61 a6 48 be
       0.11567211 -0.020991841 0.068070285 -0.19594719
000150 aa 24 1d be 76 4d bb 3d 90 8c 83 3e 6c 05 5b bc
       -0.15346017 0.09145634 0.25693178 -0.013367992
000160 53 95 b3 bd 99 a6 d4 3c d9 97 96 be 90 8d 38 3e
       -0.08768716 0.025958346 -0.29412726 0.18022752
000170 32 79 3b be e7 ad c5 bd 8f 23 84 be 7d 0a ba 3d
       -0.18307951 -0.0965231 -0.2580838 0.09084032
000180 04 bc 05 be dc 5c 97 3c bb be 43 be f4 e4 1f 3e
       -0.13060004 0.018476896 -0.19115727 0.15614682
000190 a4 0d 63 be 86 87 7f be 1f c1 94 be e7 14 87 3e
       -0.22173172 -0.24954042 -0.2905359 0.26383135
0001a0 9b f0 2e 3e 79 70 58 be 35 0b 9c bd f0 46 70 3e
       0.17083971 -0.21136655 -0.07619325 0.2346456
0001b0 53 92 c4 3d 19 b5 8b 3e a2 4c 37 bd 34 e9 d2 bc
       0.09598222 0.27286604 -0.044750817 -0.025745966
0001c0 be 37 6c 3e c2 83 8b bc 4e c1 84 be 6a 1a fb 3d
       0.23068139 -0.0170306 -0.2592873 0.122608975
0001d0 02 4b 6c 3e 9e 8e 05 3e b6 1e 84 bd ee 88 97 be
       0.23075488 0.13042685 -0.0645117 -0.29596657
0001e0 85 5e 68 3e 13 8b 82 bd 89 0a 7d bd d2 17 8f 3e
       0.22692306 -0.063741826 -0.061777625 0.2794786
0001f0 b1 98 2d 3e de ba c6 3d c4 6a dc 3d ab 0b e6 3b
       0.16952778 0.09703611 0.107625514 0.007020434
000200 bb c2 7f bd f7 38 3a be 12 01 0f 3e 29 33 04 3e
       -0.06244157 -0.18185793 0.13965252 0.12910141
000210 b8 95 43 3e a7 f8 3c be 7c 0c f4 bc d8 56 1e 3c
       0.19100082 -0.18454228 -0.02979111 0.00966426
000220 a3 e7 50 be 79 23 2a 3d db 17 17 3e 8a c5 44 3d
       -0.20400862 0.041537736 0.14755194 0.04803995
000230 00 52 29 be 7d f4 87 3e 30 d5 42 be 69 f2 1c 3e
       -0.16535187 0.26553717 -0.19026637 0.15326847
000240 ad 7b 12 bd 07 dd dc 3d df 0d 1d 3e 0e 21 84 be
       -0.035762478 0.10784345 0.15337323 -0.2580647
000250 6a f2 cd 3d 35 90 c6 bc 10 d4 66 be 90 fa 2a 3e
       0.100560024 -0.024238685 -0.22541833 0.16697145
000260 a0 49 6a 3d a3 da f8 bd c0 e3 f5 3b 77 42 44 3e
       0.05719912 -0.12151077 0.0075039566 0.1916598
000270 cd d2 2f be dd 9c 11 be 33 c5 83 bd 5e 88 dd bd
       -0.17170258 -0.14219995 -0.06434097 -0.108170256
000280 72 b4 21 3e 1d 13 ba bc 8d 5c ee 3d 0c 01 8c be
       0.1579149 -0.022714192 0.116387464 -0.2734455
000290 b7 0a 15 3c 18 d5 86 3e 83 d7 80 bd 6c 08 5f 3e
       0.009096793 0.26334453 -0.062911056 0.21780556
0002a0 da ca d4 3d fc b3 87 be cd a0 53 be fe 36 8b 3e
       0.10390253 -0.26504505 -0.2066681 0.27190393
0002b0 20 40 b6 bc 9e bd 88 3e 4c ab a8 be 3b 86 10 be
       -0.022247374 0.26707166 -0.3294319 -0.14113705
0002c0 61 4e 86 3e a7 a7 82 3e 1e 4b 80 be 41 c6 d1 bc
       0.26231673 0.25518534 -0.2505731 -0.02560723
0002d0 eb 39 8c be 56 0d 46 be b6 8f dc 3d 2c 73 00 be
       -0.27387938 -0.19341025 0.10769598 -0.12543935
0002e0 8d b0 c6 3b 24 9c a6 bd 60 a3 7d be 50 2e 7d be
       0.006063527 -0.0813525 -0.24769354 -0.24724698
0002f0 ab 55 1e 3e 5b aa 5c 3e 1c 02 de bc a9 63 8e 3e
       0.15462367 0.2154936 -0.027100615 0.2781041
000300 e6 f6 9e bd 77 33 35 bd 61 bf a1 be 8a 76 9d 3e
       -0.07761936 -0.044238534 -0.31591323 0.307545
000310 e6 0b a1 3c ac 44 5e 3d 3a 30 82 bd b1 b1 a3 be
       0.019658994 0.05426471 -0.06356855 -0.31971505
000320 7c 96 9d 3e 7b b7 22 3e b9 4e 3f bd f9 cd 4d bc
       0.30778873 0.15890305 -0.046705935 -0.012561315
000330 08 8b f8 3d e4 84 14 3d f8 85 ae 3e 28 76 2b bc
       0.12135893 0.036259547 0.34086585 -0.010465182
000340 99 0a a1 3d 53 9a 5e 3e aa df 88 be ba 69 0b 3e
       0.078633495 0.21738558 -0.26733142 0.1361455
000350 0f 4c 2b be ec ea 4f be 0a e6 22 be 9c 9e aa bd
       -0.16728233 -0.2030446 -0.15908065 -0.083310336
000360 a5 5a 71 3e 3a 3e a6 3d 8c e8 6e be fb 16 44 be
       0.23569734 0.081173375 -0.23330897 -0.19149391
000370 40 f9 b7 bd 21 68 ac be 3d bb 90 bd 77 ae 6c 3d
       -0.089830875 -0.33673194 -0.07066963 0.05778357
000380 db 86 a8 be a1 9b fd 3a 62 96 d5 bc 08 9e 4d bb
       -0.32915387 0.0019348749 -0.026072685 -0.0031374712
000390 d5 a7 58 be a1 3f 05 3e 7e 87 8b 39 27 be be 3d
       -0.21157773 0.13012554 0.00026613096 0.093136124
0003a0 1f d9 27 3d 63 c1 0d 3d f6 c1 4c 3e 15 bc bc bd
       0.040978547 0.034608256 0.19995865 -0.09215561
0003b0 12 9c 02 be fa f2 ac 3c 6d ed 4f be e5 dd f6 3c
       -0.12754849 0.021111954 -0.20305414 0.030135104
0003c0 54 9f 2a be af 0c 8d 3e 9b 94 7d 3e e3 6f ee 3e
       -0.16662341 0.2754874 0.2476372 0.46569738
0003d0 51 c9 12 be 3b f6 ff bd 19 25 8e 3e cc 2b ce bd
       -0.14334609 -0.124981366 0.27762678 -0.10066947
0003e0 a5 3d d4 3d aa 27 83 be a4 a1 c9 bd 04 28 c2 3d
       0.1036332 -0.256162 -0.09845284 0.094802886
0003f0 03 e9 30 3e 35 96 79 bd bf ea 8a bb ae 1b 08 be
       0.17276387 -0.060934264 -0.0042394097 -0.13291809

trunk.3.bias f4 [64]
000000 cd b1 8b bc ae d0 2c bb e3 9b eb bc da 71 33 3d
       -0.017052555 -0.00263695 -0.028760856 0.04380975
000010 b5 a7 4b bc 0d 51 da 3b 3b db 70 3d ea 80 ca 3c
       -0.012430121 0.006662494 0.058802824 0.024719674
000020 78 b3 3d 3a ac 88 06 3d cf b0 01 3c 29 b7 99 3c
       0.0007236521 0.032845184 0.00791569 0.018764095
000030 ab bc e2 bc 1d e9 46 bd 23 b1 ac bc 5b 3b d0 3d
       -0.027677855 -0.048562158 -0.02108056 0.10167571
000040 0c d4 79 bc b0 74 3e bc 32 a2 9f bc d5 18 a5 bb
       -0.01524831 -0.0116245 -0.01948652 -0.0050383606
000050 32 b6 e2 3b d0 fe 51 3d 31 72 d1 3c 67 72 75 3d
       0.006918692 0.0512684 0.025567146 0.059923556
000060 b3 06 b3 bc 34 c2 50 bd 53 47 52 3d e4 43 e7 3b
       -0.02185378 -0.050966457 0.05133755 0.0070576537
000070 e0 a6 04 3c 8f b3 31 3d c9 d1 50 3d 1d d3 5d ba
       0.008096427 0.04338413 0.050981317 -0.0008461939
000080 85 82 47 bd 21 3b f5 bc e2 d9 48 3d 05 85 07 bd
       -0.048708457 -0.029935421 0.049035914 -0.03308584
000090 b7 1a cb bb 8d e2 42 bc 6d ed 7f bc ac 09 13 3c
       -0.006198253 -0.011894834 -0.015620572 0.008974474
0000a0 ba 80 ee 3c 56 1e 6e 3d cd 31 2c 3c e3 ed ce 3b
       0.029114116 0.0581344 0.01050992 0.0063149794
0000b0 d5 7a 14 bd 80 5c 13 bb 42 be fa 3c e3 d8 72 3d
       -0.036249954 -0.0022485554 0.0306083 0.05928887
0000c0 ae 4c 66 3c 2a 79 f2 3c 80 fe 43 3c 7e 83 a4 bc
       0.014056368 0.029598791 0.011962533 -0.020082232
0000d0 e5 e4 1a 3c 65 99 48 3d 93 bd 0e bc 0d fc 3e 3d
       0.009453987 0.048974413 -0.00871219 0.046627093
0000e0 7a b1 16 3d 45 43 0e 3c 1d 7b 10 3d e3 c5 ca 3c
       0.03679035 0.0086830305 0.03527366 0.024752563
0000f0 96 6d cb 3d 5a 54 9d 3d f2 15 a7 bb fb 0f b9 ba
       0.09933011 0.076821044 -0.0050990516 -0.0014119142

trunk.4.weight f4 [64]
000000 8c 08 bb 3f 95 9c cb 3f 07 93 ba 3f 63 0e 17 40
       1.4611983 1.590716 1.4576119 2.360253
000010 85 b1 38 3f da 90 c0 3f 2e 85 2d 40 fb 8e b2 3f
       0.72145873 1.5044205 2.7112536 1.3949884
000020 3e bb d3 3f 24 a0 cd 3f c6 38 b9 3f b7 61 bd 3f
       1.6541517 1.6064496 1.4470451 1.4795445
000030 d5 26 c9 3f 75 1a a5 3f 7f e5 a8 3f 0e f3 2c 40
       1.5714976 1.2898699 1.3195037 2.702335
000040 2d 57 c4 3f 0b 71 c4 3f ab 68 ca 3f 35 b8 d8 3f
       1.5339104 1.5346998 1.5813192 1.6931216
000050 92 4d c2 3f 39 98 26 40 1f f6 b3 3f fd df 1b 40
       1.5179923 2.603041 1.4059485 2.4355462
000060 9c 87 cc 3f a1 ea ae 3f 91 b4 a7 3f e6 17 c7 3f
       1.5978885 1.3665353 1.310198 1.5554168
000070 ca 74 e4 3f 8c 0e 15 40 8f 02 a6 3f 59 08 c4 3f
       1.7848141 2.3290129 1.2969531 1.5315048
000080 ea c1 af 3f f7 1a 23 3f 07 44 22 40 7e e3 26 3f
       1.3731053 0.6371302 2.535402 0.65190876
000090 ab 55 c6 3f 2f 71 cc 3f 55 ff bd 3f a7 c7 b4 3f
       1.5494894 1.5972041 1.4843546 1.4123429
0000a0 84 e2 b0 3f d4 2b 22 40 fd c4 b7 3f 1b 1c c0 3f
       1.3819127 2.533925 1.4356991 1.5008577
0000b0 16 18 b4 3f 67 02 ce 3f c3 33 b5 3f 30 ad 1f 40
       1.406985 1.6094483 1.4156421 2.4949455
0000c0 25 88 b5 3f ae e3 02 40 aa f6 cc 3f 8f 86 b7 3f
       1.4182173 2.0451465 1.6012776 1.4337939
0000d0 88 d8 c0 3f 3a ad a7 3f a8 38 b9 3f 2d 7e aa 3f
       1.506608 1.309974 1.4470415 1.3319756
0000e0 ec 7e ad 3f ed d5 be 3f 11 c4 0e 40 3c ee b8 3f
       1.3554358 1.4909035 2.230717 1.4447703
0000f0 67 b6 31 40 c9 60 28 40 62 05 24 3f 43 86 cd 3f
       2.776758 2.6309073 0.64070714 1.6056598

trunk.4.bias f4 [64]
000000 b9 8d 00 bf 5c 41 de be 59 9e dd be 82 5e 91 3f
       -0.5021625 -0.4340924 -0.43284872 1.1356966
000010 56 31 28 3f e6 d3 f5 be be 6d b3 3f 19 b9 09 bf
       0.6570028 -0.48013228 1.4017866 -0.5379806
000020 a4 0b cd be 21 1e d3 be b6 a9 02 bf 67 ab fc be
       -0.40047944 -0.41233924 -0.5104021 -0.4934952
000030 d1 ec e3 be a4 ed fe be 58 a9 16 be e7 aa bb 3f
       -0.44516614 -0.4979068 -0.14713037 1.466153
000040 ff e1 ed be 29 bb ed be 27 dd e0 be 14 7a c2 be
       -0.46461484 -0.46431854 -0.43918726 -0.37983763
000050 3f fe f1 be 16 22 a5 3f f5 37 08 bf e2 34 9d 3f
       -0.47264287 1.2901027 -0.53210384 1.2281764
000060 b0 d7 dc be 2d 72 0d bf c5 5c 15 bf 91 e9 e7 be
       -0.43133307 -0.55252343 -0.5834468 -0.45295385
000070 60 36 8c 3f e7 db a1 3f b9 f8 16 bf 4e 8d ee be
       1.0954094 1.2645234 -0.5897327 -0.46592182
000080 0f 2c 0b bf db 92 5a 3f 3c f2 99 3f 25 b1 31 3f
       -0.54364103 0.85380334 1.2027049 0.69410926
000090 7d 99 e9 be 39 ad dc be 52 33 fb be ea 5d 07 bf
       -0.45624915 -0.43100908 -0.49062592 -0.52877676
0000a0 cb 6f 0b bf 23 74 a3 3f c8 51 04 bf 2b f3 f6 be
       -0.5446746 1.2769817 -0.5168729 -0.48232397
0000b0 6e 50 05 bf 51 d8 d9 be 71 fe 06 bf 0e 4f a0 3f
       -0.5207585 -0.4254785 -0.52731997 1.2524126
0000c0 4b 87 06 bf 76 f8 90 3f 7a 73 db be 13 6d 04 bf
       -0.5255019 1.1325824 -0.4286154 -0.51728934
0000d0 33 8b f5 be 29 4e 15 bf 07 55 f3 be ce 6b 12 bf
       -0.47957763 -0.5832239 -0.47525808 -0.57195747
0000e0 bb 21 0f bf 11 58 f9 be fa 7a 97 3f 16 02 03 bf
       -0.55910844 -0.48700002 1.1834404 -0.5117506
0000f0 10 e5 c8 3f 90 19 b0 3f 6d eb 71 3f 34 21 da be
       1.5694904 1.3757801 0.94499856 -0.42603457

value_head.0.weight f4 [25, 64]
000000 38 53 cc bf 9a cb b8 bf 37 54 41 bf cc ba 05 40
       -1.5962896 -1.4437134 -0.75519127 2.0895262
000010 b1 b5 0a 3e de 0c e0 bf ec 6a 00 40 9e 4b e6 bf
       0.13545872 -1.7503927 2.006526 -1.7991827
000020 51 88 e3 bf ad 2c 81 bf d9 14 ed bf 33 73 cf bf
       -1.7775975 -1.0091759 -1.8521987 -1.6207031
000030 9a ae c7 bf 74 f3 84 bf 8f 8e eb be a3 9d f3 3f
       -1.5600159 -1.0386796 -0.460072 1.9032482
000040 11 7a cc bf 47 ad dc bf f8 dd e3 bf fc c0 df bf
       -1.5974752 -1.724038 -1.7802114 -1.7480769
000050 80 9d cd bf 14 ef e1 3f bb 08 e1 bf 32 d0 cf 3f
       -1.606369 1.7651086 -1.7580789 1.6235411
000060 66 35 e5 bf 41 04 a4 bf c6 43 d4 bf a8 e5 c8 bf
       -1.7906921 -1.2813798 -1.6583183 -1.5695086
000070 8e d3 ad 3f 57 a5 ea 3f a1 cd b2 bf 6c 54 cb bf
       1.3580186 1.8331708 -1.3969003 -1.5885139
000080 20 76 57 bf 8b c1 ad 3f ea bc ed 3f 79 1a d4 3e
       -0.8416462 1.357469 1.8573277 0.41426447
000090 de af cc bf e5 51 dc bf 40 f7 9e bf 69 7a c1 bf
       -1.599117 -1.7212492 -1.2419205 -1.5115482
0000a0 b8 b4 b9 bf eb 99 01 40 7b 3a c2 bf c4 5e db bf
       -1.4508276 2.0250194 -1.5174097 -1.7138295
0000b0 60 24 87 bf 4b 06 bd bf 5c dd c2 bf 52 61 04 40
       -1.0557976 -1.4767545 -1.5223804 2.06844
0000c0 a2 d2 d4 bf ac 65 e5 3f 9d fb ed bf fc d2 e6 bf
       -1.662678 1.7921653 -1.8592411 -1.8033137
0000d0 68 36 db bf 15 25 b5 bf 1e 9d 87 bf c8 40 e1 bf
       -1.7125978 -1.4151942 -1.0594823 -1.7597895
0000e0 52 f0 b2 bf eb 1b d6 bf cc 95 f0 3f d2 5d c5 bf
       -1.397959 -1.672727 1.8795714 -1.5419257
0000f0 d7 94 0d 40 81 36 f4 3f ba 62 89 3f 4f 27 bd bf
       2.2122095 1.9079133 1.0733254 -1.4777621
000100 4c 6e bc bf 37 3a 9c bf 47 20 1b bf 84 b2 da 3f
       -1.472116 -1.2205266 -0.60596126 1.7085729
000110 31 76 95 3d 6a cc c2 bf b8 03 08 40 8e 5c dc bf
       0.07297934 -1.5218632 2.125227 -1.7215745
000120 8d a2 b8 bf 5e dc 35 bf 1f 12 b0 bf e1 31 d0 bf
       -1.4424607 -0.7103938 -1.375553 -1.6265222
000130 3e 65 a6 bf 7a d4 4d bf e9 47 d0 be 73 8c cc 3f
       -1.2999647 -0.8040234 -0.40679863 1.5980362
000140 ea 8d b3 bf 35 d7 a1 bf 71 ab a1 bf 82 cd b6 bf
       -1.4027684 -1.2643801 -1.2630445 -1.4281466
000150 67 41 a6 bf dd 06 00 40 88 3a b4 bf e2 ba d6 3f
       -1.2988709 2.000419 -1.4080362 1.6775782
000160 49 63 9b bf c1 a6 71 bf 1a 0d d9 bf 14 fb cb bf
       -1.2139674 -0.9439507 -1.6957123 -1.5935998
000170 ea 4f ae 3f 69 9e c0 3f fc c8 9f bf 0e b3 ab bf
       1.3618138 1.5048343 -1.248321 -1.3414018
000180 f6 05 6d bf eb e0 5f 3f 51 35 01 40 6b 5a cd 3d
       -0.9258722 0.8745257 2.0188792 0.100270115
000190 fd d0 d6 bf db 62 d5 bf f6 20 a0 bf 43 fd dc bf
       -1.6782528 -1.6670793 -1.2510059 -1.7264789
0001a0 3d 7d a4 bf 41 88 f1 3f 2e 8b da bf f0 1f a1 bf
       -1.285072 1.8869706 -1.7073724 -1.2587872
0001b0 d5 1d 97 bf 8d 54 a3 bf c2 cc c9 bf 5e 3c fd 3f
       -1.1805979 -1.2760178 -1.5765612 1.9784048
0001c0 11 d2 d4 bf 81 02 d3 3f 8c 77 b0 bf 7b 0b cc bf
       -1.6626607 1.6485139 -1.3786483 -1.5941004
0001d0 35 7c d1 bf 8e 91 b6 bf cd 0c 4b bf 4a 63 d8 bf
       -1.636603 -1.426317 -0.7931641 -1.6905301
0001e0 61 d7 d8 bf 1c c9 d0 bf d9 b3 f6 3f b3 42 b4 bf
       -1.6940728 -1.6311374 1.9273635 -1.4082855
0001f0 09 b8 0a 40 0a 39 d6 3f b0 30 5f 3f 24 64 da bf
       2.1674826 1.6736157 0.87183666 -1.706181
000200 3a d2 c9 bf 44 8c b4 bf 98 57 77 bf 41 f0 f3 3f
       -1.5767281 -1.4105306 -0.9661803 1.9057695
000210 23 e8 8e 3d c2 62 a0 bf 62 b0 fb 3f 54 e0 a6 bf
       0.0697787 -1.2530138 1.9663203 -1.303721
000220 5a ad c1 bf 08 b6 7e bf 2d 67 9b bf 1c ed c2 bf
       -1.5131028 -0.9949651 -1.2140862 -1.522861
000230 83 fa 98 bf 83 46 4a bf 9b 14 5c bd ad 1c e1 3f
       -1.195145 -0.7901384 -0.05373059 1.7586876
000240 f7 c3 c8 bf c7 0e 95 bf e8 50 bd bf 57 24 b0 bf
       -1.5684804 -1.1645135 -1.4790316 -1.376109
000250 54 4e d4 bf 24 99 fd 3f 2f 01 a5 bf 0b d3 e5 3f
       -1.6586404 1.981236 -1.2890986 1.795503
000260 32 29 d4 bf f6 a3 9b bf f9 25 b7 bf 33 af cf bf
       -1.6575072 -1.2159412 -1.4308463 -1.6225342
000270 45 48 95 3f 94 c0 ce 3f d1 99 ad bf d1 7a a7 bf
       1.166268 1.615252 -1.3562566 -1.3084356
000280 48 e8 7a bf e4 58 35 3f ee 39 ff 3f 77 29 ad 3e
       -0.98010683 0.7083876 1.9939554 0.33820698
000290 56 ff ad bf d4 e5 af bf 34 8d 92 bf 76 c4 b8 bf
       -1.3593547 -1.3742013 -1.1449342 -1.4434955
0002a0 64 1b 98 bf ca e7 c5 3f 55 ad 9f bf 76 23 cb bf
       -1.1883359 1.5461361 -1.2474772 -1.5870197
0002b0 cd 3b 4e bf 1f d4 95 bf fa 0a b3 bf a4 b6 e8 3f
       -0.8056 -1.1705359 -1.3987725 1.8180737
0002c0 66 00 a8 bf 04 6f bd 3f 91 b4 b2 bf d4 c5 98 bf
       -1.3125122 1.4799504 -1.3961354 -1.1935372
0002d0 c2 8c b3 bf 45 c1 cc bf 87 0a 88 bf e4 db a5 bf
       -1.4027331 -1.5996481 -1.0628213 -1.295773
0002e0 3c aa d0 bf e4 38 9e bf 3e 26 bd 3f f2 42 dc bf
       -1.6301951 -1.2361112 1.4777296 -1.720793
0002f0 99 b7 06 40 98 a5 d4 3f 51 45 39 3f 7e 7a a0 bf
       2.104956 1.6613035 0.72371393 -1.2537382
000300 e9 1e a2 bf cd a8 8a bf 25 5b 4e bf b9 f2 cc 3f
       -1.2665683 -1.0832764 -0.80607826 1.6011573
000310 cf 00 ac 3e 71 a4 8c bf d5 2c cd 3f 3d 74 a5 bf
       0.33594367 -1.0987684 1.6029307 -1.2926098
000320 5c 6d 8a bf 04 df 32 bf 2b da cb bf 29 e8 81 bf
       -1.0814624 -0.69871545 -1.5925955 -1.0148975
000330 31 ba 95 bf 93 aa 61 bf de a0 a3 bd 0b a5 e4 3f
       -1.1697446 -0.881509 -0.07989667 1.7862867
000340 61 44 b9 bf a6 2b a4 bf c4 0a c0 bf ce a2 b7 bf
       -1.4473993 -1.282582 -1.5003285 -1.4346559
000350 a5 34 b4 bf d8 06 d4 3f b0 d8 a9 bf 76 02 cc 3f
       -1.4078566 1.6564589 -1.3269253 1.5938251
000360 f0 aa 76 bf c3 1e 7e bf 8a b7 94 bf ec 48 b7 bf
       -0.9635458 -0.9926569 -1.1618512 -1.4319129
000370 c5 1f b4 3f 5a 7a ba 3f 5e 4f c5 bf 51 58 a6 bf
       1.4072195 1.4568589 -1.5414846 -1.2995702
000380 94 77 4e bf 65 c9 5d 3f 9c a8 f9 3f 85 e7 b3 3e
       -0.8065121 0.8663543 1.950458 0.35137573
000390 90 d0 7e bf b9 a6 97 bf 97 36 5f bf 52 3e b3 bf
       -0.9953699 -1.1847755 -0.8719267 -1.4003394
0003a0 98 b6 cb bf 75 de e1 3f 41 bb c5 bf 73 04 a4 bf
       -1.5915098 1.7646013 -1.544777 -1.2813858
0003b0 41 52 4d bf 2e a8 47 bf 8f 5c ca bf 0c a1 d8 3f
       -0.80203635 -0.77990997 -1.5809497 1.6924148
0003c0 14 27 8b bf a8 88 91 3f dd fa 9f bf 1a 23 c9 bf
       -1.0871301 1.1369829 -1.2498432 -1.5713837
0003d0 91 fc b2 bf e8 3b b3 bf 75 4f 3e bf 63 f9 bf bf
       -1.3983327 -1.4002657 -0.7433999 -1.4997982
0003e0 4d 6b 8e bf 32 2a 9c bf b8 e7 b3 3f 29 c4 be bf
       -1.1126496 -1.2200377 1.405509 -1.4903613
0003f0 9b 38 ee 3f e0 db f1 3f ae 66 24 3f 3e 0b b8 bf
       1.8611025 1.8895226 0.64219177 -1.4378431

value_head.0.bias f4 [25]
000000 12 69 cf 3f 69 9b c4 3f bf 94 bc 3f 46 3a b7 3f
       1.620394 1.5359927 1.4732894 1.4314659
000010 5f a6 ab 3f 13 74 95 3f 49 17 b9 3f a9 38 b0 3f
       1.3410147 1.1676048 1.4460231 1.3767291
000020 cd d1 b6 3f 4c 73 b6 3f ee c7 89 3f 45 58 7c 3f
       1.4282776 1.4253936 1.0764139 0.9857219
000030 09 4b a6 3f e9 08 b4 3f 4f 7d a3 3f 15 21 7f 3f
       1.2991649 1.4065219 1.2772616 0.99659854
000040 a6 f6 5f 3f 93 b2 1e 3f e1 ad ba 3f ba b9 a4 3f
       0.8748573 0.6199123 1.4584314 1.2869179
000050 46 53 19 3f 9c 3a 42 3f cc ca 24 3f e1 1c 09 3f
       0.5989269 0.7587068 0.64371943 0.5355969
000060 7e 8d ac 3f
       1.348068

sep_head.0.weight f4 [5, 64]
000000 3b a7 27 3e c3 67 bf 3d 6b 31 9c 3d 53 ae c4 be
       0.16372387 0.09345963 0.07626613 -0.3841425
000010 14 d1 b6 bd 61 c6 0e be 8e a4 de bd ef 54 68 be
       -0.08926597 -0.13942863 -0.1087123 -0.2268865
000020 b3 1c 99 3e 0d 82 83 be 02 91 73 3e 0c 66 82 bd
       0.29904708 -0.25685158 0.23785785 -0.0636712
000030 c0 af 68 be 04 b7 8e 3b 84 35 98 be 17 ae 64 bd
       -0.22723293 0.0043553133 -0.2972833 -0.055830088
000040 bb 7a 88 3e c3 91 4a bc aa 97 f3 bd 14 93 9f 3e
       0.26656136 -0.012363854 -0.11894162 0.311669
000050 ee 22 ad 3d e2 5b 34 be d2 8b 3c 3e c4 c5 e5 be
       0.08453928 -0.17613176 0.18412712 -0.44877446
000060 7b 85 09 be 07 7c b4 3d 02 c0 55 3d c9 85 36 bd
       -0.13429825 0.08812719 0.052185066 -0.04456118
000070 5b 50 86 be de db 0a 3e cf 98 3e bd f4 3a fe 3c
       -0.2623318 0.13560435 -0.04653245 0.03103397
000080 e3 cb 1c 3e 2c 29 26 bd b7 ec fd be e4 4e 95 be
       0.15312152 -0.04056661 -0.49594662 -0.2916175
000090 75 cb dc 3d ca 8b 80 3d 8b 2e 36 3e 46 c2 3e 3e
       0.10780994 0.06276663 0.17791192 0.18628797
0000a0 59 9d a6 3e ea c8 36 3c e7 1c 3a 3e 54 f4 99 3e
       0.32541922 0.0111563 0.18175088 0.3006922
0000b0 5a a2 0b be c8 da 75 3e dc a8 4c bd 79 df a6 bd
       -0.13636151 0.2400924 -0.049965724 -0.08148093
0000c0 b4 fa 45 3e 94 e2 9f be a1 b3 6f 3e 8b 97 55 3d
       0.19333917 -0.31227553 0.23408367 0.052146476
0000d0 3d eb 18 bd 04 cd 9e bd bb 5f 01 be 6d fd d1 3d
       -0.037333716 -0.077539474 -0.12634175 0.10253415
0000e0 19 53 06 bb 53 da f3 3d 19 70 15 be ad 5a 25 3d
       -0.0020496307 0.119068764 -0.14593543 0.04036968
0000f0 9c c9 94 3d e3 16 f1 be 0a 2b e2 bd 2b 27 7a 3e
       0.072650164 -0.47087774 -0.11043365 0.24429004
000100 86 e7 f9 3d 5a 47 3d 3e 05 81 39 3e a6 a9 be be
       0.12202363 0.1848425 0.18115623 -0.37238806
000110 c0 75 91 be e2 25 6e be 5c 8e 65 3d 82 6f 52 3e
       -0.2841015 -0.23256639 0.056043968 0.2055035
000120 0c 77 8c 3e a0 f3 88 3e 48 5b 1a bd 62 87 a3 3e
       0.27434576 0.2674837 -0.03768471 0.31939226
000130 83 d8 59 3d ec 0f 47 3d 8d 4b 02 be df 08 5a be
       0.053184997 0.04859917 -0.12724133 -0.21292447
000140 7d 15 3d be fd 62 c8 3d fc da 6a 3e 46 86 c1 bd
       -0.18465228 0.097845055 0.22935098 -0.09449439
000150 97 f1 ad bd 17 7e 4f be e7 f3 74 be 2b 30 42 be
       -0.08493345 -0.20262943 -0.23921166 -0.18963687
000160 3c b6 98 3d a3 57 08 bd e6 a4 75 3d 1c ed 7f 3e
       0.074566334 -0.033286702 0.059971713 0.24992794
000170 7c 71 82 be 4a 7b 33 be a3 2f 99 bc 3b 0f 36 3e
       -0.25477207 -0.175275 -0.018699473 0.17779247
000180 5d eb 8f 3d ee 39 97 be 68 13 6e be 42 7a 82 be
       0.07027314 -0.29536384 -0.2324959 -0.254839
000190 bd 13 21 be 24 50 d5 3c fd 19 4d be 1d 48 8b 3e
       -0.15730186 0.02603919 -0.20029445 0.27203456
0001a0 17 62 f5 bd 35 36 2d be 60 a5 32 3e 7c e4 05 3e
       -0.119816 -0.1691521 0.17445898 0.13075441
0001b0 c3 01 f8 3c c6 b4 9c 3d ca b0 c6 bc 88 b5 62 be
       0.030274278 0.07651667 -0.024254221 -0.22139561
0001c0 cc a7 a5 3e e4 41 3b 3e 18 ad ad bd 4b c0 32 3e
       0.3235458 0.18286854 -0.08480281 0.17456166
0001d0 c2 7a 13 3e fd 2e 24 be 6c ba 27 be 4a 83 16 3d
       0.14402297 -0.1603355 -0.16379708 0.0367463
0001e0 18 cb 0d be 1f fc 09 be 1c e9 62 bd fc 30 5f be
       -0.13847005 -0.13475083 -0.05539809 -0.2179603
0001f0 5b 6a 9b be c3 a3 cc bd c2 36 e4 bd b6 b3 5f 3e
       -0.3035458 -0.099921726 -0.11143257 0.21845898
000200 63 83 4c 3e 67 ff 81 3e 0b c2 1b be 37 dd b2 bc
       0.19971995 0.2539017 -0.1521074 -0.021834
000210 ad 2f 11 be e9 1e df 3d 0f 4e bb be f4 57 8a 3e
       -0.14178343 0.108945675 -0.3658299 0.27020228
000220 29 3e 7e 3e 65 dd 8a bd 8b e1 b4 bd 42 10 8f 3e
       0.248284 -0.06780509 -0.088320814 0.2794209
000230 83 f1 39 3e 8d ba 88 3e 94 f2 5c be dc 45 79 be
       0.18158536 0.26704827 -0.21576911 -0.24343055
000240 2a 9e 93 be 64 11 11 bd b1 69 22 3d c0 74 98 3e
       -0.28831607 -0.035416976 0.039651576 0.29776573
000250 8b e2 df bd 98 a3 b2 be 70 94 2d 3d 05 7f 23 bd
       -0.109318815 -0.34890437 0.04237789 -0.039916057
000260 e3 e9 a7 3d 42 a0 03 be 9f 25 4c be cd f3 61 be
       0.08198907 -0.12854102 -0.19936226 -0.22065659
000270 fa b6 80 3e 0e 1a 08 be 44 aa a5 bc 15 88 4e 3e
       0.251396 -0.13291189 -0.02022279 0.20169099
000280 3c 3d 33 be 32 9f 9b be 1e d7 cc be 49 87 26 bd
       -0.17503828 -0.30394894 -0.4000787 -0.04065636
000290 70 e8 12 3e ba ef f5 3d cc 91 26 be 37 19 56 3d
       0.1434648 0.12008615 -0.16266555 0.05227014
0002a0 78 39 2f 3d 6d b6 e7 3d 0d 0c 14 be 84 c0 81 3e
       0.042779416 0.11314092 -0.14457722 0.2534219
0002b0 31 ff b1 bd 4f 41 40 3e a5 41 5c be 5f 5f 18 be
       -0.08691252 0.18774913 -0.21509416 -0.14880131
0002c0 5c c2 07 be c6 8f 36 be d7 9a 3b be 63 b8 75 3d
       -0.13257736 -0.17828283 -0.18320785 0.059990298
0002d0 09 9b a6 3e 8c c7 81 3e f9 f3 55 be 96 be e5 3a
       0.32540157 0.25347555 -0.2089385 0.0017528113
0002e0 81 91 4e bd 1e aa b6 bd f2 04 2d be cb 4b e1 3d
       -0.050431732 -0.08919166 -0.16896418 0.110007845
0002f0 cd 16 17 be 59 13 88 be 6c d0 c3 bc bd 67 ac 3e
       -0.14754792 -0.2657726 -0.023903094 0.33672896
000300 6e 64 28 bd 77 c4 be 3e 0d e2 7d be eb c8 22 3e
       -0.041111402 0.37259266 -0.24793263 0.15896957
000310 5e 97 b0 bd 9e 09 92 3e 8f ac 86 bd e3 2f 15 3e
       -0.08622621 0.28522962 -0.06575882 0.14569049
000320 22 b3 22 be 18 bb ca bd 4f 5b 93 3d ad 3a d8 3c
       -0.15888646 -0.098989666 0.0719515 0.026395166
000330 84 42 80 3e 16 14 28 be 4f 7b 4a be bd a4 c9 be
       0.25050747 -0.16413912 -0.19773601 -0.39383498
000340 00 3b 3a 3d 31 b5 98 3e 3c ee f8 3d 3d 0b d3 bd
       0.045466423 0.29825738 0.121548146 -0.10304878
000350 6b 7e 41 3e 2a 8f 91 bd 1d d3 83 3e 3c eb d4 bd
       0.18895881 -0.071073845 0.25747004 -0.1039643
000360 af 7c a3 3e e8 c3 65 3e 2e a8 ee bd bd b3 9b 3e
       0.31931064 0.22438014 -0.116531715 0.30410567
000370 43 fd 34 be 0c 56 c2 be af 74 b2 3e 2b 29 a0 bd
       -0.17674737 -0.37956274 0.34854648 -0.07820352
000380 fd 22 9f bb 9b 85 4c 3e ca 33 8d be b3 1e 1a 3e
       -0.004856466 0.19972841 -0.27578574 0.15050773
000390 22 71 0f 3e fa 39 3f bd 6f 18 5d 3d 7a 49 81 bd
       0.14008 -0.04668615 0.05397838 -0.06312843
0003a0 78 79 63 bd 7c f8 b2 be 74 9a a1 3e 84 06 49 bd
       -0.055535764 -0.34955204 0.3156315 -0.04907848
0003b0 c6 1e 39 3e ea 9f fd 3d d3 78 50 3d ee 29 45 3e
       0.18078145 0.12384017 0.050896477 0.19254276
0003c0 5f 4f 60 3e bd db be 3d e7 22 18 3d ee 0f f1 3d
       0.21905278 0.093192555 0.03714266 0.117706165
0003d0 a8 5f 54 be bf 90 82 3d 5b db 7f bd cc 27 32 be
       -0.20739615 0.063752644 -0.062465053 -0.17397994
0003e0 aa 91 71 3c 1b cf 31 3e 7f a3 01 3e 9f 84 c9 3d
       0.014744202 0.1736416 0.12660025 0.098397486
0003f0 5b 87 ad be 19 02 a3 be 8c 4d 8d be 06 66 bd bc
       -0.3389233 -0.31837538 -0.27598226 -0.023119938

sep_head.0.bias f4 [5]
000000 36 48 d5 bc 76 09 e6 bc 7a 91 a9 bc 80 22 7d bd
       -0.02603541 -0.028080683 -0.020699251 -0.06180048
000010 0d 49 1f bd
       -0.038888026
