trained_value_function.pt (torch, 56415 bytes, 8 tensors)

trunk.0.weight f4 [128, 3]
00000000: ebf0 5b3f c0ab 8f3e 5c88 92bf 3763 3a3f
00000010: ebbe a8be e392 d6bc 0eb5 89bf fed1 693f
00000020: 6f6b 503f f218 02bf c2e8 bc3f 0532 e43f
00000030: f316 2a3f 4a03 12bf 4f41 97bf 1a01 0c3e
00000040: 25e4 d73e 78e0 d0bf 3041 673f d593 123f
00000050: 9354 1cbe 1a98 b3bf c5ea 96bf 5e12 783f
00000060: 2094 c13e 19c2 e2bc 4877 96bf 5abe debe
00000070: dd15 b03f bfe3 553f 8f14 a13e b9e2 8a3f
00000080: 3b64 35bf 891e febb 40f0 153f 37f9 c4bf
00000090: 6942 cebe 7977 9e3f b90d 8740 b324 ccbf
000000a0: 11ac 483f 0334 90bf ad5f 8cbb e2ed ad3f
000000b0: f8d0 eb3d e6f4 ba3f 534e de3d a01b 50bf
000000c0: 3683 4ebe e8cd 85bf 39e7 503f b85d 7f3e
000000d0: e4a9 41bd ed7a d9bf 6be4 afbd e19c e13e
000000e0: 383d 433f b641 92bf 8b59 113e 868b d83d
000000f0: ae1d bebe cb56 3d3e c5f8 9d3f c5b9 983d
00000100: 5b66 13bf 700c e03e af89 f63d a739 9fbe
00000110: 3560 8dbe 02b9 333f 482f bd3f ba1d bc3d
00000120: 2fad 1e3f 03cd ab3f 2402 3440 a07d 2f3f
00000130: 105d 9abf 50f7 26bf a7fa 48bf ed7e 6e3f
00000140: 7900 8dbd 2a5f 69bf 6d92 b5bf 4f74 bdbf
00000150: 7899 6bbf 7c57 44bf 9446 3fbf 722b 383f
00000160: 56d6 a5be c569 0040 694b 2ebe 8ae2 98bf
00000170: 9be4 04bf 5129 a3be 09d9 4bbf 7c26 b3bf
00000180: be85 363e cd5b 88bf de10 cfbe 13dc 9bbe
00000190: bdef 5fbf a809 e9bc 6f49 2dbf a15b 04bd
000001a0: ec8f ab3f a6a3 743f 4f8b 343f 52da 9b3f
000001b0: 8e05 c13e b88a 5b3f 8bf4 50bf e62f 553e
000001c0: 5ef0 01bf a488 54bf dd86 853f 063e 323f
000001d0: a6da 5bbe c22e 143f e595 483f a585 cf3f
000001e0: 47d5 133f 37b0 853f bdf3 e43f 9f84 273f
000001f0: 2b09 9d3f d7dc 013f 0e82 71bf c3ab ea3e
00000200: 5815 c33f 4a90 a83f 5417 523f 0604 aabe
00000210: 5279 b03f 2370 9f3e 1596 16bf 8daf cb3e
00000220: b084 a53f 271c d4bf 6c4b a8be 116d 813f
00000230: 18c4 cbbe f246 e7be b1b5 2bbf ca0a 1b3f
00000240: d4ee 74bf a71d 0c3e 6f87 da3e c351 043f
00000250: ba01 203e c22f 773f ff7f 2fbf e47a 823f
00000260: 7f43 7c3f 1433 81bf 4fcf 12bf c6ea 883f
00000270: 4b82 3a3e 3850 58be 65d9 063e 1423 1bbe
00000280: c0b9 c7be c007 993e 3b9d ec3e a2d5 933e
00000290: 8bd8 a33f ec96 923f a578 8abf 0cce 7fbf
000002a0: 7aa6 073d f5af 213f b1c6 073e 6fe5 1ebf
000002b0: 6313 82bf 5fe8 f2bd 7532 903e 6737 d13e
000002c0: e585 1a40 6228 6bbe 9328 ba3f f535 c4bf
000002d0: 64f5 363f 8f81 663f 78a1 2440 804b b13f
000002e0: a935 fbbd 948e ac3e bfb4 1c3e daf1 223f
000002f0: af2b 8bbf c511 90be 9a71 5dbf ad90 5a3f
00000300: 05ef 903f 02a0 8abc 176e b63e 5739 5ebf
00000310: e1d5 a8bf bd49 61bf 6b45 2abf ad0f 79bf
00000320: f231 0f3f 48e1 bcbf 82fd 553e 5659 003f
00000330: c448 71bf d96f 9e3d 1437 0e3f 6a33 bcbf
00000340: 6fe5 ba3f f509 0b40 c9cd 743f 02b3 b7be
00000350: 9d89 8d3f 3168 97bf e2e2 9dbe a0d5 703f
00000360: aa46 3f3f e99f 553f 39a7 89be b055 81be
00000370: a5bf 973f f12c 02c0 8bd9 d9bd ae92 04bf
00000380: 2934 78bf b942 a0bf 9e2a 85bf b301 42bf
00000390: 3ddd d73e 8346 113f 472a c8bf c756 b9be
000003a0: 99bf 77bf 8567 563f aa57 7ebf 38af 51be
000003b0: 42ea 4b3d 72dd 27bf a465 cd3f 4119 b43f
000003c0: 5654 d93e f37b 923f 6875 93bf 98ad c03e
000003d0: bc3b 663f 5e03 cebe 833e 913e a63d 1b3e
000003e0: 6b9a f4bf ac80 12bf 8225 5cbf c4da a6bf
000003f0: 85c3 8e3f 23b9 a6bf 3dcd 12bf 0701 983e
0.85914487 0.28060722 -1.1447864 0.7280764 -0.3295816 -0.026193088 -1.0758379 0.9133605
0.8141393 -0.50819314 1.4758532 1.7827765 0.6644127 -0.5703627 -1.1816806 0.13672295
0.42166248 -1.6318502 0.90333843 0.57256824 -0.15266638 -1.4030793 -1.1790396 0.96903026
0.37808323 -0.027680444 -1.1755152 -0.43504602 1.3756672 0.8355064 0.31460997 1.085044
-0.70856065 -0.007755105 0.5856972 -1.5388554 -0.40285042 1.238021 4.220425 -1.59487
0.7838755 -1.1265873 -0.0042838664 1.3588221 0.11514467 1.4605987 0.10854783 -0.8129215
-0.2016724 -1.0453463 0.8160282 0.24938095 -0.04728116 -1.6990639 -0.08588489 0.44065002
0.7626529 -1.1426303 0.14194314 0.10573487 -0.3713202 0.1849014 1.2341543 0.07457308
-0.5757806 0.4375949 0.1203798 -0.31098673 -0.27612463 0.70204175 1.4780054 0.091853574
0.6198301 1.342194 2.8126307 0.68551064 -1.205965 -0.6522112 -0.78507465 0.93162423
-0.06884856 -0.91160834 -1.4185311 -1.480112 -0.9203105 -0.7669599 -0.7471707 0.7194129
-0.32390088 2.0064557 -0.17020954 -1.1944134 -0.51911324 -0.3186746 -0.79628044 -1.399612
0.17824456 -1.0653015 -0.40442556 -0.3044134 -0.87475187 -0.028446987 -0.67690176 -0.032313947
1.3403296 0.9556221 0.7052507 1.2176001 0.3769955 0.85758543 -0.8162314 0.20819053
-0.50757396 -0.83021 1.0431782 0.6962589 -0.21470127 0.57883847 0.7835372 1.621266
0.5774731 1.0444402 1.7886883 0.6543674 1.2268423 0.507276 -0.9433907 0.4583417
1.5240889 1.3169034 0.82066846 -0.33206195 1.3787024 0.3114024 -0.58822757 0.39782372
1.2931118 -1.6571091 -0.32870042 1.011141 -0.39798045 -0.45171314 -0.67074114 0.6056334
-0.9567692 0.13683186 0.42681453 0.5168726 0.15625659 0.9655725 -0.6855468 1.0193753
0.9854049 -1.0093713 -0.5734758 1.0696647 0.18213765 -0.21124351 0.13168867 -0.151501
-0.39008904 0.29888725 0.46213707 0.28873926 1.2800459 1.1452308 -1.0818068 -0.9992378
0.03311775 0.63159114 0.13259389 -0.6206884 -1.0162166 -0.118607275 0.28163496 0.4086258
2.4144223 -0.22964624 1.4543632 -1.5328966 0.71468186 0.9004144 2.5723553 1.3851166
-0.12266094 0.33702528 0.15303324 0.63650286 -1.0872706 -0.28138557 -0.8650147 0.8537701
1.1322943 -0.016922 0.35630867 -0.86806244 -1.3190271 -0.8800314 -0.66512173 -0.97289544
0.55935585 -1.475625 0.20897487 0.50136316 -0.94251657 0.07736177 0.5555279 -1.470319
1.4601268 2.1724827 0.95626503 -0.3587876 1.1057621 -1.1828672 -0.3083716 0.94075966
0.747172 0.8344713 -0.26885393 -0.25260687 1.185536 -2.033993 -0.10637196 -0.51786315
-0.9695459 -1.2520362 -1.0403631 -0.7578384 0.4216098 0.5674822 -1.5637902 -0.36199018
-0.9677673 0.8375171 -0.99352515 -0.20476997 0.049783953 -0.65572274 1.6046643 1.4070207
0.42447156 1.1444076 -1.1520205 0.37632442 0.899349 -0.40236944 0.28368005 0.15160236
-1.9109625 -0.5722759 -0.8599473 -1.3035512 1.1153418 -1.3025249 -0.5734442 0.29688284

trunk.0.bias f4 [128]
00000000: 7bc0 df40 6d84 2140 d10f cdbf 7810 6440
00000010: add5 5540 ae33 ca3f 8103 9cc0 dfdf b7c0
00000020: 051a 1340 f396 09c0 7ade 9dc0 6180 8840
00000030: 1508 21bf 2815 43bf 387e 07c0 5bac e6bf
00000040: b0c2 2341 95c3 0dc0 1bee 2ec0 64a1 1ac0
00000050: 0e90 7040 e50d d8c0 c057 8a40 43fc 803f
00000060: 0893 58bd 0bf6 9bc0 25be 1ac0 3db1 8540
00000070: 4567 22c0 0e05 ce40 50f1 4f40 ac84 0a40
00000080: 6ebe 0dbf 8a36 80c0 e32a 8e41 741f 4640
00000090: 7d36 8a3f 6edb bfc0 d5b1 ccc0 56fa 8940
000000a0: 4e20 26bf 19af 0ec0 01e4 81bf 8b93 2cbf
000000b0: e83b 8b3f 16dd 5f40 70b5 af3e 7a9d 32be
000000c0: b977 dfc0 f282 f9bf 14cd 8f40 2d49 91c0
000000d0: 2071 e5bf 0be2 2a3f 96f8 c93f 1e00 42c1
000000e0: 1c8f 56c0 9ce9 3a40 eed0 23be 3d36 a340
000000f0: 0bcf d240 f01a 2841 3eba 333f c12d 7fbe
00000100: 5554 473e 1d11 1440 ea3d e93f bfa6 7340
00000110: 09d0 013f a933 ab3f ad95 9f40 684a 923e
00000120: fd09 f93d bed6 3b3e ddd7 4d40 9a87 50c1
00000130: 8c75 3d40 f3b7 a241 eff0 dac0 e061 39bf
00000140: 568a 583d 8771 0540 b623 9140 cb4a 87c0
00000150: f866 24c1 cbb0 4740 05e0 3dc0 2a87 f4bf
00000160: bbf1 ed3e f8e9 c2bf fdb3 a8be 7196 6740
00000170: 2470 b5c0 c16a b840 9abc 29c0 3cf0 61c0
00000180: a456 c0c0 4f5f b0c0 ed63 5b40 be79 88c0
00000190: a461 28c0 7b4a 98c0 d9e2 0640 4bd4 483d
000001a0: c504 d6c0 7c49 0641 c086 fc3f 3de5 c5bf
000001b0: e598 12c0 6cd5 8cc0 8f4f 49c0 e231 1540
000001c0: 54e5 f8bf c80d 5c40 8a89 f83f 6dd2 8f3e
000001d0: aced 26bf c8e0 a440 b289 dcc0 d1f5 91c0
000001e0: 98bd 333f 138e 2940 b2db 82bf 16c8 e3c0
000001f0: 5c41 cec0 8d9b 1040 04b2 04c0 27de f740
6.992246 2.5237076 -1.6020452 3.5635052 3.3411667 1.5797021 -4.8754277 -5.746078
2.298463 -2.1498382 -4.933408 4.2656713 -0.6290296 -0.76204157 -2.1170788 -1.8021349
10.235031 -2.2150624 -2.7332828 -2.4161005 3.7587924 -6.751696 4.3232117 1.0076984
-0.052874595 -4.8737845 -2.4178555 4.1778855 -2.537553 6.438117 3.2491035 2.1643476
-0.553687 -4.0066576 17.77094 3.0956697 1.0797879 -5.995536 -6.396708 4.3118086
-0.64893043 -2.229437 -1.0147706 -0.6741263 1.0877657 3.497869 0.34318113 -0.17442885
-6.9833646 -1.9493086 4.493784 -4.5401826 -1.7925148 0.66751164 1.5778987 -12.125029
-3.3524847 2.9205084 -0.15997669 5.100371 6.587774 10.506577 0.7020606 -0.24919797
0.19465764 2.3135445 1.822202 3.8070524 0.5070806 1.337514 4.987021 0.28572392
0.12160108 0.18343636 3.2163002 -13.033106 2.9602995 20.339819 -6.841911 -0.7241497
0.052866302 2.0850542 4.5356092 -4.22788 -10.275139 3.1201656 -2.966798 -1.9103749
0.46473488 -1.5227652 -0.3294982 3.6185572 -5.669939 5.7630315 -2.6521363 -3.5302877
-6.0105762 -5.5116343 3.427974 -4.264861 -2.6309595 -4.759092 2.1075957 0.049030583
-6.688082 8.3929405 1.9728622 -1.5460583 -2.290582 -4.4010525 -3.1454809 2.3311696
-1.9444985 3.4383411 1.9416974 0.2809023 -0.6520641 5.152439 -6.8918085 -4.561257
0.7021117 2.6492965 -1.0223296 -7.1181746 -6.4454784 2.259494 -2.0733652 7.745868

trunk.2.weight f4 [64, 128]
00000000: bb73 1a3d 1532 113e dbda 5f3e 1c08 033f
00000010: cdb2 14be 8452 4fbd 6043 5e3e 4755 80bd
00000020: 81cb 9cbe e575 833e 8a30 8ebb 1b95 c5bd
00000030: 351f ef3e 4945 f43d 3b11 083e 5240 0dbc
00000040: e82b 5bbe d165 d63d a0dc ec3d a990 763c
00000050: 2c86 283e 0355 0c3e 3844 1f3d 268b 843c
00000060: bdd3 0e3f f30d 36be edf2 9c3e 5f43 aabe
00000070: 0618 9f3c 12d3 e83d c19b ffbd 8943 c2bb
00000080: 44a8 063e e2da 063d 5b78 c0bd 3583 c73e
00000090: fbf2 b73e 1032 7abe e12d d63e 148a f43e
000000a0: 6e57 8e3e 5b64 b93e 2515 1a3e 3cc1 bd3c
000000b0: 4865 6e3d 713c 3bbe fc49 933d 88d4 523d
000000c0: 0fc9 013e b961 c7bc f706 2f3e 8f75 44bc
000000d0: d93f 403d d1bc 0ebe a00c 113e 655e 4fbd
000000e0: 9bed b23d 018c babd 6739 8f3e 6845 3a3c
000000f0: ae10 2d3e 8a42 64be 26e8 d13c 0cce 2d3e
00000100: 4fe6 e33d b807 bb3c 4417 ab3d c25d a93e
00000110: b8bf 3e3e cdd3 a33e e4ba 0fbe 7ba7 1c3e
00000120: a667 17bc 2e95 c6bd 2ac8 c63d 0789 04be
00000130: 3f74 9dbe 3f22 653c c130 e1bd 7dfb a43d
00000140: 0b26 9a3d 261a 163e 8412 40be c630 603d
00000150: 82e7 efbd 7d8e 393d 086a d2bc 9e8e a83d
00000160: a370 0c3f d348 28be 8df3 183d ca01 98bd
00000170: 1a17 90be eee2 56be 49b7 a03e 466e a53e
00000180: 4330 063d c942 58bd e725 e93d 50b6 183e
00000190: af16 0e3d 966b 7d3e d872 ac3e f767 e3bc
000001a0: d289 0d3e f7a4 77be f002 643e 2877 a83e
000001b0: dad4 f5bc 4ffe 9dbd bb45 613e a469 84be
000001c0: 8cc1 e93e 6e8c bc3d 3a0f 5f3e b854 b33d
000001d0: d28f 163e 49d5 e23e 002c 813d a3b9 a83d
000001e0: e96a b3be 19ad b23e 28ec 17be daed 2fbe
000001f0: 8465 033e 7dbf 913d cbb6 1abe 8c65 96be
00000200: b9d3 04bf 0653 27be 5ee4 5bbc bce7 ebbd
00000210: 8efe 20be ed7e c7bd 06fa 373e 3d09 1b3e
00000220: 6197 a8be 63bb 5c3d 1e07 e3bd 4146 80be
00000230: 9761 82bd 8d8a ddbd 2334 e4bd 4ea9 5bbe
00000240: 9ecf 04bf 535b 1abd ceed 45be 276f 933d
00000250: 9ac2 6cbe 26a0 78bd 2955 a4bd 64b1 3f3e
00000260: 1b3e 063e 9641 26be ee9a 273e a5b9 76be
00000270: 031e a23d b6c6 bcbe acb0 ec3d a64d 6cbe
00000280: 4d85 0a3e e825 3a3e c800 42bf 59c5 ba3d
00000290: 9d54 da3d 1038 03bd 2c77 013d d7c2 01be
000002a0: b630 95bc b5cd 35be 098a 043e 79bf 43be
000002b0: a094 983d d2ae 5fbe 8225 a33c 52ca 9ebd
000002c0: acba fcbd 1eaa a0bd 5be0 b3be 580f 03be
000002d0: c1b7 e63d c380 0b3e 4bf1 7ebe 44a7 50bd
000002e0: 127f a23c b729 6abe 267e 6b3d 1128 72be
000002f0: f55b 55be 6f54 07bf ea9f 80be 6219 c4bc
00000300: 7b96 213e c4e6 933d 41f1 ee3d f735 01be
00000310: 44e6 253e c5a9 16be effa 7dbd b8ee bf3c
00000320: 162e 35be 21bc d5bd 3bad 993d 9be5 a2bd
00000330: c6f8 a9be 3355 2bbf cf92 8a3d be9c 643d
00000340: 101b 01be 47d6 1a3e 081a 46bd 3421 33be
00000350: e4e3 bf3d 9ee1 8c3d 27e4 27be 3a8b 783d
00000360: b358 cbbd 437f 1c3e 3041 243e 7b56 4bbd
00000370: ec4e 69bd 1e86 e7bd fee4 46bd 43a3 153e
00000380: 1835 cf3d 1eec 37be 4671 82be 22e4 2ebd
00000390: 0ebb 33be 8720 51bd c429 523d 1156 433e
000003a0: 1c10 91bc 0169 dcbe 89f7 71be b250 893d
000003b0: 5bb7 f33c 3a3a c03d 2e00 38be 4139 abbd
000003c0: ae6e 98bd e301 8cbe 0920 ac3d 1a4c 44be
000003d0: 7847 06be 46a3 07bd 8382 10be ec0c 1b3e
000003e0: de70 22be 0c59 7dbe 672b 63bc 3d25 08be
000003f0: 3258 6a3d a8cb 9a3d 9370 26be 2be9 ffbe
0.037708025 0.14179261 0.2186083 0.5118425 -0.14521332 -0.050615802 0.21705389 -0.06266265
-0.3062401 0.25675884 -0.0043392824 -0.0964758 0.46703497 0.119272776 0.13287823 -0.008621292
-0.21403468 0.10468639 0.115655184 0.015049138 0.16457433 0.13704304 0.038883418 0.016179632
0.55791837 -0.17778759 0.30654088 -0.33254525 0.019420635 0.113683835 -0.124808796 -0.005928461
0.13150126 0.032923587 -0.09397956 0.3896729 0.35927567 -0.2443316 0.41831878 0.47761595
0.2780108 0.36209378 0.15047128 0.02316343 0.058202058 -0.18284775 0.07191846 0.051472217
0.12674354 -0.02433859 0.170925 -0.011990919 0.04693589 -0.13939215 0.14164972 -0.05062713
0.08736726 -0.09108735 0.27973482 0.011369087 0.16900894 -0.22291008 0.025623392 0.16973132
0.11127912 0.022830829 0.08354047 0.33079344 0.18627822 0.3199753 -0.14036137 0.15298264
-0.00924102 -0.096964225 0.09706147 -0.12942897 -0.3075275 0.013985216 -0.10995627 0.0805578
0.07526787 0.14658412 -0.18757063 0.054734014 -0.117140785 0.045301903 -0.025685325 0.08230327
0.5485937 -0.1643403 0.037341643 -0.07422216 -0.28142625 -0.20985004 0.31389835 0.32310694
0.03276087 -0.052798066 0.113841824 0.14913297 0.0346896 0.24748072 0.3368137 -0.027759535
0.13822106 -0.24184023 0.22266746 0.3290341 -0.030008722 -0.07714521 0.21999256 -0.25861847
0.45655477 0.09206472 0.21783152 0.08756393 0.147033 0.4430335 0.063072205 0.082385324
-0.35042503 0.34897688 -0.1483618 -0.17180577 0.12831694 0.071166016 -0.15108792 -0.2937435
-0.51885563 -0.16340265 -0.013421146 -0.11518809 -0.15722105 -0.09741006 0.1796647 0.15140243
-0.32927993 0.053889643 -0.11085342 -0.250536 -0.0636627 -0.10817442 -0.11142757 -0.21451303
-0.518793 -0.03768475 -0.19328997 0.07198935 -0.2312111 -0.060699604 -0.080240555 0.18720013
0.13109629 -0.16235957 0.16367695 -0.24094255 0.079158805 -0.36870354 0.11557135 -0.23076496
0.13527413 0.18178523 -0.7578244 0.09119672 0.1066067 -0.032035887 0.03160779 -0.12671982
-0.018211704 -0.17754252 0.12943281 -0.1911601 0.07450223 -0.21844032 0.019915346 -0.07753433
-0.12340292 -0.07844947 -0.35132107 -0.12798822 0.11265517 0.13623337 -0.24896733 -0.050940767
0.019835982 -0.22867475 0.05749335 -0.23648097 -0.2083586 -0.5286321 -0.25122005 -0.023937885
0.1578006 0.072217494 0.11667109 -0.12618242 0.1620112 -0.147132 -0.062006887 0.02342926
-0.17693362 -0.10436273 0.07503744 -0.0795395 -0.33197612 -0.6692688 0.06766283 0.055813543
-0.1260798 0.15120803 -0.04836467 -0.17493135 0.093696386 0.068789706 -0.16395627 0.06067965
-0.099290274 0.15282921 0.16040492 -0.04964302 -0.05696003 -0.11304878 -0.048558228 0.1461306
0.10117549 -0.17961165 -0.25477046 -0.042698033 -0.17551824 -0.05105641 0.051309362 0.190758
-0.017707877 -0.43048862 -0.23629583 0.067048445 0.029750517 0.09386106 -0.17968819 -0.0836053
-0.074429855 -0.2734519 0.08404548 -0.19169655 -0.131132 -0.033114694 -0.14112286 0.15141648
-0.15863368 -0.24741 -0.013865328 -0.13295455 0.057213016 0.075583756 -0.16253881 -0.4998258

trunk.2.bias f4 [64]
00000000: de15 343f de11 8b3e bc4e 203f ed6b 163f
00000010: c3ff d140 9888 ddbf 27bc b13f 26cc 823e
00000020: ee17 e6bb 254c df3f 7d57 ea3f 9dc1 3cbf
00000030: 1f27 30c0 e840 9abf dc6a a43f 0ad7 233c
00000040: b38b 53c0 ab75 f5be 0862 8b3e 3ea9 fbbe
00000050: 38a8 2a3f 83c6 76c0 df35 1f41 49a5 2d40
00000060: e9e3 a23f e1d4 b13d cb97 89c0 75c6 9a3f
00000070: ea04 cb3e b233 54bf 156f 2a3f bc66 c240
00000080: 7cf5 b0c0 5bc0 c7be c340 433f c570 82be
00000090: 8d43 0f40 1a67 e2bf 0ad7 233c e0c6 04c1
000000a0: a50c 8940 5925 bd3e bf02 10be 6442 99c0
000000b0: 43a6 65c0 830d e740 43e9 ccbe 0ad7 233c
000000c0: 0ad7 233c 692e 0fc0 d932 f840 b895 a9bf
000000d0: 06b2 4f3f 159b 18c0 eff2 223c 5575 a33f
000000e0: 889f 01c0 5742 27c0 2149 aabf baf3 3040
000000f0: de56 e7be 1f9f 3bbf a038 2c3f 3318 7dc1
0.70345867 0.2716207 0.6262014 0.5875843 6.562471 -1.730731 1.3885545 0.25546378
-0.0070218956 1.7445112 1.8307949 -0.7373293 -2.7523878 -1.2051058 1.2845111 0.01
-3.3054016 -0.47941336 0.2722323 -0.4915256 0.6666293 -3.8558662 9.950652 2.7132132
1.2725803 0.086831816 -4.2997794 1.2091814 0.39652187 -0.8289138 0.6657575 6.075041
-5.5299664 -0.39013943 0.76270694 -0.2547666 2.238498 -1.7687714 0.01 -8.298553
4.2827935 0.36942557 -0.14063548 -4.7893543 -3.5882728 7.2203994 -0.40021715 0.01
0.01 -2.2372077 7.756207 -1.3248816 0.8113102 -2.3844655 0.009945615 1.2770182
-2.025362 -2.613424 -1.3303567 2.764876 -0.45183462 -0.73289675 0.672739 -15.818408

trunk.4.weight f4 [64, 64]
00000000: 3ac3 bfbe 7460 133e 00e4 aabd 8e4d 393d
00000010: ab34 0cbd be4f 073f 9900 023d 5b78 a33e
00000020: bcc2 b33d e813 52bf 790b 9bbe a256 c53e
00000030: 3273 a03e d7d1 e23d 6560 25be 28b4 ee3d
00000040: 6565 5f3e 4e35 ddbe 8a40 883e 9522 5cbe
00000050: f8f1 443f 974c fe3d 76bb f0be 5f17 e13e
00000060: 15eb 8dbe 0330 643e 62c2 923e b805 f33e
00000070: e62b ebbd c82f cfbe 6431 b6bc b33b 46bf
00000080: 27e3 3d3e f9f4 783e 38fa 66bc f562 40bf
00000090: 995a 06bf 29df 62bf c00c 8abe 0f8e 72be
000000a0: 625c 813e 5402 8abe 9e4d 7a3e d343 f73d
000000b0: e6d4 093f 5804 c6be 1be4 ddbe 1a2b 52be
000000c0: 28a8 01bd b94f a03d a9ee 51bd c8fc ad3d
000000d0: 482f e53d d6bd 11be 9caa af3d 875d b7be
000000e0: 2e81 a4be a1f8 36bd 9e35 a73e a14d d9be
000000f0: d9c2 aebd 8b96 d33d cf63 7d3e 05c4 e43e
00000100: e6d2 583e fe49 b4bd 0944 1c3f 46da 7a3e
00000110: cdfa a2be e7c9 0c3f a305 203f afd0 26be
00000120: 5940 56be 8d45 8d3f 729a 9c3e 5c41 c43c
00000130: a4da d3be 77ed 56be 0dbc 1a3e 70fd 74be
00000140: c648 293e 9ba3 f43e c89c 4d3e 76c1 96be
00000150: c42a 08bf 5c17 c3be eb4b 92be 6bc1 acba
00000160: fef8 b53e aa83 f3bd d803 ce3a b3f5 66be
00000170: 7ae2 98be 6c18 493f 0aa9 dfbe 8da2 853f
00000180: c8aa 8d3e f336 b7bd 1876 05be d36a 3e3f
00000190: e91f 9b3f 5ffe aa3f d249 143e 8c93 89be
000001a0: d208 acbe 2a4c 5a3e 2826 80be e1f1 51be
000001b0: 7093 5cbe fa36 92be 47f5 773f 22db 5c3e
000001c0: e77b 89be 0eac a43d 2bec 89bf a674 aabe
000001d0: 756a 32be 92ac 893e b9d1 cfbd c0d3 0abe
000001e0: f16d 733e 189b 9bbe 9249 4dbc 3b5c 9e3e
000001f0: 663d 3fbe 908a dbbd a2de cdbe 2b61 1abf
00000200: 6a6b 113d 4fce cb3d 0a38 63be f0d4 6fbd
00000210: f2f2 043f 876c d13e 05aa 293e 53dc 1a3e
00000220: 6359 fd3b adfc adbe b69d 16bf da79 f5bd
00000230: c692 9e3e 5ba1 1abe 8d75 7f3b d2a5 543e
00000240: 8f2a 26bc c911 10be 777f 62be 6dcc c53d
00000250: ce1f 313f 794d 1d3e 3040 09be af61 793e
00000260: bbd4 cbbe 5e44 9fbd 8618 a93e 4a81 f93e
00000270: bd8f 903e e2d0 f8bd 67d4 14be 0551 9dbe
00000280: 4866 3f3e 460a 603e be0e 6cbe a4a1 cbbe
00000290: 7fe5 10bf 1276 07bf 03bb 9abe f38e 4a3d
000002a0: 8225 4a3e 44dd 13be eca3 2cbe dcb7 9e3e
000002b0: 9381 d23e 61a1 c13e fc5c fcbc dc05 1cbe
000002c0: f00a fbbd df48 76be fd10 353e d4ed 913d
000002d0: b083 46be d9a3 20be 5670 98be a3c7 51bd
000002e0: 0908 b2bd 3f00 da3d 9290 9abc ce35 d93d
000002f0: 5fe8 5bbe d28f 1dbe 39d5 d83e d3bf 333e
00000300: f494 cfbd b941 703e 94b5 cf3d f864 133e
00000310: 249e 953e 5a39 a53e 9ec3 d23e e107 3bbd
00000320: d77b 883e 24c9 c6bd 46d1 83be 1053 0c3e
00000330: 4dda 92be 6574 613e a373 503e 4a84 6bbe
00000340: fa0c a23e 9628 c73e c9a0 20be 971b dfbd
00000350: ba4e 2a3f c3f5 5f3e 855f 6a3e f9e7 173c
00000360: 0858 9b3e b364 773c 85b9 8bbe eba4 e1bc
00000370: 631c 31be 1aa6 bdbe 19e6 9abd 3a06 a0bd
00000380: 59e6 34bd 1a83 e0be c63d 2a3e d1b3 bc3e
00000390: 242f 68bc f7a5 03bf a687 753e 1225 1a3e
000003a0: a5c4 0f3f 7061 b0be 1e05 b6bb 8e2a 463d
000003b0: f86f 0a3f 3f5a ddbd da91 42be 9542 97be
000003c0: e4d0 ad3d 7b4c c8bd b5ef 623e 3988 c33e
000003d0: 9015 aa3d ede4 03bf e827 06bd 6da2 293c
000003e0: 6378 b8bd fe14 02be 4180 593d 79fc f9be
000003f0: ddb5 07bd a658 0d3e 02ac 1e3e ae49 a7be
-0.37453634 0.14392263 -0.08344269 0.045239978 -0.034229916 0.5285605 0.03173885 0.3192776
0.08777377 -0.82061625 -0.3028219 0.38542658 0.31337887 0.1107518 -0.16150053 0.11655456
0.21816023 -0.4320473 0.2661174 -0.21497567 0.76931715 0.12416952 -0.4701802 0.43963143
-0.27718416 0.2228394 0.28663927 0.474653 -0.11482982 -0.40466142 -0.022240348 -0.77434844
0.18543683 0.243122 -0.014097743 -0.75150996 -0.5248199 -0.88621765 -0.26962852 -0.23687004
0.25265795 -0.269549 0.24443671 0.12073483 0.5384048 -0.3867519 -0.43338093 -0.20524254
-0.031654507 0.07827706 -0.051252995 0.0849548 0.11190659 -0.14232573 0.08577463 -0.35813543
-0.32129806 -0.044670705 0.32658094 -0.4244204 -0.08533258 0.10331448 0.24745105 0.446808
0.21174201 -0.088031754 0.61041313 0.24497327 -0.3183197 0.5499558 0.625086 -0.16290544
-0.20922984 1.103685 0.30586582 0.023956947 -0.41377747 -0.20989023 0.15110798 -0.23924804
0.16531667 0.4778107 0.20079339 -0.29444474 -0.53190255 -0.3810376 -0.28573546 -0.0013180202
0.35541528 -0.11890347 0.0015717698 -0.22554664 -0.29860288 0.7855289 -0.43683654 1.0440232
0.27669358 -0.089460276 -0.1303333 0.7438175 1.2119113 1.3358878 0.14481285 -0.26870382
-0.3360048 0.21318117 -0.2502911 -0.20502426 -0.21540618 -0.2855757 0.9685864 0.21567968
-0.26852342 0.08040629 -1.0775198 -0.3329212 -0.17423423 0.26889473 -0.10147423 -0.13557339
0.23772408 -0.30391765 -0.012529748 0.3092974 -0.18675765 -0.10719788 -0.40208918 -0.60304517
0.03550283 0.099514596 -0.22189346 -0.058552682 0.51933205 0.40903112 0.16568764 0.1512311
0.007731603 -0.3398184 -0.588344 -0.11986132 0.30971354 -0.15100615 0.0038979978 0.2076638
-0.010141983 -0.14069284 -0.22118936 0.09658132 0.69189155 0.15361585 -0.13403392 0.2435367
-0.39810738 -0.07776712 0.33026522 0.48731452 0.28234664 -0.12149216 -0.1453415 -0.30725875
0.18691361 0.21878919 -0.23052499 -0.3977176 -0.56600183 -0.52914536 -0.30220804 0.049452733
0.1974087 -0.14439875 -0.16859406 0.3099965 0.41114482 0.37818435 -0.030806057 -0.1523661
-0.122579455 -0.24051236 0.17682262 0.0712544 -0.19386172 -0.15687503 -0.29773206 -0.05121578
-0.08692939 0.10644578 -0.018867765 0.106059656 -0.21475361 -0.15386894 0.42350176 0.17553644
-0.101358324 0.23462571 0.10142055 0.14393985 0.29222214 0.32270318 0.4116487 -0.04566181
0.26656982 -0.09706333 -0.257456 0.13703561 -0.28682175 0.22017057 0.20356612 -0.22999683
0.31650525 0.38898152 -0.15686335 -0.10893934 0.6652638 0.21871094 0.22888 0.009271615
0.303406 0.015099692 -0.27289978 -0.02754446 -0.17295985 -0.37040788 -0.07563419 -0.078136876
-0.04416499 -0.43850023 0.16625127 0.3685594 -0.014171395 -0.5142512 0.23977527 0.15053204
0.5615943 -0.3444934 -0.0055548092 0.048380427 0.540771 -0.10808229 -0.1900095 -0.29542986
0.08487108 -0.097802125 0.22161753 0.38189867 0.08304894 -0.5152119 -0.0327529 0.010353667
-0.09007337 -0.1270332 0.053100828 -0.48825434 -0.033132423 0.13803348 0.15495303 -0.326734

trunk.4.bias f4 [64]
00000000: 947d b63e 4ce1 c73d eb90 1b3c 6fd4 cfbf
00000010: 0ad7 233c ae2e 613c 04bf 343c 06da 583d
00000020: 2260 1b3c 38c1 df40 0ad7 233c 9427 abbc
00000030: 04b0 02ba 0ad7 233c 0ad7 233c a448 193c
00000040: 139d dd3c a362 443b 7cd9 1f3c a553 1c3d
00000050: 75ee 04ba 95cf 98bc d1b2 c13e dfeb 20be
00000060: 22c4 42bf 41e6 7440 1b3f 81bc c0bc 6d3e
00000070: 7a13 c2bb 2093 5b3c cfa0 b640 3744 99bc
00000080: 7c22 233c 8174 083d b986 593f e820 a83c
00000090: 213c 163c 52e1 e83c 9fca 413c 10e2 b23b
000000a0: f5ff f53c f403 853c b401 db3b 77e1 893e
000000b0: f2b5 c63c ce4a 303d a90c 41c0 744e 53be
000000c0: 3e46 0741 bfe8 183c 0ad7 233c da16 0940
000000d0: f7f2 9b40 3d42 d13e 56e5 6a41 f34a 0dc0
000000e0: a8cc 20c1 57f9 03c1 0603 ecc0 75f5 02bc
000000f0: e250 9438 045c 8b3c f5f3 173c dd19 30bc
0.35642684 0.09759769 0.009495 -1.6236705 0.01 0.013744039 0.01103187 0.0529423
0.009483369 6.9923363 0.01 -0.020892896 -0.0004985335 0.01 0.01 0.009355698
0.027052438 0.0029966019 0.009756442 0.038165707 -0.0005070933 -0.01865367 0.3783174 -0.15714978
-0.76080525 3.8265536 -0.015777161 0.23216534 -0.005922732 0.013401777 5.70713 -0.018709285
0.009956952 0.03331423 0.84971195 0.020523503 0.009169609 0.028427754 0.011828094 0.0054590777
0.030029276 0.016237237 0.0066835526 0.2692983 0.02425668 0.04304009 -3.0163977 -0.20635396
8.454649 0.009332835 0.01 2.1420197 4.873409 0.40870848 14.68099 -2.2076995
-10.049965 -8.248374 -7.375369 -0.007993092 7.0722555e-05 0.01701165 0.0092744725 -0.010748354

value_head.weight f4 [3, 64]
00000000: 2464 96c0 a9f4 a940 64c4 7140 da6a d1bf
00000010: 0013 c9bd 771e 2fc0 861c 9d40 befd 243f
00000020: a4ae 2abd 3004 ebbf c0e9 f5bd 24ff f93f
00000030: cb97 9040 168b 823d fab6 9e3d 8f54 5840
00000040: 725d b83f 5663 98c0 3883 7cbd d1d0 1ec0
00000050: 7078 2ebf b0ba a1c0 98f7 02bf f450 2f3e
00000060: df5f e43d e52e b8bf 707a b440 5743 edbf
00000070: 8283 fb40 f5db d93d 810a 8740 7bdc a53d
00000080: ae49 da3d 5995 a840 2f90 90bf 4d55 a4c0
00000090: a354 edbb 0d29 18bd 1f39 96bd 6313 6f40
000000a0: e35e f03f 375a 9840 bd23 5b40 9044 0f40
000000b0: d667 ac40 85fa 03c0 35f1 4bbf 418c 543e
000000c0: 2625 8a3e 95fc 9b3f 04bb bb3d cdad 0940
000000d0: be98 cebf 6a91 243d 8df3 63be bed0 97be
000000e0: 5063 2dc0 805d 58bc 87eb e83f bd6f 283e
000000f0: bf9a 3ebf 548e 0bc0 48af 8abd 942c 8040
00000100: d172 d9c0 35d6 ae40 f757 2e40 bb47 10c0
00000110: 6cba d1bd c255 2bc0 308e 5340 1477 b13f
00000120: 115c d33c c675 1fc0 00fd aabd d242 4240
00000130: 5cc8 8740 7893 fdbd 60dd 23bd c81f 8d40
00000140: 7c23 c13e 43b1 dac0 0009 e33d caf0 21c0
00000150: c071 18bf fac1 95c0 bcc5 44bf 8b8b 4a3e
00000160: 7e6f a43d 23cb bbbf 4693 af40 5be8 d6bf
00000170: 4cfa 0441 4559 8bbe 3702 6840 2a55 383e
00000180: 8a6f 95bd 63e2 dc40 53ca d9bf bb57 bbc0
00000190: f6cd cbbd bee9 c63d 3c2a 4c3d 701c 3840
000001a0: 9f35 0340 4cc5 af40 86fc 8340 59e1 4f40
000001b0: de42 d640 e98e 4ec0 d953 85bf dbcc 8e3e
000001c0: d6ae 3e3e 2b79 863f 360e 8fbd 244e 7a40
000001d0: 7728 f1be 38f5 563d c75d c2be 7fed 86be
000001e0: b24d 3cc0 6ebb 7abd bd7f dc3f c4a1 103f
000001f0: 647a cdbf 3f07 17c0 26d2 133e dec0 5a40
00000200: 11ac 0fc1 2fcd 9940 02e0 3440 280e 36c0
00000210: 0096 303d 105c 61c0 07d6 1b40 468f 1840
00000220: 4e12 983c 2f93 6ac0 083a 8d3c 925e 6c40
00000230: c22e 9140 121c cbbd d82b b7bd 22ec a640
00000240: 243c 1bbf 8d35 02c1 cf33 02be c4b6 32c0
00000250: 0206 1dbf 879e 5ac0 957e 60bf 7465 3b3e
00000260: 8ddc 9d3c cebf c9bf 268a b840 89e6 0dc0
00000270: 292d 1441 8c56 a7bf 23ed 2f40 5a5e 803e
00000280: 7e58 a9bd f11a 0541 3760 15c0 1940 e0c0
00000290: 5db5 623c f3e4 183d 4981 043e f9ff 0240
000002a0: b9b6 f93f 4d6f a940 191c a840 5e89 7140
000002b0: 3ad3 0541 a1ae 67c0 00ec 99bf d6fe e43d
000002c0: f7ed 543d 6b02 5d3e f089 a4bc 2645 ab40
000002d0: 69d4 873f 2d92 80bc 40ff 2bbf 7c07 98be
000002e0: 8415 44c0 bf71 f7bd 1109 8140 bbb3 973e
000002f0: b471 1bc0 b800 63c0 5964 05bc 784c 4440
-4.699724 5.3111157 3.7776117 -1.6360734 -0.09818077 -2.7362344 4.909732 0.6444968
-0.041670457 -1.8360653 -0.12007475 1.9530988 4.5185294 0.06374185 0.07749744 3.380161
1.4403517 -4.762126 -0.061648577 -2.4814951 -0.68152523 -5.054039 -0.5115905 0.17120725
0.111510985 -1.4389311 5.639946 -1.8536175 7.859803 0.106376566 4.220032 0.08098694
0.106585845 5.268231 -1.1294001 -5.1354127 -0.0072427555 -0.037148524 -0.07335114 3.7355583
1.8778957 4.7610126 3.4240563 2.2385597 5.3876753 -2.0621655 -0.7966493 0.20756628
0.26981467 1.2186457 0.0916653 2.151233 -1.6140363 0.04017774 -0.22260876 -0.29651445
-2.7091866 -0.013205886 1.8196877 0.16448875 -0.74454874 -2.180562 -0.067717135 4.0054417
-6.7952657 5.4636483 2.724119 -2.254378 -0.10240635 -2.6771092 3.3055534 1.3864465
0.025800737 -2.4915633 -0.08349037 3.0353284 4.243208 -0.12381643 -0.04000604 4.4101295
0.37722385 -6.8341384 0.11085701 -2.5303216 -0.5954857 -4.679929 -0.7686422 0.19779794
0.08029078 -1.4671367 5.4867277 -1.6789659 8.311108 -0.27216545 3.6251352 0.18001238
-0.07296665 6.902635 -1.701487 -5.8544593 -0.09951393 0.097125515 0.049844965 2.8767357
2.0501478 5.492834 4.1245756 3.2481291 6.6956625 -3.2274725 -1.0416213 0.27890667
0.18621382 1.0505728 -0.069851324 3.9110193 -0.47101185 0.052479953 -0.3796217 -0.2635307
-2.9422421 -0.061213903 1.7226483 0.56496835 -1.6052976 -2.3598173 0.14435634 3.4180217
-8.979508 4.806297 2.8261724 -2.844614 0.0431118 -3.521244 2.4349382 2.3837447
0.018563416 -3.6652334 0.017239586 3.693272 4.5369577 -0.09917463 -0.089439094 5.216325
-0.6063864 -8.138074 -0.12715076 -2.7924051 -0.6133729 -3.4159257 -0.8769315 0.1830042
0.019270206 -1.5761659 5.766864 -2.2171957 9.261025 -1.3073287 2.7488487 0.25071985
-0.08268832 8.3190775 -2.3339975 -7.0078244 0.013837186 0.037327718 0.12939943 2.0468733
1.9508888 5.2948365 5.25343 3.7740092 8.364069 -3.6200335 -1.2025146 0.111814186
0.051984753 0.21582954 -0.020085305 5.352191 1.0611697 -0.015694702 -0.67186356 -0.2969321
-3.0638132 -0.12082242 4.0323567 0.2962931 -2.428815 -3.5469189 -0.0081416005 3.0671673

value_head.bias f4 [3]
00000000: 063e 153e 02f0 153e 3cc7 0e3e
0.14574441 0.14642337 0.1394319
