trained_value_function.pt (torch, 21342 bytes, 6 tensors)

trunk.0.weight f4 [64, 3]
000000 3c 89 3b c0 ee bc a8 40 4c e3 c2 3d f6 68 6e bf
       -2.9302511 5.2730627 0.0951601 -0.9312891
000010 06 e6 91 bd 5a e4 78 bf aa 04 49 3f 62 71 b7 40
       -0.071239516 -0.97223437 0.7852274 5.7325907
000020 80 13 8a c0 44 6f 76 40 27 8a 0d 40 0e 4b 60 c0
       -4.3148804 3.850541 2.2115571 -3.504581
000030 d2 9c 2f 40 44 02 66 40 66 f0 48 c0 78 08 27 c0
       2.7439466 3.5938883 -3.1396728 -2.609892
000040 36 52 19 c0 23 2f 8a 40 41 71 fd 3f 34 5e a3 40
       -2.3956428 4.318254 1.9800187 5.1052494
000050 7b 86 5c c0 04 e6 3f 40 7d 0e 92 40 72 00 85 c0
       -3.445708 2.998414 4.5642686 -4.1563044
000060 ce da 8a 3f d8 fc fe 3f 5e 10 d8 bf f8 34 a8 3f
       1.0848024 1.9920912 -1.6879995 1.3141165
000070 80 47 33 40 41 b6 8c bf 36 e8 54 bf fa 0e 7e 3f
       2.801239 -1.099312 -0.83166826 0.992416
000080 d9 61 e1 3f 0e 64 62 3d 57 4a 72 be 4b d1 0c be
       1.7607986 0.0552712 -0.23661171 -0.13751714
000090 68 ee 12 c0 c6 b1 92 3f 26 ef d9 3f 6b d9 7b 3e
       -2.2958012 1.1460502 1.7026107 0.24594657
0000a0 8c 35 39 3d ac 86 14 be 0c 87 cb bf 00 1e 89 be
       0.045217082 -0.14504498 -1.5900588 -0.267807
0000b0 28 f7 8a bf fd ac 90 bf f2 be 62 be b0 8d e4 be
       -1.0856676 -1.1302792 -0.22143152 -0.4463935
0000c0 2a 40 d4 bf 4a 35 d4 3e c9 9b 56 3f e8 29 c5 bf
       -1.6582081 0.41446906 0.8383146 -1.5403414
0000d0 b8 49 44 bf 4a 76 ff be 30 eb 22 40 4b 11 3a 40
       -0.76674986 -0.49894935 2.5456047 2.9073055
0000e0 d8 c5 51 c0 03 06 fb bd 48 37 1d be 54 e1 33 bf
       -3.2777004 -0.12257006 -0.1535312 -0.702657
0000f0 0a de 92 bd 18 9d 52 bd 76 a4 a8 bf 74 a8 0e 3f
       -0.07171257 -0.051419348 -1.317519 0.5572579
000100 46 c8 6a 40 7c f3 b9 bf a4 2c e1 bf 1e 53 e1 b9
       3.6684737 -1.452743 -1.7591748 -0.0004297727
000110 42 2f e7 3f 9a a8 d9 3d 5a 77 74 bf a5 80 d9 be
       1.8061297 0.10627861 -0.95494616 -0.4248096
000120 39 69 bb bf a4 d0 87 bf 76 40 c6 be 46 80 aa 3f
       -1.4641486 -1.0610547 -0.38721055 1.3320396
000130 74 01 8e 40 98 54 2a c0 8a 30 e2 bf 84 e7 b5 3e
       4.4376774 -2.6614132 -1.7671063 0.35528195
000140 8e ad 78 3f 70 12 22 bf 9b 4a b5 be 0e 20 60 be
       0.97139823 -0.63309383 -0.35408482 -0.21887228
000150 a8 bd 90 bf 1a 6f 54 be 68 12 a6 bf 98 0f af be
       -1.1307878 -0.20745507 -1.2974367 -0.34191585
000160 14 a2 ce be 7f 56 c0 3e 7a d0 bc 3e 5a 1c 76 40
       -0.4035803 0.3756599 0.36877805 3.8454804
000170 32 28 c9 bf 44 a7 af 3f 56 d4 53 40 0a e0 4d c0
       -1.5715392 1.372292 3.309835 -3.2167993
000180 68 60 55 bf 30 19 28 be dc a9 93 3e 80 d6 82 bf
       -0.8335023 -0.16415858 0.2884053 -1.022171
000190 34 a3 6c bd 0a ce 00 3e d3 0f 06 bf 3e 8d 46 bc
       -0.05777283 0.12578598 -0.52367896 -0.012118636
0001a0 d6 7a f9 be 28 a1 e3 3f 36 ac 62 40 cf ee 83 c0
       -0.4872653 1.7783556 3.541761 -4.1229014
0001b0 70 ba 39 40 f7 f6 13 40 68 ff 64 c0 c2 ab b1 3e
       2.9020042 2.3119485 -3.5780888 0.34701353
0001c0 c2 d3 69 be 1a 8f 1b 3f 14 f3 05 c0 92 d6 36 3e
       -0.22834685 0.6076523 -2.0929613 0.1785529
0001d0 dc 3f 5c 38 a6 c0 3b 40 ef 3a 1e 40 32 80 68 c0
       5.251156e-05 2.9336333 2.472347 -3.6328244
0001e0 b0 d5 f6 be 24 09 b9 bf de 4a b3 bf f3 4e ce 3f
       -0.48209906 -1.4455914 -1.4007223 1.6117843
0001f0 6b 90 71 40 9e cb 14 c0 3e 5b 43 3e c0 40 f1 be
       3.7744396 -2.3249278 0.19077775 -0.47119713
000200 af e9 15 bf 80 c2 c5 bd e4 e3 2e be 18 7b b6 3e
       -0.585597 -0.096562386 -0.17079121 0.35640788
000210 84 33 da bf 88 49 89 3f e8 0f a1 bd f4 08 5f bf
       -1.7046971 1.0725565 -0.07864362 -0.87123036
000220 5d b5 42 bf 52 42 60 be b6 02 00 bf 54 80 2d bf
       -0.7605799 -0.21900299 -0.50004137 -0.6777394
000230 e4 14 74 3d 5a b0 01 3e 44 6b 8a bd c0 88 83 3e
       0.059590235 0.12664929 -0.067587405 0.2569027
000240 98 20 8d bc 7c 9f 07 be 76 1a aa 3e 5d 78 46 40
       -0.017227456 -0.13244432 0.33223313 3.1010964
000250 42 43 82 40 20 1d 92 c0 a8 b9 56 40 f0 88 97 40
       4.07071 -4.5660553 3.3550816 4.735466
000260 5e 8d 9a c0 ce 4b c7 be ec f1 68 bf 5a 40 a7 3e
       -4.8297567 -0.38925022 -0.90994143 0.32666284
000270 e0 63 5a 40 7f f4 2d 40 bc b5 49 c0 cc d1 fc bc
       3.412346 2.7180479 -3.1517172 -0.030861758
000280 d7 94 18 bf 4c 06 4e 3e b1 9f 52 3e 9a bd 35 3e
       -0.5960211 0.2011959 0.2056873 0.17748109
000290 e1 0f be 3e 26 3f 87 3f e8 bf 97 40 ef 2a 23 c0
       0.3712149 1.0566146 4.742176 -2.5494955
0002a0 ae 00 1f 40 b4 68 37 40 72 aa 30 c0 22 a2 c4 3f
       2.4844165 2.8657656 -2.7604032 1.5361979
0002b0 24 b3 11 bf 4b d2 20 c0 32 8d 07 40 22 0d 8d 40
       -0.5691397 -2.5128353 2.1179929 4.407853
0002c0 d8 a3 4b c0 9c 6f fb 3f f8 de 7f 40 36 88 32 c0
       -3.1818752 1.9643435 3.997984 -2.7895637
0002d0 78 16 d4 3d 9d ad ea be 90 9e bc bd 98 33 1e be
       0.10355848 -0.4583558 -0.09209931 -0.15449369
0002e0 aa f6 9d be 3b b7 83 bf 54 34 24 40 82 78 51 40
       -0.30852252 -1.0290293 2.5656939 3.2729802
0002f0 1c 80 78 c0 3a 20 25 40 0d 2e 8c 40 07 49 6a c0
       -3.8828192 2.580092 4.3806214 -3.6607072

trunk.0.bias f4 [64]
000000 4e a8 85 be 6f 9b 81 bb fc b5 26 40 f4 b0 25 40
       -0.2610497 -0.0039552967 2.6048574 2.5889254
000010 ca d0 36 40 dd 8c 2b 3e 14 a6 14 40 00 36 38 40
       2.8564935 0.16752954 2.3226366 2.878296
000020 38 b8 21 40 82 be 95 40 12 33 46 be c8 66 bb bc
       2.5268688 4.6795053 -0.1935542 -0.022876158
000030 ad fd 25 3f 7c 42 28 be 40 1c 84 bb 8d cf 48 bb
       0.64840204 -0.16431612 -0.004031688 -0.0030641288
000040 e0 cb e2 3e 8a e8 5d bb e9 60 2b 40 c6 54 2f bb
       0.4429617 -0.0033860528 2.67779 -0.002675341
000050 76 2d 15 bb a0 d4 75 40 16 85 85 b8 68 4f 66 bc
       -0.0022762693 3.8411026 -6.3667234e-05 -0.014057018
000060 7e 89 39 bb d8 a7 73 40 f4 a9 dd 3e 5c ef 66 bb
       -0.0028310711 3.8071194 0.43293726 -0.0035237884
000070 d0 8e e2 b9 ce a4 a8 be 60 da 57 40 9a 14 1d 40
       -0.00043212483 -0.32938236 3.3727036 2.4543824
000080 ca 20 84 be b4 3a d8 bd 84 22 57 bb ac 72 88 3f
       -0.25806266 -0.10558072 -0.003282697 1.0659995
000090 23 ee 9e 3f b4 db 6c bf 02 91 3c 3f ab 4e fb 3f
       1.2416424 -0.9252274 0.73658764 1.9633383
0000a0 bc 68 0d bb f6 e5 82 40 6f 62 1c bc 92 be ae be
       -0.002157732 4.0905714 -0.009544953 -0.3412977
0000b0 b2 e2 0c 3f 6e 89 28 bb b0 72 0f bd 8c f0 be be
       0.5503341 -0.002571668 -0.035021484 -0.37292898
0000c0 9c 04 a6 be de ee 14 40 66 b5 25 40 52 e0 7b be
       -0.32425392 2.3270793 2.5891967 -0.2459729
0000d0 05 0e 1e 40 66 93 3f be 6a 87 39 bf be ba 11 40
       2.4696057 -0.18708572 -0.7247225 2.2770228
0000e0 b8 76 34 40 6f 7f ee b8 06 2a 5c 40 8e cb 5b 40
       2.819746 -0.00011372461 3.440065 3.434299
0000f0 ec 21 8e bd 36 07 36 bb 18 c7 22 40 3f 35 22 40
       -0.06940064 -0.0027775294 2.5434017 2.5345

trunk.2.weight f4 [64, 64]
000000 ee cf df bd d5 a7 74 be 98 ea d2 bd d3 4f 87 3c
       -0.10928331 -0.23892148 -0.102986515 0.016517555
000010 2e 5e 06 be 02 69 72 3e e7 3a 49 be 7b cd 4d be
       -0.13121864 0.2367287 -0.19651376 -0.20097916
000020 44 56 e5 bd 98 71 6f 3e 01 05 17 be e0 21 97 3e
       -0.111980945 0.23383176 -0.14748003 0.29518032
000030 8f a4 e4 3d 42 29 0e bd c1 3a 2c 3e ab 80 1c 3e
       0.111641996 -0.034707315 0.16819288 0.15283458
000040 e6 b0 38 be 82 38 4f bd a4 08 9d 3e b9 fa 3b 3e
       -0.18036231 -0.050591 0.30670655 0.18357362
000050 77 35 13 be 7b 0a e0 bd ce ee 1d 3e 79 09 26 3e
       -0.14375864 -0.10939499 0.15423128 0.16214551
000060 31 cf f5 3c 23 56 58 be fe 3b 7d be c2 40 55 bd
       0.030006023 -0.21126609 -0.24729916 -0.05206371
000070 93 88 00 3e 43 55 bf bc 32 5b 8b be ba 35 8c bd
       0.12552099 -0.023356086 -0.27218014 -0.06846185
000080 22 76 9f 3e f1 db 78 be 75 61 69 be 29 59 4c 3e
       0.31144816 -0.24302651 -0.22791083 0.19955887
000090 ae 56 9f 3e 14 69 90 be d2 d5 91 be c8 77 b1 bd
       0.3112082 -0.28205168 -0.28483444 -0.086654246
0000a0 78 76 9f 3e 54 8f 47 be 64 4f 0d 3d 0e 2c 85 3e
       0.31145072 -0.19488269 0.03449954 0.26010174
0000b0 90 a4 f3 bd ac c9 b3 bd ad 53 49 be 13 6b c8 3c
       -0.11896622 -0.087787 -0.19660826 0.02446512
0000c0 78 4b 98 3e e7 df 08 3e 8b c2 64 3e 5a 88 12 bc
       0.29745078 0.13366662 0.22339837 -0.008943642
0000d0 c6 ce 39 bd a6 f4 42 bd 97 4b 3f 3e f8 be 4d bd
       -0.04536321 -0.047596596 0.18681179 -0.05023095
0000e0 38 a6 83 be 6a f6 c4 bd a3 a1 f7 3d 01 4c 96 3e
       -0.25712752 -0.09617312 0.12091377 0.2935486
0000f0 e6 d4 47 bd f2 77 85 be f3 51 61 be 3b 40 77 be
       -0.04878702 -0.26068074 -0.22003917 -0.24145596
000100 c6 c6 ee 3e 82 3e 96 bf 48 f7 7a bf 8d 82 51 40
       0.46636027 -1.1737826 -0.9803357 3.2735932
000110 5c 64 00 3f 02 5c d8 3f 2f 8e d5 bf b3 f7 04 3f
       0.50153136 1.6903079 -1.6684016 0.5194046
000120 4b 12 8e 40 4c 71 1b 40 81 89 60 3e 6a cc da bf
       4.439733 2.42879 0.21927454 -1.7093632
000130 75 c8 75 c0 f4 95 bc bf 16 c1 bf bf c2 f1 d4 bf
       -3.84036 -1.4733262 -1.49808 -1.6636279
000140 44 d1 24 c0 ea f4 87 bf a0 06 73 40 f4 de d8 bf
       -2.5752726 -1.0621617 3.7972794 -1.694304
000150 48 cd b3 bf 28 86 1b 40 9e 89 3b c0 18 c5 e5 bf
       -1.4047022 2.4300632 -2.9302745 -1.7950773
000160 fa b9 bf bf 37 ef 8a 3f e4 b4 d2 bf ea 41 d5 bf
       -1.497863 1.0854253 -1.6461453 -1.666074
000170 4a c6 9f bf 74 51 b5 bf 4e 10 17 40 78 3b 79 40
       -1.2482388 -1.4165483 2.3603702 3.8942547
000180 20 88 c4 bf 18 14 ae bf ac 08 ce bf da 57 79 40
       -1.5354042 -1.3599882 -1.6096396 3.895987
000190 6d 35 6a 40 88 6b d1 bf 2e 1b c9 be da 97 5e 40
       3.6595109 -1.6360941 -0.3927855 3.4780183
0001a0 c0 cd 87 bf 96 b6 09 40 62 84 c6 bf 6e e1 d7 bf
       -1.0609665 2.1517692 -1.550915 -1.6865671
0001b0 a0 f7 35 c0 60 8b c8 bf 7c d4 df bf 98 cc ba bf
       -2.8432388 -1.5667534 -1.748672 -1.4593687
0001c0 94 57 b7 bf ca d4 85 bf 28 3f 01 3f 54 35 b5 bf
       -1.4323602 -1.0455563 0.50486994 -1.41569
0001d0 2d e0 a7 bd 7a c6 b5 bf 82 2c 95 bf 4a c5 d3 bf
       -0.08197055 -1.4201195 -1.1654208 -1.6544583
0001e0 70 d1 42 40 7c 12 af bf 60 0a 15 3f 1a 45 8b 3f
       3.044033 -1.3677516 0.58218956 1.0880463
0001f0 8c 8a eb bf e4 73 b0 bf 82 26 7e 40 7c a0 7f bf
       -1.8401656 -1.3785367 3.9711003 -0.99854255
000200 7d 6d 92 be ea a8 aa bd 1b 1a 17 bd d6 f6 26 3e
       -0.28599158 -0.08332999 -0.03689013 0.16305098
000210 40 e9 e7 bd 89 2c 07 3d d0 08 e1 bd e9 7b 3c bd
       -0.11323786 0.033001456 -0.10988009 -0.046016607
000220 8e b5 80 bb a2 64 3e be 26 ee 58 be af c2 82 3e
       -0.003927893 -0.18593076 -0.21184596 0.25539157
000230 4c 9f 79 3e 64 c7 d9 bb 43 09 89 3e b4 4a 74 3e
       0.24377173 -0.0066460837 0.2676488 0.23856622
000240 44 bf 50 be 66 cc f3 bd f2 a9 54 be 62 1c d0 3d
       -0.20385462 -0.1190422 -0.20767954 0.101616636
000250 ce da 29 3c 0c 69 3f bd 5f b5 5f 3e ca ba ef bd
       0.0103671085 -0.04673104 0.21846531 -0.11705549
000260 80 e8 28 be 0f 0b 5f be c6 52 2b be ab 70 98 3e
       -0.16494942 -0.21781562 -0.16730794 0.2977346
000270 48 c0 15 be b0 28 a7 bd 7c bd 0b 3e 54 1e 6e be
       -0.1462413 -0.081620574 0.13646501 -0.23253757
000280 9c 9d 3b be 5c 73 69 3e 84 22 eb bd 4a 02 20 be
       -0.18321842 0.22797912 -0.11481193 -0.15625873
000290 11 83 17 bd 61 f5 27 bd 7d f2 53 3d 2e 45 eb 3d
       -0.03699023 -0.041005496 0.051744927 0.11487804
0002a0 30 10 6f be 4e a2 8d 3e 2d b4 93 be fe bc d9 3d
       -0.23346019 0.2766289 -0.288484 0.106317505
0002b0 da a4 bf bd c2 b7 01 be 5f 09 94 3e e3 b9 95 be
       -0.09357615 -0.12667754 0.289134 -0.29243383
0002c0 3b cc c0 3c 40 98 4b 3e 09 7e 8d 3e 82 32 83 be
       0.023534885 0.19882298 0.2763522 -0.25624472
0002d0 8d 54 19 3d 19 72 9c 3e 05 37 98 be 82 04 8c 3d
       0.03743415 0.305558 -0.29729477 0.06836797
0002e0 e6 c3 41 be d7 56 56 3d 51 9e 8c be b0 4a 1b 3e
       -0.18922386 0.05232891 -0.27464536 0.1516521
0002f0 3e bc 85 bd 7a 11 3e 3e c1 cd 01 bb b1 0e 3c bd
       -0.06530045 0.18561354 -0.0019806477 -0.04591245
000300 c8 79 d9 bd 26 c5 ce be 14 00 72 be 16 05 a1 3d
       -0.10618931 -0.40384787 -0.23632842 0.07862298
000310 fe 1a 56 be 5a 46 56 3e 78 c7 46 be 1e 8e b3 bd
       -0.20908734 0.20925274 -0.19412029 -0.08767341
000320 ee 25 8c 3c 4c 89 6c be 08 77 00 be 04 9f 31 be
       0.01710793 -0.2309925 -0.12545407 -0.17345816
000330 ed 6b b6 be 2e 13 ad bd e2 c3 05 3e f2 93 84 bd
       -0.35629216 -0.08450924 0.13063005 -0.06473531
000340 d0 ed 56 3e ba c7 89 bc f6 18 39 3c 34 09 a8 3e
       0.20989156 -0.01681887 0.011297455 0.3281952
000350 aa 83 18 be 49 60 89 be a4 15 92 bc ee b9 77 3e
       -0.14893976 -0.26831272 -0.017832585 0.2419202
000360 4e 75 6c be 41 60 4e 3d 47 95 40 be 66 eb e3 bc
       -0.23091623 0.050384764 -0.18806945 -0.027822208
000370 e0 45 09 be 3a 66 2b be ff 37 76 be ea 91 34 3e
       -0.13405561 -0.16738215 -0.24044798 0.17633787
000380 78 98 dc bd e4 7f f9 3d 12 3b e4 bc 64 49 22 be
       -0.107712686 0.12182596 -0.027860198 -0.15848309
000390 40 a8 a4 bc e2 88 b9 be 7a b0 8a 3e 03 5f cf 3c
       -0.02009976 -0.36237246 0.27087766 0.02531386
0003a0 74 55 09 3c e9 6e dc bc a4 52 28 be a6 52 5f be
       0.00838219 -0.026908355 -0.16437775 -0.21808872
0003b0 89 45 9e 3e b0 fe 2e be fa 93 06 be 84 88 f7 3d
       0.30912426 -0.17089343 -0.13142386 0.12086585
0003c0 14 73 f9 3d ee 96 84 3e 77 18 79 be dc d0 be 3d
       0.121801525 0.258964 -0.24325739 0.093171805
0003d0 c6 2b bc bc c2 6a 4d be c0 af a1 be 04 b7 b2 be
       -0.022970092 -0.20060256 -0.315794 -0.34905255
0003e0 76 72 94 3e 58 a3 b9 3d 14 a8 8a be b6 22 91 3e
       0.28993577 0.090643585 -0.27081358 0.28346795
0003f0 00 d7 50 3e f2 bb 97 3e 70 d3 da 3e 0c fd 97 3e
       0.20394516 0.29635578 0.4273944 0.29685247

trunk.2.bias f4 [64]
000000 3e b1 b1 bb 38 0c 60 40 68 19 46 bb c7 84 46 3e
       -0.0054227402 3.5007458 -0.0030227546 0.19386588
000010 9d a2 88 3f 6e 80 2a 3f 00 bd eb 3f f0 78 f3 bf
       1.0674626 0.6660222 1.8417053 -1.9021282
000020 0a 53 68 40 7a 4b a5 be cd 03 6d 40 98 ef ee bf
       3.6300683 -0.32284147 3.703357 -1.8666868
000030 04 2e 37 40 3a dc 2e 40 dc 8a 72 40 48 bf 5e 40
       2.8621836 2.7321916 3.7897253 3.480425
000040 fa 07 95 bf a2 d0 b0 3b ba c5 05 bd 30 36 78 3f
       -1.1643059 0.0053959647 -0.03265927 0.96957684
000050 82 d5 f0 bf 0a d7 23 3c 2a 96 75 40 2b 3d 6f 40
       -1.8815157 0.01 3.8372903 3.7381084
000060 0a 95 6b 40 98 bc 64 3e ca 5c 99 bb 6e b2 6a 40
       3.6809716 0.22337568 -0.004680251 3.6671405
000070 bd 31 63 40 28 b0 7b bf 64 b2 4b 40 54 5f 6f 40
       3.5499108 -0.9831567 3.182763 3.7401934
000080 0e f6 8b bd 0f 9a 09 c0 06 b2 68 40 be 93 a9 bc
       -0.068340406 -2.150028 3.6358657 -0.020700332
000090 14 70 7c 3f 70 7b c8 bf 6e 92 6f 40 c4 5f a9 3f
       0.9860852 -1.566267 3.7433124 1.323235
0000a0 62 df 2a 3e 51 16 c1 3e 8a b1 6e 40 d6 8b 5b 40
       0.16686776 0.3771234 3.7295861 3.43041
0000b0 80 c6 f7 3f 9a 96 57 3b bd 53 57 40 54 75 2c c0
       1.9357452 0.0032896162 3.364486 -2.6946611
0000c0 63 d4 5b 3f 3f 01 6d 40 fe 63 81 3f 52 a0 4e bb
       0.8587095 3.703201 1.010864 -0.0031528664
0000d0 ae 9d f9 be bd 91 7f bb 82 25 71 40 7c 03 47 bf
       -0.48753113 -0.003899678 3.7679143 -0.7773969
0000e0 a0 62 63 40 5a 3b ef bf e2 3f da bf 52 e6 6e 3e
       3.5528946 -1.8689988 -1.7050745 0.23330048
0000f0 f4 9a 5d 40 5d 0f ad 3f 0f f8 49 bd 7f 36 f7 3f
       3.4625826 1.3520314 -0.049308833 1.9313506

value_head.weight f4 [3, 64]
000000 c1 0f 18 3f 08 b6 2c 40 38 2a e9 3e 98 a6 d4 3e
       0.5939904 2.6986103 0.45540023 0.4153335
000010 21 3f eb bf de a3 e2 bf 6a 2f 14 40 53 e3 56 c0
       -1.837864 -1.7706258 2.315394 -3.3576248
000020 21 4c ec 3f dc 9d 24 c0 2c dd 21 40 22 8b 5f c0
       1.8460733 -2.572135 2.5291243 -3.492867
000030 7c 28 25 3f 7e c5 a9 3e 80 22 38 40 c4 aa e2 3f
       0.645149 0.33158487 2.8771057 1.7708364
000040 62 25 4e c0 0d e1 0b 3f 2d 5b 22 3f db 7e e9 bf
       -3.2210317 0.54640275 0.63420373 -1.8241838
000050 8e db 5b c0 16 ff fa 3e e1 ed 2c 40 0c c7 1d 40
       -3.4352756 0.4902274 2.702019 2.4652739
000060 e0 1c 06 40 a6 59 da be 9f 2e 02 3f dc 9a 26 40
       2.0955124 -0.4264652 0.5085239 2.6032019
000070 1e 41 27 40 be 8c 58 c0 39 15 20 40 99 98 1a 40
       2.6133494 -3.3835902 2.5012953 2.4155638
000080 16 10 de 3e ab 19 6d c0 4e 60 25 40 fb ef 03 3f
       0.43371648 -3.7046916 2.584003 0.51538056
000090 a0 06 dd bf 16 f9 68 c0 14 b8 12 40 87 95 ab c0
       -1.7267647 -3.640203 2.2924852 -5.362003
0000a0 de ff 3e c0 85 c1 1b c0 82 87 1d 40 c6 19 2e 40
       -2.984367 -2.4336865 2.4613957 2.720323
0000b0 d4 4a af bf ef cf 0b 3f 62 25 35 40 72 31 80 c0
       -1.3694711 0.54614156 2.8304067 -4.006036
0000c0 7d 73 41 c0 09 26 25 40 b2 9e 3b c0 68 c3 cc 3e
       -3.0226738 2.5804465 -2.931561 0.39992833
0000d0 8c a3 3e c0 2b 3e 1d 3f b4 02 0e 40 3e 89 43 c0
       -2.978732 0.61422986 2.218915 -3.0552516
0000e0 8b e1 fc 3f 16 a8 5f c0 88 79 42 c0 b1 4e 74 be
       1.975633 -3.4946342 -3.0386677 -0.23858143
0000f0 78 3b f8 3f ce a3 0a c0 20 f7 c6 bb 4a 2e 89 40
       1.9393148 -2.1662478 -0.00607194 4.2869005
000100 d9 12 05 c0 b0 74 19 c0 41 2d 0a c0 f9 25 09 c0
       -2.0792754 -2.397747 -2.159012 -2.1429427
000110 e4 b9 a8 3e a8 7c c3 bd 00 95 98 c0 44 39 85 40
       0.32954323 -0.09545261 -4.7681885 4.1632404
000120 50 e6 11 3e 42 92 c0 3d 0e d6 b2 bf 78 31 5b 40
       0.14248013 0.094028965 -1.3971574 3.4248943
000130 58 f3 10 40 30 72 31 40 be 59 fa bf fe 9b 2c 3f
       2.2648525 2.7725945 -1.9558637 0.67425525
000140 56 2d 50 40 58 79 f1 bf fe b3 f9 bf 15 98 1c 3f
       3.252767 -1.8865156 -1.9508054 0.6116956
000150 e2 f3 64 40 5b f5 05 c0 12 52 96 bf 28 c0 b7 bf
       3.5773854 -2.0931003 -1.1743796 -1.4355516
000160 1a 81 87 3c 35 d9 34 c0 e0 7f fb bf 99 58 d8 bf
       0.016541053 -2.8257573 -1.9648399 -1.6902038
000170 c0 a1 ee bf 38 2e 6a 40 ad 79 2c c0 ab c5 2f bf
       -1.8643112 3.659071 -2.6949265 -0.6866099
000180 db 52 06 c0 5a 10 59 40 54 eb db bf 1f 33 07 c0
       -2.098807 3.391623 -1.7181191 -2.1124952
000190 41 ec 3b bd be 71 6c 40 ef 1f 12 bf ee 46 a0 40
       -0.045879606 3.6944423 -0.57079977 5.0086584
0001a0 f3 89 3a 40 d8 d9 10 40 19 7a 78 bf 2b d6 00 c0
       2.9146698 2.2632961 -0.97061306 -2.0130718
0001b0 92 06 8e 40 b3 68 00 c0 76 05 18 c0 40 ef f1 40
       4.438302 -2.0063903 -2.3753333 7.5604553
0001c0 0a b5 24 40 80 26 f1 bf d2 dd 17 40 61 f3 0d c0
       2.5735497 -1.8839874 2.3729138 -2.2179797
0001d0 ae 49 19 40 bd 93 00 c0 d2 e0 88 bf da 03 4b 40
       2.395122 -2.0090172 -1.069361 3.17211
0001e0 0a 14 50 be 40 1d 65 40 df 13 41 40 d1 8e 3d c0
       -0.20320144 3.5799103 3.0168378 -2.9618418
0001f0 e4 6f c5 be c6 6d 58 3f b9 9a 2e c0 6b 5e cd bf
       -0.38561928 0.845425 -2.7281935 -1.6044439
000200 20 28 04 c0 1e 6b 1c 40 26 80 03 c0 7a dd 00 c0
       -2.064949 2.444038 -2.0546966 -2.0135179
000210 e0 a5 2f c0 02 79 28 c0 92 2a 3e c0 a2 95 58 c0
       -2.7444992 -2.6323857 -2.9713483 -3.3841329
000220 ff 29 01 40 fa ec b6 bf 70 50 14 40 8c 2d 43 c0
       2.0181882 -1.429107 2.3174095 -3.049655
000230 82 4e 0e 40 0e 50 16 40 d9 95 12 40 54 8b 07 40
       2.2235417 2.3486362 2.290396 2.117879
000240 f0 06 36 c0 8a 55 ed bf 6c 52 ea bf d6 7e 32 c0
       -2.8441734 -1.854173 -1.8306403 -2.7889915
000250 6e 25 3d c0 fa 9c 00 c0 aa 5e 15 40 4a c8 17 40
       -2.9554095 -2.009581 2.3339028 2.3715997
000260 91 a7 0c 40 98 ee eb bf ae 03 00 c0 1c b5 17 40
       2.1977274 -1.8432188 -2.0002246 2.370429
000270 3e 49 21 40 d2 82 39 c0 48 b3 2a 40 b6 17 14 40
       2.5200953 -2.8986096 2.6671925 2.3139472
000280 36 df fd bf 78 e4 4b c0 0a 51 25 40 1a fc fd bf
       -1.9833744 -3.1858196 2.5830712 -1.984256
000290 18 95 3a c0 2d 5e 4f c0 0a 2d 07 40 24 c1 5d bf
       -2.91535 -3.240123 2.112124 -0.86622834
0002a0 f9 d0 2a c0 d4 d1 2f c0 da 47 10 40 a7 13 28 40
       -2.6690047 -2.747182 2.2543855 2.6261995
0002b0 2f ca 18 40 64 1d f3 bf b2 ea 33 40 bb c8 d6 3d
       2.3873403 -1.8993344 2.8111997 0.10487505
0002c0 ec 38 36 c0 72 47 20 40 2e e5 25 c0 aa 1e f5 bf
       -2.8472242 2.5043607 -2.592113 -1.9149983
0002d0 1a 01 3c c0 b4 4b 00 c0 28 07 0c 40 e0 be 33 c0
       -2.9375672 -2.0046206 2.1879368 -2.808525
0002e0 80 09 0d 40 25 83 41 c0 ae 35 35 c0 40 ca d0 bf
       2.2037048 -3.0236294 -2.8314013 -1.6311722
0002f0 f0 c1 18 40 58 b3 2f c0 26 bc d5 bf 52 56 3c 40
       2.386837 -2.7453213 -1.6698043 2.9427686

value_head.bias f4 [3]
000000 90 4b be 3f 10 42 59 bf 50 58 45 40
       1.486681 -0.8486643 3.0835152
