trained_value_function.pt (torch, 20830 bytes, 6 tensors)

model.0.weight f4 [64, 1]
0	0x3fbf22be	1.4932477
1	0x40294d46	2.6453414
2	0xbf6392e6	-0.88896024
3	0xbef8314f	-0.4847512
4	0x3ed7d544	0.42154896
5	0x3fef9af8	1.8719168
6	0x3fa9bc62	1.3260615
7	0x40505e8e	3.2557712
8	0x3f9f75e5	1.2457854
9	0x3ffff84c	1.9997649
10	0x3f4e4d43	0.8058664
11	0x3f6929f5	0.91079646
12	0xbf939b0d	-1.1531693
13	0xbef4b87d	-0.47797003
14	0x3ee423dd	0.44558612
15	0x3fd7a934	1.6848512
16	0x404b0cb1	3.1726496
17	0x40244016	2.5664115
18	0xbe1991c4	-0.14997011
19	0x3e281fd8	0.16418397
20	0x400dffb7	2.2187326
21	0x406047cd	3.5043824
22	0x3f5addf8	0.8549495
23	0x40599bc7	3.400133
24	0x3f7ab4f7	0.9793238
25	0x3fe1c697	1.763873
26	0x4055cb30	3.3405266
27	0xbf876db9	-1.058036
28	0x3e2ddd65	0.16978987
29	0x3f7ad6c1	0.9798394
30	0x3f053706	0.52037084
31	0x408b6692	4.356271
32	0xbe0c70bb	-0.13714878
33	0x3edcdba6	0.43136328
34	0xbf91532c	-1.1353507
35	0xc0143a03	-2.3160408
36	0x3e05468e	0.13015196
37	0x404016bf	3.0013883
38	0x401fa582	2.4944768
39	0x402fbe72	2.7459989
40	0x3fe44195	1.7832514
41	0xbb06d1ee	-0.0020571905
42	0x3fee193c	1.8601451
43	0xc0844401	-4.1333013
44	0xbeda68ad	-0.42657986
45	0x3ec47b4d	0.3837532
46	0x40525d1f	3.2869337
47	0x4029dcfc	2.6541128
48	0x3e9101eb	0.28321776
49	0x3fc0d025	1.5063521
50	0x402aa373	2.6662261
51	0x408dae4d	4.427527
52	0x4028e2cb	2.6388423
53	0x3feb33eb	1.8375219
54	0x403ddd90	2.966648
55	0xbd57a0f7	-0.052643742
56	0x3ff3bf11	1.9042684
57	0xbf4db1ab	-0.80349225
58	0xbf272ce3	-0.65302867
59	0x3e0bd34a	0.13654819
60	0x404c69f4	3.1939669
61	0x40392ba8	2.8932896
62	0xbe9a49a2	-0.30134302
63	0x4008e032	2.1386838

model.0.bias f4 [64]
0	0x3e839fe2	0.25707918
1	0xbe16d2d3	-0.1472886
2	0x3f500a91	0.81266123
3	0x3f394b9a	0.72380984
4	0x3f1d17dd	0.6136454
5	0x3f1023b0	0.56304455
6	0xbf65252e	-0.89509857
7	0x3de14606	0.10999684
8	0x3e2705ae	0.1631076
9	0x3ee3b3d9	0.4447315
10	0x3f492a6c	0.78580356
11	0x3f401314	0.7502911
12	0x3f8f1e7d	1.1181179
13	0xbecef6d4	-0.4042269
14	0x3ddf7b91	0.1091224
15	0xbf3b939e	-0.7327212
16	0x3dff0f9e	0.124541506
17	0x3efcbc50	0.4936242
18	0x3f8e1f5a	1.1103318
19	0xbf583266	-0.844519
20	0xbdba1c2e	-0.09087406
21	0x3e7d245b	0.247209
22	0xbe7e07d3	-0.24807672
23	0x3e4dc375	0.20094092
24	0x3e315fe7	0.1732174
25	0xbf2cc1b0	-0.67483044
26	0x3e9390fa	0.28821546
27	0x3fad275e	1.3527639
28	0x3f69736a	0.9119173
29	0x3e54129e	0.20710227
30	0xbf7dacc6	-0.99091756
31	0x3f68f4d6	0.9099859
32	0x3f5b428d	0.85648423
33	0x3e8af691	0.2714124
34	0x3e541e0f	0.20714591
35	0x3f687e10	0.90817356
36	0x3f8fab83	1.1224216
37	0x3ead8ec3	0.3389798
38	0xbea74944	-0.32673085
39	0xbe0db0cd	-0.13836975
40	0xbf838643	-1.0275348
41	0x3e30190e	0.17197058
42	0xbf547023	-0.8298361
43	0x3fa9c643	1.326363
44	0x3ede4060	0.4340849
45	0x3e708c02	0.23490909
46	0x3e04bb2b	0.12962024
47	0x3e7a2987	0.24429904
48	0xbf037894	-0.5135586
49	0x3f1956a6	0.5989784
50	0x3eaeb01c	0.34118736
51	0x3f8c7bf5	1.0975329
52	0xbe2d7a4d	-0.16941185
53	0xbe35bd84	-0.17748076
54	0x3dd18656	0.10230701
55	0x3f0f092d	0.55873376
56	0x3daa2cd9	0.08309335
57	0x3f4e1941	0.80507284
58	0x3dd3a721	0.10334612
59	0x3f210510	0.6289835
60	0x3e32b187	0.17450534
61	0xbe184a61	-0.14872123
62	0x3e03c3c3	0.12867646
63	0xbf08f465	-0.53497916

model.2.weight f4 [64, 64]
0	0x3dad16c3	0.08451607
1	0x3cd4dce4	0.025984235
2	0xbd1f4447	-0.038883474
3	0x3d70054d	0.058598805
4	0x3c3e205e	0.011604397
5	0x3e09757f	0.13423727
6	0x3e2aae92	0.16668156
7	0x3e1f1568	0.1553551
8	0x3dfccf95	0.12344281
9	0x3e087bb6	0.13328442
10	0x3e057be0	0.13035536
11	0x3e3f8ac0	0.18705273
12	0x3da39185	0.0798674
13	0x3dda6a82	0.10664846
14	0x3e5cd5c6	0.21565923
15	0x3d747ca3	0.059689175
16	0xbc01da9b	-0.007925655
17	0x3dd6c45a	0.1048667
18	0x3e10028c	0.14063472
19	0x3da74271	0.081669696
20	0x3d8a3e19	0.067501254
21	0x3ddef1fc	0.108859986
22	0xbc3db1fd	-0.01157808
23	0x3da5c6da	0.080945686
24	0x3db666a3	0.08906295
25	0x3e0b482c	0.1360175
26	0x3e874014	0.26416075
27	0xbe0f8211	-0.1401446
28	0x3e1f5baa	0.15562311
29	0x3c89c4c8	0.016817465
30	0x3d94675a	0.07246275
31	0x3eb640d7	0.35596344
32	0x3d0ae01d	0.033905137
33	0x3d8fdf9c	0.07025072
34	0xbe24678d	-0.16055126
35	0xbea971ff	-0.33094785
36	0x3d5da26d	0.05410998
37	0x3e36b81f	0.17843674
38	0x3d0827ac	0.03324096
39	0x3e34079e	0.1758103
40	0xbddf661e	-0.10908149
41	0x3d87a1d6	0.06622665
42	0x3e11f5e8	0.14253962
43	0xbf1092c9	-0.56473976
44	0x3e1611ac	0.14655179
45	0x3e0ccb63	0.13749461
46	0x3d708e3d	0.0587294
47	0x3e78c85d	0.24295183
48	0x3d9b2958	0.07576245
49	0x3d9ac599	0.0755722
50	0x3e8724c8	0.2639525
51	0x3eb8f502	0.36124426
52	0x3e0d980a	0.1382753
53	0x3dbe9ab9	0.09306855
54	0x3e8425bd	0.25810042
55	0x3dd09c1a	0.10186024
56	0x3e46c55d	0.19411226
57	0x3d38e63c	0.045141444
58	0xbc943a0a	-0.018094081
59	0x3d4a13e5	0.04933538
60	0x3b26a8fc	0.0025430312
61	0x3e2ce749	0.16885103
62	0x3e159252	0.14606598
63	0x3e1dbdcf	0.15404437
64	0x3ee53ffe	0.44775385
65	0x3ff988e3	1.94949
66	0xc00f088f	-2.2348974
67	0xbfeadcda	-1.8348649
68	0xbf4af1c2	-0.79275143
69	0x3f70e1df	0.9409465
70	0x3ecd7b59	0.4013317
71	0x4029f95d	2.655845
72	0x3e902cb7	0.28159115
73	0x3f8f01c8	1.1172419
74	0xbeafae7f	-0.34312817
75	0xbe3972b5	-0.18110164
76	0xc01f7665	-2.4916012
77	0xbfd87be0	-1.6912804
78	0xbf3f9af4	-0.74845815
79	0x3f77d260	0.9680538
80	0x40283dd9	2.628775
81	0x3fc71644	1.555367
82	0xbfa897f0	-1.3171368
83	0xbf80384d	-1.0017182
84	0x3fb89a07	1.4422005
85	0x402e1325	2.7199185
86	0xbdf5e14e	-0.12005864
87	0x4034a9ff	2.8228757
88	0xbe135948	-0.14389527
89	0x3f76c8f0	0.96400356
90	0x401c2eee	2.4403644
91	0xc019548e	-2.3957858
92	0xbf846cac	-1.0345664
93	0x3d838e66	0.06423645
94	0xbf0be7be	-0.54650486
95	0x4072cc64	3.793725
96	0xbfb643b6	-1.4239414
97	0xbf24c6af	-0.6436567
98	0xc01a97c0	-2.415512
99	0xc0596d12	-3.3972821
100	0xbf8909bb	-1.0706095
101	0x3ffa5425	1.9556929
102	0x3ff2a486	1.8956459
103	0x400b9c3c	2.1814108
104	0x3f6fe246	0.9370464
105	0xbf9006be	-1.1252058
106	0x3f9992d6	1.1997936
107	0xc0915549	-4.541661
108	0xbfd194af	-1.63735
109	0xbf60a183	-0.8774645
110	0x4026332a	2.5968728
111	0x3fe09fcf	1.754877
112	0xbf50519f	-0.81374544
113	0x3f119574	0.5686867
114	0x3fd4082a	1.6564991
115	0x40801df1	4.003655
116	0x4001c369	2.027552
117	0x3f648878	0.89270735
118	0x400ff588	2.249361
119	0xbfaa0ba2	-1.32848
120	0x3f850350	1.0391636
121	0xc004e350	-2.076374
122	0xc0005eb3	-2.00578
123	0xbf81a758	-1.0129194
124	0x402e26c0	2.721115
125	0x40100cfb	2.2507923
126	0xbfcefe75	-1.6171404
127	0x3fb619e4	1.4226651
128	0xbe798a4c	-0.24369162
129	0xbd888e03	-0.066677116
130	0xbe2d3b8a	-0.16917244
131	0xbe461d7d	-0.19347186
132	0xbe3ec569	-0.18629993
133	0xbd4a04c8	-0.049320966
134	0xbd559092	-0.052139826
135	0xbce2799c	-0.027645878
136	0xbd9568e6	-0.072953984
137	0xbe27ed6d	-0.16399164
138	0xbe1bfb94	-0.15232688
139	0xbda65258	-0.081211746
140	0xbba38002	-0.004989625
141	0xbd9b69d5	-0.07588545
142	0xbe31b417	-0.17353855
143	0xbe35cddf	-0.17754315
144	0xbe717abd	-0.23581977
145	0xbdc819d7	-0.097705536
146	0xbe3bd3a1	-0.18342449
147	0xbe675ee1	-0.22594787
148	0xbc454675	-0.012040724
149	0xbe531668	-0.20614016
150	0xbe06f715	-0.13180192
151	0xbdb1bf0b	-0.08679017
152	0xbde68915	-0.11256615
153	0xbe50ca5c	-0.20389694
154	0xbe6a15a3	-0.22859816
155	0xbc098b8c	-0.008395087
156	0xbdc016ca	-0.09379347
157	0xbc5beb40	-0.013422787
158	0xbe20b033	-0.15692215
159	0xbdaad2b1	-0.083409674
160	0xbe1127ba	-0.1417531
161	0xbdf78922	-0.12086703
162	0xbe3bcec1	-0.18340589
163	0xbd6e8e1b	-0.05824099
164	0xbd983a1a	-0.07432957
165	0xbe03b03a	-0.12860194
166	0xbe19e9b1	-0.15030552
167	0xbe4cb8e0	-0.19992399
168	0xbcf92a3f	-0.030415652
169	0xbe51cf4c	-0.20489234
170	0xbd8a013f	-0.06738519
171	0xbe0a00e8	-0.13476908
172	0xbe2fc45f	-0.17164753
173	0xbdbd6264	-0.09247282
174	0xbe4097f3	-0.18807964
175	0xbdc2969a	-0.09501381
176	0xbdb7d45d	-0.08976052
177	0xbe59c064	-0.21264797
178	0xbdd5c7c9	-0.104384966
179	0xbd81c3ab	-0.06336149
180	0xbd954229	-0.0728801
181	0xbe0bcee9	-0.13653149
182	0xbe693077	-0.22772394
183	0xbe07d70a	-0.13265625
184	0xbd9ea891	-0.07746995
185	0xbe1eab49	-0.15495028
186	0xbd7c19d5	-0.061548073
187	0xbcf98dea	-0.030463178
188	0xbe3a2353	-0.18177538
189	0xbdf377e3	-0.11888101
190	0xbd734f90	-0.05940205
191	0xbde1cdeb	-0.11025604
192	0x3da522f6	0.08063309
193	0xbc2ad412	-0.010426538
194	0x3c0eb10d	0.008709204
195	0x3e0864eb	0.13319747
196	0x3e4e9d87	0.2017728
197	0x3e280b61	0.1641059
198	0x3ddc9b7c	0.10771844
199	0xbd23ba79	-0.039972756
200	0x3e0d1d3b	0.13780682
201	0xbc756642	-0.014977993
202	0xbbdef9d0	-0.0068046823
203	0xbca03364	-0.019555755
204	0x3e693f30	0.2277801
205	0x3e4a77bd	0.19772239
206	0x3cfcc33b	0.030854812
207	0x3d6fd456	0.05855211
208	0x3d00c5bd	0.031438578
209	0x3e134523	0.14381842
210	0x3e674d40	0.22588062
211	0x3e59ca7c	0.21268648
212	0xbc8eba66	-0.017422866
213	0xbda95353	-0.08267846
214	0x3e42fea6	0.19042453
215	0x3ccf87fd	0.025333399
216	0x3c9ab347	0.018884314
217	0x3dd8af31	0.1058029
218	0x3d0f288b	0.034950774
219	0x3e381f9f	0.17980812
220	0x3d2d3bcb	0.04229335
221	0x3e06dbe9	0.13169827
222	0x3d8b1e1a	0.06792851
223	0x3e1d80a0	0.15381098
224	0x3dc33839	0.09532208
225	0x3e27c8ff	0.16385268
226	0x3ddc5c10	0.10759747
227	0x3d8552d6	0.0650994
228	0x3d9825df	0.07429098
229	0x3d505e03	0.050870907
230	0xbe0e4766	-0.13894424
231	0xbb7a2499	-0.0038168787
232	0xbe0032c9	-0.12519373
233	0x3b9ed6e4	0.0048473943
234	0xbe0e16e9	-0.13875927
235	0xbd4a3c5b	-0.049373966
236	0x3e3f17d0	0.18661427
237	0x3e717c76	0.23582634
238	0x3d71a52a	0.058995403
239	0xbdcf5d4c	-0.10125217
240	0x3d031c1e	0.032009237
241	0x3d66ae24	0.056318417
242	0xbd989a15	-0.07451264
243	0x3e41083c	0.18850797
244	0xbdf2bc53	-0.11852326
245	0xbcde830d	-0.0271621
246	0xbe102472	-0.14076403
247	0x3d46bfbf	0.048522707
248	0x3e143554	0.14473468
249	0x3e5c4acb	0.21512906
250	0x3e515f5b	0.20446531
251	0x3e5a4cf3	0.21318416
252	0x3d3e1221	0.046404008
253	0xbdb4bcd9	-0.08825082
254	0x3e335fcd	0.17517014
255	0x3d9d8fd9	0.076934524

model.2.bias f4 [64]
0	0x3dca8c23	0.0989001
1	0xbe5cf2c3	-0.21576981
2	0xb9080679	-0.00012972382
3	0x3e20ee1e	0.15715834
4	0xbe06c514	-0.13161117
5	0xbd2ffe60	-0.0429672
6	0xbe0f80c8	-0.1401397
7	0x3da28b8a	0.07936771
8	0x3e0884dd	0.13331933
9	0x3e3babed	0.18327303
10	0xbe73e1d8	-0.23816621
11	0xbef8bd6a	-0.4858201
12	0xbe3837ae	-0.1798999
13	0x3ddfb2b4	0.10922757
14	0xbd7dc41a	-0.061954595
15	0xbf1b41aa	-0.6064707
16	0xbd1e42d3	-0.038637947
17	0x3dd26d1b	0.102747165
18	0x3d7a0823	0.061042916
19	0x3c456f2f	0.012050434
20	0xbdf1f87a	-0.11814971
21	0x3df8e6f4	0.12153426
22	0x3b95b676	0.00456887
23	0xbd0725bb	-0.032994967
24	0x3cfbf38a	0.030755777
25	0x3e9aca1f	0.3023233
26	0xbd9cbd0b	-0.076532446
27	0xbe15de5b	-0.14635603
28	0xbf15a715	-0.5845807
29	0xbe729a66	-0.23691711
30	0x3bc351b4	0.0059606675
31	0xbd3dcb53	-0.046336483
32	0x3d5d3718	0.05400762
33	0xbdac3e5c	-0.084103316
34	0x3d870e98	0.065945804
35	0x3df2124e	0.118198976
36	0xbe0e719d	-0.13910528
37	0xbe19f66f	-0.15035413
38	0xbd90ca2c	-0.07069811
39	0x3d00d58f	0.031453665
40	0xbb336698	-0.0027374383
41	0xbc188bd8	-0.009310685
42	0xbe713abb	-0.2355756
43	0xbe1e1aea	-0.15439954
44	0x3db7fa71	0.08983315
45	0x3d4fa35b	0.050692897
46	0xbda42d09	-0.08016402
47	0xbc7b701b	-0.015346552
48	0x3d2008ec	0.03907101
49	0xbe8fd177	-0.28089496
50	0xbf21fc6e	-0.632758
51	0x3b925938	0.004466202
52	0xbe6030a1	-0.2189355
53	0xbe6dcb77	-0.23222147
54	0x3d208f40	0.039199114
55	0x3d29b548	0.04143265
56	0xbdae22fb	-0.08502766
57	0x3dd7e62d	0.105419494
58	0xbe5df2ef	-0.21674703
59	0x3da51e0e	0.08062373
60	0x3df30db3	0.11867847
61	0x3d49cdda	0.04926858
62	0x3de6cd09	0.11269576
63	0xbe3d667b	-0.18496124

model.4.weight f4 [3, 64]
0	0xbe390303	-0.18067555
1	0x3fddbd55	1.7323405
2	0xbd53294f	-0.051553067
3	0xbe702ee0	-0.23455381
4	0xbe403fd8	-0.18774354
5	0xbe369c0f	-0.17832969
6	0xbe40b6c6	-0.18819723
7	0xbe7fb20d	-0.24970265
8	0xbe3eaf52	-0.18621567
9	0xbe89f916	-0.2694785
10	0xbda3920d	-0.07986841
11	0x3f46c59c	0.7764528
12	0xbe640312	-0.22266796
13	0xbe598c85	-0.2124501
14	0xbd04f33d	-0.032458533
15	0x3fc6ce63	1.5531734
16	0xbd65724a	-0.056017198
17	0xbe72f2af	-0.23725389
18	0xbdfc0aa9	-0.12306721
19	0xbc10a07a	-0.008827323
20	0xbd1b2340	-0.037875414
21	0xbe89a3c7	-0.26882765
22	0xbe11cbf3	-0.14237957
23	0x3d1f24d4	0.03885348
24	0xbe2b732c	-0.16743153
25	0x3fe71c27	1.8055466
26	0xbda1e988	-0.07905871
27	0xbe4022cf	-0.18763278
28	0x3ff50282	1.914139
29	0xbe14ab87	-0.14518557
30	0xbe89c60b	-0.26908907
31	0xbe219c94	-0.15782386
32	0xbe3fb1eb	-0.18720214
33	0xbe33233c	-0.1749391
34	0xbdc31d49	-0.0952707
35	0xbe366989	-0.17813696
36	0xbde8626e	-0.11346899
37	0xbe4443c6	-0.19166479
38	0xbc1f7206	-0.009731775
39	0xbdc166a4	-0.09443405
40	0xbe2556fe	-0.16146466
41	0xbdc8c07d	-0.09802339
42	0xbd68a325	-0.05679621
43	0xbe4ccbba	-0.1999959
44	0xbe6118ec	-0.21982163
45	0xbe21fdc7	-0.15819465
46	0xbdc919a6	-0.09819345
47	0xbe48d452	-0.19612244
48	0xbe8052d6	-0.250632
49	0x4000b130	2.0108147
50	0x3fa602a4	1.2969556
51	0xbe9f22f8	-0.31081367
52	0xbdcd9a35	-0.10039178
53	0xbd8e75f9	-0.06956095
54	0xbe2cdcb6	-0.1688107
55	0xbe9a4de0	-0.3013754
56	0xbe2e3911	-0.17013957
57	0xbe7cb8ec	-0.24679917
58	0xbd8be93a	-0.06831594
59	0xbea15567	-0.3151047
60	0xbe302621	-0.17202045
61	0xbe632898	-0.22183454
62	0xbe2eed58	-0.17082727
63	0x3fefe2e5	1.8741118
64	0x3d76054b	0.06006364
65	0x3fd61fb1	1.6728421
66	0xbc909c75	-0.01765273
67	0x3cb9cac0	0.022679687
68	0xbd098d24	-0.033581868
69	0x3d0f430e	0.034976058
70	0xbdaf2257	-0.08551472
71	0xbe0c60d5	-0.13708813
72	0x3de26bf4	0.11055747
73	0xbe604b83	-0.21903805
74	0xbcd79fd3	-0.026321327
75	0x3f6cb0db	0.9245736
76	0x3e213ce1	0.1574588
77	0x3d8bfae6	0.068349645
78	0x3e40d0d1	0.18829657
79	0x3fcaf1f3	1.5855087
80	0x3ddf2923	0.10896518
81	0xbb82fb2e	-0.003997228
82	0xbd374567	-0.04474392
83	0x3ead9139	0.3389986
84	0xbc874ebc	-0.016517036
85	0xbd93bc4f	-0.072136514
86	0x3c88208d	0.016617084
87	0x3dd5aa0f	0.10432827
88	0x3db2bb18	0.087270916
89	0x3fdd662b	1.7296804
90	0xbd8767be	-0.06611584
91	0x3c9016a2	0.017588917
92	0x3feeb052	1.8647559
93	0x3e4b3fa8	0.19848502
94	0x3dd73fc7	0.105102114
95	0xbdbc266b	-0.09187015
96	0x3dbad728	0.09123069
97	0xbe178e01	-0.14800264
98	0x3bfd9973	0.00773924
99	0xbacf654b	-0.0015823034
100	0x3db3fe68	0.087887585
101	0xbe41d335	-0.18928225
102	0xbe05ae3d	-0.13054748
103	0x3e66c72e	0.22536919
104	0xbadc778a	-0.0016820293
105	0x3e6eca8f	0.23319457
106	0xbca6efc5	-0.020378003
107	0xbc7d523c	-0.015461501
108	0x3ba266a0	0.0049560815
109	0xbd6836d1	-0.056692902
110	0xbccb1d90	-0.02479437
111	0xbdc73905	-0.097276725
112	0xbd12ae7d	-0.035810936
113	0x3fe44ecf	1.783655
114	0x3fb6a030	1.4267635
115	0x3d3435cb	0.043996613
116	0xbc4eabc6	-0.012614196
117	0xbb8c5430	-0.004282497
118	0xbba2f259	-0.0049727377
119	0xbd448294	-0.04797609
120	0x3e105d22	0.14098027
121	0xbd1aea49	-0.037821088
122	0xbd94fd11	-0.07274831
123	0xbc0dde89	-0.008659014
124	0xbd84cae3	-0.0648401
125	0xbd77ac8d	-0.06046729
126	0xbdc51443	-0.09623005
127	0x3fdf65a1	1.745289
128	0x3f19d80b	0.6009528
129	0x3fdd374c	1.72825
130	0xbe2e27dd	-0.17007394
131	0x3e91ea47	0.28499052
132	0x3ea31d98	0.31858516
133	0x3e95132c	0.2911619
134	0x3eae2961	0.34015945
135	0x3e4bc9db	0.1990122
136	0x3f158357	0.58403534
137	0x3ddcbce7	0.10778218
138	0xbe4d6b90	-0.20060563
139	0x3f9288ae	1.1447961
140	0x3e4b245a	0.19838086
141	0x3f00ed58	0.5036216
142	0x3f3246ea	0.69639456
143	0x3fcb7ffc	1.5898433
144	0x3f063ce8	0.52436686
145	0x3ebee671	0.37285188
146	0x3f03b4c9	0.5144773
147	0x3f13c3de	0.57720745
148	0xbe300d67	-0.17192613
149	0x3ee1c851	0.44098142
150	0x3edfe1ab	0.43726858
151	0x3f1ed434	0.62042546
152	0x3f1773c9	0.5916105
153	0x3fc339b6	1.5251987
154	0xbdc48b98	-0.09596938
155	0x3eaa95dc	0.3331746
156	0x3fc1ca2c	1.5139823
157	0x3e35ce8b	0.17754571
158	0x3e92fef2	0.28710133
159	0x3eb6a568	0.3567307
160	0x3ea88046	0.32910365
161	0x3e733f6e	0.23754665
162	0x3f04564e	0.5169419
163	0x3ed846ce	0.4224152
164	0x3ec99aa3	0.3937579
165	0x3e2eb379	0.17060651
166	0xbda37895	-0.079819836
167	0x3f350c5f	0.70722
168	0x3ed7d5e8	0.42155385
169	0x3f1ed15d	0.62038213
170	0xbe757b2e	-0.2397277
171	0xba268621	-0.0006352384
172	0x3efbcfca	0.49181968
173	0x3ef60afc	0.48055255
174	0x3ee1fbdf	0.44137475
175	0x3e88aead	0.26695767
176	0x3ee0adc8	0.43882585
177	0x3fcdc23c	1.6074901
178	0x3fbb9abd	1.4656597
179	0x3e843211	0.25819448
180	0xbcc99a9b	-0.024609854
181	0xbbc68cdd	-0.0060592727
182	0x3eb62706	0.35576648
183	0x3e8caf89	0.27477673
184	0x3f08ea07	0.534821
185	0x3ed7fc79	0.4218481
186	0xbd793314	-0.060839728
187	0x3e8b101c	0.27160728
188	0x3ee4b146	0.446665
189	0x3ecf3ee7	0.40477678
190	0x3eb6008e	0.35547298
191	0x3fcc4b03	1.5960392

model.4.bias f4 [3]
0	0xbe5095f6	-0.20369706
1	0xbe826ecc	-0.25475156
2	0x3dde3e00	0.10851669
