trained_policy_function.pt (torch, 20328 bytes, 5 tensors)

model.0.weight f4 [64, 1]
0.52605873 1.2877021 0.47991452 -1.3775593 -0.12507316 -2.003053 -1.6351606 -1.0381265
-1.4216189 1.3649507 0.6050813 1.2623491 -1.0397578 -0.10075992 0.65432215 -1.1297967
-1.0085799 -1.8749596 1.2033131 1.3908293 -2.00338 -0.96828717 -1.6907603 -1.015222
1.3497736 1.0077436 -0.9452887 0.84383243 0.7695051 0.7962677 -1.6027122 0.35158306
-2.1140134 -1.3637557 -1.2203394 -0.9950936 -1.7622569 0.2393849 0.26384166 -0.98386514
0.77332634 1.3691181 -1.0544968 -1.2398708 -1.844952 -1.6486698 -1.1698444 -1.8431661
-1.1589363 1.0158173 0.64231277 1.4064535 1.5330682 -0.9555972 -1.2577454 0.45047078
-1.5094191 1.033467 -0.28691435 -1.7530805 -1.6972764 -1.1521347 0.7103855 1.2696404
00000000: c9ab 063f 6cd3 a43f 5bb7 f53e dd53 b0bf
00000010: 2e13 00be 0532 00c0 f14c d1bf 54e1 84bf
00000020: 9cf7 b5bf b4b6 ae3f 9ce6 1a3f a894 a13f
00000030: c916 85bf 385b cebd a881 273f 2e9d 90bf
00000040: 2519 81bf adfe efbf 2a06 9a3f b206 b23f
00000050: 6137 00c0 abe1 77bf d56a d8bf cbf2 81bf
00000060: 62c5 ac3f befd 803f 71fe 71bf 6705 583f
00000070: 49fe 443f 33d8 4b3f ac25 cdbf b202 b43e
00000080: ff4b 07c0 8c8f aebf 1534 9cbf 74be 7ebf
00000090: a291 e1bf 5121 753e 4116 873e 96de 7bbf
000000a0: b7f8 453f 433f af3f c0f9 86bf 16b4 9ebf
000000b0: 6327 ecbf 9d07 d3bf 76bd 95bf deec ebbf
000000c0: 0658 94bf 4d06 823f 9c6e 243f ab06 b43f
000000d0: 943b c43f 05a2 74bf cdfd a0bf 1ba4 e63e
000000e0: a534 c1bf a648 843f 70e6 92be f164 e0bf
000000f0: 5a40 d9bf 2679 93bf d3db 353f 9483 a23f

model.0.bias f4 [64]
0.4824162 -0.37773284 -0.9596739 -0.615356 -1.5467925 -0.09286407 -0.8801375 -0.7757646
-0.9958333 -0.54918694 0.3962311 -0.74272335 -1.4767159 -0.063557945 0.60058045 0.032420807
-1.6791943 0.5773328 -0.138545 -0.30388945 0.08570874 -0.62574834 0.5476925 -0.2874451
0.4251294 0.015735112 -1.7950535 0.1322976 0.06535534 -1.2068384 0.05574109 -0.98011124
-0.26467788 0.115128584 -0.1447496 -1.6610365 -0.37081233 -0.028740052 0.3026147 -0.74799377
0.19299243 -0.81099015 -0.115408555 0.035091877 0.43670923 0.3080306 -0.63984317 0.02076943
-0.7338863 0.5396379 -1.0075027 0.66451335 0.9045661 -1.0866126 -0.95328796 -0.2653261
-0.2759836 0.5695175 -1.9274853 0.2667315 -0.045518517 -0.33644593 0.45370096 -0.040197577
00000000: 42ff f63e 3366 c1be 30ad 75bf f987 1dbf
00000010: 4cfd c5bf 842f bebd b150 61bf 8298 46bf
00000020: eeee 7ebf 8497 0cbf cede ca3e 1e23 3ebf
00000030: 0705 bdbf ab2a 82bd a4bf 193f aecb 043d
00000040: d7ef d6bf 15cc 133f bede 0dbe 6697 9bbe
00000050: 1088 af3d 0b31 20bf 9335 0c3f 012c 93be
00000060: 90aa d93e ece6 803c 50c4 e5bf 0679 073e
00000070: 05d9 853d ae79 9abf c550 643d 92e8 7abf
00000080: dc83 87be 89c8 eb3d 3d39 14be d89c d4bf
00000090: 1ddb bdbe 4270 ebbc 50f0 9a3e 857c 3fbf
000000a0: cf9f 453e 0d9d 4fbf 525b ecbd 80bc 0f3d
000000b0: 5a98 df3e 30b6 9d3e c3cc 23bf a724 aa3c
000000c0: f9df 3bbf b625 0a3f d9f5 80bf 8c1d 2a3f
000000d0: a591 673f 1f16 8bbf ae0a 74bf d3d8 87be
000000e0: b94d 8dbe e6cb 113f d7b7 f6bf 0891 883e
000000f0: a071 3abd a442 acbe 7e4b e83e 37a6 24bd

model.2.weight f4 [64, 64]
-0.21670187 -0.08862491 -0.16102208 -0.21492353 -0.066644154 -0.36184165 -0.32785305 -0.058365006
-0.37441462 0.08367336 -0.12815927 0.071027584 -0.029102305 -0.1267719 -0.074161746 -0.24634795
-0.038079824 -0.22398312 -0.05247475 0.04535977 -0.33479798 -0.053245384 -0.21093397 -0.0702574
-0.15707555 0.059456706 -0.047292843 -0.025089458 -0.068738215 0.026047528 -0.15249056 -0.112900026
-0.45793384 -0.11467044 -0.2180481 -0.15409876 -0.23826939 -0.05984272 -0.1011104 -0.16762604
-0.11862377 0.12073164 -0.06857771 -0.12823845 -0.21303318 -0.3275488 -0.17636497 -0.40737882
-0.06154157 -0.19506438 -0.21544266 -0.16277802 0.043138567 -0.12719116 -0.2048324 -0.0985601
-0.315681 -0.11048663 -0.22023107 -0.3156862 -0.36356676 -0.21410964 -0.0056949416 -0.13822547
-0.07394868 -0.1375393 -0.17998417 -0.19061153 -0.10375166 -0.19916154 -0.2555628 -0.16758324
-0.2872043 -0.032105103 -0.22714809 -0.1438702 -0.18212797 -0.1460283 -0.21594952 -0.24423106
-0.039685197 -0.15208071 -0.10208966 -0.14302799 -0.33841366 -0.101599164 -0.20058326 -0.20033967
-0.18410245 -0.1275835 -0.132646 -0.0366324 -0.18197258 -0.0034889241 -0.22969553 -0.13665457
-0.4282503 -0.09254292 -0.20854189 -0.023895888 -0.3488088 -0.26540348 -0.23180899 -0.22426902
-0.15741332 -0.0423342 -0.042277414 -0.31165987 -0.20207343 -0.1355182 -0.19334488 -0.34899914
-0.13447812 -0.06803169 -0.055517286 -0.1076185 -0.10843926 -0.2015038 -0.31897825 -0.09000414
-0.34167987 -0.15947862 -0.14365014 -0.16304398 -0.14848149 -0.29614162 -0.017227551 0.046685588
-0.104625694 -0.15315919 -0.10386112 -0.2006972 -0.28319797 -0.42525703 -0.30282068 -0.26006433
-0.3258603 -0.058766376 -0.14698827 -0.05758273 -0.17779426 -0.27432114 -0.12070217 -0.21122876
-0.15515825 -0.37414727 -0.11849482 -0.24961759 -0.2486101 -0.089767754 -0.24285701 -0.111318216
-0.09758457 -0.2301478 -0.27330458 -0.17554241 -0.12047628 -0.19431545 -0.28522745 -0.10298003
-0.32786962 -0.16758373 -0.2140027 -0.14382975 -0.3713893 -0.23110217 -0.26765397 -0.123485
-0.08283604 -0.10914593 -0.19343725 -0.28388426 -0.4387457 -0.3113075 -0.32788152 -0.41381952
-0.2116257 -0.20885603 -0.1711786 -0.26050055 -0.07649659 -0.30353308 -0.305439 -0.25296825
-0.28854695 -0.13390389 -0.23436952 -0.29173973 -0.3386355 -0.29820764 -0.21794538 -0.14667164
-0.31849357 -0.26078492 -0.09152385 -0.14912452 -0.1777507 -0.249391 -0.20769131 -0.13806926
-0.3089035 -0.21692578 -0.31220147 -0.27986002 -0.19602509 -0.20666122 -0.094462514 -0.1656653
-0.19510965 -0.24605602 -0.11103115 -0.21710558 -0.27359268 -0.20731966 -0.32123736 -0.20687295
-0.3020059 -0.25539172 -0.23994398 -0.0938148 -0.31143853 -0.056788784 -0.180464 -0.25957704
-0.15926312 -0.239025 -0.2975627 -0.17683817 -0.19397828 -0.3172075 -0.19468659 -0.13919543
-0.24310684 -0.1695257 -0.22371963 -0.2889156 -0.13787861 -0.3091119 -0.20664008 -0.19086733
-0.24872558 -0.12828669 -0.2904268 -0.061317537 -0.12540044 -0.1984064 -0.3058415 -0.1861259
-0.19020398 -0.2579152 -0.20099077 -0.36132926 -0.35369188 -0.22726713 -0.09177001 -0.18882865
00000000: 18e7 5dbe fa80 b5bd f9e2 24be ea14 5cbe
00000010: bb7c 88bd 4f43 b9be 5bdc a7be 2510 6fbd
00000020: 46b3 bfbe f05c ab3d 2f3c 03be e976 913d
00000030: f567 eebc 7ed0 01be 1de2 97bd a342 7cbe
00000040: 97f9 1bbd d55b 65be c3ef 56bd 2bcb 393d
00000050: a46a abbe d517 5abd 13ff 57be 1de3 8fbd
00000060: 6ad8 20be e088 733d 24b6 41bd 6888 cdbc
00000070: 9fc6 8cbd a061 d53c 7c26 1cbe 2138 e7bd
00000080: 4e76 eabe 56d8 eabd 0048 5fbe 11cc 1dbe
00000090: e4fc 73be a41d 75bd f812 cfbd 29a6 2bbe
000000a0: 05f1 f2bd 2642 f73d 7872 8cbd f150 03be
000000b0: 5f25 5abe 7ab4 a7be 0599 34be f593 d0be
000000c0: 0313 7cbd f5be 47be 009d 5cbe 48af 26be
000000d0: 11b2 303d 663e 02be 96bf 51be e1d9 c9bd
000000e0: f1a0 a1be d046 e2bd 4184 61be 9fa1 a1be
000000f0: 6c25 babe 8f3f 5bbe a29c babb fa8a 0dbe
00000100: 6872 97bd 1ad7 0cbe c54d 38be ab2f 43be
00000110: c07b d4bd 01f1 4bbe 21d9 82be f19a 2bbe
00000120: 710c 93be a480 03bd 8299 68be b652 13be
00000130: c17f 3abe 7188 15be df21 5dbe b517 7abe
00000140: f28c 22bd 0cbb 1bbe 6214 d1bd ee75 12be
00000150: 8e44 adbe 3913 d0bd b365 4dbe d825 4dbe
00000160: 5a85 3cbe 40a5 02be 5ad4 07be db0b 16bd
00000170: 0557 3abe 6fa6 64bb 4e35 6bbe 2def 0bbe
00000180: a043 dbbe 2487 bdbd 018c 55be 4fc1 c3bc
00000190: 1197 b2be f7e2 87be 565f 6dbe c7a6 65be
000001a0: f530 21be a066 2dbd 152b 2dbd e291 9fbe
000001b0: 56ec 4ebe 48c5 0abe 33fc 45be 04b0 b2be
000001c0: a2b4 09be 3354 8bbd 1866 63bd 1767 dcbd
000001d0: 6715 debd 0357 4ebe 1e51 a3be 1754 b8bd
000001e0: aaf0 aebe 5d4e 23be 0619 13be 00f5 26be
000001f0: 880b 18be e09f 97be cb20 8dbc 6339 3f3d
00000200: ff45 d6bd c3d5 1cbe 24b5 d4bd 9183 4dbe
00000210: 53ff 90be 4abb d9be 500b 9bbe 2727 85be
00000220: 29d7 a6be 03b5 70bd 1884 16be dedb 6bbd
00000230: b30f 36be d273 8cbe b332 f7bd 5a4c 58be
00000240: cee1 1ebe 3b90 bfbe 6aad f2bd c19b 7fbe
00000250: a593 7ebe 28d8 b7bd 82af 78be cefa e3bd
00000260: 6bda c7bd ddab 6bbe 94ee 8bbe 64c1 33be
00000270: 45bc f6bd a1fa 46be 5509 92be 32e7 d2bd
00000280: 87de a7be 129b 2bbe 8623 5bbe 1b48 13be
00000290: bd26 bebe 0ca6 6cbe f109 89be b4e5 fcbd
000002a0: f1a5 a9bd e787 dfbd 6a14 46be 4759 91be
000002b0: 47a3 e0be b263 9fbe 16e0 a7be 27e0 d3be
000002c0: 68b4 58be 5bde 55be 7149 2fbe 5460 85be
000002d0: 3faa 9cbd b068 9bbe 8062 9cbe 0e85 81be
000002e0: 6dbc 93be 1a1e 09be 90fe 6fbe e95e 95be
000002f0: a261 adbe acae 98be 132d 5fbe 1731 16be
00000300: 9711 a3be 9a85 85be db70 bbbd 19b4 18be
00000310: 4804 36be 5b60 7fbe 08ad 54be 0762 0dbe
00000320: 9928 9ebe cb21 5ebe dfd8 9fbe d049 8fbe
00000330: cdba 48be 009f 53be 9075 c1bd 2aa4 29be
00000340: d3ca 47be 1cf6 7bbe 4d64 e3bd ed50 5ebe
00000350: 5714 8cbe 9b4b 54be 3979 a4be 81d6 53be
00000360: 84a0 9abe b4c2 82be e0b3 75be f921 c0bd
00000370: df74 9fbe 5b9b 68bd 8ecb 38be 48e7 84be
00000380: df15 23be f8c2 74be 235a 98be 1115 35be
00000390: 3ea2 46be 0569 a2be ec5b 47be 3f89 0ebe
000003a0: 00f1 78be 2598 2dbe c216 65be bfec 93be
000003b0: 0d30 0dbe ea43 9ebe 7599 53be ba72 43be
000003c0: ebb1 7ebe 965d 03be d2b2 94be 1928 7bbd
000003d0: f968 00be 0c2b 4bbe 4297 9cbe ca97 3ebe
000003e0: d5c4 42be 760d 84be 86d0 4dbe 2600 b9be
000003f0: 1a17 b5be b7b8 68be eaf1 bbbd 4c5c 41be

model.2.bias f4 [64]
-0.025020216 -0.24336512 -0.33065405 -0.17119749 -0.09269027 -0.18504468 -0.22661993 -0.31149393
-0.004207966 -0.2593267 -0.24984784 -0.05242672 -0.2786488 -0.20109549 -0.19556703 -0.098067306
-0.27221826 0.1112048 0.000542118 -0.053624023 -0.10383209 -0.20266533 -0.1305156 -0.2015662
-0.07358798 -0.073766544 -0.12295283 0.18043192 -0.20506321 -0.19113958 -0.26051039 -0.04100145
-0.25867707 -0.19178447 -0.26710778 -0.20258947 -0.11529367 -0.13022348 -0.10864546 -0.100574106
-0.026485637 -0.12416313 -0.10120478 -0.07703518 -0.039293703 -0.1413806 -0.08751116 -0.075099416
-0.19907258 -0.0021159234 -0.23541105 0.07008529 -0.019764818 -0.20334943 -0.21656309 -0.14140971
-0.17734267 -0.14254081 -0.2208176 -0.0349093 -0.10644765 0.038325503 -0.07633791 -0.15621519
00000000: 32f7 ccbc b534 79be 7d4b a9be 654e 2fbe
00000010: 65d4 bdbd 5a7c 3dbe 0e0f 68be 227c 9fbe
00000020: fae2 89bb 78c6 84be 1dd8 7fbe 66bd 56bd
00000030: 0eab 8ebe faeb 4dbe b942 48be 83d7 c8bd
00000040: 3160 8bbe 58bf e33d ec1c 0e3a dda4 5bbd
00000050: eba5 d4bd 8087 4fbe e2a5 05be 5f67 4ebe
00000060: 4bb5 96bd ea12 97bd b1ce fbbd 25c3 383e
00000070: 17fc 51be 18ba 43be 9e61 85be 23f1 27bd
00000080: 5271 84be 2663 44be 5ac2 88be 9d73 4fbe
00000090: 161f ecbd 4e59 05be 8381 debd ccf9 cdbd
000000a0: 68f8 d8bc 3d49 febd 7444 cfbd 9fc4 9dbd
000000b0: 6ff2 20bd 13c6 10be 0d39 b3bd b9cd 99bd
000000c0: afd9 4bbe 4eab 0abb 980f 71be e088 8f3d
000000d0: d4e9 a1bc d53a 50be b7c2 5dbe b5cd 10be
000000e0: 5199 35be 38f6 11be 021e 62be 0efd 0ebd
000000f0: 3a01 dabd 34fb 1c3d 0d57 9cbd e0f6 1fbe

model.4.weight f4 [1, 64]
0.02815597 0.03239902 0.022434406 0.0130864885 0.019550743 0.013440162 0.016577385 0.01612355
0.07638836 0.027207721 0.019464584 0.033967543 0.016549125 0.07069073 0.02800912 -0.08868496
0.019671163 0.25588757 0.12779492 0.037897334 0.013163053 0.014217824 0.03175234 0.01748407
0.041430105 0.02354201 0.024942748 0.1829988 -0.055033587 0.017984325 -0.07697698 0.07354238
0.018980576 -0.0036038798 0.025795389 0.012301914 0.02508643 0.013084237 0.08476507 -0.26463926
-0.20193297 0.036748964 0.016415082 0.018313888 0.025853764 0.014447463 -0.009050567 0.012602772
0.01751851 0.055868633 0.015409378 0.20530821 0.09824732 0.02852008 0.01994559 0.02587343
0.018866299 0.029207136 0.0129947355 0.10345735 0.02064837 0.1504175 0.027317991 0.011870881
00000000: 59a7 e63c d6b4 043d 5cc8 b73c b668 563c
00000010: e128 a03c 2034 5c3c 4ccd 873c 8915 843c
00000020: 8071 9c3d bae2 de3c 3174 9f3c 8d21 0b3d
00000030: 0892 873c 4dc6 903d 6273 e53c 76a0 b5bd
00000040: 6b25 a13c b203 833e acdc 023e 3c3a 1b3d
00000050: d9a9 573c e0f1 683c be0e 023d c13a 8f3c
00000060: 9db2 293d 2cdb c03c bc54 cc3c 0a64 3b3e
00000070: e66a 61bd dd53 933c 1ba6 9dbd 639d 963d
00000080: 277d 9b3c 122f 6cbb da50 d33c f88d 493c
00000090: 0f82 cd3c 455f 563c 4f99 ad3d cc7e 87be
000000a0: 84c7 4ebe 1586 163d ec78 863c 0207 963c
000000b0: 46cb d33c 0db5 6c3c d448 14bc db7b 4e3c
000000c0: fa82 8f3c 82d6 643d 9e77 7c3c 513c 523e
000000d0: e435 c93d f1a2 e93c ef64 a33c 84f4 d33c
000000e0: 7f8d 9a3c ce43 ef3c dfe7 543c 72e1 d33d
000000f0: c526 a93c 0c07 1a3e fbc9 df3c 157e 423c
