trained_sup_function.pt (torch, 31529 bytes, 12 tensors)

trunk.0.weight f4 [64, 3]
00000000: e692 45bf f374 2c3b 12f0 963e 4c53 8abe
00000010: 9e50 9abf 39e5 00bf 52a1 9ebd 9fc2 eb3e
00000020: 47f9 8abf 1bcb 6e3f 3304 833e bbf6 8d3d
00000030: d6f3 a73d 9b5d c2be d757 143f a347 623f
00000040: f97e 4cbe f2a9 2d3f bc55 623f 41d6 f23e
00000050: debd 1bbc 9685 c63e b17e e93d 4d9c 5c3f
00000060: 1263 dabe e77f 953e 8807 b33e da5e adbf
00000070: 8b9c b83e 6203 8abf fe1c 2c3f d42e 9dbe
00000080: 1886 e73e f114 86bf 8c33 2f3f a8f8 703f
00000090: 699e 253f 0309 b03e 6ef7 50bf 8d3c b33f
000000a0: 1946 d33e 2290 a9bf 787a 49bd 4aa5 333e
000000b0: 0297 043f d291 553e 6f3b 883f 77f2 22be
000000c0: 9412 66be 1761 653d f6f2 693f 805a 9cbf
000000d0: 3449 883f da27 fdbe d470 663f 8db3 9fbf
000000e0: 6596 0dbf 2f56 aa3d b26d ccbe 8b9e 7abf
000000f0: f33e a3bf 91b9 91bf e36f b13f 8321 1d3f
00000100: 5169 c9be 4ea8 5f3f 4ba5 62be bfc2 cd3d
00000110: 9c07 66bf 5bc1 4fbf 7857 4c3f 6110 a93f
00000120: d074 babf 59db 333d 7e01 6c3e f5ea 59bf
00000130: dbb8 34bf 447d 8dbf 068c a73e 165f 923f
00000140: 234b ef3e 4f22 49be 64de e73d c2b9 7cbf
00000150: 99e0 2cbf bd58 ed3e 5ec0 a33f bee4 aabc
00000160: e11f 0bbf cefc 913d d74c bcbf bf46 5a3f
00000170: 8b2e 56bf 8590 e8be 51d4 92bf 5b19 013f
00000180: cef3 2bbf 4496 11bd a268 86bf 0f6c 4b3f
00000190: 1f38 7abf 5737 8abf d2c2 9abf 0cbb 9f3f
000001a0: 93ed 1d3f 82cd 7fbf 8394 2cbe 383c 823f
000001b0: 9991 f53e 1ead 963f e737 5fbe acfa 4bbe
000001c0: f01b 803f 1463 aebd a5b3 c2bf cc50 8dbe
000001d0: 939e 8f3f 1f93 313f 27bb ccbe c537 b1bf
000001e0: 1fa5 853f b1fb 88be 98f0 8cbe d8dd a33f
000001f0: 25b4 203f a6bd bb3e edcc e43e 06cc b7bb
00000200: ba87 db3d bc5b 3ebf 92e6 023f 82d5 2b3f
00000210: 6b5e 473f 9d32 20bf 0956 4fbc 9a4c e4bd
00000220: 362e 4ebf 9837 843e be8f 513f c7dd 13be
00000230: 346c 3cbf f908 993f 3961 44bf 3fdb 023f
00000240: f55b b7bc 9d4e d23e ef41 0a3f a8de acbf
00000250: 47b7 683e 6e23 12be 25d8 89bf f443 4d3f
00000260: 37e4 9f3d 3023 cebe 5dd4 9cbd 63da 883f
00000270: 99dc 18bf 0f87 3bbf 0da8 febe 8017 92be
00000280: ead2 193f 1aa3 97be 8ff4 3f3f 2c1f 8cbf
00000290: d9f1 643d 53e0 803f b253 81bd b280 973f
000002a0: 8068 003f 9db3 c8bf 6e24 5bbf 54e9 873f
000002b0: 7964 75be 9aa1 aa3f c1fc bbbf d935 1dbf
000002c0: 8002 893f 5ea7 ad3f 4f71 8cbf d478 023f
000002d0: ae39 bfbf 931e 42bf 606d 663f 676d 42bf
000002e0: 8d8f 31be 9857 0dbf ad3d adbf 0e28 a3bf
000002f0: 0390 043f 508e 443f c60a 11be e042 9b3f
-0.77177274 0.0026314824 0.29480034 -0.27016675 -1.2055852 -0.50349766 -0.07745613 0.46046922
-1.0857323 0.93278664 0.2558914 0.06931826 0.08200805 -0.3796204 0.5794653 0.8839056
-0.19970311 0.6783744 0.8841207 0.47429088 -0.009505717 0.38773793 0.114011176 0.86175996
-0.4265371 0.29199144 0.34966683 -1.3544571 0.36056933 -1.0782282 0.6723174 -0.3069979
0.45219493 -1.0475141 0.6843803 0.9412942 0.6469484 0.34381875 -0.8162755 1.4002854
0.41264418 -1.3247111 -0.04918906 0.17543522 0.5179292 0.20856407 1.0643138 -0.15912805
-0.22468024 0.056000795 0.91386354 -1.2215118 1.064734 -0.49444467 0.9001591 -1.247667
-0.5530761 0.083172195 -0.3992744 -0.9789817 -1.2753586 -1.1384755 1.386227 0.6137926
-0.39338163 0.8736619 -0.22133367 0.100469105 -0.8985536 -0.8115441 0.79820967 1.3208123
-1.4566898 0.043910358 0.23047444 -0.8512414 -0.7059457 -1.1053853 0.32724017 1.1435268
0.46737012 -0.19641994 0.113217145 -0.98720944 -0.6753021 0.46356764 1.2793081 -0.020861026
-0.5434552 0.07128297 -1.471095 0.852642 -0.8366477 -0.4542276 -1.1471044 0.50429314
-0.6716889 -0.035543695 -1.0500681 0.7946176 -0.97741884 -1.0798138 -1.2090704 1.2478957
0.61690634 -0.99922955 -0.16853528 1.0174627 0.47962645 1.1771581 -0.21798669 -0.19919842
1.0008526 -0.085149914 -1.5211073 -0.27600706 1.1220268 0.69365114 -0.39986536 -1.3845145
1.0441016 -0.26754525 -0.27527308 1.2802076 0.6277488 0.36668128 0.44687596 -0.0056090383
0.10719247 -0.74358726 0.5113307 0.6712266 0.77878445 -0.6257723 -0.01265479 -0.11147423
-0.8053926 0.25823665 0.8185996 -0.1444007 -0.73602605 1.1955863 -0.7671085 0.51115793
-0.022382716 0.41075602 0.54006857 -1.3505449 0.22726165 -0.14271328 -1.0769087 0.80181813
0.078072004 -0.4026122 -0.076576926 1.0691646 -0.59711605 -0.7325296 -0.49737588 -0.28533554
0.60087454 -0.29616624 0.7498254 -1.0947013 0.055894706 1.0068458 -0.06314792 1.183615
0.50159454 -1.5679814 -0.8560246 1.0618081 -0.23964109 1.3330567 -1.4686509 -0.6141029
1.0703888 1.3566701 -1.0972079 0.5096562 -1.4939477 -0.758279 0.90010643 -0.75948185
-0.17339917 -0.5521178 -1.3534447 -1.2746599 0.51782244 0.7677965 -0.14164266 1.2129784

trunk.0.bias f4 [64]
00000000: 3800 733a 69b5 edbc 8ec9 97bb ef90 42bb
00000010: bcc2 2cbb 4204 1f3c d9ef abbb d935 93bc
00000020: adab 3ebc 85b2 45bc e723 3fba 1a10 2a3b
00000030: 611b 353c 2da6 7b3c 0b7a 103c 44f4 243c
00000040: e13a ca3c 802b fd3b 0fd8 4cbc 8dca 4a3c
00000050: 9053 183c ed38 18bb e1c1 583c fa00 82be
00000060: d897 17bb 1922 8f3c 4b49 ceba 6c17 243b
00000070: a713 61be 8c65 0d3c deff 223d 959b 193c
00000080: 39bb 23bc f4ed 503b 91cb c83a abe5 013c
00000090: b5fa 69bc 1927 bb3a ce55 7dbe 3993 2f3c
000000a0: 7760 78bc 4cc1 883b 7c54 afbb 9606 ef3c
000000b0: fe95 dab9 081b c73c dea9 a0bc 6d77 5e3c
000000c0: 5f37 ab3c d6d3 24ba c6cc 673c 3fdc 653c
000000d0: 8134 6e3c 74c6 833c 0564 a8bb e793 8e39
000000e0: e9ef 8f3c 147c cd3b d357 623c 5258 f7bb
000000f0: fef2 823b 8cfa 5d3c 32e3 04bb 3777 dabb
0.0009269747 -0.029017167 -0.0046321815 -0.0029688438 -0.0026361188 0.009705605 -0.005247098 -0.017970013
-0.01163761 -0.012066488 -0.00072914216 0.0025949539 0.011053891 0.015359444 0.00881816 0.010068003
0.024686279 0.007726133 -0.012502684 0.012377393 0.009297267 -0.002322729 0.013229818 -0.2539137
-0.0023131277 0.017472314 -0.0015738396 0.0025038375 -0.21980153 0.008630168 0.039794795 0.009375473
-0.009993368 0.0031880112 0.0015319457 0.007928292 -0.014280965 0.001427862 -0.24739763 0.010716253
-0.015159718 0.0041734334 -0.0053506475 0.029177945 -0.00041691953 0.024304882 -0.019612249 0.013578278
0.020900426 -0.00062876695 0.014147943 0.014029562 0.014538885 0.01608584 -0.0051388764 0.00027194546
0.017570453 0.006270895 0.013814884 -0.0075483704 0.003996252 0.013548505 -0.002027702 -0.0066670435

trunk.1.weight f4 [64]
00000000: a6e1 853f 2e91 893f 77ad 6e3f ce78 613f
00000010: c6e4 883f 6f2f 743f ed0f 853f 5705 6f3f
00000020: 628c 873f e9c4 823f 9d6b 7c3f 4cba 753f
00000030: 113c 923f 7b5b 953f c1a2 853f 090e 733f
00000040: 1871 8a3f dd2d 6e3f 4053 923f 53c5 843f
00000050: 6805 813f 72c6 7c3f ce91 7d3f 5df7 6f3f
00000060: 6897 683f 0ffc 823f fa99 623f 17f6 783f
00000070: f1cc 8a3f 0360 7f3f 7e13 783f 7400 843f
00000080: 27c5 943f baf8 6d3f a286 723f e035 6c3f
00000090: f79a 6e3f 1b85 6d3f ac0c bd3f 7b13 a43f
000000a0: 2046 823f 78b4 753f cb0b 7b3f 65ea 783f
000000b0: 9a85 823f ee05 813f c612 8a3f 8cc2 833f
000000c0: b45a 793f d1b9 813f b212 6f3f 5229 8e3f
000000d0: 549a 853f 7700 7c3f 99d9 833f 7765 773f
000000e0: 846b 8b3f 27ae 723f 910d 853f 1dd4 733f
000000f0: 623e 8d3f dffc 763f 9378 883f 33e0 833f
1.0459487 1.074743 0.93233436 0.8807496 1.0694816 0.9538488 1.0395485 0.9336752
1.0589716 1.0216342 0.98601705 0.9598739 1.1424581 1.1668543 1.0440294 0.9494329
1.0815763 0.9303873 1.1431656 1.0372719 1.0079775 0.98740304 0.99050605 0.9373682
0.9085603 1.0233172 0.885162 0.97250503 1.0843793 0.9975588 0.9690474 1.0312638
1.1622666 0.9295765 0.94736683 0.92269707 0.9320521 0.9278123 1.4769492 1.2818445
1.017765 0.959785 0.9806487 0.9723266 1.0197022 1.0079935 1.0786979 1.0293746
0.97404027 1.0134832 0.933879 1.110636 1.0437722 0.9843821 1.030078 0.966392
1.0892186 0.94796985 1.0394765 0.95245534 1.1034663 0.964796 1.0661796 1.0302795

trunk.1.bias f4 [64]
00000000: 5703 8abd e6ee d8bd e423 a93c ea9e 82bd
00000010: d286 553c 16a3 49bd 5ff6 833b c848 8dbd
00000020: 1416 533d 85d2 3abc a846 68bc 6ad4 453d
00000030: 0478 b53d d7c3 ad3d 1084 e13b fdfe 9fbd
00000040: 07ad 8e3c 5270 e8bb 1d41 c63d 89a9 4c3c
00000050: 5861 e0bc e68e 99bd 9fe6 823c 8473 4dbd
00000060: d94f 9dbd 5af5 8fbb 1876 3bbd 2536 223c
00000070: d68b 023c 2274 503c 9fc1 0fbd 9e5a c2bc
00000080: 9fcf 4bbd 9801 733d c63e 8e3d adc7 fbbb
00000090: 1308 0d3d 6e29 e8bc 085b aa3d bae3 b73d
000000a0: 1b02 373c d1cb 76bd 5601 98bb 4b5f a4bd
000000b0: ef75 b1b9 f4fd 3c3c b7fc b53a b39a a63c
000000c0: 9e97 84bc 2e76 8abd 27d6 8e3c 8b1d 843c
000000d0: 7ebc 2bbd 900c 553c d31f 883d 18d2 01bd
000000e0: 5f87 473d 0bc6 24bd 2433 81bd dfde ac3d
000000f0: ead6 803d 6931 303c edba 01bc 33a8 3e3b
-0.06738918 -0.10592441 0.020646997 -0.06377967 0.013032632 -0.049227796 0.0040271725 -0.068986475
0.051534727 -0.011402731 -0.014177002 0.048298277 0.08860782 0.08484619 0.006882198 -0.07812307
0.01741649 -0.0070934677 0.09680388 0.012491592 -0.027390167 -0.07497959 0.01597911 -0.050158992
-0.07681245 -0.004393262 -0.04576692 0.009900604 0.00796791 0.012723001 -0.03509676 -0.02372485
-0.04975855 0.05932769 0.06945567 -0.0076837153 0.03443153 -0.028340068 0.08318144 0.08978982
0.011169936 -0.06025297 -0.004638831 -0.08025988 -0.00033847938 0.0115351565 0.0013884519 0.020337438
-0.016185578 -0.06760822 0.0174361 0.016127368 -0.041927807 0.013003483 0.06646695 -0.0316945
0.048713084 -0.04022793 -0.063085824 0.08440947 0.062909916 0.010753968 -0.007918102 0.0029091954

trunk.3.weight f4 [64, 64]
00000000: 4c63 73be 0467 94bd cabd 8abe e63f cf3e
00000010: 813a 2c3d fd9e 9c3d 616f 79bd 54d5 41be
00000020: df6f 8c3e 15a1 153e 41f6 2cbd 0de3 1f3c
00000030: ef75 e93d 19c7 9bbd 6565 983e af62 813d
00000040: 366b e53c 0a6e bb3d 4940 cbbe ebca 0d3e
00000050: 285a 8abd 90c5 3cbe edc2 ddbd 25e3 dfbd
00000060: 8ee3 883e e884 003d 249c e7bd 043a 7bbe
00000070: d06d f8bd e4f5 bfbe bd99 f4bd 8309 943a
00000080: 028a 94be e01f f9bd 5c22 b2bd 55b4 9ebd
00000090: 5422 60be 0dda 163e ca45 12be a765 87bd
000000a0: 9156 5c3d 218c 533e f79c 5c3e d94e 5bbd
000000b0: 7e23 dfbd a9da acbd 2150 7ebe 7efc 8a3c
000000c0: 3970 04be 711f 533e 3e44 5c3e 429a 1e3e
000000d0: 7e26 cdbd f4e0 00be 2118 e73d dafd a2bc
000000e0: f66b 7abd ee1a 47be c59f a73b 40d1 133e
000000f0: 07a1 7f3e 85bf 32bd 352e aa3d a07b 28bc
00000100: 521e f8bd ce06 9a3e dda0 bebd 1ace 20be
00000110: dd0d 4a3e 428c 693e 6247 00be 931f 25be
00000120: ff2f 43be 3427 4d3e a992 debd 156e 26be
00000130: 33db 83be 150f 12be 867e 0e3e 59ce 6fbe
00000140: fbc7 463e 001a 9cbe c9ba 863d cc76 57be
00000150: 9c5a 843e a674 bcbd ac01 623e f637 27be
00000160: 740f 35be a21a be3c dc13 e83d 604a 473e
00000170: 9d10 0e3e ffab 09bd 4440 f63d 3f47 593e
00000180: d0d4 d4bc e3d1 92be 7621 b03d 591d 55bd
00000190: 0e3a ec3d 45d8 543e 1960 a3be 084f 3dbe
000001a0: 6568 443e 5634 843d cdb1 a0be 6503 84be
000001b0: d4e9 0dbe 87a8 28be 95b0 f63d 6198 1f3e
000001c0: 087b 893e f374 773e 0a7d 153e 2d1c 8c3e
000001d0: 7718 fd3d bcf3 ad3e 8acc 9dbd b32a a13d
000001e0: 81e1 abbe 7ef5 853d 4c5f 66be c12d a6bd
000001f0: 7c78 28be 97fc ab3d 3d3e 873c 2f96 d3bd
00000200: f2e2 a73e 3a57 82be 1210 92be 96ce 523d
00000210: df9d 6bbe 962f 45be d728 00be b626 7c3e
00000220: abb7 1cbe 4ddd 3cbe 0abc 583e ecfe 6ebe
00000230: 100f 57bd cbec 30be 8d3e c03d db8e a03e
00000240: 000e 53be 2aad 43be 2e8e 903d 7aa7 93be
00000250: 04ff bb3c 8095 3e3e 9827 4b3e 963f 9abd
00000260: b70e 933e 9ccd 0cbe 3d51 573e d36a e3bd
00000270: 806b 83be 071a 27bd 6e09 463e 6837 813d
00000280: fcf1 5e3e d3b6 18be 9ee7 bd3d 1055 103e
00000290: 9f64 26be 7894 e93a 778c e3bd c922 77be
000002a0: 9688 983e e55f 2a3e eda3 bcbd 2d8e 743e
000002b0: 9608 bebd 8c7a 893d 65bd 7f3e bc16 253e
000002c0: a703 713e cffa a43d 839e 8ebe 3af6 623e
000002d0: 0fec 193c 528e b8bd be50 c8bd 0f69 3dbe
000002e0: d8f9 08bd bb3c 9bbe d09d 983d 2a8a 7fbe
000002f0: a89a 6cbe 4d31 2f3e a87b f0bd 59ac 523e
00000300: 657e 863e 8a5d 08be 76f4 763b 084f 7fbe
00000310: b5b4 7ebd 6b05 143e 8a9d 03be 911a 9a3e
00000320: 2705 3b3e 3bf6 553e 75db 723e 4bb6 d43d
00000330: 5d0e acbd fcfe 1ebe 31be b13e 3bfc 5d3e
00000340: 176c 31be e54a 203e ef65 d0bd 34d0 733e
00000350: 312b edbd 2283 4abe 569e 813d beaf 08bd
00000360: 1415 8e3e b512 9a3e 56ad 0ebe 4d20 5cbd
00000370: ee8e 0a3e 08cf 6dbe 2e40 25be 49f4 a43e
00000380: 600d 683e 6a35 27be 1aca 423e 18d9 8b3c
00000390: d90e e63c 6cd1 253b 82af 213e 912c 83be
000003a0: 6620 443e e269 29bd 9e06 913e 4cb8 c5bd
000003b0: c345 a8bd 7234 9e3e d3d5 b9be 38a7 5d3d
000003c0: 48d1 263e 2c34 17bc deac 1dbe a8e4 bebd
000003d0: ca54 fb3d 42fb 75be 997a 4ebe 818d 6d3e
000003e0: 9e6c 8cbd 4fb7 8ebe 4d8c 07be e3a0 453d
000003f0: 4b30 d6bd 7f9b 09be 537e 19be 77b5 a03e
-0.23768348 -0.07246211 -0.27097923 0.40478438 0.04204798 0.07647512 -0.060897235 -0.18929034
0.274291 0.14612229 -0.042227034 0.009758723 0.11399447 -0.07606334 0.29764858 0.063176505
0.028005224 0.09151848 -0.39697483 0.13846938 -0.06755477 -0.18434739 -0.10828195 -0.10931996
0.2673611 0.03137675 -0.11309078 -0.2453385 -0.1213032 -0.37492287 -0.11943386 0.0011294339
-0.29011542 -0.12164283 -0.0869796 -0.07749239 -0.21888095 0.14731617 -0.14284435 -0.066111855
0.053793494 0.20658924 0.21544252 -0.05354199 -0.108954415 -0.084401436 -0.24835254 0.0169661
-0.12933435 0.20617463 0.21510407 0.15488532 -0.100171074 -0.12585813 0.11283899 -0.019896436
-0.061138116 -0.19443867 0.0051154816 0.14435291 0.24963771 -0.04363968 0.083095945 -0.010283381
-0.12115158 0.30083317 -0.09308026 -0.15703622 0.19731851 0.2280741 -0.1252723 -0.16125326
-0.19061278 0.20034486 -0.10867817 -0.1625293 -0.25753173 -0.14263566 0.13915452 -0.23418559
0.19412224 -0.30488586 0.06578595 -0.21041411 0.2585038 -0.092019364 0.2207095 -0.16329941
-0.17681676 0.023206059 0.11331913 0.19461966 0.13873525 -0.033611294 0.120239764 0.21218584
-0.025980383 -0.28675756 0.08600132 -0.05202994 0.115345106 0.20785625 -0.31909254 -0.1848718
0.19180448 0.06455295 -0.3138565 -0.2578384 -0.1385873 -0.16470538 0.12045399 0.15585472
0.26851678 0.24165706 0.1459848 0.27365246 0.12358182 0.33975017 -0.07705028 0.07869472
-0.33570483 0.065409645 -0.2249729 -0.081141956 -0.16452211 0.08397787 0.01650917 -0.103313796
0.32790333 -0.25457174 -0.28527886 0.051466547 -0.23009442 -0.19256434 -0.12515579 0.24624142
-0.15304439 -0.18443795 0.21165481 -0.23339432 -0.0525046 -0.1727783 0.093869306 0.3135899
-0.2061081 -0.19109026 0.070583686 -0.28838712 0.02294875 0.18611717 0.19839323 -0.07531659
0.28722164 -0.13750309 0.21027084 -0.111043595 -0.25667953 -0.040796306 0.19339535 0.06309396
0.21771997 -0.14913492 0.09272693 0.14094949 -0.16249321 0.0017820736 -0.11110776 -0.24134363
0.29791707 0.16638143 -0.09210954 0.23882361 -0.092789814 0.06712827 0.24974592 0.16121954
0.2353655 0.080556504 -0.2785531 0.2216424 0.00939466 -0.090115204 -0.09781025 -0.18497108
-0.033441395 -0.3031977 0.07451975 -0.24955049 -0.23105872 0.1710865 -0.117423356 0.20573558
0.26268306 -0.13316932 0.0037682331 -0.24932492 -0.062184054 0.14455192 -0.12853065 0.30098394
0.18263684 0.2089471 0.23716529 0.10386332 -0.08401177 -0.15526956 0.34715417 0.2167825
-0.17326389 0.1565357 -0.10175692 0.23809892 -0.11580504 -0.19776586 0.06329028 -0.033370726
0.27750456 0.30092397 -0.1393331 -0.053741742 0.13531086 -0.23223507 -0.16137764 0.32217625
0.22661352 -0.1632897 0.19022408 0.017071292 0.028083252 0.0025301827 0.15789607 -0.2561994
0.19152984 -0.041360743 0.2832536 -0.096542925 -0.08216431 0.30899388 -0.36295947 0.05411455
0.16290772 -0.009228747 -0.15397975 -0.093209565 0.122720316 -0.24021628 -0.20163955 0.2319851
-0.068566546 -0.27874228 -0.13237114 0.048249137 -0.1045843 -0.13438223 -0.14989595 0.31388447

trunk.3.bias f4 [64]
00000000: 8027 2dbd 78c0 19bd 9c3a 5fbd e304 0e3c
00000010: c345 f93b 0bb4 05bd e3cd 90bc 6b9b 0abd
00000020: 1c06 473d 372d 353c 4b83 c3bc dc0d 3b3c
00000030: 1bd9 8a3d 4444 d13a 5e16 aa3c ba5c 21bd
00000040: a5ca 1cbd 3a5e 093c a598 c4bc 25ba a23d
00000050: 8fe2 cb3b f23e a5bc 2b1a 7c3d e7e0 843c
00000060: f7f3 c2ba 0dd9 2cbd cfc7 e1bc 94ef 6b3c
00000070: 5700 393c ca44 093b 6e97 84bd 92b9 c9bc
00000080: 7e83 af3b ff1b 94bd 9183 5e3d 6d57 9d3a
00000090: d477 613b 6dde c8bc e14d a6bd a8ce 2e3d
000000a0: d58d 87bd fe8c a3bd e10e 523c bb9b 983c
000000b0: 9edb 6d3d 2d1f d33c 1b28 c439 8811 bd3c
000000c0: b428 e0bc efc0 313c c483 07bd 36ae 0a3b
000000d0: 217f 163d b324 7bbd 979b 203d 9f8e dabc
000000e0: 9b10 ecba 39b7 f53b c64d 88bc 2e7b 053c
000000f0: 1607 ddbc 15bb 893d 0651 61bd dcb7 61bd
-0.042274 -0.037537068 -0.054499254 0.008668157 0.007607193 -0.032642405 -0.0176763 -0.033839624
0.04858981 0.011058143 -0.023866316 0.011416879 0.06779691 0.0015965779 0.020762619 -0.03939507
-0.038279194 0.008384282 -0.023998568 0.079456605 0.0062220762 -0.020171616 0.061548393 0.016220523
-0.0014873733 -0.042199183 -0.027561096 0.014400382 0.011291585 0.0020945542 -0.064741954 -0.02462462
0.0053562513 -0.07231902 0.05432469 0.0012004204 0.0034403699 -0.024520123 -0.08120323 0.04267755
-0.06618849 -0.079858765 0.01282093 0.018628946 0.05807077 0.025771702 0.00037413914 0.023079649
-0.027363159 0.010849222 -0.033084646 0.0021160967 0.036742333 -0.061314296 0.039210882 -0.026679335
-0.001801032 0.0074986485 -0.016638648 0.008147044 -0.026980918 0.06725136 -0.05500891 -0.055106983

trunk.4.weight f4 [64]
00000000: e1f9 ac3f 8a99 cc3f 2b05 c93f 7e46 da3f
00000010: 4081 eb3f 9ddc bf3f 960b 0d3f d69f c23f
00000020: 9238 c13f d550 e23f 8fd6 c23f ced7 ef3f
00000030: 3ee5 ec3f be55 b43f 17ed d83f a30c d93f
00000040: 227f c83f cf45 f33f 3e9f ad3f 960a f43f
00000050: 97b3 e03f d717 bd3f 624f fa3f 89b4 ce3f
00000060: ba47 f43f 0dcd a63f 447e ce3f 0869 b13f
00000070: 6046 e23f 5e2a b43f c558 ca3f 7c76 bc3f
00000080: 9348 be3f b4a9 a03f e32e d83f b191 cd3f
00000090: c3db cc3f 38d4 be3f 7bd2 c23f da07 e13f
000000a0: 7a6c c93f dbcd b03f 064f af3f b2bf ec3f
000000b0: 09a0 e63f 0bea e83f 4e5b aa3f 5759 af3f
000000c0: 6b65 b43f 162e d73f 2878 c73f 47d4 d33f
000000d0: 30f4 c03f fac8 d93f 3689 ef3f 9267 b53f
000000e0: 10b5 e53f 1a44 d73f fd73 a63f 7966 df3f
000000f0: 7e76 bc3f 1ed8 ee3f 1154 af3f 6901 cc3f
1.3513757 1.5984356 1.5704702 1.7052763 1.8398819 1.4989201 0.55095804 1.5205028
1.5095389 1.7680918 1.5221728 1.8737733 1.8507459 1.4088666 1.6947354 1.6956981
1.5663798 1.9005679 1.3564222 1.906573 1.7554806 1.47729 1.9555476 1.6148845
1.9084389 1.3031327 1.6132283 1.3860178 1.7677727 1.407543 1.580834 1.4723659
1.4865898 1.2551789 1.6889309 1.6060086 1.6004566 1.4908514 1.5220484 1.7580521
1.573623 1.3812822 1.3695991 1.8496001 1.8017589 1.8196424 1.3309114 1.3699139
1.409345 1.6810939 1.5583544 1.6549157 1.507452 1.7014458 1.8713748 1.4172232
1.7945881 1.6817658 1.3004147 1.7453147 1.4723661 1.8659704 1.369753 1.593793

trunk.4.bias f4 [64]
00000000: 93cb f1be d3cd 98be b1fe a7be 6dde 43bc
00000010: d557 603f d415 b53e 8f0a 523f df75 afbe
00000020: 8b9d b8be 2612 413f c875 1f3d afbc 633f
00000030: cc4e 5c3f 2d39 debe 0e8c 8cbe bd92 5f3d
00000040: 2368 22bc b565 643f 686e f5be e145 623f
00000050: 2c87 8dbe d6ca d3be c915 6a3f b6a6 f3bb
00000060: 0c7b 653f eee6 fcbe 959b a3be 01a3 e5be
00000070: 28bc 4e3f e2d8 ddbe f372 4fbe f0fb bdbe
00000080: 36c0 c3be ca6d 08bf 91a0 3b3f abe2 83be
00000090: 8f9f a8be 45b1 bdbe 9ca9 6dbe 58eb 4a3f
000000a0: 3dd0 a0be b0bc ddbe cfb3 f8be 72b9 613f
000000b0: 8d90 493f ec84 533f 55f6 efbe 5699 ecbe
000000c0: bddc d3be 65db 75bb 87dd 9bbe 2a41 ca3c
000000d0: 41c8 b0be 1e31 80be e13c 593f b75a dfbe
000000e0: 681f 4c3f 7f07 9bbe e5ad fabe 1b59 8abe
000000f0: db01 8abd e055 5b3f f835 e9be 77b9 633c
-0.47225627 -0.2984453 -0.32811502 -0.011954886 0.8763402 0.35368216 0.8204736 -0.34269616
-0.36057696 0.7541832 0.038930684 0.88959783 0.86057734 -0.43402997 -0.27450603 0.0545833
-0.009912523 0.8921769 -0.47935796 0.88387877 -0.2764219 -0.4136569 0.9143949 -0.007435645
0.8964088 -0.49394935 -0.31954637 -0.44850925 0.80755854 -0.4332953 -0.20258693 -0.37106276
-0.38232583 -0.53292525 0.7329188 -0.2575887 -0.32934234 -0.37049308 -0.23209232 0.79265356
-0.31408873 -0.4330802 -0.48574683 0.8817359 0.7873619 0.826247 -0.46867624 -0.46210736
-0.41379347 -0.0037514803 -0.3044245 0.024689276 -0.34527782 -0.25037473 0.8485852 -0.43623897
0.7973542 -0.30279157 -0.48960796 -0.27021107 -0.06738635 0.8567791 -0.45548987 0.013899199

value_head.0.weight f4 [25, 64]
00000000: b216 5bbe 480d ad3d 817a 12bf 8506 1f3d
00000010: 98aa ef3c ac2f a03e b138 853e 795b 04be
00000020: 3db1 cabe 9b94 123f 1f5d d03e 852b 1d3f
00000030: 2d09 293e c61e 6fbe b5d7 a5be 4c5d d63e
00000040: 7bac c83e d2f7 6f3d 501b 043d 0d6d c43e
00000050: 4471 febe 51b8 dfbe e0a7 633e 0e2a bb3e
00000060: 358e 193f a94b c8bd 4cba a1be 050c a5be
00000070: c374 e73d f28f f4be 9fdf adbe 8d87 813b
00000080: 7002 d0be b1b4 02bd ec29 893e 1135 dabe
00000090: b687 1abf c4d0 033e 1355 763e bcf4 fa3d
000000a0: fdb7 abbe 93e1 f8bd 7913 8abd 230f cd3e
000000b0: f076 833e 70ed 173f 8409 a0bc a1f5 abbe
000000c0: ca76 aabe 4eb8 e73e 42b1 56bd 4fcb c03e
000000d0: 3511 37bd 6aa3 b0bd e7bf 2b3e 92f9 77be
000000e0: 31dc 7e3e d507 b7be 25d8 42be 5e97 a5be
000000f0: 6920 283e a00d 083f 7426 80be 8409 a33e
00000100: 72ff 10bd af1d c3bd d906 9ebe 1d15 2e3d
00000110: a58a 373e b6fb 8a3d f475 833e 8543 00bf
00000120: 50c9 cdbd 368d 7fbc 2475 8e3e b4d6 a53e
00000130: 38e1 7f3e e8e9 b8be 8218 bdbe 42f1 153f
00000140: c952 c83e 6eef e53d 703b 0e3c 1968 e23e
00000150: 410d b5bd 73db dbbe be58 cf3e bcd6 273e
00000160: e3dc c53e 7c5a d0be 6b4c b2be 7f64 25bc
00000170: 7c9f eeb7 d3be bebe 0fb0 d43d ee02 8b3d
00000180: 73a9 64be 68f4 d23d e80d 023d 18e1 e5bd
00000190: 214b 79be d05e af3d a515 d13e b52f a33e
000001a0: 6701 66be 38a8 dc3d bbea 803d e70b 763e
000001b0: 74e3 bc3e 41b9 673e ad61 6e3e 87b3 42be
000001c0: e0ba d3be 590d d03e 19da 0abe 66bc 503e
000001d0: 89fd aabe 41d4 033e 3b07 b13b 9fc9 0bbb
000001e0: ff07 ba3e 6ba5 86be 2008 76be 0fa0 53be
000001f0: de93 9c3e 947c c83e 6cda febe e0ff 5f3c
00000200: 797a e7bd 5431 42be 35fc c2be a7f2 933e
00000210: 0948 ce3e 1a9b ad3d ef2e cd3c dce7 c5bd
00000220: d93c 7cbd 4720 c1bd 1468 0c3e 6749 c63e
00000230: f28f ca3d a9fa 3fbd cd2e 71be 49c1 0b3f
00000240: 1c9c 803e b03c 803e d8d4 8cbe 9318 ce3b
00000250: c8bb c6be 3a1f 4cbd b856 093f eb94 273f
00000260: ba37 ce3e 95b8 06bf e2ce fcbd 668d 653e
00000270: 4cc6 b53d d671 e9be 3d10 62be 9617 2b3d
00000280: 7bf4 83be b3f0 55be 2306 e73c 6998 febe
00000290: 6331 b0be 5e0d 83bd f874 463e 5579 1b3e
000002a0: 354b e1be e8f9 f73d 28f3 54be b059 e23d
000002b0: 9bd1 05bc 8571 003e f357 de3d 3716 9fbe
000002c0: 1d4a cbbe 0606 043f 4498 c6bc 8a14 883e
000002d0: ef29 4bbe f830 5abe 1a3a 693e 04cb 84bd
000002e0: 67d6 483e 7c58 46be 6324 07be 157d 7fbe
000002f0: a389 123e 8bb3 e13e 611e 19be bdd3 483e
00000300: 0c6d c0be d420 f5be a19e 06bf ced5 f63e
00000310: a982 b23e 8abc 4b3f b5ba 5b3b ab42 0ebe
00000320: f77d c1be 8e51 0dbe 45dd cf3e 9359 843e
00000330: a44a 133e 8f70 e5be 4298 b3be cef8 563f
00000340: 7041 0d3f 1282 e73e f2ee 15be 728e 2c3d
00000350: 2978 92be f877 37bd 9b5d 933e 84a1 dc3e
00000360: 5e91 003f 3306 7fbe f4e7 19be deeb 6d3e
00000370: dbef 943e 3ac8 d6be d5d2 76bd c9d8 adbe
00000380: 30c1 80be 9610 95bd f299 91bc cd1d b4be
00000390: 77e9 13bf d0dd b33e 5131 a3bd c101 e43c
000003a0: 41c7 d3bd 2d30 86be 958d ebbe ae98 0f3e
000003b0: dcad bbbd 842a bbbd 379c a13e f517 32bc
000003c0: af90 4bbe 0671 b13e dfde 74be 5f36 f53e
000003d0: ff8a f2be 9542 d7be ad91 863e b14b ccbe
000003e0: 2a39 89bd 345f 2fbf ebe7 d3bd f884 a6be
000003f0: 4493 e33e c9c2 a83e b84e c2be 87b1 103f
-0.21395376 0.08449799 -0.57218176 0.038824577 0.02925615 0.3128637 0.26019815 -0.12925519
-0.39588347 0.57258004 0.40696046 0.6139453 0.16507407 -0.23351583 -0.32391134 0.41868055
0.39194092 0.05858595 0.03225261 0.3836445 -0.4969579 -0.4369531 0.22232008 0.36555523
0.59982616 -0.09780056 -0.31587446 -0.32235733 0.113015674 -0.47766072 -0.33959672 0.0039529265
-0.4062686 -0.031910602 0.26789796 -0.4261861 -0.6036333 0.12872607 0.2405589 0.12253711
-0.3353881 -0.121524 -0.06741995 0.4005061 0.2567668 0.59346676 -0.019535787 -0.33585837
-0.33293754 0.452578 -0.05241514 0.37655112 -0.044694144 -0.08624919 0.16772424 -0.24216297
0.24888684 -0.35748163 -0.19027765 -0.32342046 0.16418613 0.5314579 -0.25029337 0.31843197
-0.03539986 -0.09527146 -0.308646 0.042500604 0.17923982 0.06786291 0.2567593 -0.50103027
-0.10048163 -0.015597632 0.27823746 0.32390368 0.24988258 -0.36115956 -0.3693276 0.58571255
0.3912566 0.11227308 0.008681163 0.44220045 -0.088404186 -0.42940864 0.40497392 0.16390508
0.38645086 -0.40694034 -0.34823927 -0.010094761 -2.8446077e-05 -0.37254962 0.10385143 0.06787668
-0.22330265 0.10300523 0.031751543 -0.11224574 -0.24345066 0.08563006 0.40836826 0.31872335
-0.22461472 0.10774273 0.06294771 0.24027978 0.36892283 0.22629263 0.23279448 -0.19013797
-0.41353512 0.40635183 -0.1355976 0.20384368 -0.33396557 0.12873937 0.0054024733 -0.0021329892
0.36334226 -0.2629808 -0.24026537 -0.20666526 0.30581564 0.39157546 -0.49776018 0.013671845
-0.11302657 -0.1896413 -0.38083044 0.28896067 0.40289333 0.08476849 0.025046794 -0.09663364
-0.061581466 -0.094299845 0.13711578 0.38727877 0.09890737 -0.046869908 -0.2355301 0.54591805
0.25119102 0.250463 -0.27506137 0.0062895506 -0.3881514 -0.049834467 0.5364795 0.65461606
0.4027689 -0.526254 -0.12344147 0.2241722 0.08875713 -0.45594662 -0.22076507 0.04177054
-0.2577246 -0.208926 0.028201168 -0.49725655 -0.3441268 -0.06399034 0.19380558 0.15183003
-0.4400269 0.12108213 -0.20795882 0.11052263 -0.00816765 0.12543304 0.10856619 -0.31071636
-0.3970498 0.5157169 -0.024242528 0.2657817 -0.19840215 -0.21307743 0.2277607 -0.06484035
0.19613038 -0.19369692 -0.13197474 -0.24950059 0.14310317 0.44082293 -0.14952995 0.19612022
-0.37583196 -0.47876608 -0.525858 0.48209995 0.3486531 0.7958456 0.0033528034 -0.1389262
-0.37791416 -0.13800642 0.40598503 0.2584959 0.14383942 -0.44812438 -0.350771 0.83973396
0.55177975 0.45216423 -0.14641932 0.042128034 -0.286073 -0.044792145 0.28782353 0.43091977
0.5022181 -0.24904709 -0.1502989 0.23234507 0.29089245 -0.41949636 -0.06025966 -0.33954456
-0.2514739 -0.07278554 -0.017773602 -0.35178986 -0.57778114 0.35130167 -0.07968391 0.027832868
-0.10340739 -0.2620863 -0.46006456 0.14023086 -0.091640204 -0.091389686 0.31564495 -0.01086997
-0.19879411 0.34656543 -0.23913144 0.47893044 -0.4737167 -0.42042986 0.26283017 -0.39901498
-0.06700356 -0.68504643 -0.10346969 -0.32523322 0.44448292 0.3296111 -0.37950683 0.56520885

value_head.0.bias f4 [25]
00000000: 0537 a23e 59be 963e 2179 7b3e 6010 d33e
00000010: bd93 943e 77a5 143e 4ee2 913e 4730 723e
00000020: dbfb e63e a595 eb3e c538 3a3e a1a5 4c3e
00000030: 9d5e 8c3e 0f6e f93e 7bdf ea3e 0a48 e93d
00000040: b810 e43d e84b 863d 1b6e d93e 983c db3e
00000050: 48c1 62bc ca66 95bc b34b a4bc 3e32 d5bc
00000060: 5694 ea3e
0.31682602 0.294421 0.24557926 0.4122343 0.29018965 0.14516245 0.2849297 0.23651229
0.45114025 0.46012607 0.18185718 0.19985057 0.27415934 0.4871678 0.45873627 0.113906935
0.11136001 0.06557447 0.42466816 0.42819667 -0.013840027 -0.01823749 -0.020055627 -0.026024934
0.45816296

hiring_head.0.weight f4 [5, 64]
00000000: 8512 65bf 7cd3 05bf c739 54bf f8a1 28bf
00000010: 3e2c 643f 18c5 a5bd d364 ac3e fe87 16bf
00000020: 68e5 0fbf 786a 543f 7730 50bf c891 7d3f
00000030: e27d 513f 29bb 63bf 6460 05bf 34b7 21bf
00000040: 1080 65bf 8312 4f3f 1e89 62bf e9e6 1f3f
00000050: 0ded 64bf 3589 4bbf 34b9 4d3f 6710 2ebf
00000060: 2adb 563f adf7 01bf d1d0 fcbe d108 50bf
00000070: dc98 7e3f 3e8f 4cbf eea7 6cbf c975 4cbf
00000080: 3327 25bf 3f51 00bf 186f 743f d3df 02bf
00000090: 6716 09bf dd37 1ebf ebe7 0bbf 8742 243f
000000a0: dabb 53bf 9722 dcbe 931f 79bf 00b6 403f
000000b0: 1483 413f fc6f 883f 27c6 75bf 24cf 49bf
000000c0: 33bf c0be e324 76bf 0170 12bf 6048 4abf
000000d0: b638 53bf c12d 20bf 92bd 4a3f 5d05 59bf
000000e0: 50f8 7a3f 009b 1bbf 69a8 3bbf f296 6cbf
000000f0: 21d4 1ebf 45d0 623f a0a1 6abf 20f4 14bf
00000100: d899 77bf bb44 66bf 4165 09bf 2e01 44bf
00000110: 73a1 663f 1f1e 45be c33a 203f 8876 63bf
00000120: 4d52 42bf c4bd 803f 361a 04bf e451 1e3f
00000130: c605 7f3f 976e 22bf 0dd4 67bf 33e1 19bf
00000140: ea86 4cbf b7b2 533f 4dd8 0ebf d10a 883f
00000150: f98e 33bf ea3d 39bf 16d4 733f aa59 57bf
00000160: 30bc 873f 2f93 f9be f699 55bf 0395 4ebf
00000170: 1ca7 413f a8b9 2dbf c0cd 36bf 4030 40bf
00000180: 2320 e7be e02d b3be 223e 6b3f cdc9 69bf
00000190: df26 4ebf 0024 46bf ed1b 5dbf ca14 7b3f
000001a0: 2704 c0be f9b2 4abf 818c 58bf a2dc 683f
000001b0: a619 843f 900f 753f 488e 41bf e05b 36bf
000001c0: 1c1d 36bf 1d7e 6fbf cf0f e4be 8178 03bf
000001d0: bd2f 4fbf b22c f6be 61aa 793f 4ea1 21bf
000001e0: 563f 443f 18d8 44bf 07db d0be 4119 4abf
000001f0: a3af 57bf 3d76 7c3f ae97 32bf 6761 01bf
00000200: 3b59 1bbf 5153 ecbe cb56 2abf be7c 48bf
00000210: 7523 7c3f 57c1 71bd 706d 4c3f b04b 23bf
00000220: a329 04bf 9a1f 543f ea39 3abf e7e1 6a3f
00000230: 79bb 403f abe1 26bf 5fab f0be 13cd 4abf
00000240: c2dd 55bf a908 883f d740 27bf 6686 853f
00000250: 0808 1bbf c853 59bf ce0a 503f b560 3ebf
00000260: 65bd 803f b304 1abf b262 40bf dce8 5bbf
00000270: 6307 603f 8080 52bf 71c5 27bf c967 ccbe
00000280: ae60 17bf 992c 24bf 9387 6f3f 7c47 ebbe
00000290: ef18 47bf 8919 23bf 06da 69bf 314e 7c3f
000002a0: ffbe 63bf 823b e2be dfcb 65bf 6fca 833f
000002b0: a211 2b3f 8d0b 1e3f 7828 57bf 91d7 7bbf
000002c0: e7d6 55bf 7b68 60bf 8ce5 45bf 1163 13bf
000002d0: d9ed 12bf 8e69 46bf 5e6c 313f d56a 27bf
000002e0: 5422 533f 19d6 6ebf 305f 66bf d4a9 fdbe
000002f0: 0bd4 2ebf 4ae6 5a3f 63a7 78bf f520 24bf
00000300: 2d22 78bf 22f4 1bbf d750 22bf 1ed8 02bf
00000310: d020 523f cb68 96be 095b 383f 8d72 f7be
00000320: 4fd1 64bf 8ad7 0b3f 9127 3dbf c014 833f
00000330: f435 763f eef2 54bf 75d4 4cbf 5c1c 0cbf
00000340: e957 50bf dfe0 393f 98a2 04bf 1382 543f
00000350: d361 47bf ba4d 20bf d703 683f 9b22 76bf
00000360: 4890 073f ac7b 67bf 842e 6abf 2324 3dbf
00000370: c989 633f 1893 18bf 21db 08bf 19df 10bf
00000380: dcb6 3dbf 0af2 42bf 0e44 353f 857b ecbe
00000390: d800 67bf fcf3 73bf 7766 4abf aebd 753f
000003a0: 2099 e8be 8344 54bf 4cf9 23bf 3176 3d3f
000003b0: af05 753f 0385 483f 0e14 65bf c965 e4be
000003c0: 7dd8 62bf a9ca 12bf 680e 2abf 3995 10bf
000003d0: ba6a 5fbf 4185 e4be ee70 803f 865d 61bf
000003e0: f096 863f 3dae 12bf 465c 38bf da6d 46bf
000003f0: 080e 76bf ebc8 123f 592c 35bf b5e8 58bf
-0.89481384 -0.52275825 -0.8290066 -0.65872145 0.8913001 -0.08094233 0.33670673 -0.5880126
-0.5620942 0.8297496 -0.8132395 0.9905057 0.81832707 -0.8895746 -0.52100205 -0.6317017
-0.8964853 0.8088762 -0.88490474 0.62461716 -0.8942421 -0.79506236 0.8036072 -0.6799378
0.8392817 -0.5076855 -0.49378064 -0.8126345 0.99451995 -0.7990607 -0.9244374 -0.79867226
-0.6451294 -0.5012397 0.95482016 -0.5112278 -0.5354981 -0.6180399 -0.54650754 0.6416401
-0.82708514 -0.4299514 -0.97313803 0.7527771 0.75590634 1.0659175 -0.9600548 -0.78831697
-0.37645873 -0.96150035 -0.57202154 -0.79016685 -0.8250841 -0.62569815 0.7919551 -0.8477381
0.98035145 -0.60783386 -0.7330385 -0.92417824 -0.62042433 0.88599044 -0.9165287 -0.58185005
-0.9671912 -0.89948624 -0.53670126 -0.765643 0.900901 -0.19249772 0.62589663 -0.8885274
-0.7590683 1.0057912 -0.51602495 0.61843705 0.99618185 -0.63449997 -0.9055794 -0.6010925
-0.7989336 0.8269457 -0.557988 1.0628301 -0.70140034 -0.723601 0.9524549 -0.8412119
1.0604305 -0.48745105 -0.8343805 -0.80696124 0.75645614 -0.67861414 -0.714077 -0.75073624
-0.45141706 -0.34995937 0.9189168 -0.9132355 -0.8052806 -0.7739868 -0.86370736 0.98078597
-0.37503168 -0.7917934 -0.8458939 0.9096166 1.0320327 0.9572687 -0.7560773 -0.7123394
-0.7113817 -0.9355181 -0.4454331 -0.5135575 -0.8093222 -0.48080975 0.975256 -0.63136756
0.7665914 -0.7689223 -0.40792105 -0.78944784 -0.84252375 0.9861792 -0.69762695 -0.5053925
-0.6068303 -0.46157315 -0.66538686 -0.7831534 0.98491603 -0.059022274 0.7985449 -0.63787365
-0.5162603 0.8286072 -0.7274462 0.9175095 0.7528606 -0.6518809 -0.47005746 -0.7921917
-0.835415 1.0627643 -0.6533331 1.043164 -0.6055913 -0.84893465 0.81266487 -0.74366313
1.0057799 -0.6016342 -0.751506 -0.8590219 0.8751127 -0.82227325 -0.65535647 -0.39922932
-0.59131896 -0.6413055 0.93566245 -0.45952976 -0.7777242 -0.6371084 -0.913483 0.9855681
-0.8896331 -0.44186026 -0.8976421 1.0296153 0.6682378 0.61736375 -0.84046125 -0.98375803
-0.8353104 -0.87659425 -0.77303386 -0.5757304 -0.57394177 -0.77504814 0.6930598 -0.6539739
0.82474256 -0.9329544 -0.89988995 -0.4954363 -0.682923 0.85507643 -0.9713041 -0.6411279
-0.9692715 -0.6091939 -0.634046 -0.5111102 0.8208132 -0.29376826 0.7201391 -0.48329583
-0.8938188 0.5462576 -0.738885 1.0240707 0.96176076 -0.8318318 -0.80011684 -0.5473077
-0.8138414 0.7260875 -0.518106 0.8301098 -0.7788364 -0.626186 0.9063086 -0.96146554
0.5295453 -0.90423083 -0.9147723 -0.73883265 0.8888212 -0.5959945 -0.53459364 -0.5659042
-0.74107146 -0.7615057 0.7080697 -0.46187988 -0.9023566 -0.95294166 -0.790626 0.95992553
-0.45429325 -0.8291704 -0.6405227 0.7400847 0.957118 0.7832796 -0.89483726 -0.44608906
-0.88611585 -0.57340485 -0.6642823 -0.56477696 -0.87272227 -0.44632915 1.0034463 -0.8803333
1.0514812 -0.57297117 -0.720158 -0.7751137 -0.9611516 0.57337826 -0.70770794 -0.8473008

hiring_head.0.bias f4 [5]
00000000: c758 393f ec11 3d3f 7ca9 393f 7c15 3d3f
00000010: cc68 413f
0.7240109 0.7385547 0.7252424 0.7386091 0.7555053
