trained_sup_function.pt (torch, 31529 bytes, 12 tensors)

trunk.0.weight f4 [64, 3]
000000 fe 1f 60 bf 44 32 66 3d 08 17 9b 3e 54 16 48 bd
       -0.87548816 0.05620028 0.3029101 -0.04884942
000010 c2 b8 aa bf 0d 32 c2 be 73 28 4a be 41 95 0d 3f
       -1.3337634 -0.3792881 -0.19741993 0.5530587
000020 5d ce 7a bf 5e 50 7c 3f 97 fd 43 3e 1c 13 c3 3d
       -0.97971135 0.9856013 0.19139706 0.09525129
000030 12 02 0c 3e 90 f6 9c be 69 6e 28 3f 91 0a 79 3f
       0.13672665 -0.30656862 0.6579347 0.9728175
000040 fe 7a 7d be 12 5d 18 3f 8e 32 5c 3f 53 2c 04 3f
       -0.24753949 0.59517014 0.8601464 0.51630133
000050 e5 fc 78 bd 9b e1 ec 3e 35 f1 81 3d a1 24 4e 3f
       -0.060788054 0.46265873 0.06344835 0.8052464
000060 fd 68 d6 be 27 96 5b 3e d1 c9 9c 3e 1c 88 ac bf
       -0.41876975 0.21443997 0.30622724 -1.3479037
000070 6e 9a ef 3e fb 2e 6e bf dc 54 3d 3f fd 0a 89 be
       0.46797508 -0.93040437 0.7395761 -0.26766196
000080 03 ba bb 3e 65 fa 86 bf 9a 6b 14 3f 85 11 5d 3f
       0.36665353 -1.0545164 0.57976687 0.8635486
000090 dc 14 11 3f 3a 24 ad 3e 1d 06 6b bf 58 34 a1 3f
       0.56672454 0.338167 -0.91806203 1.2594099
0000a0 f5 63 05 3f a8 7a a0 bf a0 c5 1b 3d 51 46 a5 3d
       0.5210565 -1.2537432 0.038030267 0.080700524
0000b0 0e 72 09 3f 03 89 aa 3e 8f 2c 6e 3f 39 f3 dc bc
       0.5368966 0.33307657 0.9303674 -0.026971446
0000c0 79 35 7f be e3 5d 41 3c 56 84 66 3f fd 94 9f bf
       -0.24922742 0.0118021695 0.9004568 -1.2467343
0000d0 5a 75 72 3f d8 dd 16 bf ce 2c 4f 3f 90 69 83 bf
       0.94710314 -0.58932257 0.8092774 -1.026659
0000e0 df b7 16 bf ef 01 12 3e 7f 25 86 be 1c ed 7f bf
       -0.58874315 0.1425855 -0.26200482 -0.99971175
0000f0 cc 43 a7 bf 85 3c 9c bf b5 34 9c 3f c1 69 2d 3f
       -1.3067565 -1.2205969 1.2203585 0.6773949
000100 c3 08 df be 7d fa 56 3f 3d 68 fb bd df 07 34 3d
       -0.43561372 0.83975965 -0.12275741 0.04395282
000110 18 7b 56 bf ea 93 57 bf b9 86 61 3f 09 55 a4 3f
       -0.83781576 -0.84210074 0.88096195 1.2838451
000120 a9 f2 b3 bf 8e 01 2f 3d 93 ec ae 3e 53 43 49 bf
       -1.4058429 0.042726092 0.34164867 -0.78618354
000130 95 b2 3d bf 88 75 a0 bf 03 b8 b4 3e 2c 28 a1 3f
       -0.7410062 -1.2535868 0.3529664 1.2590384
000140 36 d7 cb 3e 1b 78 4d be e9 21 3f 3e 9e 2f 85 bf
       0.3981263 -0.20065348 0.1866528 -1.0405157
000150 93 59 44 bf a9 7a d3 3e 30 0d 91 3f c2 5f d3 bd
       -0.7669918 0.4130452 1.133215 -0.10320999
000160 0a b7 d8 be 34 52 2a bc c7 87 a9 bf dd 9b 44 3f
       -0.42327148 -0.010395575 -1.3244561 0.7680033
000170 14 59 31 bf cb 8b e8 be 6b 28 9f bf 18 be b3 3e
       -0.6927655 -0.45419154 -1.243421 0.35105968
000180 70 31 3e bf 54 ab c4 3d 04 54 50 bf 2c 90 31 3f
       -0.74294186 0.09602991 -0.813782 0.69360614
000190 ed 62 86 bf 94 b6 9d bf b4 c9 99 bf 47 f8 99 3f
       -1.049894 -1.2321343 -1.201468 1.2028893
0001a0 78 e4 35 3f f8 11 59 bf 41 90 58 be 33 b8 8b 3f
       0.7105174 -0.84793043 -0.21148778 1.0915588
0001b0 f2 25 d0 3e 41 a8 9a 3f c2 26 89 be 2a c0 5f be
       0.4065395 1.2082597 -0.26787382 -0.21850649
0001c0 bc a8 7b 3f e5 eb 4e be 39 79 aa bf fd 7e b8 be
       0.98304343 -0.20207174 -1.3318244 -0.36034384
0001d0 e7 d9 60 3f 0e 01 05 3f ac 57 95 be d5 b6 af bf
       0.8783249 0.51954734 -0.2916845 -1.3727671
0001e0 ab e2 80 3f f6 0e 9a be 2b 95 83 be 09 35 9a 3f
       1.0069174 -0.3008954 -0.25699744 1.2047435
0001f0 ff 01 41 3f ba 27 c9 3e 21 2c 03 3f 33 09 87 3d
       0.7539367 0.3928812 0.5123921 0.065935515
000200 1a 36 2c 3e 6b 82 2d bf 63 48 e2 3e 24 96 27 3f
       0.16817513 -0.6777713 0.44195852 0.6546347
000210 c6 09 4b 3f 0d cc 2d bf 28 2c 18 3e 00 65 a0 bd
       0.7931179 -0.6788948 0.14860594 -0.07831764
000220 a2 89 61 bf f2 74 81 3e df ac 46 3f fd fb 67 3d
       -0.88100636 0.25284535 0.7760753 0.0566368
000230 a8 10 3b bf 0c 2c 93 3f f0 67 40 bf 6d 0d 03 3f
       -0.7307229 1.1497817 -0.75158596 0.5119236
000240 9d 5f e2 3b 22 cf eb 3e 98 42 08 3f ec 6d b4 bf
       0.0069083706 0.46056467 0.53226614 -1.4096045
000250 39 d2 a9 3e 33 7c 7d bc 48 e3 86 bf 9f 1d 71 3f
       0.331682 -0.015471506 -1.0538111 0.94185823
000260 43 54 88 3e cf 72 b1 be 69 21 5c be a4 fa 83 3f
       0.26626787 -0.34657905 -0.2149712 1.0310864
000270 7c 5c 0b bf 72 61 3c bf a2 2a dc be 5d 8e b3 be
       -0.54437995 -0.7358619 -0.43001276 -0.35069552
000280 ec 9c 47 3f 8f 98 82 be 85 f5 23 3f ba 3a 8f bf
       0.7797382 -0.25507018 0.6404651 -1.1189797
000290 d8 fe 6c 3e fb f2 86 3f bf 95 c7 bd 8b 4c 89 3f
       0.2314409 1.0542902 -0.09745359 1.0726484
0002a0 3b 3b be 3e 7a be b8 bf 24 3f 61 bf a2 bd 8b 3f
       0.37154564 -1.4433129 -0.8798697 1.0917246
0002b0 2b 0c 96 be 3f c1 9d 3f 80 0a b2 bf 21 1f 25 bf
       -0.29306158 1.2324599 -1.3909454 -0.64500624
0002c0 ea 23 95 3f d9 1f a5 3f 6c c6 97 bf a6 4b 12 3f
       1.1651585 1.2900344 -1.1857429 0.5714668
0002d0 91 db 9b bf 78 c4 78 bf be 5c 2d 3f 21 a3 3b bf
       -1.2176381 -0.9717479 0.6771964 -0.7329579
0002e0 a2 3c 2b be 64 79 25 bf db ec ab bf 13 6e aa bf
       -0.16722348 -0.6463835 -1.3431658 -1.3314842
0002f0 38 25 f0 3e 76 84 68 3f 07 95 4a be 4f 2d 93 3f
       0.46903396 0.9082712 -0.19783412 1.1498202

trunk.0.bias f4 [64]
000000 30 5a 55 be b6 69 c3 3d 52 8e 90 3c 8b 9a a6 bc
       -0.20835185 0.09541647 0.017645989 -0.020337364
000010 86 c4 4d bc 52 22 cd 3d 4d 0d 7f bc 34 92 d9 bd
       -0.012559062 0.10016312 -0.015567136 -0.10623589
000020 dc c9 23 3d 4d 11 c1 3d ba 0d e4 bc d9 27 a8 ba
       0.03998743 0.09427128 -0.027838577 -0.0012829258
000030 41 92 af 3d d7 4f 44 3d 05 4c 20 3d 3a b3 0f 3e
       0.085728176 0.047927704 0.039134998 0.14033213
000040 8f e8 bd 3d fe f4 6e bc 08 9c 95 3d 38 70 9f 3d
       0.09272873 -0.014584778 0.07305151 0.07785076
000050 c4 19 b4 bd 06 bb 8f 3d 02 97 95 3d c2 3b eb 3c
       -0.08793977 0.07018094 0.07304193 0.028715018
000060 fd 6f 1d be 44 8a af bc 38 e0 17 bd 36 93 22 bc
       -0.15374751 -0.021428235 -0.037079066 -0.009922793
000070 f7 95 ef 3c eb 88 cc bd bc 67 19 3e 2c 63 a9 bd
       0.029246313 -0.099870525 0.14980978 -0.08270869
000080 31 19 f0 3c 12 6c a0 bc b9 b6 31 3c 59 4e 97 3d
       0.029308887 -0.019582782 0.010846787 0.073879905
000090 75 74 92 bc f2 a1 f4 bd f9 3d 6d be dd 93 c5 3c
       -0.017877797 -0.11944951 -0.23168172 0.024118358
0000a0 e2 1e 5c bd 9a 1b 42 bd 57 3e 38 3b a3 6a e4 bd
       -0.05374039 -0.047389604 0.002811333 -0.11153152
0000b0 be 92 cb 3c 63 58 e7 bc ba de 09 3d 4f 20 95 3c
       0.024850246 -0.028240388 0.033659674 0.018203883
0000c0 e3 f5 9a bd 8e 94 e9 bd f0 62 b8 3d af 1e 4a 3d
       -0.075664304 -0.11405288 0.09003246 0.04934567
0000d0 3d c1 32 3d 37 05 61 3d 14 2a 75 bd 7c 14 53 3b
       0.043641318 0.054936614 -0.059854582 0.0032208255
0000e0 8a e4 98 bd 47 7a f6 bd a7 47 21 bc 5f 44 d6 3d
       -0.07465465 -0.12035041 -0.009843743 0.104622595
0000f0 65 06 63 3d 3c 0f ba bc b4 82 30 be 98 4e 49 3c
       0.05542602 -0.022712342 -0.1723736 0.012286805

trunk.1.weight f4 [64]
000000 e6 27 a2 3f fb 53 85 3f c7 78 81 3f 93 b0 7d 3f
       1.2668426 1.0416254 1.0114983 0.99097556
000010 6a fb 8c 3f 70 81 7e 3f c0 4d 84 3f 1d 8a 7c 3f
       1.1014225 0.99416256 1.0336227 0.98648244
000020 0b 37 81 3f 22 e5 7f 3f 11 d2 83 3f b9 02 66 3f
       1.0094923 0.99959004 1.0298482 0.89847904
000030 9a 51 8b 3f a7 30 81 3f 78 a0 87 3f 7c 0e 6f 3f
       1.0884278 1.0092973 1.0595846 0.93381476
000040 ea be 82 3f 55 2c 72 3f 8c 0b 87 3f 69 f9 92 3f
       1.0214512 0.94598895 1.0550399 1.1482364
000050 a8 7b 71 3f b0 8a 7f 3f 60 b5 8c 3f 83 03 5f 3f
       0.9432931 0.99820995 1.0992851 0.87114733
000060 99 20 8b 3f 78 3d 8a 3f 7f d6 6d 3f 71 8a 88 3f
       1.0869323 1.0800009 0.9290542 1.0667249
000070 31 49 7a 3f d8 24 97 3f 1f 85 64 3f d4 28 8b 3f
       0.9776793 1.1808119 0.89265627 1.0871835
000080 91 ae 8e 3f 65 01 80 3f ba 1f 69 3f b6 c7 67 3f
       1.1147023 1.0000426 0.91064036 0.9053911
000090 ca 05 73 3f 98 5b 8b 3f 49 68 7a 3f 57 34 71 3f
       0.9493071 1.0887327 0.97815377 0.9422049
0000a0 a7 70 75 3f 12 41 6b 3f 26 59 83 3f 92 a7 84 3f
       0.9587502 0.91896164 1.0261581 1.0363638
0000b0 07 ca 82 3f 41 c0 87 3f 09 8d 83 3f 53 3a 80 3f
       1.0217904 1.0605546 1.0277416 1.0017799
0000c0 1e 87 7d 3f de 99 93 3f ce 7f 73 3f ac 60 82 3f
       0.990343 1.1531332 0.9511689 1.0185752
0000d0 9d 58 7a 3f 27 23 88 3f 32 1d 7e 3f 7a ca 6e 3f
       0.97791463 1.0635728 0.992633 0.93277705
0000e0 82 68 68 3f a4 b7 76 3f b9 a9 83 3f e1 9f 79 3f
       0.90784466 0.96373963 1.028617 0.9750958
0000f0 1e 69 78 3f d4 f1 88 3f 09 86 8c 3f 25 19 84 3f
       0.97035396 1.06988 1.0978404 1.0320174

trunk.1.bias f4 [64]
000000 89 b3 a4 3c 82 b3 ae 3d 83 a5 dd bc 6a a6 c2 bc
       0.02010514 0.08530332 -0.027056461 -0.023760993
000010 f4 0e 52 3d 01 d4 72 bc e4 cc 0d 3d 6d cf fe bc
       0.05128379 -0.0148210535 0.034619227 -0.031104768
000020 9d e2 f1 3b 28 51 8a 3d da ab c2 3c ed 0a 9a bd
       0.0073817507 0.067537606 0.023763586 -0.07521615
000030 16 f9 6c 3d 0e 48 b9 3a 6f 8e a2 3d 52 88 70 3d
       0.057854734 0.0014135854 0.07937323 0.058723755
000040 37 3e 44 3c 48 da cd bd 23 f5 26 3d 4e ae 77 3d
       0.011977724 -0.100513995 0.040761124 0.060468964
000050 d6 34 a5 bd e5 bd 1f bc 84 a3 bd 3d d9 45 b4 bd
       -0.08066718 -0.009749864 0.09259704 -0.08802385
000060 e2 e3 50 bc 76 ef e8 bd b4 54 66 bd 8e 3a 32 bd
       -0.012749644 -0.113737985 -0.056233123 -0.043512873
000070 1e d6 37 bd bd 03 d3 bd 81 a5 96 3d e5 a5 56 3c
       -0.044881932 -0.103034474 0.07355786 0.013101076
000080 05 2b f3 bd a8 93 23 bd 8d ce d0 bc c8 7d 9a 3d
       -0.1187344 -0.039935738 -0.025489116 0.07543522
000090 ab eb 28 bd b2 8d ed bd 54 d1 aa bd 16 92 73 bd
       -0.041240375 -0.11599292 -0.083407074 -0.05946549
0000a0 ae f3 d6 bc 61 bf be bd 5a 40 fb 3c 28 c2 8f bc
       -0.026239242 -0.093138464 0.030670334 -0.017548636
0000b0 d0 76 ba 3c e0 9b b6 3c 2f be be bc 55 ec 6c 3b
       0.022761732 0.022291124 -0.023284046 0.0036151607
0000c0 d2 eb 92 bc ed 23 4e bd ff b1 30 3d 02 2d 01 3d
       -0.017934714 -0.05032723 0.0431385 0.031537063
0000d0 2f 2c 99 3b 01 78 c4 3a 6f 2c a4 3b 0d 70 64 bd
       0.0046744565 0.0014989377 0.0050101797 -0.055770922
0000e0 cf 35 a7 bd f1 77 58 bd cc d7 76 3d 1d e8 86 3d
       -0.0816456 -0.05284876 0.060264394 0.06587241
0000f0 0e 3d d4 3d bc 18 9c bd 18 37 60 bd 4f fe 02 3d
       0.10363208 -0.07621905 -0.05474004 0.03198081

trunk.3.weight f4 [64, 64]
000000 8d b5 9a be 61 69 76 be 5e e6 41 be 47 07 ad 3e
       -0.30216637 -0.24063636 -0.18935534 0.33794615
000010 a8 e3 62 3e 74 f4 a3 3d 82 e9 d0 bd b2 48 21 be
       0.22157156 0.0800561 -0.10200788 -0.15750387
000020 ca 82 a5 3e 38 9e 4e 3d 49 45 11 3d 4f 43 23 bc
       0.32326347 0.050443858 0.035466466 -0.009964778
000030 d4 7b c7 3d a9 b4 b7 bd 31 1e d2 3e 1f f0 a6 3d
       0.09740415 -0.08970005 0.4103866 0.08151268
000040 c7 07 e5 3d f1 8b ae 3d cd 9c 0b be dd db ca 3c
       0.11183124 0.085227855 -0.13634034 0.024763042
000050 5b f2 12 be a3 1a 10 be b2 71 9f bd 7f c4 24 be
       -0.14350264 -0.14072661 -0.077853575 -0.16090582
000060 d1 7b 35 3e 1f 0b 34 bd 1c 59 0a be 02 ac ae be
       0.17723013 -0.04395592 -0.13510555 -0.34115607
000070 2f 3a 33 be 01 e8 c7 be 3a 9e 05 bd 10 fa 56 bc
       -0.17502664 -0.39044192 -0.0326216 -0.013121143
000080 28 58 a0 be 1c 97 02 3e c2 de 50 bd 9f b7 90 3c
       -0.31317258 0.12752956 -0.05099369 0.017665682
000090 7b c7 5f be 14 92 c1 3d 15 cd c4 bd 47 69 f6 3d
       -0.2185344 0.0945169 -0.09609429 0.12031799
0000a0 8a c4 87 3d bd e2 0d 3e 85 56 61 3e 8b 6f e6 bd
       0.06629284 0.13856025 0.22005661 -0.11251744
0000b0 69 4a 15 bc 78 04 1a bd 0a 8f 82 be 59 4e 1f 3e
       -0.009111979 -0.037601918 -0.25499755 0.15557231
0000c0 15 58 9a 3c 1d 16 05 3e 14 91 9a 3e 37 f3 2f 3e
       0.018840829 0.12996717 0.3018881 0.17182623
0000d0 c1 a2 5f be 0f d4 fa bd bf 15 b4 3e f3 d1 3f 3d
       -0.2183943 -0.12247478 0.3517284 0.046831083
0000e0 e6 46 16 3e 68 44 a4 bd 6a 41 b0 bd 8a 0d 62 3e
       0.14675483 -0.0802086 -0.08606227 0.22075477
0000f0 2b f4 44 3e b8 93 dc bd 89 98 80 bc 29 01 00 3d
       0.19233768 -0.107703626 -0.015697734 0.031251106
000100 d9 ed d1 bd f9 1f ac 3e 77 66 f0 bd 90 90 06 be
       -0.10250444 0.33618143 -0.117382936 -0.13141084
000110 c7 05 42 3e b8 06 74 3e 81 f5 09 be c4 8f 01 be
       0.18947516 0.23830688 -0.13472559 -0.12652498
000120 b4 1f 70 be 00 d6 27 3e e4 e1 a1 bd 59 2b 11 be
       -0.23449594 0.16390228 -0.07904413 -0.14176692
000130 bf 0c 89 be 19 5f cb bd 6e 8b 2e 3d db 35 8d be
       -0.26767537 -0.09930248 0.04261344 -0.2758015
000140 f0 cb ad 3d 6c f4 71 be c0 38 95 3e b3 00 60 be
       0.084861636 -0.23628396 0.2914486 -0.21875267
000150 88 88 a3 3e 15 eb 99 bd 04 e0 6f 3e 9f 29 81 bd
       0.31940103 -0.075155415 0.23425299 -0.06306767
000160 41 7c 70 bd 4a 6e 3f bd ae 3d 9a 3d d7 13 3d 3e
       -0.058712248 -0.04673604 0.07531296 0.184646
000170 b9 c1 7f 3e c0 4b 83 3d 0a de f0 3d 5a bd 66 3e
       0.24976243 0.064109325 0.117611006 0.2253317
000180 85 ac d2 bd a7 b2 d5 bd 2e 3c e5 3d 26 78 a9 bd
       -0.10286812 -0.10434466 0.11193119 -0.082748696
000190 7b db 24 3d b2 c3 a7 3d 5c 04 65 3c 7f 0f b1 bd
       0.040248375 0.08191623 0.01397809 -0.08645534
0001a0 59 07 8b 3e b6 1c ca 3d 4d 20 a2 be af cc 88 be
       0.27154043 0.098687574 -0.3166527 -0.2671866
0001b0 40 7a 53 bd f4 48 32 be c4 33 6b 3e d2 ed 5e 3e
       -0.05163026 -0.17410642 0.22968966 0.21770409
0001c0 46 6a 03 3e 40 3c 8e 3e ee c0 59 3e 2f 6c 5e 3e
       0.12833509 0.27780342 0.21265003 0.21720956
0001d0 da c8 f5 3c 10 09 81 3e 41 8c bb 3d 39 53 06 3e
       0.030003 0.25202227 0.09157611 0.13117684
0001e0 b6 6f 29 be 24 c2 ef 3d e6 26 6c be 77 dd 3a 3c
       -0.1654652 0.11706951 -0.23061714 0.01140534
0001f0 27 1f 11 be 52 cb 3d 3d 87 cb a9 3d c4 99 82 bd
       -0.1417204 0.04633648 0.08290773 -0.06376985
000200 99 5f a6 3e 47 d5 88 be 82 19 5e be 79 45 76 3d
       0.3249481 -0.26725218 -0.21689418 0.060124848
000210 5f 52 4f be 05 92 47 be cb 70 1b be 38 19 78 3e
       -0.20246266 -0.19489296 -0.15179746 0.2422837
000220 26 fa 56 be 99 55 76 be c9 0c 6f 3e 7b 37 69 be
       -0.20993862 -0.2405609 0.23344721 -0.2277507
000230 9a 0c 07 bc f8 25 1d be 8d 3d a8 3d e4 fb 8a 3e
       -0.008242751 -0.15346515 0.08214865 0.27145302
000240 5c e1 61 be 34 39 45 be bd c2 10 3e 88 28 21 be
       -0.22058624 -0.19260103 0.14136787 -0.15738118
000250 96 31 8b 3d a0 fa 44 3e f2 26 96 3e 22 bf 7b bb
       0.06796567 0.19236231 0.29326588 -0.0038413485
000260 2f bc 8f 3e ff f3 c9 bd 72 73 3e 3e 1b fd d0 bd
       0.2807326 -0.09860992 0.18598726 -0.10204526
000270 92 1d 50 be c6 84 95 3d b4 db 40 3e e2 33 0d 3e
       -0.2032378 0.07300715 0.1883381 0.13789323
000280 a9 dd 5c 3e 32 20 9f 3c a0 e0 c2 3d d2 6a 39 3e
       0.21568932 0.019424532 0.095155 0.18107155
000290 7e 95 2b be 3b c1 a9 bc 9f c5 1e 3e b9 f3 d1 bc
       -0.16756245 -0.020722022 0.15505074 -0.025628911
0002a0 1c 4b 8a 3e 81 1a 23 3e 47 45 e7 bd 0e b3 56 3e
       0.2701043 0.15928079 -0.112925105 0.20966741
0002b0 2a c8 dc bd da 8b 62 3e e9 cd 85 3e cf c0 4b 3e
       -0.10780366 0.22123662 0.2613366 0.1989777
0002c0 e7 d1 6b 3e b6 60 18 3d 40 19 91 be b6 d8 4f 3e
       0.2302929 0.037201606 -0.28339577 0.20297512
0002d0 55 43 96 3c 17 0d ce bd 1d 8f f2 bc 07 75 30 be
       0.018342653 -0.100610904 -0.029609257 -0.17232142
0002e0 de cc 19 3e 07 b2 95 be 21 51 c5 3d 9b 00 90 be
       0.15019557 -0.29237387 0.09634615 -0.28125462
0002f0 2f df 4c be cc b9 48 3e 68 01 59 bd 9e 48 60 3e
       -0.20007013 0.19602126 -0.052979857 0.21902701
000300 8f 01 a5 3e 24 49 a5 bd 27 a3 aa bd 03 bd 53 be
       0.32227752 -0.08070591 -0.083319 -0.20677571
000310 84 8e e6 bd 74 22 e1 3d e8 ed 98 bd 59 4c 9b 3e
       -0.112576514 0.109928995 -0.07467252 0.30331686
000320 b3 24 c2 3d ca 14 42 3e a9 3f 60 3e 95 dc d3 3d
       0.09479656 0.18953243 0.21899284 0.10344807
000330 f8 4d 86 bc 0a eb 94 bd 4a 7c 91 3e 4c 5f 3d 3e
       -0.0163946 -0.07271393 0.28415138 0.18493384
000340 37 1b 84 be 24 73 e0 3d 61 76 a8 bd ff ad 87 3e
       -0.25802013 0.10959461 -0.08225704 0.26499936
000350 37 5b b7 bd dc 4c 7b be 9f c2 a5 bc 91 17 a2 bd
       -0.08952945 -0.24541038 -0.020234404 -0.07914651
000360 28 91 b5 3e 05 1d 85 3e 4d 09 34 be 79 28 82 bd
       0.35462308 0.25998703 -0.17581673 -0.06355376
000370 e5 23 6d 3d 24 86 84 be e8 73 86 be 68 12 aa 3e
       0.05789556 -0.2588359 -0.26260304 0.33217168
000380 b9 51 25 3e 85 41 08 be f0 98 2e 3e 5b 97 74 bd
       0.16144456 -0.13306244 0.17050529 -0.059714656
000390 93 40 9c 3d 08 e1 35 3d 25 5b 59 3e a5 19 52 be
       0.07629504 0.04440406 0.21226175 -0.20517595
0003a0 0d 14 87 3e c1 8f 49 bd f0 79 89 3e d3 23 b0 bd
       0.26382485 -0.04920936 0.26850843 -0.08600583
0003b0 24 3c a7 bd 34 ae 94 3e b9 bc 8c be 51 e7 ba 3d
       -0.08165768 0.29039156 -0.27487734 0.09126151
0003c0 81 f9 3f 3e 9c a1 0b 3d 7d 80 80 be d0 e4 62 be
       0.18747522 0.03408967 -0.2509803 -0.22157598
0003d0 a8 01 13 3e 1c b5 9c be b3 ec 24 be e6 a6 53 3e
       0.143561 -0.30606925 -0.16105919 0.20669135
0003e0 2a 33 a7 bd 77 be 8a be 52 12 4c bd c1 d1 f4 3c
       -0.08164056 -0.27098438 -0.04982216 0.029885175
0003f0 d2 27 03 be ad 34 23 be 2d 2e da bd ef 47 7b 3e
       -0.12808159 -0.15938063 -0.106533386 0.24539159

trunk.3.bias f4 [64]
000000 fc f5 b4 3d f3 33 8b bc 82 de 76 3c 88 57 7c 3c
       0.0883598 -0.016992545 0.015067698 0.015401728
000010 1c e2 27 bd 65 7f 67 bd 62 83 4e 3b 7a 10 db bb
       -0.04098712 -0.056517977 0.0031511416 -0.006685314
000020 fa 10 99 3d be 27 2e 3d 4b 43 59 bd a5 bf 5b 3a
       0.07473941 0.04251837 -0.05304269 0.0008382744
000030 31 c7 18 3d 51 0b e6 3c fa d1 15 3d 50 db 40 bb
       0.03729934 0.028081568 0.036577202 -0.0029427595
000040 a7 ae 2a bb e7 93 86 bc cd ef 2f bd 55 66 39 3d
       -0.0026044042 -0.016427947 -0.0429533 0.045263607
000050 e5 88 7a 3d d2 f9 56 3c 3c 5b 59 bc 7a f0 9e 3b
       0.06116571 0.013121085 -0.013266381 0.0048504444
000060 17 24 1e bd 67 96 86 bd 9b 7a e5 bb a7 48 9c 3d
       -0.038608637 -0.06571656 -0.007003141 0.07631045
000070 bc 1c a4 bb 7a 32 00 3d 82 dd f6 3c 2f 8e 36 3c
       -0.005008308 0.03129814 0.03013492 0.011142298
000080 e0 cd bb bc f9 35 2d bd 01 7a 99 3d eb 44 3d 3c
       -0.022925317 -0.0422878 0.074939735 0.011552076
000090 80 8a 38 3d aa 1a 80 3b d6 16 52 bd 57 52 89 bc
       0.04505396 0.0039094286 -0.05129131 -0.016762896
0000a0 36 d7 30 bd 99 33 87 bd eb ff 9c 3d 6b 26 82 3b
       -0.04317399 -0.06601638 0.07666 0.003971865
0000b0 ac 01 98 3d 88 17 30 3d 08 df 96 3d e3 78 21 3b
       0.07422194 0.04299119 0.073667586 0.0024638704
0000c0 50 71 48 bd 74 82 6c 3d d3 86 08 bd b2 a0 31 bc
       -0.04893619 0.057741597 -0.033331703 -0.010841535
0000d0 ff dc 75 3d cb d7 24 bd f3 41 1c 3c e8 8c 32 3c
       0.06002521 -0.04024486 0.009537208 0.0108978525
0000e0 49 94 63 bd d2 2f 43 3d a3 3e 1c 3c d6 fe 73 3d
       -0.055561338 0.047653027 0.009536418 0.059569202
0000f0 d4 cc e3 bc 82 f9 88 3d 3e ea e4 3d be 1b 72 3d
       -0.02780763 0.06688215 0.11177491 0.05910849

trunk.4.weight f4 [64]
000000 b2 de b5 3f a6 7a a1 3f 2d c9 aa 3f d2 2f b0 3f
       1.4208586 1.2615554 1.3342644 1.3764594
000010 0e 43 91 3f fb e8 94 3f 5b e1 ae 3f 4d cd a5 3f
       1.1348588 1.16336 1.3662523 1.2953278
000020 a6 35 a6 3f 9d c0 aa 3f e8 6a ae 3f 3f 17 9b 3f
       1.2985122 1.3340031 1.3626375 1.2116469
000030 9b 92 9d 3f 72 7c a7 3f 8f 22 ad 3f b6 d6 ad 3f
       1.2310365 1.3084853 1.3526171 1.358115
000040 fb d2 a5 3f 30 00 9b 3f 78 83 9f 3f 19 96 aa 3f
       1.2955011 1.2109432 1.2461996 1.3327056
000050 65 6d aa 3f 20 7e ba 3f 88 8b ad 3f 26 b5 b5 3f
       1.3314635 1.456974 1.3558207 1.4195907
000060 13 48 92 3f e8 7c aa 3f 9e 9f a5 3f 97 4e bb 3f
       1.1428245 1.3319368 1.2939336 1.4633359
000070 19 23 a9 3f 18 8e af 3f f7 1e d3 3f a6 64 b3 3f
       1.3213836 1.3715239 1.6493825 1.401509
000080 a3 3b a5 3f bf 5d a7 3f b2 dd 9b 3f 71 61 b2 3f
       1.2908825 1.3075484 1.2177031 1.3935987
000090 04 58 b8 3f 0b 71 b6 3f 0d f5 a5 3f 3c 98 a8 3f
       1.440186 1.4253248 1.2965409 1.3171458
0000a0 d2 ed 9e 3f 52 65 a7 3f e2 ac b5 3f f7 a0 8e 3f
       1.2416327 1.3077796 1.4193385 1.1142873
0000b0 c4 5a a2 3f 38 af ac 3f 1b 62 b5 3f 74 8d a8 3f
       1.268395 1.3490973 1.4170564 1.3168168
0000c0 69 e4 ad 3f ba 05 b1 3f f1 c7 96 3f 5e 95 b0 3f
       1.358533 1.3829873 1.1779767 1.3795583
0000d0 c6 7b a5 3f f4 76 a9 3f e3 94 ad 3f 25 f1 a5 3f
       1.2928398 1.3239427 1.3561062 1.2964216
0000e0 ce ba 9b 3f d4 0d bf 3f cb 52 bc 3f 71 8f ad 3f
       1.2166383 1.4926095 1.4712766 1.35594
0000f0 d6 ec a5 3f 4d 14 b9 3f 3c 52 c3 3f 6b bd b5 3f
       1.2962902 1.445932 1.5259471 1.4198431

trunk.4.bias f4 [64]
000000 9f 6f cd 3e 13 57 87 be 63 f6 d5 be a3 ae cc be
       0.40124223 -0.2643362 -0.4178954 -0.39976987
000010 bc 1d 27 be b4 09 f5 bd 17 1d 99 be ca bd e2 bd
       -0.16319937 -0.11964741 -0.29905006 -0.11071356
000020 be d1 cf be 43 a0 7f be 36 a3 4b 3e c7 92 91 be
       -0.40589708 -0.24963479 0.19886479 -0.28432295
000030 3f 71 08 be be c3 bb be b8 6a b0 be 8a aa 70 be
       -0.1332445 -0.36672777 -0.3445642 -0.23502555
000040 5e dc 71 3e 45 b0 8a be b5 9c 4a be 01 d4 9b be
       0.2361922 -0.27087608 -0.19786341 -0.30435184
000050 49 c0 b0 be f0 22 c6 bd 70 72 57 be a0 2d 9e 3e
       -0.34521702 -0.096746325 -0.21039748 0.30894184
000060 78 10 56 be b5 8f 87 be bf 8f 3b be eb c0 e3 3e
       -0.2090472 -0.26476827 -0.18316554 0.44483122
000070 aa 52 98 be 6b 11 f0 be 3c a2 e4 3e 0c 3f 9e be
       -0.29750568 -0.4688829 0.44655025 -0.30907476
000080 a2 27 9e be 98 0c d3 be 5c 67 f4 be 4d 8b c9 be
       -0.30889612 -0.41220546 -0.47735107 -0.3936409
000090 c2 95 f9 be c7 42 ae 3e cd 9c 8a 3e 80 33 9a be
       -0.4874707 0.34035322 0.27072755 -0.30117416
0000a0 7d fa f6 bd 7f 8f d4 bd 92 5e d4 3e d4 20 0f be
       -0.120594956 -0.10378932 0.414784 -0.13977367
0000b0 67 9f b6 be 13 00 ea be e1 dd c0 3e 52 f6 fb 3d
       -0.3566849 -0.45703182 0.3766928 0.12302841
0000c0 ad f6 52 be 8c 71 ba 3e fd 6d 7a be dc d8 a5 3e
       -0.20601912 0.36414754 -0.2445602 0.32392013
0000d0 a1 a7 4a 3c c8 8d c7 be aa 23 b4 be f8 3d 03 bd
       0.012369067 -0.38975358 -0.3518346 -0.03204152
0000e0 12 ed 5f be d0 79 a4 be 97 5d ca be 2c ed e5 be
       -0.21867779 -0.32124186 -0.39524528 -0.4490751
0000f0 b6 f7 89 3e 91 f5 ca bd d8 83 f4 3e 1b 96 ca 3e
       0.269468 -0.09910119 0.4775684 0.39567646

value_head.0.weight f4 [25, 64]
000000 6e a6 32 3f 2f 6f 5b 3d 70 dd 53 bf b9 43 2d bf
       0.697852 0.05357283 -0.8275976 -0.6768146
000010 60 1d 06 bf 8f 31 3b 3c 9a 54 fc be cb 6b 2a 3e
       -0.5238857 0.01142539 -0.49283296 0.16642682
000020 30 b3 24 bf 90 5d 8e be 1e e3 50 3f a5 97 89 be
       -0.6433592 -0.27805758 0.81596553 -0.26873508
000030 df c6 d7 be 72 9f 0a bf 77 cd 07 bf 66 17 7e 3e
       -0.42143914 -0.54149544 -0.5304789 0.24813613
000040 81 85 15 3f dc 7b 61 bf 18 e7 95 be 9f c6 07 bf
       0.58406836 -0.8807962 -0.29277873 -0.53037447
000050 20 05 2f bf 59 b9 af bd 77 46 6a be 35 93 3a 3f
       -0.68367195 -0.08580274 -0.22878443 0.7288087
000060 fe 68 9a be 67 e4 28 3e e9 85 3e bf 9c e3 e4 3e
       -0.30158228 0.16493379 -0.7442308 0.44704902
000070 73 5e 46 bf 1b 03 4d bf d2 4e 1b 3e 52 60 e1 be
       -0.7748787 -0.80082864 0.15166786 -0.440188
000080 35 0a 40 bf d9 b2 f8 be 3d 28 31 bf dd 2c 1e bf
       -0.75015575 -0.4857395 -0.69202024 -0.61787206
000090 99 ea 6a bf 94 45 27 3f 51 3f 4d 3f 7a 3a 51 bf
       -0.9176422 0.6534054 0.8017474 -0.81729853
0000a0 ca 05 fa 3c 35 9e 01 bf 61 de 52 3f 6a c4 fa be
       0.030520339 -0.5063203 0.82370573 -0.48977977
0000b0 03 62 48 bf 35 21 d8 be e2 11 36 3f 1b 6e c7 3e
       -0.78274554 -0.42212835 0.71121037 0.3895119
0000c0 c8 c8 04 bf ad a6 3e 3f 6c 39 cc be 9f 41 45 3f
       -0.5186887 0.7447308 -0.3988756 0.77053255
0000d0 c9 66 a6 3d 3b 77 06 bf a5 a5 59 bf 68 81 88 3d
       0.081250735 -0.5252568 -0.8501838 0.06665307
0000e0 a7 5f 3e be 85 b1 5e bd 2c 42 06 bf 3d 72 2d bf
       -0.18591176 -0.054368515 -0.5244472 -0.6775244
0000f0 42 e8 1f 3f 79 1f d9 3d 5c fd 3f 3f 24 e0 38 3f
       0.6246377 0.10601706 0.7499597 0.7221701
000100 fd 14 3c 3f a3 30 99 be cf b7 0b bf 7b 7d 53 bf
       0.73469526 -0.2991992 -0.54577345 -0.82613343
000110 ee 2a 66 be 06 53 04 be cd fa af be 45 aa be bd
       -0.22477314 -0.12922296 -0.34371033 -0.0930982
000120 27 fd bc be fb 51 07 bf 77 46 27 3f f2 11 65 be
       -0.3691189 -0.5285947 0.65341896 -0.22370127
000130 3c c1 80 be dd d4 3b bf f4 f0 38 bf 63 18 da 3e
       -0.25147426 -0.7337168 -0.72242665 0.4259673
000140 e6 a3 ba 3e 38 91 43 bf b5 82 a3 be 7d 8a 7b be
       0.3645317 -0.7639346 -0.3193566 -0.24564548
000150 d1 0e 81 be ca 64 9d be 63 08 1b be 0f bb 2b 3e
       -0.25206617 -0.30740958 -0.15139918 0.16770576
000160 85 2d b9 be 0b 30 81 bd 0a 0a 64 bf 66 bf 1c 3f
       -0.3616754 -0.063079916 -0.8907782 0.6122955
000170 69 43 3f bf 80 57 2a bf 65 82 79 bd 4a 3e 1a bf
       -0.74712235 -0.66539764 -0.06091537 -0.60251296
000180 34 12 2a bf 04 6e b4 be 1b 4c 30 bf c7 82 aa be
       -0.66434026 -0.35240185 -0.6886613 -0.333029
000190 48 99 0f bf ab b5 8d 3e fd 2c 66 3f 40 b7 db be
       -0.56093264 0.27677664 0.89912397 -0.42913246
0001a0 e7 82 9e 3d 55 dc 13 bd 52 2b 46 3f e9 2a c2 be
       0.077398114 -0.036098797 0.7740985 -0.37923363
0001b0 7b 94 d7 be 16 12 e8 be e8 06 45 3f 7f 60 a7 3e
       -0.4210547 -0.45326298 0.76963663 0.32690808
0001c0 e5 cf cd be 5f 93 10 3f c6 6d e3 be c6 c5 e6 3d
       -0.40197673 0.5647487 -0.44419688 0.11268191
0001d0 a0 61 8d be 6b 4f 94 be b3 02 30 bf af da ea 3d
       -0.27613544 -0.2896684 -0.6875412 0.11467492
0001e0 20 cf 59 3e 4e d8 75 be 09 6a 29 bf 36 7a 22 bf
       0.21270418 -0.24008295 -0.6617742 -0.6346773
0001f0 35 80 42 3f fb 9c 17 bd 60 69 df 3e 01 63 7c 3e
       0.7597688 -0.037014943 0.43635082 0.24647142
000200 5a 41 fc 3e 5a 8b a6 be d5 a8 fd be fc 9e 06 bf
       0.4926861 -0.32528192 -0.4954287 -0.5258634
000210 a7 9e 53 3e 93 88 0f be 36 73 a7 be a9 81 88 3e
       0.2066599 -0.14016943 -0.32705086 0.26661423
000220 06 74 85 be 3b 8c fe be d9 81 04 3e c6 65 34 bc
       -0.2606508 -0.49716362 0.12940158 -0.011010593
000230 60 64 89 be ac 74 74 be 19 47 c5 be e4 0f a7 3e
       -0.26834393 -0.23872632 -0.38530806 0.3262931
000240 68 e9 96 3d 36 86 b8 be 70 88 06 bf 08 38 f3 be
       0.073687375 -0.36039895 -0.5255194 -0.47503686
000250 c9 f2 8e be 68 21 49 3d c0 15 1a 3e 15 20 cf 3e
       -0.27919605 0.049104124 0.1504736 0.40454164
000260 6a 84 27 be f9 a0 99 bc 4f a6 6c be 48 d3 1e 3f
       -0.16359106 -0.018753516 -0.23110317 0.6204114
000270 fb 36 fd be 49 b2 1e bf d5 fa 40 3d d7 d4 43 be
       -0.4945601 -0.6199079 0.047114212 -0.1912416
000280 35 2e 0f bf 4f 65 02 bf 57 74 0b bf 9b 00 0d bf
       -0.5592988 -0.50935835 -0.54474396 -0.5507905
000290 de 5c ed be ab 59 48 3e 31 ad 1a 3f 96 15 d1 be
       -0.46359915 0.19565456 0.6042052 -0.4083678
0002a0 ac a2 28 bd 86 8b 5e bd 01 2f b9 3e 94 92 89 be
       -0.04117076 -0.05433228 0.36168674 -0.26869643
0002b0 0a 4a 0f bf b0 db c9 be b2 52 a8 3e e7 fb ea 3d
       -0.5597235 -0.3942542 0.32875592 0.11473828
0002c0 0c 40 c3 be a4 22 fb 3e 55 85 64 be 4e 85 0c 3e
       -0.381348 0.49049866 -0.22316487 0.13722727
0002d0 3c b6 0f be a4 56 00 bf 00 ff 5a be 0f 24 ae bd
       -0.1403436 -0.50132203 -0.21386337 -0.085029714
0002e0 4c 44 08 3e 84 bd 43 3b 54 9c bf be b5 cd b0 be
       0.13307303 0.0029867599 -0.37423956 -0.34531942
0002f0 a4 ff 94 3e c5 a6 95 3e 91 b3 18 3f d5 9e 94 3e
       0.29101288 0.29228798 0.59648997 0.2902743
000300 3d f7 af 3e 3c 43 b1 be 1b a1 be be 36 9b f1 be
       0.34368315 -0.34621608 -0.3723229 -0.4718873
000310 5a 49 c1 bd 59 54 24 3e 83 b8 b5 be 6e a3 81 3e
       -0.09437819 0.16047801 -0.35492334 0.2532
000320 c1 ba 7a be 2c c8 64 be ef 25 14 3e 70 e9 ad bd
       -0.24485303 -0.22341985 0.14467596 -0.0849179
000330 3e eb 3c be 3a 53 b0 be a1 1f 76 be 4e 23 ca 3e
       -0.18449113 -0.34438497 -0.24035503 0.3948006
000340 ec 7d 7e 3e 1f ca 18 be 99 d3 88 be 7a d4 bf be
       0.24852723 -0.14920853 -0.26723936 -0.37466794
000350 92 3d 60 bd 59 5c 52 3d f2 26 78 be f9 d2 66 3d
       -0.054746218 0.0513576 -0.24233606 0.056353543
000360 50 ff a0 bd 93 1f 71 3e 3a 6e dd bd da ac 18 3f
       -0.07861197 0.23547201 -0.1081204 0.5963875
000370 b2 e7 6c bd f1 31 a7 be d0 21 09 3e 5f 7c ec be
       -0.05783815 -0.3265529 0.13391805 -0.46188638
000380 b8 fb 9c be 14 b4 2f be 06 9e bb be 2b 88 87 be
       -0.30660796 -0.17158538 -0.36644 -0.26471075
000390 19 fa df be 47 eb ce 3e 5b 48 4a 3e c7 1c a3 be
       -0.43745497 0.40413877 0.19754164 -0.31857893
0003a0 6e 72 cb 3e cc 88 8e be 77 da 46 3e 11 fa 29 be
       0.3973574 -0.27838743 0.19419275 -0.16599299
0003b0 ca a2 b6 be d3 d8 e2 be 1a 99 e8 3e f6 b4 d8 3e
       -0.35671073 -0.4430605 0.45429307 0.42325562
0003c0 ac a3 ea 3c cc 2d e4 3d f0 4c 32 be 52 51 be 3c
       0.028642498 0.111415476 -0.17412162 0.023232136
0003d0 6a 98 54 be 36 75 15 bf 87 5d 33 bd ac 5b 9f be
       -0.20761266 -0.58381975 -0.043790367 -0.31124628
0003e0 b9 a9 3a 3b c9 7d 83 be 27 7c 09 be bc 88 b2 bd
       0.002848251 -0.25681904 -0.13426267 -0.08717486
0003f0 75 5e 92 3e 49 e2 78 3e 96 6c ba 3e 35 0c c1 3d
       0.2858769 0.24305071 0.3641097 0.094261564

value_head.0.bias f4 [25]
000000 27 2d 22 3f 6c 8a 11 3f 83 4e e6 3e 63 2a a3 3e
       0.63350147 0.5685184 0.44981775 0.31868276
000010 8a bd ca 3e 37 2e c5 3d ae ae 10 3f dc fd f3 3e
       0.39597732 0.096279554 0.5651654 0.47654617
000020 d2 8f ab 3e 50 cf a8 3e 08 30 41 3d fd d0 36 3a
       0.33508164 0.32970667 0.047164947 0.00069738907
000030 6b 27 e5 3e 67 08 95 3e fc af 94 3e 6d 16 55 3d
       0.44756636 0.29107973 0.29040515 0.05202334
000040 41 57 4e bd cc 50 f5 3b f4 43 8a 3e c0 01 9e 3e
       -0.05037618 0.0074864384 0.2700497 0.3086071
000050 42 98 36 3d b2 41 a1 3d 55 9c d2 3d 82 1a 0d 3d
       0.044578798 0.078738585 0.10283724 0.034449108
000060 c6 7e a0 3e
       0.3134672

hiring_head.0.weight f4 [5, 64]
000000 b0 bf d7 be ce 11 00 3e 0c 89 60 3d 88 d7 3b 3e
       -0.42138433 0.12506792 0.054818198 0.18343937
000010 c3 33 4c 3e e0 62 60 3e b7 82 48 bd 90 df 1a bd
       0.1994162 0.21912718 -0.048952784 -0.037810862
000020 71 3a 99 3e ed 9e 45 3e 2f b4 d5 be 19 1d d9 3e
       0.299274 0.19298907 -0.41739032 0.42405012
000030 de 5e 38 3e da d0 52 bd 5a 2d a4 3e 59 9a f3 3d
       0.18004939 -0.051468708 0.3206585 0.11894674
000040 12 fc d1 be 74 f7 fb 3d 3e e1 8a be 7c 7c 2b bc
       -0.41012627 0.12303057 -0.2712497 -0.010466691
000050 7a 54 1e bd 5e 2f 2f be f0 f3 b6 bd 25 cb 56 be
       -0.038654782 -0.17107913 -0.08933246 -0.20975931
000060 96 86 df 3d 76 23 26 3e cd 00 96 3e 62 38 f0 be
       0.10914342 0.16224465 0.29297486 -0.46918017
000070 70 d3 e9 3e 0f 0c 6e 3d a0 09 ef be 73 0e a1 bd
       0.45669127 0.05811697 -0.4668703 -0.07864084
000080 0d be bb 3d 60 66 1f 3d d7 90 d7 3e 14 5b ad 3e
       0.09167109 0.03891599 0.42102692 0.3385855
000090 02 4d 9c 3e 1c 9d 25 be 75 2a 84 bd 11 49 b9 3d
       0.30527502 -0.16173214 -0.064534105 0.090471394
0000a0 65 01 90 be f7 78 ff 3d cc b3 ed be cf 36 13 3e
       -0.28126064 0.12474244 -0.46426237 0.14376377
0000b0 12 93 0c 3e 40 ac d3 3e ca 9a e3 be ee d4 8c be
       0.13727978 0.41342354 -0.44454032 -0.27506202
0000c0 ba ae a3 3e 95 26 e6 be dd 4c d0 3d 64 60 df be
       0.31969243 -0.4495131 0.101709105 -0.43628228
0000d0 73 86 7c be 7c d2 0e bd 1b e9 0c 3e b7 95 64 be
       -0.24660663 -0.034868702 0.13760798 -0.22322737
0000e0 0e 32 82 3e ae e9 c4 3d 04 31 a8 bc e1 db 37 bd
       0.25428814 0.09614883 -0.020531185 -0.044887427
0000f0 7b c0 31 be 34 06 1c 3e 99 55 18 bf be b4 6e be
       -0.17358582 0.15236741 -0.5950561 -0.23311135
000100 e9 d7 04 bf 66 dc 74 be b3 ce c9 3e 43 8f 01 3e
       -0.5189195 -0.239122 0.3941551 0.12652306
000110 4d 76 60 3e 08 f8 22 3e 17 50 8c 3e 17 68 b0 be
       0.21920128 0.15914929 0.27404854 -0.34454414
000120 ea 7b 1a 3e 0b 14 c2 3e 6a ce e2 bd 18 d5 38 3d
       0.15086332 0.37905917 -0.110745266 0.045125097
000130 55 ae b2 3e 26 d7 7f 3e b7 e2 98 bc 16 34 51 3e
       0.3489863 0.24984416 -0.018662794 0.20430025
000140 4f 2a a2 be 3e 35 2f 3e be f3 9d 3d 31 d5 e8 3e
       -0.31672904 0.17110154 0.07712506 0.45475152
000150 d3 33 47 3e 97 b7 d8 bd 80 f2 74 3c 24 b3 c1 be
       0.19453363 -0.10581892 0.014950395 -0.37831986
000160 0f 53 b6 3e 7e 01 88 3e 16 ea 05 ba 04 6e 01 bf
       0.35610244 0.26563638 -0.0005108429 -0.50558496
000170 67 96 7d 3e c7 a8 6b 3e c4 2b 9a be 15 46 84 39
       0.24764405 0.23013602 -0.30111516 0.00025229217
000180 10 86 ab 3e 53 3d 6b 3e 8b 50 d3 3e ee 38 ee bc
       0.3350072 0.22972612 0.41272387 -0.02907988
000190 01 d8 b8 3d 84 56 aa be b2 f1 bf be 5f ff ea 3e
       0.090255745 -0.3326913 -0.37489086 0.45897958
0001a0 0e c4 46 3e 16 40 5d be 4b cf bb be 05 c1 9f 3e
       0.19410726 -0.21606478 -0.3668159 0.3120195
0001b0 67 1b e1 3e 62 a8 aa 3e 19 4c 8b be e8 5d 47 be
       0.4396622 0.3333159 -0.27206495 -0.19469416
0001c0 29 86 f0 3c e1 57 e4 be b1 2b 86 3e c5 ab 17 be
       0.029360848 -0.44598296 0.2620521 -0.14811619
0001d0 8b b9 62 be 9f f7 09 3e de e8 af 3e 29 af 91 bc
       -0.22141092 0.13473366 0.3435735 -0.017783718
0001e0 ce 79 93 3d eb ed 91 bd c1 e1 b4 3e de 27 0c 3e
       0.07200967 -0.071254574 0.35328487 0.13687083
0001f0 3d de c7 be 8c ac 61 3e 8f e6 c2 be 70 3d 41 be
       -0.39036742 0.22038478 -0.38066527 -0.18871093
000200 58 db 0e be 99 d9 89 3e 86 78 83 3e bb 06 46 3d
       -0.1395086 0.26923826 0.2567789 0.048346262
000210 cc 3f 97 3e 3c 22 0f 3e 7d a3 d3 3e ec 4f 1c bd
       0.2954086 0.13977903 0.4133567 -0.038162157
000220 2b b6 d3 3e 22 2f 4d 3e 7c cf 89 be 65 2d a8 3e
       0.4134992 0.20037511 -0.2691611 0.32847133
000230 ae db dd 3d 70 8b 6a 3e fc 44 e2 3e 0e e7 be 3c
       0.10832916 0.22904754 0.44193256 0.023303535
000240 da 9c a0 be cb 9f c8 3e 0b 6c 81 3b 1e 76 d8 3e
       -0.31369668 0.39184412 0.0039496473 0.42277616
000250 a7 41 8a 3e 4f 4b 4c be d0 58 e9 bd a7 7e 88 be
       0.27003214 -0.19950603 -0.11393893 -0.26659128
000260 95 05 98 3e e2 f8 24 3e 73 82 bb 3d ab b4 05 bf
       0.2969176 0.16110566 0.091557406 -0.522288
000270 ca 52 ac 3e a0 89 a6 3d 79 ea 46 be ce 9f c7 3e
       0.33656913 0.08131719 -0.19425382 0.3898911
000280 8e c8 63 3e c1 08 d1 3c 27 05 d0 3e db 26 e3 3e
       0.22244474 0.02551687 0.4062893 0.44365582
000290 3c 83 cc 3d 77 1a 24 be 38 86 c3 be 61 9b df 3e
       0.099859685 -0.1602572 -0.38188338 0.43673232
0002a0 f6 44 85 be 7f a7 46 3e ef ce cc be fb b0 d2 3e
       -0.26029176 0.19399832 -0.40001628 0.4115065
0002b0 f4 6c 7e 3d a5 95 d7 bc 3b 2e a5 be d5 7f e5 be
       0.062115625 -0.026316473 -0.32261834 -0.4482409
0002c0 c9 ca 6d bd 42 ab c6 be c2 cf 65 bc 53 4b 78 be
       -0.05805472 -0.38802534 -0.014026584 -0.24247484
0002d0 13 87 b9 ba 76 69 d2 bd 81 8f 3a 3d 8f 77 c0 3b
       -0.0014154635 -0.10274021 0.045547012 0.0058736275
0002e0 46 90 fe 3d 93 eb 63 be 1b 3f c2 bd e3 29 d8 3e
       0.12429862 -0.22257833 -0.09484693 0.42219457
0002f0 58 69 2d be 88 bc d2 3d 68 09 1f bf 81 91 90 be
       -0.16934717 0.10289866 -0.6212373 -0.2823601
000300 cf 21 01 bf ce f1 1a 3e 09 41 a9 3e da ec ba 3e
       -0.5044221 0.15131304 0.3305743 0.36508828
000310 45 b5 09 3e 9e 75 a1 bd ac 6e a9 3e c5 24 bf 3d
       0.13448055 -0.07883762 0.33092248 0.09333185
000320 19 6b a1 3d bf aa 93 bd da 62 80 be 11 fb da 3e
       0.078817554 -0.072103016 -0.25075418 0.42769673
000330 4f af 9f 3e 0a 82 dc 3d 84 7a 23 3e 2b bc 9a 3e
       0.31188437 0.107669905 0.15964705 0.30221686
000340 83 77 92 be f6 c8 a1 3d c4 ec 27 3e 50 69 62 3e
       -0.28606805 0.078996584 0.16398913 0.22110486
000350 bf a4 0e 3e 50 dd b8 3c ac 06 7a bd f7 b0 fa be
       0.13930033 0.022566468 -0.06104152 -0.48963138
000360 6b 97 16 be 96 6c d0 bd 23 d9 1b bd 61 57 d8 be
       -0.14706199 -0.10176961 -0.038048875 -0.42254165
000370 a9 cd b5 3e a2 3b b6 3e 37 e4 72 bd 72 64 82 3e
       0.3550847 0.3559237 -0.059299674 0.2546726
000380 d6 e6 08 3e 8d 26 40 bc cf ca 43 3e 8e 33 f7 3e
       0.13369307 -0.011727941 0.19120334 0.4828152
000390 df 92 ae 3c 0f 69 ed be 44 fa 78 be 31 44 d5 3e
       0.021310268 -0.46369216 -0.24314219 0.41653588
0003a0 53 f0 63 3e e2 e8 1b be 40 f3 11 be f7 b0 f9 3d
       0.22259645 -0.15225556 -0.14252949 0.121919565
0003b0 ad 47 b8 3e 04 36 1e 3e f3 1e ba be 4d 3e ba 3d
       0.35992184 0.15450293 -0.36351737 0.09093914
0003c0 18 4c ee bc 92 ac c8 bd 14 25 1b 3e a6 3b 7d be
       -0.029089019 -0.0979854 0.15150863 -0.24729785
0003d0 c0 54 ac be 81 2a 91 3e fa d0 bb 3e 33 d4 66 be
       -0.3365841 0.2835274 0.36682874 -0.22541885
0003e0 1c e2 c5 3e 4e 4d 03 3e de 3f 1a 3e dc ea 23 3e
       0.3864907 0.12822458 0.15063426 0.1600756
0003f0 c4 b6 d8 be b3 cc 54 be 52 79 b9 be 43 c2 ee be
       -0.4232694 -0.20781212 -0.36225373 -0.46632585

hiring_head.0.bias f4 [5]
000000 77 f2 07 be 9f 1a 2d be 6d db 1e be c4 63 3a be
       -0.13276087 -0.16904686 -0.15513392 -0.1820212
000010 5a 6d df 3d
       0.10909529
