trained_value_function.pt (torch, 24501 bytes, 10 tensors)

trunk.0.weight f4 [64, 3]
000000 e9 db d2 3e 84 84 a0 3e 28 07 8c be cd 54 93 bf
       0.41183403 0.313511 -0.2734921 -1.1510254
000010 8a 25 c0 bf 1d fc 61 3f 23 2b 8b 3e c2 92 45 3f
       -1.5011456 0.8827532 0.27181348 0.7717706
000020 3d bf ee bd 49 1a 1a 3d da 68 07 be 40 74 49 3e
       -0.116575696 0.037622724 -0.13223591 0.19673252
000030 d2 ec 08 bf 4d 73 ac bf d6 1e 45 3f 0b c8 2e bc
       -0.5348636 -1.3472687 0.77000177 -0.010667811
000040 be 80 94 3e e3 44 21 3e 2f c0 95 bc de cf 3b be
       0.29004472 0.15748934 -0.018280117 -0.18341014
000050 4b 70 74 3f 95 29 bc 3e 48 9e 7b be 81 fe a5 3e
       0.95483845 0.36750475 -0.24572098 0.32420734
000060 2a d9 cc be f5 1c da be d4 41 0a 3f 50 df 92 be
       -0.40009433 -0.42600217 0.54006696 -0.28686
000070 8b a8 7c 3c ee 3f ac bd 65 7b 8f 3e bb 73 dc 3e
       0.015421043 -0.08410631 0.2802383 0.43057045
000080 91 db be bd c8 3b 3d bf b7 51 03 3e 8e fa b3 bf
       -0.09319223 -0.73919344 0.1282414 -1.4060838
000090 cd 44 76 3d 03 0a 66 3f c0 af e4 bc 75 ed 07 3d
       0.060124207 0.89859027 -0.027915835 0.03318544
0000a0 47 0c c1 3e d5 73 bf be da 68 99 3e 71 15 b0 be
       0.3770468 -0.3739306 0.29962808 -0.34391358
0000b0 e1 b5 00 be e4 23 22 be 91 36 4b 3e dd 89 56 3e
       -0.12569381 -0.15834004 0.19845034 0.20951028
0000c0 e8 0d c8 bd 15 d4 ae 3d 5f da e7 3e 74 17 48 3f
       -0.097682774 0.08536545 0.4528379 0.78160787
0000d0 2a 1c 51 3f 64 97 b8 3c 42 26 94 3e 26 bb ae 3b
       0.816836 0.022533126 0.28935438 0.0053323684
0000e0 67 e8 9b 3e c2 9d 91 be 42 3b c8 be 74 e7 1e 3e
       0.30450746 -0.28440672 -0.3910771 0.1551798
0000f0 42 6d a3 3e 0d d3 c4 3d b2 ff 52 bf a7 ee 5c 3f
       0.31919295 0.09610567 -0.8242141 0.86301655
000100 74 ec 85 3f d6 d2 e5 3d 3e 72 ba 3d d5 23 1e 3f
       1.0462785 0.112218544 0.09103821 0.61773425
000110 08 ca b2 3e 82 ed 8f 3e e2 26 8e be 7d 3b c0 be
       0.34919763 0.28110892 -0.2776404 -0.37545386
000120 19 0e 88 3e 94 47 49 bd 52 99 8a 3e c5 65 8b 3f
       0.26573256 -0.049140528 0.270701 1.0890433
000130 3c 5d e1 3e 3b 55 39 bf 49 b4 0a 3c 01 7a 96 3d
       0.44016445 -0.72395676 0.008465835 0.07347489
000140 35 b7 e2 be 2f ae 4b 3f f2 54 ba 3e 93 89 21 3c
       -0.442804 0.7956266 0.36392933 0.00985946
000150 0d ee eb bc 2d 04 fa be 77 b6 be 3e 76 8d 04 3d
       -0.028800035 -0.4883131 0.37248585 0.03236147
000160 1f da 61 3e 22 bc d2 be d9 8a dd 3b 80 24 ef 3e
       0.22055863 -0.4115916 0.0067609367 0.46707535
000170 3e 0f 9d 3e 76 7a 26 3f f2 d6 c6 3e bc 20 a9 bf
       0.3067569 0.6503061 0.38835865 -1.3213115
000180 32 45 3c 3f 76 85 5a 3f 63 33 8a 3d cb 9c d7 bd
       0.73543084 0.85359895 0.067480825 -0.10527953
000190 fd f4 fa 3e 5b 64 8a 3e b4 0f c6 3e 12 ab d4 bc
       0.49015036 0.2702969 0.38683856 -0.025960479
0001a0 88 56 0f be 3b d5 6e 3e 38 d6 76 bd 34 cf a2 be
       -0.13997853 0.23323528 -0.06026289 -0.31798708
0001b0 c2 9c d4 3d 86 39 04 be a0 40 9e bd 93 71 6b be
       0.10381462 -0.12912568 -0.0772717 -0.22992544
0001c0 fd 5b 74 bf dc e8 4e 3f 53 6b 3b 3f 5d d3 34 3f
       -0.9545286 0.80824065 0.7321064 0.70635015
0001d0 05 11 56 bb 85 e4 34 3c 99 45 1c 3f 3e 80 92 bd
       -0.0032663953 0.011040811 0.610437 -0.071533665
0001e0 63 f5 d7 3e 3b 62 15 3f a2 e9 d5 bd 32 90 f2 3d
       0.42179403 0.5835301 -0.104449525 0.11843909
0001f0 00 71 85 be 37 6f ef be fc f2 08 be 5e da 10 3e
       -0.26062775 -0.46764538 -0.13373941 0.141458
000200 7f 76 53 be 7b dd 66 3e f1 b8 e2 3d 55 cd bc bd
       -0.20650671 0.22545426 0.11070431 -0.092188515
000210 42 e1 2b be de f3 c2 3d 4f b1 3b 3e b0 30 91 3e
       -0.16785148 0.0951917 0.18329357 0.28357458
000220 ec 08 85 3d c2 c4 2e 3f 15 a7 ba 3e e7 84 49 3f
       0.06495842 0.6826898 0.36455598 0.7871842
000230 c7 0d 71 3f 29 8f 1d 3f 36 cc 24 3f 59 59 4d bd
       0.9416165 0.6154657 0.643741 -0.050134037
000240 3d f7 45 bf 97 b5 ff be 69 82 56 3e a9 14 a2 bd
       -0.7733038 -0.4994323 0.20948185 -0.07914097
000250 0c 01 a3 3e 20 e7 af be 3a 6d db be 64 44 60 be
       0.31836736 -0.34356022 -0.4285677 -0.21901089
000260 af a8 cc 3e 62 9b 25 3f 74 90 42 3f cb 74 e0 be
       0.39972445 0.6469022 0.7600167 -0.43839106
000270 57 eb 40 3e 52 b6 b0 3e 65 dc 24 3d ea 88 2d 3e
       0.18839775 0.345141 0.040249247 0.1694676
000280 20 58 ee 3d 43 ad be 3e 05 77 5d be 03 54 7b be
       0.11637902 0.37241563 -0.21627434 -0.24543767
000290 91 cd 89 be 1e fc 7a 3e 2f 49 20 3e dd 89 e8 3e
       -0.26914647 0.24510238 0.15652917 0.4541768
0002a0 f8 ea 58 bf 50 d4 ef be 45 57 a8 3e 0c e8 aa be
       -0.84733534 -0.4684167 0.3287908 -0.33380163
0002b0 e7 d2 6e 3e e4 5c d6 3d 18 a8 4b 3e 2a b3 37 3e
       0.2332264 0.10466936 0.19888341 0.1793944
0002c0 82 7a ae bd 05 1f 50 3c 81 fb 25 3f a3 19 99 be
       -0.0851946 0.012702708 0.6483689 -0.29902372
0002d0 fe 63 7a 3c bb 23 4b bd 53 8d 3a 3e e4 1e 3a 3f
       0.015282629 -0.049594622 0.18217973 0.72703385
0002e0 7a 3f 29 3f b6 a3 aa 3e 25 37 6c 3d 11 98 24 3f
       0.6611248 0.33328027 0.057669777 0.64294535
0002f0 31 14 09 be e7 b1 40 bd 94 75 16 be 0e cd b7 3e
       -0.13386609 -0.04704466 -0.1469329 0.35898632

trunk.0.bias f4 [64]
000000 e3 44 3c be 83 fe 8a bd 38 77 52 bf 23 6a e2 bd
       -0.18385653 -0.067868255 -0.82213163 -0.110554
000010 7c a1 d5 be 79 3d 79 3e 0e 05 1d bf 5b 27 01 3e
       -0.41724765 0.24339856 -0.6133584 0.12612669
000020 f3 aa 93 3d 30 55 7e 3e f1 2d 26 be 86 bb 18 3e
       0.0721034 0.24837184 -0.16228463 0.14915285
000030 76 f7 0c be 3e f5 8b 3e d5 fe 27 be 3f 4d dc 3e
       -0.13766274 0.27335542 -0.16405804 0.43027684
000040 c0 41 58 3e dd 2e 07 3e 00 50 09 3e 8c fa 5f 3d
       0.21118832 0.1320147 0.13409424 0.0546823
000050 60 8e fe 3d 0d 41 2d ba 0a 28 c1 3d 35 a4 a4 3d
       0.124294996 -0.00066091196 0.09431465 0.080391325
000060 1d c2 43 be 89 ed 2d bf 8a db a3 3e 49 3a 8d be
       -0.19117017 -0.67940575 0.32003433 -0.2758353
000070 cc 86 00 bd ab eb e0 3e da 63 67 3e 79 bd 27 3e
       -0.031378552 0.439298 0.22596684 0.16380872
000080 4a 8b 4c be 46 60 a2 3e 0d 4f b5 bd 4f 08 7b bd
       -0.1997501 0.31714076 -0.08852968 -0.06128722
000090 3b e1 c4 bd 92 9b 51 be 04 e3 b4 3d 22 08 01 3f
       -0.09613272 -0.20469502 0.08832362 0.50403035
0000a0 72 ca ea 3d 00 61 ac 3e bc aa 77 3e eb a5 c0 bd
       0.11464395 0.33667755 0.24186224 -0.09406646
0000b0 f8 c7 24 3e 24 76 07 bf 39 52 6d bd bb b6 18 3e
       0.16091907 -0.52914643 -0.05793974 0.14913456
0000c0 4a ce 79 3e 78 7a 94 3e 91 ca 49 3e a4 12 94 3d
       0.243951 0.28999686 0.19706179 0.07230118
0000d0 5b a1 97 3e f8 d1 90 be b9 52 bc 3e 97 8b 80 be
       0.29615292 -0.28285193 0.36781862 -0.251065
0000e0 fc 97 21 3e ba 22 d2 bc 00 ea 8d bd b4 b6 e4 3d
       0.15780634 -0.025651325 -0.069293976 0.1116766
0000f0 ec 24 af 3e 33 10 6e bd ad 6c ca bd a2 e9 49 be
       0.34207857 -0.058120918 -0.098840095 -0.1971803

trunk.1.weight f4 [64]
000000 84 d5 8d 3f 62 5c 1d 40 cd 76 1d 40 4e 87 77 3f
       1.1080785 2.4587636 2.460376 0.96690834
000010 fb a1 ef 3f 4f 14 85 3f fb 68 01 40 77 66 84 3f
       1.8721308 1.0396823 2.0220325 1.034377
000020 57 53 91 3f 66 38 63 3f ee 1d 7b 3f 9e 8e e8 3f
       1.1353558 0.8875793 0.98092544 1.8168523
000030 03 56 3d 3f a3 08 67 3f bd dc 87 3f 1a 5d 80 3f
       0.7395937 0.90247554 1.0614239 1.0028412
000040 8f 01 87 3f 6e c0 a9 3f 32 9a a0 3f e8 02 8b 3f
       1.0547351 1.326185 1.2547057 1.0860262
000050 fe 60 a7 3f d1 99 b1 3f dc 47 8b 3f 3a 6c 99 3f
       1.3076475 1.3875066 1.0881305 1.1986153
000060 d5 9d 38 3f 33 5a 2e 40 d0 38 69 3f 6b fe 03 3f
       0.7211583 2.7242553 0.91102314 0.51560086
000070 e8 5c be 3f e0 b1 65 3f 38 6e 8f 3f ff bf 08 40
       1.4872103 0.8972454 1.1205511 2.1367185
000080 36 62 4f 3f 10 61 88 3f fe cd 84 3f 5d e7 8d 3f
       0.81009233 1.0654621 1.0375364 1.1086231
000090 d9 18 8c 3f fe 50 c1 3f 54 84 bb 3f 9e 0b 92 3f
       1.0945083 1.5102842 1.4649758 1.1409795
0000a0 a0 86 9b 3f 0d 7e 66 3f d9 43 6b 3f 83 30 85 3f
       1.2150459 0.9003609 0.919004 1.040543
0000b0 0e 8f 70 3f 30 46 c2 3f 9d e3 93 3f 5b 05 9b 3f
       0.93968284 1.517767 1.1553837 1.2111009
0000c0 ee 83 90 3f 3c 80 60 3f ba 97 87 3f a8 17 97 3f
       1.1290262 0.8769567 1.0593178 1.1804094
0000d0 f0 5d 87 3f 1f 65 88 3f 81 42 7f 3f 76 43 96 3f
       1.0575542 1.065586 0.9971085 1.1739337
0000e0 74 c3 80 3f 37 46 66 3f 15 95 71 3f df 2a 90 3f
       1.0059648 0.8995089 0.94368106 1.1263083
0000f0 e3 a2 72 3f 51 ca a7 3f 73 88 69 3f 29 a6 8f 3f
       0.94779795 1.3108617 0.9122383 1.1222583

trunk.1.bias f4 [64]
000000 e9 99 e6 be 97 7a 7a bc 58 b6 4f bf c4 48 ba 3b
       -0.450393 -0.015288017 -0.8113761 0.005684944
000010 84 e3 10 3e 19 0b c1 3d 7d 71 49 bd 22 9a ad 3d
       0.1414929 0.09425945 -0.049180496 0.08476664
000020 48 49 dd 3d 41 34 b7 bd 52 e2 87 be c7 c8 06 3f
       0.10804993 -0.089455135 -0.26539856 0.5265011
000030 fe 31 e4 bc 13 92 7e bd de 24 14 be f0 6e 81 3d
       -0.02785587 -0.062151026 -0.14467189 0.06319988
000040 b9 2d 87 3d c6 07 c7 3d 37 2a 1b 3e af 8c 02 3d
       0.06600518 0.097182795 0.15152822 0.031872448
000050 20 d8 9c 3d 0d 49 0e 3e c2 7e c6 3d 92 5e 8f 3c
       0.0765841 0.13895054 0.09692146 0.01750115
000060 54 a9 da 3d c8 c8 03 be 97 43 b1 bd 97 8b 13 3d
       0.10676828 -0.1286956 -0.0865547 0.036021795
000070 ec 12 11 bb 42 54 f2 3b 49 d5 ab 3d fd 29 a2 3d
       -0.0022136522 0.007395298 0.0839029 0.07918165
000080 d5 9f 7c 3e 25 fb 9d 3d 13 cd ed bd a2 64 16 be
       0.24670346 0.07713918 -0.116113804 -0.14686826
000090 7e a7 a7 bd a0 14 a3 bc 38 e8 2b 3e eb 6f 15 3e
       -0.081862435 -0.019907296 0.16787803 0.14593475
0000a0 db cb cf 3d 2a a9 ed bd 91 59 93 bd b4 33 d4 bd
       0.10146304 -0.11604531 -0.07194818 -0.10361424
0000b0 24 52 42 bc 23 a7 b7 3b 79 25 51 3e 37 c1 95 3d
       -0.011860404 0.005604641 0.20424451 0.073122434
0000c0 b9 d3 9f bb 12 f9 a5 bd fe c4 88 3e a6 96 fb 3d
       -0.004877534 -0.08104147 0.26712793 0.12284593
0000d0 c4 35 b2 3d 17 68 5e 3d f4 06 22 bd 20 4c 80 3d
       0.08701661 0.054298487 -0.039557412 0.0626452
0000e0 c0 0a 64 3d f8 6e 81 bd 8c 01 e1 3c fa ec 87 3d
       0.055674314 -0.06319994 0.027466558 0.066369966
0000f0 8c b9 99 bc 35 13 01 3e 0c bf d1 bd 7d 67 b9 bc
       -0.018765233 0.12604983 -0.102415174 -0.022632355

trunk.3.weight f4 [64, 64]
000000 4d 11 58 bd 85 a3 6d be 43 e6 5a 3d 40 f5 89 bd
       -0.052750874 -0.23206909 0.05344225 -0.06736231
000010 ba 17 8e bd 4b 22 2d 3d bc d5 48 3e 35 cc 3c 3d
       -0.06938119 0.042269032 0.19612783 0.046093185
000020 85 54 a4 3d 69 0a 04 bd e3 22 93 bb f7 57 b2 bd
       0.08023933 -0.03223649 -0.004490243 -0.08708184
000030 33 3f 5d 3d 29 7d 9c 3c bb 84 54 bd 0d fb 88 bd
       0.05401535 0.01910265 -0.051884394 -0.06688509
000040 9e 8b 09 be ac 5e 24 bd c6 ec e7 bd ae 58 cd bd
       -0.13432166 -0.04012935 -0.11324458 -0.1002668
000050 69 e2 aa 3c 62 09 17 be 1d ba 1f bd 72 54 86 3d
       0.020859914 -0.14749673 -0.03899585 0.065590754
000060 98 d9 71 bc 69 ae 33 3c 24 2d c4 bd 00 25 8d 3c
       -0.014761351 0.010966876 -0.095789224 0.017229557
000070 49 4b 1f bd 16 fb db 3d af e2 9c bd 05 98 1a be
       -0.038890157 0.1074125 -0.07660424 -0.15097053
000080 2d 9e 7f bd d9 12 22 bd e6 04 52 bd 40 c5 a5 3d
       -0.062406708 -0.039568756 -0.051274203 0.08094263
000090 9b 8f b5 3d d9 b9 14 3e ea 03 1e be 02 bb cd bd
       0.08865281 0.1452402 -0.1543118 -0.100454345
0000a0 ef c3 2f 3c 16 73 b3 bd 1b 02 4a 3d e0 ca 15 bc
       0.010727867 -0.08762185 0.049318414 -0.009142607
0000b0 c2 46 79 bd b6 e1 81 3d b6 7f 94 bd 60 6e f1 bc
       -0.060858496 0.06341879 -0.072509214 -0.029471576
0000c0 d5 24 4b 3d 36 f8 d1 bd 63 dd 12 bc 5e 32 18 be
       0.049595673 -0.102524206 -0.0089639155 -0.14862964
0000d0 26 d4 97 3c 77 e2 ce bc e4 4c 82 bd ab 5a 0f bd
       0.018533777 -0.025254471 -0.06362322 -0.034998577
0000e0 eb 11 44 3d 4c 83 20 be 89 77 8f 3d 4a fa db bc
       0.04786865 -0.15675086 0.070052214 -0.026852746
0000f0 1d 46 6f bd f6 cc 8e bd a0 7d 26 3d 42 2c 91 3c
       -0.058416475 -0.06972687 0.04064715 0.0177213
000100 ff dc 5f bd 5b d6 f1 3e 29 81 91 be ff 61 36 bd
       -0.054654118 0.47233853 -0.28418854 -0.04452705
000110 60 a7 c2 be d1 17 4d 3e 3e 06 98 be 78 57 47 3e
       -0.38018322 0.20028616 -0.29692262 0.1946696
000120 da 83 e8 3d a9 f3 fc bc bf 16 26 be d9 10 13 3e
       0.11353274 -0.030877905 -0.16219614 0.14361896
000130 8d 26 9e 3d da 3d c3 3d d4 ed 48 be 81 46 07 3e
       0.07722197 0.095332816 -0.19621974 0.13210489
000140 e4 2d 49 3e 8e f7 ac 3e b9 e5 91 3e ad 9e 01 3e
       0.19646412 0.3378262 0.28495577 0.12658186
000150 ea 51 30 bc 67 26 88 3e ce b9 f8 3d 69 26 e3 3c
       -0.010761717 0.265918 0.121448144 0.027728276
000160 42 ec 0a be ce 57 a4 bd e0 31 4a 3d 65 a6 c5 bc
       -0.13566688 -0.0802456 0.04936397 -0.024127195
000170 56 01 11 bb 90 72 8d 3d 3a 98 b2 3d 51 da ba 3e
       -0.002212604 0.06906617 0.08720441 0.36494687
000180 e7 3d 8a 3d 5f 08 1d 3e bb 5d 9b bd da 60 d6 bd
       0.06750088 0.15335225 -0.07586237 -0.10467692
000190 17 40 29 be e3 c6 2c be 83 ff 27 3e ec 18 03 3e
       -0.16528355 -0.16872744 0.16406064 0.12802476
0001a0 f2 e6 d2 3d 6e b1 e1 bd 68 17 a4 bd 60 17 0a bc
       0.102979556 -0.1102017 -0.08012277 -0.008428425
0001b0 74 45 0f 3e f1 dd 01 be f6 b2 ed 3c 07 09 6e 3d
       0.13991338 -0.1268232 0.029016 0.058114078
0001c0 3a 1a 5a bd 99 8c 17 ba 1c 4a 44 be 82 9e 83 3e
       -0.053247668 -0.00057811436 -0.19168895 0.2570687
0001d0 e1 2e 5b 3c ae e4 2e be 7a 9f 0d be bf cf 4a be
       0.013377876 -0.17079422 -0.13830367 -0.19805811
0001e0 73 5a 93 3c eb c4 16 bd 28 63 11 bd 97 4f 06 3e
       0.017987465 -0.03680889 -0.035494953 0.13116299
0001f0 58 97 36 3e fc 46 27 3e ba 8d 51 3c 66 46 b0 bc
       0.1783117 0.16335672 0.012790138 -0.021517944
000200 ab ff db 3d cc ae b9 3e 02 de 20 3d a0 1c 06 3e
       0.10742124 0.36266172 0.039274223 0.13096857
000210 50 a4 36 3e 56 40 8a 3b f9 d1 0b 3e 4e 92 8b ba
       0.17836118 0.004219095 0.13654317 -0.0010648461
000220 fd 11 c3 bd 04 89 94 bd b3 6a 0a bd 7a ed 11 be
       -0.09524915 -0.07252696 -0.033793163 -0.14250746
000230 28 4f cb 3d 4a 0f 6a bd fd d3 81 bd bb 84 47 3d
       0.09927207 -0.057143487 -0.06339262 0.048710566
000240 58 96 24 3c 57 4c 63 bd a7 b7 cc bd 60 c4 ce 3d
       0.01004561 -0.055492725 -0.099959664 0.10096049
000250 c4 ed 0a bc dc 36 83 be bc ef 8c 3d dd 07 c4 3c
       -0.008479539 -0.25627792 0.06881663 0.02392953
000260 d9 9b 0a bc 96 7d 6b bc e3 53 b1 bd 76 f5 c8 bb
       -0.008460009 -0.014373204 -0.08658578 -0.006132777
000270 b9 b3 13 3e c8 4f cf bc f7 ef 14 be 20 f7 03 be
       0.14424028 -0.025306597 -0.14544664 -0.1288724
000280 e2 50 b3 bc 89 e7 bf bd 70 6c 8e 3d 46 7a 13 3e
       -0.021889154 -0.09370334 0.069542766 0.14402112
000290 cd e7 84 3d 0c 2b 0d 3e bf e8 73 bd a4 61 52 bb
       0.06489525 0.13785952 -0.059548136 -0.0032101655
0002a0 fe 76 0e bd 8f ce ea bd d3 24 37 bd c3 f8 dc bc
       -0.03478145 -0.11465179 -0.044712853 -0.026974088
0002b0 25 ea ad bd 89 0e af 3d 48 e4 14 be e1 73 c1 bc
       -0.08491925 0.08547694 -0.14540207 -0.023614826
0002c0 e1 6e 4a 3e 03 b8 00 bd 47 d9 b5 3c 9e a0 db bd
       0.1976886 -0.031425487 0.022198332 -0.10723995
0002d0 ba 6a 11 bd 17 e6 46 bd 30 7e b0 3d 27 93 8f bd
       -0.035502173 -0.048559275 0.08617818 -0.07010489
0002e0 9e 79 94 bc fa 65 62 bd 09 ee 29 3d 4f dd 23 bd
       -0.018124398 -0.055273034 0.041486774 -0.04000598
0002f0 0e c7 11 be 68 fd 62 3c 39 49 0f ba e5 55 ab 3d
       -0.1423609 0.013854362 -0.0005465928 0.083659925
000300 80 80 ae bd d0 68 4d be 35 77 4d 3e 35 d6 36 3d
       -0.08520603 -0.20059514 0.20065005 0.044637877
000310 18 54 be 3e a8 b8 1c 3e e9 ce 0a be fe d1 fb 3d
       0.37173533 0.15304816 -0.13555492 0.12295912
000320 b0 81 9e 3d 5f d1 5a 3d e6 c7 36 be 52 02 bc 3e
       0.0773958 0.053422328 -0.17849693 0.3672052
000330 cd c0 17 be 5e 6b 5a bc 0d b6 b0 bd 49 f4 fd bc
       -0.14819641 -0.013331262 -0.086284734 -0.031000273
000340 f2 b0 21 3e d4 e8 8f 3e 5c 0c 30 3e e5 69 3c be
       0.15790156 0.2810732 0.17192215 -0.1839977
000350 1e 20 4c bd d5 0f fc 3d 85 fe 5d 3e 51 aa c5 ba
       -0.049835317 0.12307707 0.21679123 -0.0015080665
000360 ed 21 3d 3d 8a 7d 33 3e 6a 51 6b 3d 21 d8 36 be
       0.046174932 0.17528358 0.05745069 -0.17855884
000370 3c a9 b2 be d5 25 b0 3d 72 86 91 3d db 82 5b 3e
       -0.3489474 0.08600966 0.071057215 0.21436636
000380 fa ff 55 bd bc 63 3c 3d 38 55 5f be 38 02 4e bd
       -0.05224607 0.04599355 -0.21809852 -0.050295085
000390 7d ab dd bd 44 e6 36 be 93 2d 96 3e d5 74 14 3e
       -0.108237244 -0.17861277 0.29331645 0.14497693
0003a0 f4 49 08 3e c0 6c e6 bc 43 94 4c bc eb 2f 9c bd
       0.13309461 -0.028128028 -0.01248652 -0.07626327
0003b0 60 4e f9 3d 60 42 38 be 19 11 ca 3d 02 0c 1d 3e
       0.12173152 -0.1799407 0.09866542 0.15336612
0003c0 89 90 35 be a8 64 2d bd 7b e7 58 bd bc cc 05 3e
       -0.17730917 -0.04233232 -0.052955132 0.13066381
0003d0 83 1f 02 bd ea e6 b9 3d 9d d2 e8 3c 3e fa a3 3d
       -0.031768333 0.090772465 0.02842074 0.08006714
0003e0 0f 7d 88 3d 0d 85 04 bd 70 1e 96 bd d0 f8 76 3c
       0.06664478 -0.03235345 -0.07330024 0.01507397
0003f0 ba a0 63 3c 55 a5 f3 3d 6a c5 cc bd 51 20 ac 3d
       0.013893301 0.11896769 -0.09998591 0.08404601

trunk.3.bias f4 [64]
000000 ef 3d de bd 41 16 f8 3d 2a af 7f 3d 9b 47 a3 3d
       -0.10851657 0.121136196 0.06242291 0.07972642
000010 4e 86 a1 bd 4e 53 7a bd 96 a0 11 be c3 39 04 be
       -0.07886945 -0.0611146 -0.14221415 -0.1291266
000020 fd 84 54 bd 7e c9 17 be 46 7a 5a 3e d2 20 24 bd
       -0.05188464 -0.14822957 0.21335706 -0.040070362
000030 65 5f 49 3e 03 78 41 bd 8a 2a 71 bd 55 39 88 bc
       0.19665296 -0.047233593 -0.05887846 -0.0166289
000040 d2 a4 51 bd 5e d8 c5 3b 15 a3 02 be 67 ee 07 3d
       -0.051182576 0.006037756 -0.12757523 0.033186343
000050 94 f1 39 3e 50 ce 21 be 23 5d d4 bd 3d 95 07 be
       0.18158561 -0.15801358 -0.10369327 -0.13240524
000060 42 03 ae bd a8 51 61 3d 0f be 20 3d c7 ae c9 bd
       -0.08496715 0.055009514 0.039243754 -0.09847789
000070 fd c1 6c bc ab 17 40 bd 83 1f bb ba 9c 48 2e 3b
       -0.014450547 -0.04689757 -0.0014276359 0.0026593572
000080 b1 c6 0c bd 8a 7a 05 be 29 4d dc bd 38 33 80 bd
       -0.034369174 -0.13035026 -0.10756905 -0.06259769
000090 01 c8 78 bd ff f1 21 be e9 e8 a4 bc cd b1 09 3e
       -0.060737614 -0.1581497 -0.020130591 0.13446732
0000a0 51 21 a9 bd f9 0d e4 bb f3 0e 1a 3d 98 3c 98 bd
       -0.08258308 -0.0069596735 0.037611913 -0.07433432
0000b0 e0 2f d8 bd 6b bb 24 be 42 a1 21 be 09 ee 63 be
       -0.105560064 -0.1608712 -0.15784171 -0.22258772
0000c0 89 7f 0e be c6 0b ec bd 39 13 3f 3d 86 2b af 3c
       -0.13915838 -0.11525683 0.04664919 0.021383058
0000d0 73 48 63 3d 4d 57 8e 3d 92 0f ed bd 9a 07 a2 bd
       0.055489015 0.06950245 -0.115752354 -0.07911606
0000e0 ae a3 5f bd 2a 14 09 bd 49 eb aa bb f6 9b 80 3d
       -0.054599456 -0.033466496 -0.0052160365 0.06279747
0000f0 8c d0 b9 bb ed 7c 4b 3c 40 04 f2 bd 22 8d c6 bb
       -0.0056706127 0.012419921 -0.11817217 -0.006059305

trunk.4.weight f4 [64]
000000 34 ee cc 3f f7 d0 34 41 69 13 33 40 3e a0 2a 41
       1.6010194 11.301017 2.7980597 10.664122
000010 d9 44 c9 3f 4b e7 cc 3f 8c d0 39 40 d1 c2 c4 3f
       1.5724136 1.6008085 2.9033537 1.5371953
000020 b5 1c 1f 40 b8 75 b6 3f 37 87 31 41 ed 9e c5 3f
       2.4861271 1.4254675 11.095511 1.5439125
000030 b5 d3 3a 41 b7 2d d3 3f 20 3b 2c 40 9a eb 3a 40
       11.676686 1.6498326 2.6911087 2.92063
000040 0c ab 48 40 3b 01 0a 41 66 4e c6 3f 69 e3 c7 3f
       3.1354399 8.6253 1.5492675 1.5616275
000050 06 26 25 41 03 bd 3b 40 15 8b e9 3f 65 03 c7 3f
       10.321783 2.9334114 1.824557 1.5547911
000060 1d 0d 28 40 7f 28 de 3f 54 90 3f 40 c7 5f a0 3f
       2.6258004 1.7356108 2.993184 1.2529229
000070 cc eb a7 3f 16 f2 91 3f 2f 48 b1 3f f6 c5 32 41
       1.3118834 1.1402004 1.3850154 11.17333
000080 46 2a ba 3f f7 37 c9 3f 5f 9e 25 40 aa 98 c6 3f
       1.4544151 1.5720204 2.5877912 1.5515339
000090 76 f8 ce 3f c5 6b 2a 40 0c d8 c6 3f 3e fc 2e 41
       1.6169574 2.6628277 1.5534682 10.936583
0000a0 fd 47 c2 3f 3d a7 3a 40 08 54 cc 3f da 6a c5 3f
       1.5178219 2.9164574 1.5963144 1.5423234
0000b0 4a ae d1 3f 61 00 d1 3f 45 22 b2 3f 6f 33 f5 c0
       1.6381314 1.6328241 1.3916708 -7.6625285
0000c0 96 7f d1 3f b4 ee ca 3f 98 69 3a 40 41 0b bf 3f
       1.6367061 1.5854096 2.912695 1.492531
0000d0 68 84 c1 3f 39 74 2e 40 17 c1 b2 3f 89 0d 3a 40
       1.5118532 2.7258437 1.3965176 2.9070761
0000e0 47 b0 b3 3f cc 55 1f 41 42 df b3 3f 31 bf 39 41
       1.403817 9.9584465 1.4052508 11.609178
0000f0 80 aa 2f 41 96 9e 35 41 e7 0f 3b 40 d0 0a 3e 40
       10.979126 11.351217 2.9228456 2.96941

trunk.4.bias f4 [64]
000000 bc 98 13 bf ef 7a 22 41 96 eb 53 bd c4 22 1e 41
       -0.5765493 10.155013 -0.051738344 9.883488
000010 4b cf 16 bf 12 9f 13 bf f1 27 b6 bb bc c7 1a bf
       -0.58910054 -0.576646 -0.0055589606 -0.6046102
000020 c4 11 41 be c6 4f 27 bf b9 0e 23 41 bd 02 1a bf
       -0.18854433 -0.653561 10.191094 -0.6016043
000030 a2 a8 24 41 c8 1c 0e bf 23 11 ca bd 26 39 fc 3a
       10.29117 -0.55512667 -0.0986655 0.0019243106
000040 dd 17 c5 3d 2c 32 24 41 4a 68 19 bf 29 05 18 bf
       0.09623692 10.262249 -0.5992476 -0.59382874
000050 4a 2c 1c 41 d4 12 f9 3b 5e 03 f5 be ad c7 18 bf
       9.760813 0.0076011214 -0.4785413 -0.5967968
000060 02 62 02 be 83 7d 04 bf dd 7c 0a 3d 9e ae 3a bf
       -0.127327 -0.51754016 0.033810485 -0.72922695
000070 59 0f 34 bf 34 55 47 bf a5 d8 2b bf ef cb 20 41
       -0.7033592 -0.77864385 -0.6712745 10.049788
000080 9d 0d 24 bf 31 db 16 bf c1 74 13 be c7 25 19 bf
       -0.6408327 -0.5892821 -0.14400007 -0.5982327
000090 9e cd 11 bf 1e 8d e3 bd 21 f1 18 bf 99 4e 21 41
       -0.5695437 -0.111109 -0.59742934 10.081689
0000a0 a3 ef 1c bf 7c 48 09 39 6a 1e 14 bf dd 2e 1a bf
       -0.61303157 0.0001309234 -0.5785891 -0.6022776
0000b0 9d 6d 0f bf ef 04 10 bf 8f 1a 2b bf d6 52 23 41
       -0.5602663 -0.5625753 -0.668374 10.207724
0000c0 69 9a 0f bf b8 59 15 bf 4e a4 c6 ba 25 c6 1f bf
       -0.56094986 -0.58340025 -0.0015155168 -0.6241172
0000d0 7e 9b 1d bf c8 f3 aa bd e1 8d 2a bf 71 de 82 bb
       -0.6156539 -0.08347279 -0.6662274 -0.0039938022
0000e0 33 bc 29 bf 26 d3 1a 41 37 91 29 bf df de 28 41
       -0.66302794 9.67655 -0.66237205 10.554412
0000f0 0b 57 21 41 86 bc 23 41 ad d1 41 3b 85 56 bf 3c
       10.083751 10.233526 0.002957444 0.023356685

value_head.0.weight f4 [5, 64]
000000 34 b9 48 c0 36 e7 e4 40 b2 1e 0f c0 9b 9a b7 40
       -3.136304 7.153224 -2.2362485 5.7376227
000010 31 39 38 c0 6b 5c 47 c0 ee 3e 12 c0 d5 22 12 c0
       -2.8784907 -3.1150157 -2.285091 -2.283376
000020 b0 16 27 c0 fd 7d db bf d2 06 df 40 31 50 01 c0
       -2.6107597 -1.7147824 6.9695826 -2.0205195
000030 c0 8d e0 40 d6 6f 57 c0 e9 8f 1d c0 91 72 32 c0
       7.0173035 -3.366201 -2.4619086 -2.7882426
000040 cb fc e7 bf 8a 56 9c 40 00 96 41 c0 7b 68 3c c0
       -1.8124021 4.885564 -3.0247803 -2.943877
000050 e6 39 ba 40 96 74 04 c0 8e f8 56 c0 21 2b 49 c0
       5.8195677 -2.0696158 -3.3589206 -3.1432574
000060 79 43 31 c0 0d f1 4f c0 03 ca 1a c0 c8 33 c7 bf
       -2.7697432 -3.2490876 -2.4185798 -1.5562677
000070 e6 a2 e6 bf 2c 38 4f bf 0c e1 1a c0 b4 c9 d1 40
       -1.8018463 -0.80945086 -2.4199858 6.555872
000080 4f 9b 14 c0 7a b5 3d c0 20 1e 04 c0 15 6c 35 c0
       -2.3219793 -2.9642015 -2.0643387 -2.8347218
000090 e3 5c 3a c0 53 20 04 c0 12 77 3d c0 bb 66 d0 40
       -2.9119194 -2.064473 -2.9603925 6.5125403
0000a0 d8 b2 3e c0 9a bb 06 c0 1c db 4d c0 29 fe 4f c0
       -2.9796658 -2.1052003 -3.2164984 -3.2498877
0000b0 7c a4 43 c0 bd e3 48 c0 33 86 d9 bf 1e 8c 98 40
       -3.0569143 -3.1389 -1.6994079 4.767104
0000c0 4e b0 4e c0 e9 d9 10 c0 5d ba 20 c0 9b 5f 5b c0
       -3.2295108 -2.2633002 -2.5113747 -3.4277103
0000d0 84 2b 40 c0 76 27 f6 bf 2e c5 06 c0 9f 66 35 c0
       -3.002656 -1.9230793 -2.105785 -2.8343885
0000e0 cc e7 0d c0 d3 97 aa 40 b7 e6 1c c0 a9 26 e0 40
       -2.2172728 5.331033 -2.4515817 7.0047193
0000f0 b7 a7 ce 40 7a f8 e4 40 21 86 2c c0 74 44 33 c0
       6.457973 7.1553316 -2.6956866 -2.801053
000100 de c0 92 c0 28 7a 02 41 a4 cf 95 c0 4c 46 f9 40
       -4.5860434 8.154823 -4.6815968 7.789831
000110 b9 02 95 c0 91 11 96 c0 bb 42 8c c0 14 da 78 c0
       -4.6565824 -4.6896443 -4.383146 -3.8883104
000120 38 99 92 c0 5d 3e 24 c0 97 7b 02 41 10 f6 72 c0
       -4.5812035 -2.5663064 8.155173 -3.7962685
000130 d5 5e 08 41 14 fa 99 c0 e2 01 96 c0 d0 33 96 c0
       8.523152 -4.811777 -4.68773 -4.693825
000140 91 16 7e c0 32 80 de 40 26 52 94 c0 58 db 92 c0
       -3.9701273 6.953149 -4.635028 -4.5892754
000150 1a 88 ed 40 76 71 89 c0 84 d7 90 c0 66 57 95 c0
       7.422864 -4.2951 -4.526308 -4.6669188
000160 0b 24 95 c0 a2 95 a3 c0 07 18 96 c0 0c ba 2d c0
       -4.66065 -5.1120157 -4.690433 -2.7144804
000170 3a 63 67 c0 b0 a8 e6 bf 31 51 5b c0 ad 8e f5 40
       -3.6154313 -1.8020229 -3.4268305 7.6736665
000180 d9 85 89 c0 66 b6 88 c0 23 ff 76 c0 86 db 95 c0
       -4.297589 -4.2722654 -3.8593223 -4.6830473
000190 47 a0 9c c0 76 d2 8e c0 fb 77 86 c0 f9 85 f2 40
       -4.894565 -4.463191 -4.202146 7.578854
0001a0 eb 85 8b c0 2a bc 88 c0 91 24 96 c0 3d 35 92 c0
       -4.3600974 -4.2729692 -4.6919637 -4.568999
0001b0 1e c2 9b c0 1f 60 94 c0 b0 3a 3b c0 a5 db d6 40
       -4.867446 -4.6367335 -2.925457 6.714312
0001c0 cf b5 8e c0 cd cd 7d c0 6f 78 9b c0 7d 61 9a c0
       -4.4596934 -3.965686 -4.8584514 -4.8244004
0001d0 bc c5 88 c0 6b d3 82 c0 53 2f 77 c0 01 5d 9a c0
       -4.2741375 -4.088308 -3.8622634 -4.823853
0001e0 85 03 6c c0 d9 58 e7 40 1e 45 7c c0 65 f7 fe 40
       -3.6877148 7.2295957 -3.9417186 7.9676995
0001f0 b5 98 f2 40 87 2c ff 40 4f 11 94 c0 9e 95 8d c0
       7.581141 7.9741855 -4.627113 -4.424514
000200 97 72 ab c0 9a 0e 11 41 eb 43 b4 c0 e5 9d 09 41
       -5.357738 9.066065 -5.633291 8.601048
000210 49 f0 a7 c0 e2 22 a9 c0 23 fd ae c0 64 61 a0 c0
       -5.2480817 -5.285508 -5.4684005 -5.0118885
000220 7f f9 bd c0 19 b1 72 c0 52 2f 0f 41 a0 ed 8f c0
       -5.936706 -3.7920592 8.949053 -4.497757
000230 d4 b8 0c 41 46 7d c2 c0 6f 15 c0 c0 6d b2 b8 c0
       8.795124 -6.077792 -6.0026164 -5.7717805
000240 51 6d ab c0 d4 c2 eb 40 f6 3a ad c0 6e d9 b0 c0
       -5.3570943 7.3675327 -5.4134474 -5.5265417
000250 ec ce 06 41 24 3a c0 c0 4f 2e b9 c0 fb 0b b7 c0
       8.425518 -6.0070972 -5.786903 -5.7202125
000260 65 0c b0 c0 ae 90 c3 c0 2e 29 c0 c0 9a 3e 52 c0
       -5.501513 -6.111411 -6.005027 -3.285071
000270 49 af 88 c0 90 83 1a c0 57 6c 95 c0 f7 c9 0e 41
       -4.271397 -2.41428 -4.669475 8.924308
000280 c5 98 a0 c0 09 98 aa c0 ee 44 a5 c0 2f 85 b3 c0
       -5.0186486 -5.331059 -5.1646643 -5.610008
000290 7f e6 b9 c0 ba cd b9 c0 67 00 aa c0 d1 e3 0b 41
       -5.8093867 -5.806363 -5.312549 8.743119
0002a0 51 ce ab c0 d6 75 bb c0 ba 17 bc c0 2e c2 b2 c0
       -5.368935 -5.8581343 -5.8778963 -5.5862036
0002b0 37 6e bc c0 f4 27 bf c0 0e be 87 c0 1f d3 e2 40
       -5.888454 -5.973627 -4.24195 7.0882716
0002c0 6c 0d bf c0 f9 0c 94 c0 12 9a be c0 c7 09 b4 c0
       -5.9703884 -4.6265836 -5.9563074 -5.6261935
0002d0 77 a6 b7 c0 40 04 9b c0 bc 75 8a c0 33 08 bc c0
       -5.7390704 -4.844269 -4.326872 -5.876001
0002e0 76 8c 96 c0 c5 0c 00 41 ff f5 9f c0 10 c5 0f 41
       -4.704646 8.003118 -4.998779 8.985611
0002f0 01 2e 0f 41 e7 8e 12 41 6c 37 ca c0 5a 4e c3 c0
       8.948731 9.159888 -6.3192654 -6.1033144
000300 76 99 d2 c0 1a ef 1d 41 32 c7 df c0 1f e2 13 41
       -6.581233 9.870874 -6.993066 9.242705
000310 0e bf d4 c0 fa 4f d3 c0 93 1c d6 c0 b4 74 d0 c0
       -6.648322 -6.603513 -6.690988 -6.514246
000320 c6 e9 df c0 ed dc 93 c0 e4 f0 1d 41 69 59 b9 c0
       -6.997287 -4.6207185 9.871311 -5.7921643
000330 e9 38 22 41 76 5d d6 c0 86 83 e0 c0 68 bb e4 c0
       10.138894 -6.698909 -7.016055 -7.1478767
000340 ed ce dc c0 8b 76 09 41 e5 f9 d1 c0 3c a3 d2 c0
       -6.9002595 8.591441 -6.5617547 -6.582426
000350 e8 58 13 41 94 7f dd c0 d9 a7 d9 c0 82 b0 d8 c0
       9.209206 -6.9218235 -6.801739 -6.7715464
000360 e7 7b dd c0 b1 48 d8 c0 b8 c3 ea c0 93 1f 97 c0
       -6.921375 -6.7588735 -7.3363914 -4.7226043
000370 29 58 a6 c0 dc 2d 6f c0 60 46 bf c0 47 fe 1c 41
       -5.1982617 -3.737174 -5.9773407 9.812079
000380 39 a8 c5 c0 68 41 d6 c0 e1 bc cc c0 e3 b2 d0 c0
       -6.176785 -6.695484 -6.3980565 -6.5218368
000390 cf 22 d4 c0 e1 5c d1 c0 26 38 da c0 dc d7 1b 41
       -6.629249 -6.5425878 -6.819354 9.7402
0003a0 0d aa d8 c0 46 44 d5 c0 8a 36 d8 c0 5a 42 d7 c0
       -6.770758 -6.664584 -6.7566576 -6.7268496
0003b0 d5 5f ce c0 53 7f e0 c0 88 ec a6 c0 1b 6e 06 41
       -6.4491982 -7.0155425 -5.2163734 8.401881
0003c0 cd c2 cd c0 59 34 c5 c0 91 cc e0 c0 c0 77 d0 c0
       -6.4300294 -6.16264 -7.0249715 -6.514618
0003d0 5d 83 da c0 1c 10 c4 c0 a8 d6 ba c0 8a 51 e0 c0
       -6.8285356 -6.1269665 -5.838703 -7.0099535
0003e0 45 f0 c3 c0 2e 0d 0e 41 66 17 c0 c0 f5 95 1e 41
       -6.12308 8.878218 -6.0028563 9.911611
0003f0 21 ac 17 41 38 de 1b 41 a1 86 e4 c0 45 3c ea c0
       9.479524 9.741753 -7.141434 -7.319857

value_head.0.bias f4 [5]
000000 3a 8a 37 40 23 1e 89 40 2d 4f a8 40 9d c3 cb 40
       2.8678117 4.284929 5.259665 6.3676286
000010 f2 88 d4 40
       6.641717
