trained_sup_function.pt (torch, 57346 bytes, 12 tensors)

trunk.0.weight f4 [64, 3]
0	0x3df21458	0.118202865
1	0x3fb4e53c	1.4132457
2	0x3e61efbd	0.22064109
3	0xbf14ccf8	-0.5812526
4	0xbe292056	-0.16516241
5	0xbe331c56	-0.17491278
6	0xbcf46172	-0.029831622
7	0x3f884502	1.064606
8	0x3f46c61b	0.77646035
9	0x3ea889ac	0.32917535
10	0x3f3a26b7	0.72715324
11	0xbf5eaf2f	-0.8698606
12	0xbf75ee87	-0.9606709
13	0x3e1c727e	0.1527805
14	0xbf80029a	-1.0000794
15	0x3f965a80	1.1746368
16	0x3e2bb972	0.1676996
17	0x3f46edf6	0.7770685
18	0xbf4123b8	-0.7544513
19	0xbf1347f4	-0.57531667
20	0x3face688	1.3507853
21	0xbf981c24	-1.1883588
22	0x3f03e055	0.5151418
23	0x3f794c04	0.97381616
24	0x3f7b59dd	0.98183995
25	0x3e5e37a8	0.21700919
26	0x3f98e7dc	1.1945758
27	0xbe149fdc	-0.14514107
28	0x3f8c612c	1.0967155
29	0x3f5432c1	0.82889944
30	0xbe520cda	-0.20512715
31	0xbf107645	-0.56430465
32	0x3eb01e72	0.34398228
33	0x3fa0bdbf	1.2557906
34	0x3ef7eff4	0.48425257
35	0xbf3321a7	-0.69973224
36	0xbfb44008	-1.4082041
37	0xbf81c979	-1.013961
38	0xbf8cc88b	-1.0998701
39	0x3f382b25	0.71940833
40	0xbedfa5c8	-0.4368117
41	0x3f592211	0.84817606
42	0x3e68edb6	0.2274693
43	0xbf98c3c6	-1.1934745
44	0xbefb7580	-0.49113083
45	0x3edeba4d	0.4350151
46	0xbe9dae14	-0.30796874
47	0x3f8e6976	1.1125934
48	0x3f234c08	0.6378789
49	0x3fbf7af5	1.4959399
50	0xbf936220	-1.151432
51	0x3f84c56a	1.0372746
52	0xbf3a674a	-0.72813857
53	0x3faa3c34	1.3299623
54	0xbde6939d	-0.11258624
55	0x3f9c8fb2	1.2231352
56	0xbf0b22ff	-0.54350275
57	0xbd94ceca	-0.072660044
58	0xbf237196	-0.63845193
59	0xbf741c5a	-0.9535576
60	0x3f167c7a	0.58783686
61	0x3f87fa3e	1.0623243
62	0x3f8d989e	1.10622
63	0x3f546762	0.8297025
64	0x3ed24e06	0.41075152
65	0x3dcadff4	0.09905997
66	0xbf9fc392	-1.2481558
67	0x3fe5f712	1.7966025
68	0xbee63f01	-0.44969943
69	0xbc501ab9	-0.012701684
70	0xbe666bc1	-0.22502042
71	0xbe0a8d57	-0.1353048
72	0xbf155321	-0.5832997
73	0x3da05558	0.07828778
74	0xbec11e5d	-0.37718478
75	0x3e9947c4	0.29937565
76	0x3f158650	0.5840807
77	0x3fac048a	1.3438885
78	0xbf6918f5	-0.91053706
79	0x3f9e07b8	1.2346106
80	0xbf792cf6	-0.9733423
81	0xbf1dbae2	-0.61613286
82	0xbf972f24	-1.1811261
83	0x3e570d33	0.21001129
84	0x3faaa257	1.3330792
85	0xbeb5849e	-0.3545274
86	0x3f72acd4	0.94794965
87	0xbef704a8	-0.4824574
88	0xbf9751c7	-1.1821831
89	0xbf8ad1a1	-1.0845224
90	0x3f898722	1.0744364
91	0x3f7a043a	0.976627
92	0xbf57f47d	-0.84357435
93	0x3eace1d3	0.3376604
94	0x3e3cf78c	0.18453807
95	0xbf5ee852	-0.8707324
96	0xbf0cd62c	-0.550143
97	0x3f41dd85	0.75728637
98	0x3f5dbc7d	0.86615735
99	0xbf4a22d4	-0.78959394
100	0xbe6c099c	-0.2305054
101	0xbf81b3c2	-1.0132983
102	0xbf16cd62	-0.5890714
103	0xbd9e7c92	-0.07738604
104	0x3d5b04a4	0.053471223
105	0x3e92b50a	0.28653747
106	0xbf4a2b2e	-0.78972137
107	0x3fb3fbc6	1.406121
108	0x3f8be767	1.0929993
109	0x3e0bcc8d	0.13652249
110	0xbf8daa5b	-1.1067613
111	0x3f68b8f1	0.909072
112	0xbe1d3075	-0.15350516
113	0xbf5ebce5	-0.8700698
114	0x3f6156c6	0.8802303
115	0xbfd35d46	-1.651284
116	0x3db765f6	0.089549944
117	0x3f5a7122	0.85328877
118	0xbe80f180	-0.2518425
119	0xbf54c812	-0.83117783
120	0x3f7ebf35	0.9951051
121	0xbfda980a	-1.7077649
122	0xbe440c47	-0.19145308
123	0x3d60fbb2	0.054927535
124	0x3fa38704	1.2775578
125	0xbeaa4ebc	-0.33263195
126	0xbf0ab9c6	-0.5418972
127	0xbf299652	-0.66244996
128	0xbdc5522b	-0.09634813
129	0xbee61c99	-0.44943693
130	0x3fa92fb6	1.3217685
131	0xbf189930	-0.59608746
132	0x3eb3a346	0.35085505
133	0x3f0b23d2	0.5435153
134	0xbe93706e	-0.28796715
135	0x3f3b2c3a	0.7311436
136	0xbeedf7ba	-0.46478063
137	0xbd8549c6	-0.06508212
138	0xbf369850	-0.7132616
139	0x3fb1cb9d	1.3890263
140	0xbf452979	-0.7701641
141	0x3f7f98e5	0.99842674
142	0x3e4eef3c	0.20208448
143	0x3e6200c4	0.22070605
144	0xbe38fb79	-0.18064679
145	0xbf257c88	-0.64643145
146	0x3fa693e4	1.3013883
147	0x3e9e9b7d	0.30978003
148	0x3f9f4a8c	1.2444625
149	0x3f300400	0.68756104
150	0x3f468a3e	0.7755469
151	0xbe18ae7f	-0.14910315
152	0xbf8bed4f	-1.0931796
153	0xbeb9aaf3	-0.36263236
154	0x3f49f706	0.7889255
155	0xbe6f4808	-0.23367321
156	0x3f931373	1.149031
157	0x3ead531d	0.33852473
158	0xbf3f0dec	-0.7463062
159	0x3f437300	0.7634735
160	0x3f9baa1c	1.2161288
161	0xbd6347ed	-0.055488516
162	0xbef1d3e8	-0.47231984
163	0xbd5f3d9c	-0.054502115
164	0x3f15cca5	0.5851539
165	0xbdf28942	-0.11842586
166	0xbefa6e42	-0.48912245
167	0x3dd35c74	0.103203684
168	0xbf7aa77c	-0.9791181
169	0xbf95ad04	-1.1693425
170	0xbf53b4aa	-0.82697546
171	0x3fb483e4	1.410275
172	0xbf549add	-0.830488
173	0x3f94685c	1.1594348
174	0xbbdc1a88	-0.00671703
175	0x3f96349d	1.1734806
176	0xbef14425	-0.47122303
177	0xbf7d4b4e	-0.9894303
178	0x3f000eca	0.50022566
179	0x3f8a1284	1.07869
180	0x3f9eac0c	1.2396255
181	0x3fb52ad4	1.4153695
182	0xbf112d9e	-0.5671023
183	0x3e6f0220	0.23340654
184	0x3f6529a7	0.8951668
185	0xbebe60a4	-0.37183106
186	0xbd9e4bec	-0.07729325
187	0x3f2bbba0	0.6708317
188	0x3f5486d2	0.8301822
189	0xbf617ea2	-0.8808385
190	0xbf6a035a	-0.91411364
191	0x3f42a8e6	0.7603897

trunk.0.bias f4 [64]
0	0x3ca2503e	0.019813653
1	0x3d00fe66	0.031492613
2	0x3b377968	0.0027995948
3	0x3e04dd34	0.12975007
4	0x3dcdb870	0.10044944
5	0x3e0deffe	0.13861081
6	0xbd8c29d0	-0.068439126
7	0xbd3a5bab	-0.045497578
8	0xbd1b660a	-0.03793911
9	0xbbe15e4a	-0.006877695
10	0xbcaed9a8	-0.021344021
11	0x3dcc40a4	0.09973267
12	0x3dab6938	0.08369678
13	0x3d82c77e	0.06385706
14	0x3b098c75	0.002098826
15	0xbb3abf06	-0.0028495206
16	0x3e475bf6	0.19468674
17	0x3d940b32	0.07228698
18	0x3d1ae4f4	0.037816003
19	0x3d63f64e	0.055654816
20	0x3bdc7798	0.006728124
21	0x3c1c29a8	0.009531416
22	0xbcc2455a	-0.02371471
23	0x3c9e8b61	0.01935357
24	0x3d05bbde	0.032649867
25	0xbc62cee8	-0.013843276
26	0x3c63ee52	0.0139118
27	0xbc815989	-0.015789764
28	0x3d2b702d	0.041855026
29	0x3c2e9974	0.010656703
30	0x3dc8391e	0.09776519
31	0xbd221ffa	-0.039581276
32	0xbda8fa56	-0.08250873
33	0x3d6aa22a	0.057283558
34	0xbb526a5d	-0.0032106854
35	0x3cd20cd2	0.025640879
36	0xbd7e3396	-0.062060915
37	0x3e212130	0.15735316
38	0x3d33231e	0.043734662
39	0x3d7d20c2	0.06179882
40	0xbc82a3f8	-0.015947327
41	0x3d98cf5c	0.07461426
42	0x3ccd27c8	0.025043383
43	0x3cdcd4c6	0.026956927
44	0xbc8df5f1	-0.017329188
45	0x3d1e8a27	0.03870597
46	0x3d29ac25	0.041423935
47	0x3b9bab07	0.0047506127
48	0xbe28741c	-0.16450542
49	0x3d393dcd	0.045224953
50	0xbd1e38d7	-0.038628425
51	0x3bcbac74	0.0062156264
52	0x3d9f7e3e	0.07787751
53	0x38d4e112	0.000101508704
54	0xbd94f09d	-0.07272456
55	0xbb8f8fc1	-0.0043811505
56	0xba9b79e8	-0.0011861892
57	0xbd6a284a	-0.05716733
58	0x3cc0e6f8	0.023547634
59	0xbce050bc	-0.027382247
60	0x3d784c9c	0.060619935
61	0x3d5d36aa	0.05400721
62	0xbc5cd86e	-0.013479335
63	0xbd46da8d	-0.04854827

trunk.2.weight f4 [64, 64]
0	0x3d6f834c	0.058474824
1	0x3e0a3376	0.13496193
2	0x3e9fa9ba	0.3118418
3	0x3e816907	0.25275442
4	0xbe56f150	-0.20990491
5	0x3ea07fc0	0.31347466
6	0x3e9d938a	0.30776626
7	0x3eafeffd	0.34362784
8	0x3ec86394	0.39138472
9	0x3e5db784	0.21652037
10	0x3e26399a	0.16232911
11	0x3eb1dd8a	0.34739333
12	0xbeb30984	-0.34968197
13	0xbdf5df71	-0.12005509
14	0xbe892138	-0.26783156
15	0x3df93138	0.12167591
16	0x3dbb0694	0.09132114
17	0xbe11c268	-0.14234316
18	0x3e981948	0.29706788
19	0x3e185cca	0.14879146
20	0xbe029352	-0.1275151
21	0x3df00d18	0.117212474
22	0xbca10b98	-0.019658849
23	0xbe2cb618	-0.16866338
24	0xbe047554	-0.12935382
25	0x3e8e8b58	0.27840686
26	0xbed03667	-0.40666506
27	0xbed64b28	-0.41854215
28	0x3e40eae5	0.18839605
29	0xbddb1b20	-0.10698533
30	0x3dbb8dc8	0.09157902
31	0xbecc583e	-0.39911073
32	0xbe216b7a	-0.15763655
33	0xbea16e6c	-0.31529558
34	0xbabe09b4	-0.0014498741
35	0x38a1744f	7.6987424e-05
36	0x3d858620	0.06519723
37	0xbe583342	-0.21113303
38	0x3e034a59	0.1282133
39	0xbe5c300b	-0.21502702
40	0xbe72e200	-0.23719025
41	0x3dd1acee	0.10238062
42	0x3e6465e6	0.22304496
43	0xbb84c5c6	-0.0040518967
44	0x3e05b56a	0.13057485
45	0xbd14ac7d	-0.03629731
46	0xbe167dde	-0.14696452
47	0x3d897676	0.06712048
48	0xbec54ea0	-0.3853655
49	0xbdacadcc	-0.084315866
50	0xbede52c2	-0.43422514
51	0xbebc29b2	-0.3675056
52	0xbe8e0d1a	-0.2774437
53	0x3e258384	0.1616345
54	0x3e4cb953	0.1999257
55	0xbeccfbff	-0.40036008
56	0xbece4a36	-0.40290993
57	0x3e17dd96	0.14830622
58	0xbdece5e0	-0.11567283
59	0xbe24e258	-0.16101968
60	0xbe91c6d4	-0.28472006
61	0x3cf71406	0.030160915
62	0x3ef659dc	0.48115432
63	0xbd7ba3db	-0.06143556
64	0x3e56f7ed	0.20993014
65	0xbc986666	-0.018603515
66	0xbe2fda4c	-0.17173117
67	0x3cb670a8	0.022270516
68	0xbeb915a6	-0.3614933
69	0x3ea233b0	0.3168006
70	0xbb58f7fa	-0.003310679
71	0xb9599e80	-0.00020753779
72	0xbd9b8b25	-0.07594899
73	0x3e8fbeb8	0.28075194
74	0xbe5490b1	-0.2075832
75	0x3eb97b22	0.36226755
76	0x3e569d81	0.2095852
77	0xbeacbf17	-0.3373954
78	0xbe1bcd71	-0.15215088
79	0x3e916db6	0.28404015
80	0x3e978267	0.29591677
81	0xbe60fdc0	-0.21971798
82	0xbe8a2274	-0.2697941
83	0x3e1ce18d	0.15320416
84	0xbe1b8d2a	-0.15190569
85	0x3e0ef2f0	0.13959861
86	0x3e43378e	0.19064161
87	0x3dcbb896	0.09947316
88	0xbcff06b8	-0.031131133
89	0x3e419518	0.18904531
90	0x3e96812f	0.29395434
91	0xbe854d71	-0.26035646
92	0xbe977b48	-0.29586244
93	0xbd7c81d4	-0.06164725
94	0x3e22a01c	0.1588139
95	0xbe9fda1d	-0.31221095
96	0xbd4eb218	-0.050462812
97	0xbe308ce3	-0.17241244
98	0x3d12ca94	0.035837725
99	0xbe80bc9a	-0.25143892
100	0x3e55efa0	0.20892191
101	0xbea186f4	-0.31548274
102	0xbd9f5102	-0.07779123
103	0xbec86f37	-0.3914735
104	0x3d93834c	0.07202777
105	0x3e3b7bd6	0.18308958
106	0xbd08ac8b	-0.033367675
107	0xbd611a01	-0.05495644
108	0x3e9a07df	0.3008413
109	0x3d9270a5	0.071503915
110	0x3e85ca98	0.2613113
111	0xbd57e359	-0.05270705
112	0xbeba8e61	-0.3643675
113	0xbdce1ff5	-0.10064689
114	0xbeb189b7	-0.3467538
115	0xbe0ec280	-0.13941383
116	0xbe3fdc36	-0.18736348
117	0x3e0f5196	0.13995966
118	0xbe1bb988	-0.15207493
119	0x3d03094a	0.03199128
120	0x3e603d1f	0.21898316
121	0x3d08e2d3	0.03341944
122	0xbe45cc65	-0.19316252
123	0x3e4023a2	0.18763593
124	0x3e053039	0.13006677
125	0xbe1ecca3	-0.1550775
126	0xbdc4fbc2	-0.096183315
127	0xbce7d468	-0.028299525
128	0xbde79cee	-0.11309229
129	0xbeedb5b2	-0.46427685
130	0xbe7981fe	-0.24365994
131	0xbcea4388	-0.028596655
132	0x3cdbb82c	0.026821218
133	0x3e81d5c8	0.25358415
134	0xbe4fc500	-0.20289993
135	0xbe4d9764	-0.20077282
136	0x3c9385ac	0.018008076
137	0xbe130047	-0.14355575
138	0xbe44fa96	-0.19236216
139	0xbdcb2182	-0.099185005
140	0x3dc0459a	0.093882754
141	0x3e0456cc	0.12923735
142	0x3e748450	0.23878598
143	0xbe224938	-0.15848243
144	0xbe70b85a	-0.23507825
145	0xbe670435	-0.22560199
146	0xbe94b7be	-0.29046434
147	0x3e8f251b	0.27957997
148	0x3e769d98	0.24083555
149	0x3ecb0fac	0.39660394
150	0x3d837dce	0.0642048
151	0x3e44c50e	0.19215795
152	0xbd9dd7ac	-0.07707152
153	0x3cc2f605	0.023798952
154	0x3e1e2e60	0.15447378
155	0xbda50047	-0.080566935
156	0xbd80acf6	-0.0628299
157	0xbe6cf148	-0.23138916
158	0x3ed30a25	0.41218677
159	0x3df298f5	0.118455805
160	0xbdf5f8ff	-0.12010383
161	0xbe8da671	-0.27666047
162	0x3cdda30c	0.027055286
163	0xbe31e91c	-0.1737408
164	0x3e9e18f5	0.30878416
165	0x3dd14631	0.10218466
166	0xbe103b2c	-0.14085072
167	0x3e1f41d0	0.15552449
168	0xbdcbe627	-0.099560075
169	0x3d6325ca	0.05545596
170	0xbefe096a	-0.49616557
171	0x3c1fb226	0.009747064
172	0x3bfaf810	0.007658966
173	0xbdbd2fde	-0.092376456
174	0xbdd04c4b	-0.10170802
175	0x3e8e8a5e	0.2783994
176	0x3e9ad76c	0.3024248
177	0x3db60223	0.08887126
178	0x3d693fe2	0.05694569
179	0x3dfb5d00	0.12273598
180	0xbd0bfd2c	-0.03417699
181	0x3d8417a9	0.06449825
182	0xbeaa4096	-0.332524
183	0x3aff4c72	0.0019477739
184	0xbe6d3412	-0.23164394
185	0x3dad9b7a	0.084769204
186	0x3e62450a	0.22096649
187	0x3e4aef87	0.19817935
188	0x3dc10376	0.09424488
189	0xbc16ed96	-0.009211918
190	0x3ddc07a8	0.10743648
191	0xbea5a52e	-0.32352585
192	0xbe604b19	-0.21903647
193	0x3db891e3	0.09012201
194	0xbe15cfe3	-0.14630084
195	0xbe9fe1b0	-0.31226873
196	0x3e8917d9	0.26776007
197	0x3d326d84	0.043561473
198	0xbd3a63a0	-0.045505166
199	0xbe19b4c8	-0.15010369
200	0x3e4baf7d	0.19891162
201	0x3e496107	0.19665919
202	0xbe07c2cb	-0.13257901
203	0x3e99d53a	0.3004549
204	0x3d822520	0.06354737
205	0x3cb03740	0.02151072
206	0xbd8c1f4d	-0.06841908
207	0xbd1c1cb8	-0.038113326
208	0x3e465c4e	0.19371149
209	0xbc706672	-0.014672862
210	0xbdedecb2	-0.11617412
211	0x3e2723a4	0.1632219
212	0xbe76dc08	-0.24107373
213	0x3eb29fa8	0.34887433
214	0x3e4b0324	0.19825417
215	0xbe948ec2	-0.29015166
216	0xbde83c0e	-0.113395795
217	0xbe62b544	-0.2213946
218	0xbe118c88	-0.14213765
219	0x3e1cebe6	0.15324363
220	0x3dcadd30	0.099054694
221	0xbe36c35a	-0.17847958
222	0x3e61a652	0.22036102
223	0x3e97a4e2	0.29617983
224	0xbd0c4968	-0.034249693
225	0xbd84624b	-0.064640604
226	0x3dba1ea1	0.09087873
227	0xbd1c372a	-0.038138546
228	0x3d9e57d8	0.077315986
229	0xbe092666	-0.13393554
230	0xbbfd2b1a	-0.0077260854
231	0xbdd1a5b0	-0.102366805
232	0xbe4748b4	-0.19461328
233	0xbd852875	-0.06501857
234	0xbee5b153	-0.4486185
235	0xbe313216	-0.17304263
236	0xbc6d3f64	-0.0144804455
237	0xbe4e5506	-0.20149621
238	0xbd9f8281	-0.077885635
239	0x3e8eaea0	0.27867603
240	0x3e95941d	0.29214564
241	0x3e654b59	0.22392024
242	0x3e993d70	0.29929686
243	0x3de73d06	0.11290936
244	0x3dc6fbe0	0.0971601
245	0x3df7da2a	0.12102158
246	0xbe7a25b7	-0.2442845
247	0x3d8dcb34	0.069235235
248	0x3dbf254d	0.093332864
249	0xbe51b5bc	-0.20479482
250	0x3e2ef85e	0.17086932
251	0xbe8e296b	-0.27765974
252	0x3d5d96f9	0.054099057
253	0x3e1b10f6	0.15143189
254	0x3d4de2fb	0.050265294
255	0x3ca8343b	0.020532718

trunk.2.bias f4 [64]
0	0x3cb64bd6	0.022252958
1	0x3e19fb94	0.15037376
2	0x3dfdd1a1	0.12393499
3	0x3da859d7	0.082202606
4	0x3da23d7e	0.07921885
5	0xbc83ee38	-0.016104802
6	0x3ded2209	0.11578757
7	0xbb8d154d	-0.0043055178
8	0x3d070afa	0.032969452
9	0x3d3acb24	0.045603886
10	0x3cab5f70	0.020919532
11	0x3dd0cafb	0.101949655
12	0x3d6aaf22	0.057295926
13	0x3d9a8ab0	0.07545984
14	0x3dd0340c	0.10166177
15	0x3e78e64a	0.24306598
16	0x3e44a0fe	0.19202039
17	0xbc643f70	-0.01393114
18	0x3db6abaa	0.08919461
19	0x3d91d019	0.071197696
20	0x3dff1acf	0.12456285
21	0x3bea57e8	0.0071515925
22	0x3cdcffda	0.026977468
23	0x3d814328	0.06311637
24	0x3d24165a	0.04006038
25	0x3b9b0914	0.004731307
26	0x3ce06402	0.027391437
27	0x3e1de3d6	0.15418944
28	0x3e1c6505	0.15272911
29	0x3c2c9abc	0.010534938
30	0xbcf8513a	-0.03031217
31	0x3e250541	0.16115285
32	0x3d0426aa	0.032263435
33	0x3cb03dc4	0.021513827
34	0xbd25bda4	-0.04046406
35	0xbc91b9c0	-0.017788768
36	0x3ddfc027	0.10925322
37	0x3e84bcaa	0.2592519
38	0x3e27defa	0.16393653
39	0x3d78073a	0.060553767
40	0x3dc8ee27	0.09811049
41	0x3d7cfb8c	0.06176333
42	0x3c23d70a	0.01
43	0x3db3ba8d	0.08775816
44	0xbbfde1a2	-0.007747845
45	0x3d8fdcf5	0.07024566
46	0x3dbce50d	0.092233755
47	0x3d6bc9bc	0.057565436
48	0x3c22cf4a	0.009937117
49	0x3d040bbc	0.032237753
50	0x3d3b4de0	0.045728564
51	0x3ca6031e	0.020265158
52	0x3dc0b558	0.094095886
53	0x3d4da90f	0.050210055
54	0x3d0b9e34	0.03408642
55	0x3d57db9b	0.052699666
56	0x3db451d6	0.088046715
57	0x3d87cc40	0.066307545
58	0xbccf26e9	-0.025287108
59	0x3d87d48b	0.06632336
60	0x3c23d70a	0.01
61	0x3cf9ca53	0.030491984
62	0xbccf6448	-0.025316373
63	0xbb59cf5d	-0.003323517

value_adapter.0.weight f4 [64, 64]
0	0xbd7fb16e	-0.06242507
1	0xbea52030	-0.3225112
2	0xbe98b2d1	-0.29823926
3	0x3c7c8fa0	0.015415102
4	0x3e7f3837	0.24923788
5	0x3d34fb3c	0.04418491
6	0x3dcf4a84	0.101216346
7	0x3d5a013b	0.05322383
8	0x3e8a96f2	0.27068287
9	0x3e9fd7a9	0.31219223
10	0xbe1cd2e8	-0.1531483
11	0x3e0536af	0.13009141
12	0x3c6870d2	0.014187055
13	0x3e902f62	0.2816115
14	0x3ecc963b	0.39958367
15	0xbe5f883d	-0.21829315
16	0xbcbc7db6	-0.023009162
17	0x3dbf15b0	0.093303084
18	0x3e922d00	0.28549957
19	0x3e4e9ab0	0.20176196
20	0xbe1ed736	-0.15511784
21	0x3e95ccd6	0.2925784
22	0x3e01ec11	0.12687708
23	0x3e36eb38	0.17863166
24	0x3e18d88e	0.14926359
25	0x3db00e78	0.0859651
26	0xbdfac32a	-0.12244256
27	0x3e64977c	0.22323412
28	0xbe905ff5	-0.2819821
29	0xbe212516	-0.15736803
30	0x3e9976c0	0.29973412
31	0xbe663afe	-0.22483441
32	0x3d8281b0	0.06372392
33	0xbe0f7ed8	-0.14013231
34	0x3c89fe00	0.01684475
35	0x3d979a3b	0.07402464
36	0x3eb1e706	0.3474657
37	0xbe1b1fba	-0.15148821
38	0xbda748a3	-0.08168151
39	0x3dfca952	0.12336983
40	0xbdc9d283	-0.09854605
41	0xbe41b4d4	-0.18916637
42	0xbd8c100a	-0.06838997
43	0x3e97c5db	0.2964314
44	0xbd6b71e4	-0.05748166
45	0xbde5efc2	-0.11227371
46	0xbe5c354f	-0.2150471
47	0xbe82ff10	-0.25585222
48	0x3dde81a7	0.10864573
49	0xbe0b0294	-0.13575202
50	0xbd8d336f	-0.06894576
51	0x3dc6164d	0.09672222
52	0xbe6e4a6c	-0.23270577
53	0x3da88934	0.082292944
54	0xbc000c12	-0.007815378
55	0xbe05ac88	-0.13054097
56	0xbe0eac0a	-0.13932815
57	0x3e973003	0.29528818
58	0x3e5fcb08	0.21854794
59	0x3e0d0ca2	0.1377435
60	0xbe2507fc	-0.16116327
61	0x3dc25a91	0.094899304
62	0xbe2900d4	-0.16504222
63	0xbe9217e5	-0.28533855
64	0x3e9af256	0.30263013
65	0x3e249a29	0.16074432
66	0xbdc67b81	-0.09691525
67	0x3e68f6c4	0.22750384
68	0x3d83d8af	0.064378135
69	0x3d9d541a	0.07682057
70	0xbde61c8c	-0.11235914
71	0x3e8c1aaa	0.27364093
72	0x3e488df0	0.19585395
73	0xbd21e1ea	-0.03952209
74	0x3e043bf6	0.12913498
75	0x3dbf811e	0.09350799
76	0x3e4db06a	0.20086828
77	0xbcd271c6	-0.025689017
78	0xbea1acc6	-0.31577128
79	0x3ea50138	0.32227492
80	0x3e473724	0.19454628
81	0xbeada6bc	-0.3391627
82	0x3bec0214	0.007202396
83	0x3e971b5e	0.29513067
84	0x3e7d39ea	0.24729124
85	0x3e3d61f7	0.18494402
86	0x3e96b2c0	0.2943325
87	0xbe552cfd	-0.20817943
88	0xbe27b048	-0.1637584
89	0x3e540358	0.207044
90	0x3e019ff3	0.12658672
91	0xbce9dee2	-0.028548662
92	0x3e9f72f0	0.31142378
93	0xbe074a05	-0.1321183
94	0x3deba720	0.11506486
95	0xbc5e8cf8	-0.013583414
96	0x3eb28ff2	0.34875447
97	0x3e443b15	0.19163163
98	0xbe8c4619	-0.2739723
99	0x3d2e5cac	0.042568848
100	0xbe3a5eb6	-0.18200192
101	0x3e164ca2	0.1467767
102	0xbc256c6e	-0.010096652
103	0x3df90921	0.12159944
104	0xbe285cef	-0.16441701
105	0x3e062b1c	0.13102382
106	0x3e06afea	0.13153043
107	0xbec91434	-0.39273226
108	0x3e4879d2	0.19577721
109	0x3d558bac	0.052135155
110	0x3e6cd40a	0.23127761
111	0x3c1a83c4	0.009430829
112	0xbe9792a8	-0.29604077
113	0xbd650e4a	-0.05592183
114	0x3e20d86a	0.15707555
115	0x3dbb08f9	0.09132571
116	0xbd4cc153	-0.049989056
117	0xbdab075e	-0.083510146
118	0x3ccae9b1	0.024769636
119	0x3e9b838a	0.30373794
120	0xbeb54bd1	-0.35409406
121	0x3e758efb	0.23980324
122	0x3ca75795	0.020427505
123	0xbe3bb3fc	-0.18330377
124	0xbe243f62	-0.16039804
125	0x3e815d8a	0.25266677
126	0xbea97c22	-0.33102518
127	0xbe7e9169	-0.24860157
128	0xbe81c842	-0.25348097
129	0xbe80f1fb	-0.25184616
130	0x3e052d9a	0.13005677
131	0xbe3765a6	-0.1790987
132	0xbc7732c5	-0.015087788
133	0x3e1fe166	0.15613326
134	0xbe1dbade	-0.15403315
135	0x3e2ca3f1	0.16859414
136	0xbd0213a6	-0.03175702
137	0xbe902a85	-0.2815744
138	0x3e01c078	0.12671077
139	0x3e943ea5	0.28954044
140	0xbe03bfc6	-0.12866125
141	0x3b2edc60	0.0026681647
142	0x3eaf4f1d	0.34240046
143	0xbe291963	-0.1651359
144	0x3d6365c6	0.05551698
145	0x3d59fbb4	0.05321856
146	0x3db1c141	0.086794384
147	0xbd152fa6	-0.036422394
148	0xbe83d1ac	-0.25745904
149	0xbe220ad8	-0.15824449
150	0xbde3a74b	-0.11115893
151	0xbe72f3a7	-0.23725758
152	0xbddac972	-0.10682954
153	0x3dd0f6ab	0.10203298
154	0xbd8f38fe	-0.06993292
155	0xbbc1a495	-0.0059095123
156	0xbe3b562d	-0.18294592
157	0x3e1f6ac2	0.15568069
158	0xbe828904	-0.2549516
159	0x3e114faf	0.14190553
160	0xbd0869a4	-0.03330387
161	0x3e1a86df	0.15090512
162	0x3e246431	0.16053845
163	0x3dcbb998	0.099475086
164	0x3c9022d4	0.017594732
165	0xbd3de58b	-0.046361487
166	0x3e394b68	0.18095171
167	0x3e93e01e	0.28881925
168	0x3e2311f2	0.15924814
169	0x3d71e163	0.059052836
170	0xbe277a72	-0.16355303
171	0x3e5a8e54	0.21343356
172	0x3e5547d6	0.20828184
173	0x3e213a44	0.15744883
174	0x3d2efc87	0.042721298
175	0x3e36915a	0.17828885
176	0x3e926da4	0.28599274
177	0xbd058c64	-0.03260459
178	0x3e3a0c54	0.18168765
179	0x3e34634e	0.17616007
180	0xbda1b466	-0.078957364
181	0x3d8f349b	0.069924556
182	0x3e63a8fc	0.22232431
183	0x3d089cfe	0.033352844
184	0xbd1e56de	-0.03865706
185	0xbdb7a923	-0.08967807
186	0xbc1bc539	-0.009507471
187	0xbc608a04	-0.0137047805
188	0xbe392108	-0.18079007
189	0xbd80d3f2	-0.06290425
190	0x3e0e6350	0.13905072
191	0x3e4edba6	0.20200977
192	0xbd454864	-0.04816474
193	0x3c5edea9	0.013602891
194	0x3e9976bf	0.2997341
195	0xbe758df8	-0.23979938
196	0xbd86416f	-0.06555449
197	0xbe900d89	-0.28135327
198	0xbce8537a	-0.028360117
199	0xbe437930	-0.19089198
200	0xbe61accc	-0.22038573
201	0x3de06b31	0.10957945
202	0xbe2c76e2	-0.16842225
203	0x3e2696ae	0.16268417
204	0x3e434d5a	0.19072476
205	0x3dee3a61	0.11632229
206	0x3d3684b9	0.044560168
207	0x3e072918	0.1319927
208	0x3e73b91e	0.23801085
209	0xbcee592a	-0.029095251
210	0xbe3b83da	-0.18312016
211	0xbc23b7d1	-0.009992556
212	0xbe496fe4	-0.19671589
213	0x3dd141df	0.10217642
214	0xbcb2ffac	-0.02185043
215	0xbe902725	-0.28154865
216	0xbe95a4ed	-0.2922739
217	0xbe53c67e	-0.20681188
218	0x3e27c7d8	0.16384828
219	0xbe2cf456	-0.16890082
220	0x3e27ccae	0.16386673
221	0x3e428d00	0.189991
222	0x3d13f9ff	0.036127087
223	0x3e2cc570	0.16872191
224	0x3d76e167	0.060273554
225	0xbd9cf451	-0.07663787
226	0x3e2228d6	0.1583589
227	0x3e2398fe	0.1597633
228	0x3cc7120e	0.024300601
229	0xbe76c3ae	-0.24098083
230	0xbe4fdbcc	-0.2029869
231	0x3e786322	0.24256566
232	0xbcb0aa46	-0.021565568
233	0xbdb4d5f7	-0.08829873
234	0xbe79761e	-0.24361464
235	0x3e000b78	0.12504375
236	0x3e456f92	0.19280842
237	0xbe416561	-0.18886329
238	0x3dd1cdf5	0.10244361
239	0xbd01423a	-0.0315573
240	0xbe8f62ef	-0.28005168
241	0x3e8b3680	0.27190018
242	0xbe819ac8	-0.253134
243	0x3dfb30dc	0.122651786
244	0xbdb3e37b	-0.08783623
245	0xbe22687e	-0.15860173
246	0xbe2208c7	-0.15823661
247	0x3d5804d3	0.052738976
248	0xbd86c4ff	-0.06580543
249	0x3d39ef45	0.0453942
250	0xbd55c7c1	-0.052192453
251	0xbe255e3a	-0.16149226
252	0xbc447fb5	-0.011993338
253	0xbe73cf78	-0.23809612
254	0x3e80e663	0.2517577
255	0x3ccaff68	0.02477999

value_adapter.0.bias f4 [64]
0	0x3ba9c1a8	0.0051805563
1	0x3d99ff80	0.07519436
2	0xbd2a66ea	-0.041602053
3	0x3c271e9f	0.010200172
4	0x3d94b5fc	0.07261273
5	0x3c18dd39	0.009330087
6	0x3c462833	0.012094545
7	0xbc1dceb8	-0.009631805
8	0xbcb493c8	-0.022043124
9	0xbc7b5b2d	-0.015341562
10	0x3c36be29	0.011153736
11	0xbbc76842	-0.0060854265
12	0x3c3da809	0.011575707
13	0x3b1b2dbe	0.0023678388
14	0x3c98287c	0.018573992
15	0x3d972548	0.07380158
16	0x3cac6338	0.021043405
17	0x3c1aa620	0.009439021
18	0x3cb1a3d6	0.021684568
19	0xbca58c12	-0.020208392
20	0x3d90c86e	0.07069479
21	0x3bfd33db	0.007727129
22	0x3d94ba66	0.07262115
23	0xbd82cac6	-0.06386332
24	0x3d95ad10	0.073084
25	0x3c605a44	0.013693396
26	0x3cab57f8	0.02091597
27	0x3d96765c	0.07346794
28	0x3d95902a	0.07302888
29	0x3d8a86b6	0.06763975
30	0x3d5f81ae	0.05456703
31	0x3d12e233	0.03586025
32	0xbceed6a9	-0.029155092
33	0x3d62b3e7	0.05534735
34	0x3d90f723	0.070783876
35	0x3dba96ec	0.09110817
36	0xbc03d0c7	-0.008045382
37	0x3d1475c5	0.036245126
38	0x3c07f116	0.008297225
39	0x3c19a936	0.009378722
40	0xbb040e04	-0.0020149956
41	0x3c8c90b4	0.017158844
42	0x3c4d85ab	0.012544076
43	0x3d929de8	0.071590245
44	0x3d9256b6	0.07145445
45	0xbca1093e	-0.019657727
46	0x3ba60a1a	0.005067122
47	0x3d968cce	0.07351075
48	0x3d964540	0.07337427
49	0xbcf79b94	-0.030225553
50	0x3b249345	0.0025112194
51	0x3c233aae	0.009962721
52	0x3d96d2b0	0.07364404
53	0x3c9a18a0	0.01881057
54	0xbc89a42c	-0.016801916
55	0x3d8423e2	0.064521566
56	0xbab231be	-0.0013595147
57	0x3c23d70a	0.01
58	0x3c23d70a	0.01
59	0x3accaaca	0.0015614864
60	0x3bd58396	0.0065159304
61	0x3d30c631	0.04315776
62	0x3d78c70c	0.0607367
63	0x3d3a3a67	0.045465853

value_head.0.weight f4 [3, 64]
0	0xbdcd7cd0	-0.10033572
1	0xbe8a1c5f	-0.2697477
2	0x3e7b9f6e	0.24572536
3	0xbe1a3eaa	-0.15062967
4	0x3e89ef85	0.2694055
5	0x3e5146f2	0.2043722
6	0x3e033254	0.12812167
7	0xbda9c9e2	-0.08290459
8	0xbd5fef2c	-0.05467145
9	0x3bb921c1	0.0056497757
10	0xbe2a0aa5	-0.16605623
11	0xbe307096	-0.17230448
12	0x3e36723a	0.17817011
13	0xbdb9c3ee	-0.09070574
14	0xbe0a0b22	-0.1348081
15	0xbdf79606	-0.120891616
16	0xbe1b6262	-0.15174249
17	0xbe037050	-0.12835813
18	0x3e28c81e	0.16482589
19	0xbb7d7705	-0.0038675677
20	0xbd5ad1ee	-0.05342286
21	0xbe55ee85	-0.20891769
22	0x3e804bc5	0.25057808
23	0xbc2f9cf4	-0.010718573
24	0xbe314e7f	-0.173151
25	0xbd844698	-0.06458777
26	0x3d9ddb76	0.077078745
27	0xbe79b48e	-0.24385282
28	0xbd4ad65f	-0.049520846
29	0x3c684f9a	0.014179135
30	0x3dd3b7ee	0.10337816
31	0xbcbf75cc	-0.0233716
32	0xbd385f73	-0.045012902
33	0x3e8aaebe	0.27086443
34	0x3c8dfa0c	0.017331146
35	0xbe0f58fb	-0.13998787
36	0x3e8f788d	0.2802166
37	0x3d8bae5b	0.06820365
38	0xbe3bb4c0	-0.1833067
39	0x3dc5d1e0	0.09659171
40	0xbe8187fb	-0.25299057
41	0x3e253a25	0.16135462
42	0xbda21ada	-0.07915278
43	0x3d861090	0.06546128
44	0xbdca10b4	-0.09866467
45	0x3e4be5e2	0.19911912
46	0xbe559212	-0.20856503
47	0xbe07ceb4	-0.13262445
48	0xbc9a59d4	-0.018841662
49	0xbe82e21d	-0.25563136
50	0xbe94f233	-0.29091033
51	0xbda805cc	-0.08204231
52	0x3e07b47c	0.13252443
53	0xbe84d707	-0.25945303
54	0x3e2aa040	0.16662693
55	0xbcbed46c	-0.02329465
56	0x3e8aa012	0.2707525
57	0xbd260441	-0.0405314
58	0xbe6c1438	-0.23054588
59	0x3e4ee4c5	0.20204456
60	0xbe729654	-0.23690158
61	0xbe39b55e	-0.18135592
62	0xbd923011	-0.07138074
63	0xbe8cc347	-0.27492735
64	0xbe0485e8	-0.12941706
65	0x3e417f15	0.18896134
66	0xbe774e9a	-0.24151078
67	0xbc219bad	-0.009863776
68	0x3e3b49cb	0.18289869
69	0x3e1a43ae	0.1506488
70	0xbdb90d52	-0.09035744
71	0x3e746508	0.23866665
72	0x3de12ec8	0.10995251
73	0xbdb47174	-0.08810702
74	0x3c0d8a5a	0.008638943
75	0xbea9494c	-0.33063734
76	0x3c2c7e0d	0.0105281
77	0xbe2f5d5a	-0.17125455
78	0x3d1cdeac	0.038298294
79	0x3e80999e	0.251172
80	0xbe5603ba	-0.20899859
81	0xbe009cb8	-0.12559783
82	0xbeac4d6b	-0.33652815
83	0xbe5fd818	-0.21859777
84	0x3f035005	0.51293975
85	0xbeb3eb86	-0.35140628
86	0x3e8ce2d9	0.2751682
87	0xbe6bffe4	-0.23046833
88	0x3e64e80a	0.22354141
89	0xbe2a2436	-0.16615376
90	0x3e28dd78	0.16490734
91	0x3e2c8384	0.16847044
92	0x3e30e958	0.17276514
93	0x3e466cd6	0.19377455
94	0x3eb1fa8f	0.34761474
95	0xbc5814d8	-0.013188563
96	0xbdeb0afb	-0.11476704
97	0xbcdc7815	-0.026912728
98	0x3e27e9d0	0.16397786
99	0x3d9d04e6	0.0766695
100	0xbe859152	-0.26087433
101	0xbe8a9be9	-0.27072075
102	0xbe47286e	-0.19449016
103	0xbec28708	-0.37993646
104	0xbcc3145a	-0.023813415
105	0xbe811519	-0.2521141
106	0xbe7b9384	-0.24567991
107	0x3e50986c	0.20370644
108	0x3eb286fa	0.34868604
109	0xbd78bf38	-0.060729235
110	0xbe7ec2f8	-0.24879062
111	0x3ea77a10	0.32710314
112	0x3e1db0c0	0.15399456
113	0xbe579941	-0.21054555
114	0xbdc0c0c2	-0.09411766
115	0x3cde902c	0.027168356
116	0x3e6968a6	0.22793826
117	0xbe9897a4	-0.29803193
118	0x3e47234e	0.19447061
119	0x3e9208a7	0.28522226
120	0xbe8b7822	-0.27240092
121	0xba74ce3e	-0.0009338594
122	0xbe91eb1a	-0.2849968
123	0xbe02869a	-0.12746659
124	0xbe7bcbfe	-0.24589536
125	0x3e7875ea	0.2426373
126	0x3e4f5996	0.20249018
127	0x3e8333a3	0.25625333
128	0x3e708211	0.23487116
129	0xbd520ff0	-0.05128473
130	0xbe2393ba	-0.15974322
131	0x3e85ba5b	0.2611874
132	0xbe18ce0f	-0.14922355
133	0xbdf2c716	-0.11854379
134	0xbe3eb1dd	-0.18622537
135	0x3cc1a32d	0.023637379
136	0xbdf65109	-0.12027175
137	0xbdbf1099	-0.093293376
138	0x3dcc1e9a	0.09966774
139	0xbe6c88a6	-0.23099002
140	0x3e5934f1	0.21211602
141	0xbe97c516	-0.29642552
142	0x3e3b4f77	0.18292032
143	0xbe18c1b0	-0.14917636
144	0x3c416b57	0.011805377
145	0x3d22adc6	0.039716505
146	0xbdb600cc	-0.08886871
147	0x3d01dee6	0.031706713
148	0x3d2d00fc	0.042237267
149	0xbe72bf08	-0.23705685
150	0xbe174087	-0.14770709
151	0x3e389e08	0.18029034
152	0xbe014683	-0.12624554
153	0xbdf7a9f9	-0.120929666
154	0x3df850b3	0.12124767
155	0xbe20c4b4	-0.15700036
156	0x3e6cf6b9	0.23140992
157	0xbe167635	-0.1469353
158	0xbd833373	-0.064062975
159	0xbe6b8b67	-0.23002397
160	0xbe40d977	-0.18832956
161	0xbe6abf5d	-0.22924562
162	0xbe175191	-0.14777209
163	0xbe63f4bf	-0.22261332
164	0x3e653dab	0.22386806
165	0xbe89412e	-0.2680754
166	0xbe7e4952	-0.24832657
167	0x3e6ca77d	0.23110767
168	0xbddf6201	-0.10907365
169	0x3e492090	0.19641328
170	0x39883687	0.00025980567
171	0x3e5d099b	0.21585695
172	0xbe9645f3	-0.29350242
173	0x3da77e6d	0.08178411
174	0xbe81ad56	-0.25327557
175	0x3d3c8a28	0.046030194
176	0xbd956d4d	-0.07296238
177	0xbe8cf268	-0.2752869
178	0x3e9bd2f8	0.30434394
179	0xbe4adb07	-0.19810115
180	0x3bf43b00	0.0074533224
181	0xbd054ca2	-0.032543786
182	0x3e7750c0	0.24151897
183	0xbe12f225	-0.14350183
184	0x3e9c602c	0.30542123
185	0xbe450627	-0.19240628
186	0x3e5cbb51	0.2155583
187	0x3e2298b9	0.15878572
188	0xbe86786c	-0.2626375
189	0xbe5ebf7e	-0.21752736
190	0xbd5945c0	-0.053045034
191	0x3be9ca40	0.007134706

value_head.0.bias f4 [3]
0	0x3c0a91b6	0.008457592
1	0x3d8feb30	0.0702728
2	0x3c2f6fba	0.01070779

hiring_adapter.0.weight f4 [64, 64]
0	0x3d00b45e	0.03142201
1	0x3d86c068	0.06579667
2	0xbea96c50	-0.33090448
3	0x3e2a0311	0.16602732
4	0x3e3eabec	0.1862027
5	0xbdaad0f6	-0.083406374
6	0xbe02ccda	-0.12773457
7	0xbb72796c	-0.0036998643
8	0x3e897e5a	0.2685421
9	0xbd973b0d	-0.0738431
10	0xbea281b6	-0.31739587
11	0xbe41a5a0	-0.18910837
12	0xbe35da48	-0.17759049
13	0xbc50df9b	-0.012748624
14	0xbca17178	-0.019707426
15	0x3ebca20a	0.36842376
16	0xbe781426	-0.24226436
17	0x3dbc4dd0	0.09194529
18	0xbdffcb07	-0.12489896
19	0xbedd6a6e	-0.43245262
20	0x3ec36904	0.38166058
21	0xbe4a22b2	-0.19739798
22	0x3e24c944	0.16092402
23	0x3e761f50	0.24035382
24	0x3d2b4c1e	0.041820638
25	0xbe80fe7f	-0.25194165
26	0x3e42b6fb	0.19015114
27	0xbd0b71ab	-0.03404395
28	0xbe9b8daa	-0.3038152
29	0xbea75b50	-0.32686853
30	0x3e172cb8	0.14763153
31	0x3ec14dcd	0.3775467
32	0xbc8ba8b0	-0.01704821
33	0xbe330d2e	-0.17485496
34	0x3e49d9ce	0.19711992
35	0xbda27231	-0.079319365
36	0xbe07f7d0	-0.13278127
37	0xbdbbe300	-0.09174156
38	0x3d954e62	0.07290341
39	0xbed317c4	-0.4122907
40	0xbdddac72	-0.10823907
41	0x3dbeb031	0.093109496
42	0x3e10e0d8	0.14148271
43	0x3c48577c	0.012227889
44	0xbeaff8da	-0.34369546
45	0x3e4c953b	0.19978802
46	0xbe9dafa2	-0.3079806
47	0x3cbcb2ba	0.023034442
48	0xbe440e0e	-0.19145986
49	0x3e2f8ca8	0.171435
50	0x3ed94666	0.42436522
51	0xbe4832ca	-0.19550624
52	0x3cd96252	0.02653614
53	0x3e454882	0.19265941
54	0xbdfaddaa	-0.1224931
55	0x3d091b31	0.033473197
56	0x3ceb6fb2	0.028739784
57	0x3e051199	0.12994994
58	0x3e8e1e72	0.27757603
59	0xbe20246e	-0.15638897
60	0xbe0c0d90	-0.13677049
61	0x3e40cfc6	0.1882926
62	0x3d749e35	0.05972119
63	0x3e7bf5c9	0.24605478
64	0x3e6874b8	0.22700775
65	0x3e634dd2	0.22197655
66	0xbe495684	-0.1966191
67	0xbe3f4926	-0.18680248
68	0x3d3acac1	0.045603517
69	0xbe485f4a	-0.195676
70	0xbd14ca90	-0.03632599
71	0xbe87fd2e	-0.26560348
72	0x3e3d9a18	0.18515813
73	0x3e4a3d69	0.19749989
74	0x3d99eded	0.07516084
75	0xbe97fd9e	-0.29685682
76	0x3d8e4283	0.0694628
77	0xbd64d24b	-0.055864614
78	0x3e362452	0.17787293
79	0x3e4ceb8a	0.20011726
80	0xbe263708	-0.1623193
81	0x3e848ba2	0.2588778
82	0x3e5cf2d0	0.21577
83	0xbe2efdba	-0.17088977
84	0x3e8a2732	0.2698303
85	0x3e6b1e90	0.22960877
86	0x3e8bbb35	0.27291265
87	0x3e5b0d22	0.21391729
88	0x3d1390cc	0.03602676
89	0xbda05161	-0.07828022
90	0x3c9c0634	0.019045927
91	0xbce2d32b	-0.027688583
92	0x3e277b2a	0.16355577
93	0xbd83682a	-0.06416352
94	0xbe63fa82	-0.2226353
95	0x3e1f3ebb	0.15551274
96	0xbe120138	-0.14258277
97	0xbdebd5bf	-0.11515378
98	0xbe0bc0ac	-0.13647717
99	0x3d18959c	0.037252054
100	0x3e84c60f	0.25932357
101	0xbe442b02	-0.19157031
102	0x3e6f0468	0.23341525
103	0x3ce695ef	0.028147666
104	0xbe7af5cb	-0.24507825
105	0x3e5f0f67	0.2178322
106	0xbdb92883	-0.0904093
107	0x3e5e064e	0.21682093
108	0x3d0866fa	0.03330133
109	0x3d2f303c	0.04277061
110	0x3e485fd3	0.19567804
111	0x3db953fc	0.09049222
112	0xbdabff02	-0.08398248
113	0xbe7e5f46	-0.24841031
114	0x3e26345e	0.16230914
115	0xba096c79	-0.0005242299
116	0x3e89383c	0.26800716
117	0x3e903997	0.28168938
118	0xbe70f723	-0.23531775
119	0xbddb02b7	-0.10693877
120	0xbdf8f558	-0.121561706
121	0x3c81afa0	0.015830815
122	0xbe61c19d	-0.22046514
123	0x3e940756	0.28911847
124	0x3e8d17d8	0.27557254
125	0xbe22b284	-0.15888411
126	0xbd8ffae0	-0.070302725
127	0xbe88ca9a	-0.26717073
128	0x3db75543	0.08951809
129	0xbe6088bc	-0.2192716
130	0x3e8e9ffc	0.27856433
131	0x3e052049	0.13000597
132	0x3e4b6675	0.19863303
133	0xbdec39cf	-0.115344636
134	0x3e5b5213	0.21418028
135	0xbe0ec46a	-0.13942114
136	0xbe0a8bfc	-0.13529962
137	0x3e40e7cc	0.18838423
138	0xbddd9701	-0.10819817
139	0xbe591ce3	-0.21202426
140	0x3eb58a58	0.3545711
141	0xbd7fb9b9	-0.06243298
142	0xbe86fcc0	-0.26364708
143	0xbe8d8d30	-0.2764678
144	0xbdce62c9	-0.100774355
145	0x385bd1f3	5.24092e-05
146	0xbe78e781	-0.24307062
147	0xbe048c75	-0.12944205
148	0xbd0851e8	-0.033281237
149	0x3ea05a38	0.3131883
150	0xbe9684bc	-0.29398143
151	0xbe6e209d	-0.23254628
152	0xbe30d486	-0.17268571
153	0xbe35f7fe	-0.17770383
154	0x3e17f7ad	0.14840575
155	0x3e9fc444	0.31204426
156	0x3e5caa8c	0.21549433
157	0xbdc50b7b	-0.0962133
158	0x3e15ab2d	0.1461608
159	0x3d952b4f	0.07283651
160	0x3c9140aa	0.01773103
161	0x3dec23b0	0.11530244
162	0x3d97dc81	0.07415105
163	0xbe2b5a8b	-0.16733758
164	0x3d2601a1	0.040528897
165	0x3e8e505c	0.27795684
166	0xbe109f01	-0.14123155
167	0xbc534aa4	-0.012896214
168	0x3e58bdf7	0.21166216
169	0xbe9962c2	-0.2995816
170	0xbe1d03bd	-0.15333457
171	0xbe10cf89	-0.14141668
172	0x3d4371b8	0.047715873
173	0x3df35090	0.118806005
174	0xbe36b2b3	-0.17841606
175	0xbe8fdd2e	-0.28098434
176	0x3e989616	0.29802006
177	0xbe18eddb	-0.14934485
178	0xbddc989c	-0.107712954
179	0xbe7c2212	-0.24622372
180	0xbe9366f6	-0.2878949
181	0x3e0e955c	0.13924164
182	0xbe2416be	-0.160243
183	0x3eaf5ca5	0.3425037
184	0xbdb8e69b	-0.090283595
185	0x3c21160c	0.009831917
186	0xbe93fa2a	-0.28901798
187	0xbe988b26	-0.29793662
188	0x3e1e334f	0.1544926
189	0xbe905277	-0.28187916
190	0xbe9efca8	-0.31052136
191	0x3e49fa16	0.19724306
192	0x3d7a798e	0.06115108
193	0x3ea971cc	0.33094633
194	0x3df235ce	0.11826669
195	0x3e821a68	0.2541077
196	0xbe7b6359	-0.24549617
197	0x3deab596	0.11460416
198	0xbebbfe82	-0.36717612
199	0x3de03da7	0.10949259
200	0x3e3727f8	0.1788634
201	0x3e401cee	0.18761036
202	0xbe8bcb74	-0.2730366
203	0x3e08b66d	0.1335084
204	0xbd051d4e	-0.03249865
205	0x3e1db99a	0.15402833
206	0x3e9cb22c	0.30604684
207	0x3d4a5c69	0.049404535
208	0xbe8ac5e2	-0.27104098
209	0xbe4b8056	-0.19873175
210	0xbe641338	-0.22272956
211	0x3cb20849	0.021732466
212	0xbdf8812b	-0.12134012
213	0xbcd90b5a	-0.02649467
214	0x3e2c74d2	0.16841438
215	0x3d64763c	0.05577682
216	0x3c020699	0.007936143
217	0xbcaf92cf	-0.021432308
218	0x3df409a0	0.11915898
219	0xbe158610	-0.14601922
220	0xbe85a200	-0.2610016
221	0xbc73715b	-0.014858569
222	0xbe750c2c	-0.23930424
223	0xbca1ddab	-0.01975902
224	0xbdac7414	-0.08420578
225	0x3c24521c	0.010029342
226	0xbe86bf4c	-0.26317823
227	0xbe81bd08	-0.25339532
228	0x3e7b537a	0.24543563
229	0x3e903c64	0.28171074
230	0xbce6daf4	-0.028180577
231	0x3e973175	0.2952992
232	0x3e2f1b68	0.17100298
233	0x3e61b9a0	0.22043467
234	0xbe53efb4	-0.20696908
235	0xbe86de58	-0.2634151
236	0xbe2fb460	-0.17158651
237	0xbdbd887e	-0.092545494
238	0xbd41b748	-0.04729393
239	0x3e191506	0.14949426
240	0xbbb71f78	-0.005588468
241	0xbeb07766	-0.34466094
242	0x3afc308e	0.0019240545
243	0x3de2e08c	0.11077985
244	0xbe2e09a3	-0.16995864
245	0x3e3d1348	0.18464386
246	0xbe7a9670	-0.2447145
247	0xbe7a0f90	-0.24419999
248	0xbc63d7b8	-0.013906412
249	0x3dc3c9cd	0.09559975
250	0xbe42c563	-0.1902061
251	0x3e371d54	0.17882282
252	0x3e64461a	0.22292367
253	0xbdd14e0a	-0.10219963
254	0x3d6fdb06	0.058558486
255	0x3e0cc6c2	0.13747695

hiring_adapter.0.bias f4 [64]
0	0xbc89fde1	-0.016844692
1	0xbcd7b175	-0.026329735
2	0x3c15ae6c	0.009135824
3	0x3e0d89a0	0.13822031
4	0xbca3fcd8	-0.020018026
5	0x3c23d70a	0.01
6	0x3c3a4020	0.011367828
7	0x3c037388	0.00802315
8	0xbc9b10a2	-0.01892883
9	0xbc41a5f6	-0.011819353
10	0x3e262a23	0.16227011
11	0xbbcf7382	-0.0063309083
12	0xbc984aae	-0.018590298
13	0x3c23d70a	0.01
14	0xbd14574d	-0.03621607
15	0xbc938159	-0.018006014
16	0xbc834538	-0.016024217
17	0x3e046a18	0.12931097
18	0x3deb42da	0.1148736
19	0x3c23d70a	0.01
20	0x3e17e9f7	0.14835344
21	0x3dafc298	0.08582038
22	0x3c23d70a	0.01
23	0xbdab7610	-0.08372128
24	0x3c23d70a	0.01
25	0x3e0cb32e	0.13740227
26	0xbca23b92	-0.019803796
27	0x3c1bf72c	0.00951938
28	0x3c23d70a	0.01
29	0x3e17a80d	0.148102
30	0x3e1b03c2	0.15138152
31	0x3db5fb19	0.08885784
32	0xbcbb1da9	-0.022841292
33	0xbca4fc60	-0.020139873
34	0xbcbd6b5c	-0.023122482
35	0xbc136044	-0.0089951195
36	0x3dfde84a	0.12397821
37	0x3e13fa93	0.14451055
38	0x3df9c6b6	0.12196104
39	0x3c23d70a	0.01
40	0x3dea9de8	0.114558995
41	0x3e566b98	0.20939481
42	0xbd9b8bc4	-0.075950176
43	0x3e38e4b2	0.1805599
44	0x3e860fd8	0.26183963
45	0x3dcffb30	0.10155332
46	0xbc975e59	-0.018477606
47	0xbc9a0a96	-0.018803876
48	0x3e20f64e	0.15718958
49	0x3b4a8860	0.003090404
50	0x3c23d70a	0.01
51	0x3dbc7ccb	0.0920349
52	0xbad10fbb	-0.0015950123
53	0xbd085344	-0.033282533
54	0x3e0704c1	0.13185407
55	0x3dff6583	0.12470534
56	0xbc846fec	-0.01616665
57	0x3d5cc660	0.053900123
58	0xbc5de671	-0.013543711
59	0x3dc87826	0.097885415
60	0x3e0ba19e	0.13635871
61	0xbc397b56	-0.0113209095
62	0x3c23d70a	0.01
63	0xbc8c0a55	-0.01709477

hiring_head.0.weight f4 [3, 64]
0	0xbe57e19a	-0.21082154
1	0xbe8e4c80	-0.2779274
2	0xbd48a658	-0.048986763
3	0x3cac65a0	0.021044552
4	0xbd460cd8	-0.048352093
5	0x3dd1e6d8	0.10249108
6	0xbcea2fe0	-0.028587282
7	0x3e1188e2	0.14212373
8	0xbbe47dc0	-0.0069729984
9	0xbddf7c5e	-0.10912393
10	0xbc26cae0	-0.010180205
11	0x3d511690	0.051046908
12	0xbda34128	-0.07971412
13	0x3de4ec90	0.11177933
14	0xbe828753	-0.2549387
15	0x3e93bc69	0.28854683
16	0x3d41b858	0.047294945
17	0x3e901ab5	0.28145376
18	0xbe8b54ba	-0.2721308
19	0xbe809e23	-0.2512065
20	0xbe6baf76	-0.23016152
21	0xbe1e44dc	-0.15455955
22	0xbc7fa460	-0.015603155
23	0xbe11dae7	-0.14243661
24	0x3e5b3016	0.21405062
25	0xbd0fb578	-0.03508517
26	0x3e907a19	0.28218153
27	0xbdf2090e	-0.11818133
28	0xbe91f986	-0.28510684
29	0xbe6791aa	-0.2261416
30	0xbe5f43a4	-0.21803147
31	0xbe1d663e	-0.15371034
32	0xbe993d5c	-0.29929626
33	0xbe10969b	-0.14119951
34	0x3e91238f	0.28347442
35	0xbcd8efc0	-0.02648151
36	0x3c0fbf00	0.008773565
37	0xbe937412	-0.28799492
38	0x3e011952	0.12607315
39	0xbe6580f0	-0.22412467
40	0xbd99adfc	-0.07503888
41	0xbd3ab860	-0.04558599
42	0xbe54b2b4	-0.20771295
43	0xbdd46a1e	-0.10371803
44	0xbe198a7f	-0.14994238
45	0x3d819b7c	0.063284844
46	0xbe1d30f2	-0.15350702
47	0xbdbc698e	-0.091998205
48	0x3e1847a0	0.14871073
49	0x3e5f2de6	0.21794853
50	0xbdf2412e	-0.11828838
51	0xbd88e540	-0.06684351
52	0xbe63db6f	-0.22251676
53	0xbd44db20	-0.048060536
54	0xbe639e52	-0.22228363
55	0xbe806fa0	-0.25085163
56	0xbe97209c	-0.29517066
57	0xbe2f7f23	-0.17138343
58	0x3d8de270	0.06927955
59	0xbe5fb9aa	-0.21848169
60	0xbd4affe8	-0.049560457
61	0x3d008730	0.031378925
62	0xbe6cc201	-0.23120882
63	0xbe28d982	-0.16489223
64	0x3d793698	0.06084308
65	0xbc9b2f30	-0.0189434
66	0xbe1a8627	-0.15090238
67	0xbc98a1f0	-0.018631905
68	0xbe73152f	-0.2373855
69	0xbdc1ff54	-0.09472528
70	0x3d8c2138	0.068422735
71	0x3e74220e	0.23841116
72	0x3e18e8ec	0.14932603
73	0xbe6e002e	-0.23242256
74	0x3e31a094	0.17346412
75	0x3e28a61a	0.16469613
76	0xbe075ba7	-0.13218556
77	0x3e4d66ca	0.20058742
78	0x3e81a041	0.25317577
79	0xbca29850	-0.019848019
80	0xbdb9aa74	-0.090657145
81	0x3d7b4730	0.061347187
82	0xbe2dc78f	-0.16970657
83	0x3d38c0e8	0.045105845
84	0xbe26f025	-0.16302545
85	0xbe55679d	-0.20840307
86	0xbe93bf03	-0.28856668
87	0x3dcc6d14	0.099817425
88	0xbe6c287e	-0.23062322
89	0xbe0ec125	-0.13940866
90	0x3e92ec6d	0.28696004
91	0x3e616142	0.22009757
92	0x3e7c0ebe	0.24614999
93	0xbe9aa315	-0.30202547
94	0xbe1fffae	-0.15624878
95	0x3e6585c6	0.22414312
96	0x3d650068	0.05590859
97	0xbd757640	-0.059927225
98	0x3e025290	0.12726808
99	0xbe729997	-0.23691402
100	0xbc08f980	-0.008360267
101	0xbe676116	-0.22595629
102	0xbe91ca3f	-0.28474614
103	0x3d6ed5f0	0.058309495
104	0xbe3223e5	-0.17396505
105	0xbe8b610f	-0.27222487
106	0x3bb15200	0.0054113865
107	0x3e015e32	0.12633589
108	0x3cfae4a0	0.030626595
109	0xbe24ca5c	-0.16092819
110	0xbe9995f9	-0.29997233
111	0x3e313424	0.17305046
112	0x3cd28a40	0.025700688
113	0xbe023c70	-0.12718368
114	0xbe05e4d0	-0.13075566
115	0x3e410aa8	0.18851721
116	0xbe1be6e1	-0.15224792
117	0xbe0b0e5c	-0.13579696
118	0x3e7084ca	0.23488155
119	0x3e62f562	0.22163919
120	0x3e1ecebc	0.1550855
121	0x3e407cca	0.18797603
122	0xbdf1632c	-0.11786494
123	0x3dada720	0.08479142
124	0xbe06ddcc	-0.13170546
125	0xbdcc08e2	-0.09962632
126	0xbe69d4a2	-0.22835019
127	0xbe95f149	-0.29285648
128	0x3e784524	0.24245125
129	0xbe5ce9f4	-0.21573621
130	0x3c540e0d	0.012942803
131	0xbea9e20f	-0.33180282
132	0x3ea88ffa	0.32922345
133	0x3df2369a	0.11826821
134	0x3d868ccb	0.06569823
135	0xbcdf1c22	-0.027235094
136	0x3e901372	0.28139836
137	0x3d6ab51e	0.057301633
138	0xbea41600	-0.32048035
139	0x3d9973f8	0.074928224
140	0x3e82a9fe	0.2552032
141	0x3d9bc0aa	0.07605107
142	0x3e565c10	0.20933557
143	0x3e3ac9b0	0.18241
144	0x3e4e1333	0.20124511
145	0xbe410ff0	-0.18853736
146	0xbe68fd75	-0.22752936
147	0xbe773f95	-0.24145348
148	0xbed19ed6	-0.40941495
149	0xbe66554c	-0.22493476
150	0x3e42904b	0.19000356
151	0xbeacfb16	-0.33785313
152	0x3e3e8837	0.1860665
153	0xbeb7a638	-0.35869002
154	0x3e93a856	0.28839368
155	0x3c716eab	0.014735858
156	0xbea846d8	-0.3286655
157	0xbdf21658	-0.11820668
158	0xbea37f09	-0.31932858
159	0x3e35c1df	0.17749737
160	0xbe4a1df9	-0.19737996
161	0x3eaccfe2	0.33752352
162	0x3e836e86	0.2567026
163	0x3dcf78d6	0.101304695
164	0xbe39f118	-0.18158376
165	0xbe552266	-0.20813903
166	0xbee3eede	-0.4451818
167	0x3d9f6368	0.07782632
168	0xbe308772	-0.17239168
169	0x3eb21f5e	0.34789556
170	0xbe50e161	-0.20398475
171	0xbebfdd34	-0.37473452
172	0x3e85881e	0.26080412
173	0xbe8d877e	-0.27642435
174	0x3e42a92f	0.19009851
175	0x3e828561	0.25492385
176	0xbe7d65ed	-0.24745913
177	0xbe0940ad	-0.13403578
178	0x3cf50760	0.029910743
179	0x3d9103ce	0.07080804
180	0xbe5edf69	-0.21764912
181	0x3e62c03d	0.22143646
182	0xbe9cc422	-0.30618387
183	0xbdedf014	-0.11618057
184	0x3e76a5e2	0.24086717
185	0xbdabe5d8	-0.083934486
186	0x3d981949	0.07426698
187	0xbe415d1e	-0.18883178
188	0xbe734de2	-0.23760179
189	0x3e2a9cda	0.16661397
190	0x3ca89c7c	0.02058243
191	0x3e78b6f1	0.24288537

hiring_head.0.bias f4 [3]
0	0x3c298056	0.010345539
1	0x3c298056	0.010345539
2	0xbd1d76ca	-0.038443364
