trained_value_function.pt (torch, 22196 bytes, 8 tensors)

trunk.0.weight f4 [64, 1]
-0.656825 1.357832 -4.7612224 -3.7736537 -4.592717 5.2579317 -4.2883873 2.4899242
-2.1316044 3.2832437 -2.8396935 -4.322088 -3.3846345 -35.35495 -3.6465187 -1.8637571
0.68943673 1.7547164 -3.3587172 -17.588303 1.8142408 2.9445276 -6.9039474 2.5833058
-8.187751 -0.025369095 2.6068492 -3.718895 -3.773904 -3.6660287 -24.285677 3.7616343
-3.5040617 -3.9063063 -17.685722 -21.048119 -3.3383071 2.3230388 0.91478544 1.2221681
-3.4746282 -5.1607757 -0.2968356 -35.228706 -4.587813 -5.65964 2.3971927 1.5812095
-5.3641224 -0.22496025 1.9978238 4.3794007 1.2916244 1.0989376 1.9368422 -4.6635613
0.9498916 -3.803881 -4.872936 -4.3886647 0.59373856 0.92464954 -4.4414153 3.894798
00000000: af25 28bf 70cd ad3f ef5b 98c0 8b83 71c0
00000010: 8af7 92c0 fa40 a840 783a 89c0 eb5a 1f40
00000020: 356c 08c0 aa20 5240 8abd 35c0 8b4e 8ac0
00000030: da9d 58c0 786b 0dc2 9060 69c0 988f eebf
00000040: ed7e 303f 8c9a e03f 39f5 56c0 d8b4 8cc1
00000050: 0b39 e83f 2473 3c40 23ed dcc0 e254 2540
00000060: 0701 03c1 d9d2 cfbc 9ed6 2640 6002 6ec0
00000070: a587 71c0 37a0 6ac0 1149 c2c1 9ebe 7040
00000080: 8c42 60c0 ec00 7ac0 5c7c 8dc1 8c62 a8c1
00000090: d3a6 55c0 abac 1440 612f 6a3f 0170 9c3f
000000a0: 4f60 5ec0 1325 a5c0 d6fa 97be 32ea 0cc2
000000b0: 5dcf 92c0 c51b b5c0 9b6b 1940 1365 ca3f
000000c0: e4a6 abc0 fb5b 66be b1b8 ff3f 0d24 8c40
000000d0: f353 a53f fda9 8c3f 72ea f73f e53b 95c0
000000e0: 192c 733f c972 73c0 17ef 9bc0 f16f 8cc0
000000f0: 40ff 173f d5b5 6c3f 1320 8ec0 5f44 7940

trunk.0.bias f4 [64]
-4.027045 0.3019387 0.19065998 0.28648478 0.2924986 0.19500107 -1.5196433 0.098914646
-0.696075 0.38430524 0.07340593 -0.14469154 0.35650134 -0.4474277 -0.17798777 -2.1965292
-1.1255397 1.129116 0.54110265 -0.9357568 -0.2926956 0.30320898 -0.6323811 0.058259662
-0.1871703 -5.9483304 0.9537881 0.60065794 0.47142592 -0.19175535 -0.91971594 -0.4134237
0.3386069 -0.029973147 -0.49970558 -0.18564647 0.6189764 1.2292023 -0.43973938 0.05190791
-1.9145707 -0.08557899 -6.867997 -0.21090509 0.046347875 0.009205002 0.13477625 0.9006714
-0.6880799 -3.1293948 1.1726439 -0.87767404 -0.44439274 -1.2067245 0.6559045 0.1375193
-1.3210151 0.1766716 -0.29415858 0.2037993 -1.2735746 -0.80840105 -0.16909078 -1.5300614
00000000: 8ddd 80c0 b697 9a3e 5f3c 433e 22ae 923e
00000010: 60c2 953e 5cae 473e ac83 c2bf c393 ca3d
00000020: f931 32bf a8c3 c43e d955 963d 052a 14be
00000030: 5887 b63e 3e15 e5be 6d42 36be ef93 0cc0
00000040: af11 90bf e086 903f b485 0a3f c28d 6fbf
00000050: 33dc 95be 353e 9b3e bae3 21bf afa1 6e3d
00000060: 92a9 3fbe b958 bec0 752b 743f b8c4 193f
00000070: bd5e f13e 845b 44be 8172 6bbf 45ac d3be
00000080: e25d ad3e 3f8a f5bc 69d9 ffbe 1c1a 3ebe
00000090: 3d75 1e3f 8056 9d3f 8525 e1be 639d 543d
000000a0: a710 f5bf 0a44 afbd a2c6 dbc0 81f7 57be
000000b0: 45d7 3d3d 94d0 163c c902 0a3e 6792 663f
000000c0: 0126 30bf 0148 48c0 3219 963f 3faf 60bf
000000d0: 7287 e3be f375 9abf 5be9 273f dcd1 0c3e
000000e0: 0617 a9bf 66e9 343e f49b 96be c4b0 503e
000000f0: 7e04 a3bf 5ff3 4ebf 2226 2dbe 0dd9 c3bf

trunk.2.weight f4 [64, 64]
0.22465883 0.41510862 -0.24662246 -0.06068891 0.023542617 -0.10014038 0.06712152 -0.014939909
0.18468516 0.18726622 0.29235446 0.44168124 0.0044305166 -3.485375 0.09112021 0.2085055
0.098289885 0.42888987 0.21986467 -1.2347087 0.10839578 -0.09270296 -0.12816088 -0.12871103
0.05905193 0.25606155 0.35421604 -0.17290288 0.19768982 0.06409407 -1.8256229 -1.4713212
0.058268078 -0.020452846 -1.5405396 -1.9400976 0.16384588 0.41644987 0.46173576 0.5855997
-0.018855147 -0.25016165 0.3090246 -3.9932876 -0.10199171 -0.04814257 0.031681467 0.6048686
-0.40362003 0.24145046 0.5802377 -3.3967319 0.3665865 -0.37310538 0.5236979 0.025811031
-0.1415746 -0.10939511 -0.6055676 0.022691406 0.0070448266 0.3878489 -0.23187797 -0.49338913
-0.2660823 -0.6094314 -0.25319526 -0.2303469 -0.2799253 -0.25797042 -0.27029246 -0.7323873
-0.21873203 -0.27136695 -0.31279272 -0.31263945 -0.21924476 -0.1674009 -0.22309576 -0.08636751
-0.40285134 -0.57008255 -0.17682138 -0.21668871 -0.36285862 -0.73662823 -0.2128701 -0.6813535
-0.33849195 -0.22530778 -0.6543268 -0.25656748 -0.1907866 -0.09027455 -0.16534145 -0.7036753
-0.2800174 -0.1258254 -0.2934037 -0.2637827 -0.23102018 -0.7190662 -0.523858 -0.47633505
-0.17438474 -0.06675946 -0.08254138 -0.36195004 -0.1114929 -0.28231654 -0.7164023 -0.5578106
-0.13107301 -0.0728967 -0.6687213 -0.70721054 -0.39928988 -0.3524022 -0.5864823 -0.28057498
-0.25156727 -0.18191989 -0.24224389 -0.16852641 -0.34008324 -0.49908483 -0.25127575 -0.3283261
-0.38765386 -0.24213672 -0.24519692 -0.20527415 -0.19493718 -0.607594 -0.16919169 -0.38298786
-0.07624192 -0.42061612 -0.11235233 -0.090518214 -0.017889438 -1.7440913 -0.20402503 -0.25650615
-0.3867104 -0.18910198 -0.14494005 -1.0009805 -0.19455053 -0.5811431 -0.32523587 -0.47197464
-0.3424434 -0.3179594 -0.4695815 0.0029162164 -0.07265528 -0.020342965 -1.2455466 -0.7208819
-0.12563531 -0.14735615 -1.05022 -1.1682999 -0.016099408 -0.2954867 -0.2855918 -0.3655166
-0.1261082 -0.30172402 -0.16280365 -1.9553171 -0.24915773 -0.20471738 -0.53931725 -0.20331632
-0.25332686 -0.33065176 -0.2394375 -0.8934711 -0.22511926 -0.30478218 -0.4302877 -0.18587285
-0.2157613 -0.18950973 -0.20005426 -0.05218845 -0.32409203 -0.2652205 -0.14892502 -0.7716073
-0.17678414 -0.7367957 -0.19534484 -0.10180338 -0.095819 -0.27790233 -0.119866066 -0.8782551
-0.1733931 -0.49648848 -0.32760456 -0.341115 0.036605645 0.011132845 -0.2383027 -0.15879488
-0.42395115 -0.57195914 -0.044437934 -0.016307289 -0.47407317 -0.9392926 -0.09169287 -0.8179732
-0.29264045 -0.058345295 -0.83738786 -0.030048622 -0.23605429 -0.17383052 -0.16868612 -0.8016536
-0.16854009 -0.114493944 -0.05818843 -0.0048751966 -0.2155165 -0.7856418 -0.68594116 -0.6658848
-0.27980036 -0.24116945 -0.26764125 0.056312367 -0.0399125 -0.034077886 -0.7554965 -0.8242699
-0.2049773 -0.19267385 -0.8492179 -0.77976036 -0.62404263 -0.33448815 -0.94587666 -0.2125245
-0.18477316 -0.004566937 0.001204337 -0.05763561 -0.40023312 -0.5623591 -0.059601292 -0.22738549
00000000: f70c 663e 1e89 d43e 998a 7cbe ef94 78bd
00000010: 72dc c03c 6616 cdbd 0277 893d 85c6 74bc
00000020: 1b1e 3d3e b7c2 3f3e 7caf 953e 0b24 e23e
00000030: de2d 913b 6210 5fc0 3c9d ba3d 7782 553e
00000040: 354c c93d 7497 db3e 3424 613e ef0a 9ebf
00000050: 9bfe dd3d 0ddb bdbd 9b3c 03be d3cc 03be
00000060: 70e0 713d 801a 833e ce5b b53e 740d 31be
00000070: 336f 4a3e c043 833d 03ae e9bf 4154 bcbf
00000080: 82aa 6e3d ba8c a7bc 6730 c5bf 1e55 f8bf
00000090: 37c7 273e eb38 d53e a168 ec3e dde9 153f
000000a0: 1c76 9abc 3015 80be 7938 9e3e 0692 7fc0
000000b0: 08e1 d0bd 2531 45bd 6dc4 013d abd8 1a3f
000000c0: 49a7 cebe ca3e 773e 758a 143f 0e64 59c0
000000d0: 3ab1 bb3e ab07 bfbe 1111 063f a871 d33c
000000e0: eff8 10be 8b0a e0bd 7a06 1bbf 54e3 b93c
000000f0: 4ad8 e63b 2294 c63e 6b71 6dbe 809d fcbe
00000100: f03b 88be b203 1cbf cfa2 81be 0fe0 6bbe
00000110: 5e52 8fbe b314 84be c663 8abe bc7d 3bbf
00000120: 4afb 5fbe 9cf0 8abe 5e26 a0be 4712 a0be
00000130: b381 60be 246b 2bbe 3773 64be 73e1 b0bd
00000140: 8842 cebe eef0 11bf aa10 35be a5e3 5dbe
00000150: 9bc8 b9be ab93 3cbf 9ffa 59be 2f6d 2ebf
00000160: d14e adbe 15b7 66be f681 27bf d05c 83be
00000170: 905d 43be dde1 b8bd 454f 29be 1124 34bf
00000180: 715e 8fbe 60d8 00be 0339 96be 870e 87be
00000190: 8e90 6cbe b914 38bf 8f1b 06bf 30e2 f3be
000001a0: ea91 32be 2fb9 88bd 740b a9bd 8451 b9be
000001b0: 6456 e4bd cb8b 90be 2466 37bf adcc 0ebf
000001c0: 0138 06be dd4a 95bd 5231 2bbf c00b 35bf
000001d0: b96f ccbe 106e b4be b423 16bf 86a7 8fbe
000001e0: 6dcd 80be 3549 3abe c80e 78be 3092 2cbe
000001f0: 641f aebe 0c88 ffbe 37a7 80be 5c1a a8be
00000200: 917a c6be b0f2 77be e714 7bbe 6333 52be
00000210: 9d9d 47be 488b 1bbf 9640 2dbe fc16 c4be
00000220: b924 9cbd ff5a d7be fa18 e6bd 9d61 b9bd
00000230: df8c 92bc 623e dfbf f0eb 50be c654 83be
00000240: e8fe c5be f3a3 41be 2a6b 14be 2120 80bf
00000250: 4138 47be cbc5 14bf 5185 a6be a9a6 f1be
00000260: be54 afbe 93cb a2be fd6c f0be fe1d 3f3b
00000270: 4bcc 94bd 4aa6 a6bc 126e 9fbf b78b 38bf
00000280: 8ba6 00be 88e4 16be 9c6d 86bf da8a 95bf
00000290: e8e2 83bc 084a 97be 1739 92be fe24 bbbe
000002a0: 8222 01be 927b 9abe 00b6 26be d547 fabf
000002b0: 3423 7fbe 6fa1 51be b210 0abf 2732 50be
000002c0: 0fb4 81be 304b a9be 1b2f 75be 86ba 64bf
000002d0: aa85 66be 690c 9cbe ab4e dcbe 7455 3ebe
000002e0: 88f0 5cbe d70e 42be 06db 4cbe 8ec3 55bd
000002f0: 64ef a5be fbca 87be cd7f 18be 0e88 45bf
00000300: e706 35be a59e 3cbf 7a08 48be 4a7e d0bd
00000310: c03c c4bd 3749 8ebe 577c f5bd 54d5 60bf
00000320: f68d 31be bd33 febe c9bb a7be a0a6 aebe
00000330: cdef 153d 8966 363c 9f05 74be 209b 22be
00000340: 2010 d9be ea6b 12bf 8d04 36bd dd96 85bc
00000350: b8b9 f2be 7b75 70bf 79c9 bbbd b166 51bf
00000360: f8d4 95be 7afb 6ebd 0d5f 56bf 8728 f6bc
00000370: 37b8 71be a100 32be 0ebc 2cbe 2c39 4dbf
00000380: c695 2cbe cd7b eabd fe56 6ebd 1dc0 9fbb
00000390: 5bb0 5cbe d21f 49bf d799 2fbf 6d77 2abf
000003a0: fe41 8fbe 20f5 76be 4608 89be cca7 663d
000003b0: 4a7b 23bd 4195 0bbd 3868 41bf 5a03 53bf
000003c0: 92e5 51be 4b4c 45be 5866 59bf 609e 47bf
000003d0: 42c1 1fbf 0842 abbe f924 72bf 06a0 59be
000003e0: 2d35 3dbe 3fa6 95bb d8da 9d3a 5113 6cbd
000003f0: 5beb ccbe c4f6 0fbf 7c20 74bd bed7 68be

trunk.2.bias f4 [64]
0.5828787 -0.3181664 0.020574547 -0.3727431 -0.5413865 -0.46284485 -0.5568423 -0.51118934
-0.32738376 -0.48683453 -1.0753695 -0.54357475 -0.72440356 -0.4814065 -0.36887747 -0.5851136
-0.5098803 -0.44620812 -0.42388847 -0.39274693 -0.29177746 0.57074803 -0.5520097 -0.4831764
-0.39896327 -0.9396291 -0.5421793 -0.6533528 -1.2259535 -0.7364496 -0.5680972 -0.43594435
-0.383573 -0.509211 -0.4168467 -0.3981257 -0.6252633 -0.62726915 -0.48874095 0.9291186
-0.534242 -0.44369766 -0.3534074 -0.5722929 0.36446252 -0.5174998 -0.52923393 -0.44653383
0.10586065 -0.42209306 -0.58641934 -0.57039267 -0.69411856 -0.40222007 -0.39954448 -0.49300453
-0.12189623 0.10518769 -1.0386157 -0.44813502 -0.38122815 -0.45306805 -0.42304763 -0.46483693
00000000: 8a37 153f b5e6 a2be f48b a83c 2fd8 bebe
00000010: 4e98 0abf 00fa ecbe 388d 0ebf 4edd 02bf
00000020: d89e a7be 6042 f9be b5a5 89bf b727 0bbf
00000030: 8372 39bf ea7a f6be 82dd bcbe 01ca 15bf
00000040: 8487 02bf 6475 e4be e907 d9be 2016 c9be
00000050: db63 95be 8b1c 123f 8250 0dbf e662 f7be
00000060: ea44 ccbe 888b 70bf 43cc 0abf 2142 27bf
00000070: 0bec 9cbf f687 3cbf d16e 11bf 1934 dfbe
00000080: ae63 c4be a75b 02bf ee6c d5be 22d7 cbbe
00000090: 4111 20bf b694 20bf 413c fabe b7da 6d3f
000000a0: 15c4 08bf 572c e3be d1f1 b4be ca81 12bf
000000b0: d59a ba3e de7a 04bf e07b 07bf 15a0 e4be
000000c0: 78cd d83d 951c d8be 941f 16bf 4105 12bf
000000d0: c1b1 31bf caef cdbe 1891 ccbe 176b fcbe
000000e0: bba4 f9bd a56c d73d 5cf1 84bf f471 e5be
000000f0: 5630 c3be 89f8 e7be b399 d8be 1bff edbe

value_head.weight f4 [3, 64]
-1.1741836 -0.3491909 -0.86321646 -0.20250587 -0.22819103 -0.19281295 -0.2434324 -0.26167762
-0.3868748 -0.2709465 0.8317476 -0.24324124 -0.3346752 0.4119175 -0.50143766 -0.3182466
-0.25720328 -0.19747485 -0.24973801 -0.34919295 0.3122755 -0.88087535 -0.06941804 -0.24187803
-0.49286664 0.76249605 1.0458118 -0.3047592 -0.37262818 -0.3257007 0.02229408 0.264399
-0.21803196 -0.19441564 -0.24677032 -0.23487431 -0.07322419 -0.23596756 0.027065773 2.1676903
-0.29107344 -0.25748673 -0.55945873 -0.24588028 -1.1280206 0.7133154 -0.24379322 -0.19386938
-1.4039783 0.9020579 -0.33267984 -0.15728062 -0.31417346 -0.54156864 -0.18620361 -0.28022504
-1.1265056 -1.5574785 0.67339724 -0.2929629 -0.25401354 -0.26640216 -0.2185141 -0.21199179
-1.2761763 -0.104833655 -0.25963864 -0.056419455 -0.074162915 -0.0012079799 -0.06155504 -0.18243144
-0.049407385 -0.20617396 1.3439592 -0.04435438 -0.15121418 0.75966835 -0.21994236 0.01302076
-0.07815503 0.05937133 -0.0735484 -0.0066546854 1.1781871 0.2058744 0.1947916 -0.122024134
-0.14931224 0.94993246 1.269702 -0.22748572 -0.19465289 -0.1867761 0.26223215 0.05730282
-0.030283121 -0.18294881 -0.02831898 -0.018503113 0.17059873 -0.21268068 0.099185854 2.0355651
-0.18218525 0.04146331 -0.24040586 -0.18757953 -0.96208316 1.1146454 -0.1675403 -0.0867171
-0.8089428 1.2193141 -0.023170292 0.09450322 -0.09541529 -0.09926089 -0.008973551 -0.05815965
-0.50075537 -0.6029782 1.1724577 -0.04892814 -0.09795933 -0.121754184 -0.15913925 0.0024172214
-1.4499656 0.4235351 0.42144185 0.28953087 0.20569815 0.3687172 0.21041605 0.0030987111
0.6001147 -0.11381896 1.9138047 0.34206483 -0.12838285 1.2153258 0.4638345 0.23657973
0.26350516 0.531076 0.34875253 0.19245607 -0.21103919 2.4144554 0.6153409 0.28171483
0.5532039 0.9754043 1.7459817 -0.03685873 -0.16034807 -0.03135229 0.6225999 -0.37243754
0.25727734 0.09144421 0.37808883 0.3660226 0.5639954 -0.019598681 -0.00057998765 1.7689129
0.17789343 0.61417913 0.429616 0.13921751 -0.48844537 1.5388596 0.188939 0.13380496
0.9408568 1.4442661 0.29750106 0.5317376 0.12890092 0.47777715 0.28045222 0.2829713
0.40513727 0.24495085 1.7759987 0.3551417 0.37063438 0.34608576 0.19298576 0.3962672
00000000: a64b 96bf 26c9 b2be c1fb 5cbf b35d 4fbe
00000010: e9aa 69be c270 45be 5846 79be 9cfa 85be
00000020: 7414 c6be 80b9 8abe 69ed 543f 3b14 79be
00000030: 8c5a abbe dae6 d23e 385e 00bf 38f1 a2be
00000040: 26b0 83be d936 4abe 52bb 7fbe 6bc9 b2be
00000050: 93e2 9f3e 0c81 61bf 0c2b 8ebd e0ae 77be
00000060: 0459 fcbe f132 433f 29dd 853f 6609 9cbe
00000070: 1fc9 bebe 3ec2 a6be 13a2 b63c 4e5f 873e
00000080: c543 5fbe e514 47be 5cb1 7cbe e482 70be
00000090: 90f6 95bd 7ba1 71be 0ab9 dd3c 70bb 0a40
000000a0: 9407 95be 4dd5 83be b038 0fbf 0ac8 7bbe
000000b0: fb62 90bf d79b 363f eea4 79be b285 46be
000000c0: 90b5 b3bf 44ed 663f 0355 aabe 2c0e 21be
000000d0: 58db a0be 3ea4 0abf 29ac 3ebe a879 8fbe
000000e0: 5631 90bf 755b c7bf c363 2c3f 3cff 95be
000000f0: 100e 82be dd65 88be 29c2 5fbe 6014 59be
00000100: bf59 a3bf 07b3 d6bd 5bef 84be 1618 67bd
00000110: bae2 97bd 1455 9eba 2321 7cbd 4fcf 3abe
00000120: 665f 4abd 441f 53be db06 ac3f f0ac 35bd
00000130: e4d7 1abe a079 423f 9238 61be 0755 553c
00000140: bf0f a0bd 5a2f 733d 8ba0 96bd 8c0f dabb
00000150: d6ce 963f bdd0 523e 7377 473e cae7 f9bd
00000160: 4fe5 18be c62e 733f 9885 a23f 04f2 68be
00000170: 1653 47be 3c42 3fbe 4b43 863e 5db6 6a3d
00000180: 4f14 f8bc ef56 3bbe 35fd e7bc d793 97bc
00000190: 6fb1 2e3e f7c8 59be f421 cb3d b346 0240
000001a0: c58e 3abe 6fd5 293d f42c 76be d914 40be
000001b0: 154b 76bf b3ac 8e3f af8f 2bbe bc98 b1bd
000001c0: e016 4fbf 7c12 9c3f a0cf bdbc e78a c13d
000001d0: 1769 c3bd 4b49 cbbd cd05 13bc d038 6ebd
000001e0: 8131 00bf c85c 1abf 1813 963f e068 48bd
000001f0: e79e c8bd 425a f9bd 66f5 22be 3f6a 1e3b
00000200: 7998 b9bf 98d9 d83e 3ac7 d73e 643d 943e
00000210: 89a2 523e 80c8 bc3e 4e77 573e bf13 4b3b
00000220: 1ea1 193f ea19 e9bd 8df7 f43f 1f23 af3e
00000230: cb76 03be cc8f 9b3f b77b ed3e f541 723e
00000240: 26ea 863e 99f4 073f b18f b23e 3413 453e
00000250: a81a 58be 7086 1a40 fb86 1d3f ed3c 903e
00000260: c59e 0d3f 19b4 793f 547c df3f 2ef9 16bd
00000270: 4932 24be 426b 00bd b562 1f3f 22b0 bebe
00000280: dbb9 833e 1a47 bb3d dc94 c13e 5067 bb3e
00000290: 0162 103f 6a8d a0bc 500a 18ba bd6b e23f
000002a0: b229 363e d83a 1d3f a1f6 db3e 098f 0e3e
000002b0: 8315 fabe 5af9 c43f 3a79 413e 2b04 093e
000002c0: fedb 703f b6dd b83f 0f52 983e f51f 083f
000002d0: 9afe 033e 359f f43e 6f97 8f3e 9de1 903e
000002e0: 276e cf3e 65d4 7a3e ed53 e33f 22d5 b53e
000002f0: cac3 bd3e 2732 b13e 0f9e 453e 89e3 ca3e

value_head.bias f4 [3]
-1.0362072 1.7375498 6.440458
00000000: 70a2 84bf 0868 de3f 3b18 ce40

grad_head.weight f4 [3, 64]
-0.012093381 -0.14837533 -0.2976837 -0.07531241 -0.12051875 -0.033256646 -0.19185732 -0.01656569
-0.18692702 -0.042672273 -2.3090444 -0.038323775 -0.21679981 -1.3098227 -0.16950193 0.023139007
-0.09830543 -0.11546191 -0.09350135 0.067366235 0.6733742 0.9441382 -0.42470315 0.063839756
-0.103505455 -1.6537274 -2.6214113 -0.025220776 -1.0261636 -0.13332081 -0.42138144 0.343442
-0.16150805 -0.115231305 -0.032082185 -0.0697551 -0.24721678 -0.097315334 0.24229205 -0.10828007
0.004076273 -0.082677536 -0.20648788 -0.10759457 -1.3032645 -1.9754133 0.018086893 -0.17858101
-0.6943783 -2.118931 0.0075075063 -0.17166439 -0.1962418 -0.14294979 -0.18080135 -0.15917924
-0.42325306 -0.38187283 -1.984061 -0.115321085 -0.023529746 -0.16646342 0.013148823 -0.12305457
0.019858439 -0.06963832 -0.2488137 -0.11306932 -0.15920487 -0.13056755 -0.20425 -0.10922683
-0.23279908 -0.22442639 -2.2455678 -0.1521342 -0.286708 -1.2798396 -0.19798885 0.12337957
-0.1651241 -0.2377168 -0.17681758 0.09779601 1.1777542 0.83344394 -0.3886892 -0.15484583
-0.22944498 -1.4353479 -2.6124182 -0.07177181 -0.7944112 -0.10895188 -0.44888625 1.1108873
-0.16035445 -0.08114124 -0.13435784 -0.13955757 -0.33607975 -0.2023612 0.38281518 -0.09389848
-0.03203113 -0.2242088 -0.15621448 -0.045773283 -1.2637848 -1.88396 -0.13057965 -0.17992188
-0.6440499 -2.0238056 -0.006722036 -0.29181507 -0.2745312 -0.1534552 -0.1594496 -0.16598204
-0.3336057 -0.24211907 -1.8950945 -0.16221292 -0.14119644 -0.08218957 -0.06599307 -0.16226959
0.016645823 -0.04937769 -0.07819663 -0.123045765 -0.07608188 -0.1706445 -0.11578278 -0.008850646
-0.07097628 -0.017505039 -2.3247867 -0.11902753 -0.1262575 -1.2775311 -0.0681616 -0.08463552
-0.033440556 -0.24771202 0.015904991 0.08686952 0.86885196 0.9396705 -0.23394419 -0.10938602
-0.15615508 -1.4486698 -2.5714228 -0.10743137 -0.8674614 0.001847181 -0.37890658 0.28895536
-0.11492337 -0.053797606 -0.10832057 -0.14632478 -0.32489997 -0.011397665 0.2636991 -0.1058477
-0.077125296 -0.18199602 -0.119770154 -0.06321469 -1.212261 -1.9600948 -0.0888751 -0.09088766
-0.16317908 -2.1873329 0.03709503 -0.31080878 -0.21351062 -0.06700947 -0.1210553 -0.06273823
-0.17408806 -0.044163257 -1.893251 -0.15291801 -0.1090563 -0.031558424 -0.18034503 -0.1290893
00000000: 5123 46bc b4ef 17be ff69 98be 653d 9abd
00000010: 89d2 f6bd 1f38 08bd 3f76 44be c5b4 87bc
00000020: cc69 3fbe 1fc9 2ebd 62c7 13c0 64f9 1cbd
00000030: c500 5ebe 45a8 a7bf ea91 2dbe 048e bd3c
00000040: 5b54 c9bd 4b77 ecbd a37d bfbd 4ff7 893d
00000050: 4062 2c3f 0bb3 713f b172 d9be 6bbe 823d
00000060: abfa d3bd 57ad d3bf 34c5 27c0 cd9b cebc
00000070: 5459 83bf 4085 08be 4fbf d7be a1d7 af3e
00000080: 5e62 25be 64fe ebbd 9c68 03bd c3db 8ebd
00000090: 6526 7dbe 434d c7bd 681b 783e f1c1 ddbd
000000a0: 4292 853b d752 a9bd 8f71 53be 8b5a dcbd
000000b0: 5fd1 a6bf 58da fcbf f72a 943c f1dd 36be
000000c0: c7c2 31bf 919c 07c0 8701 f63b cac8 2fbe
000000d0: 9cf3 48be 6e61 12be fd23 39be e2ff 22be
000000e0: a0b4 d8be d684 c3be b6f5 fdbf 762d ecbd
000000f0: 74c1 c0bc 6375 2abe 296e 573c 0904 fcbd
00000100: 2aae a23c 899e 8ebd 05c9 7ebe e390 e7bd
00000110: 9a06 23be 80b3 05be e926 51be 51b2 dfbd
00000120: e262 6ebe 08d0 65be 62b7 0fc0 11c9 1bbe
00000130: 64cb 92be c9d1 a3bf 97bd 4abe 6eae fc3d
00000140: 4b16 29be 086c 73be ab0f 35be 4649 c83d
00000150: a6c0 963f 955c 553f 4502 c7be e88f 1ebe
00000160: a0f3 6abe 7bb9 b7bf dc31 27c0 19fd 92bd
00000170: 885e 4bbf 2a22 dfbd 6bd4 e5be 8e31 8e3f
00000180: f533 24be 612d a6bd 1a95 09be 2ee8 0ebe
00000190: a512 acbe c637 4fbe 5a00 c43e d94d c0bd
000001a0: 1333 03bd fe96 65be b0f6 1fbe c47c 3bbd
000001b0: b3c3 a1bf 9a25 f1bf acb6 05be 713d 38be
000001c0: 74e0 24bf 0886 01c0 8644 dcbb c968 95be
000001d0: 5a8f 8cbe 5c23 1dbe c246 23be 32f7 29be
000001e0: 5ece aabe 10ee 77be 7592 f2bf 251b 26be
000001f0: cd95 10be 0153 a8bd 6027 87bd 002a 26be
00000200: d25c 883c 4340 4abd 8e25 a0bd 6bff fbbd
00000210: d1d0 9bbd 6fbd 2ebe 861f edbd 4d02 11bc
00000220: 035c 91bd ba66 8fbc 4ec9 14c0 b5c4 f3bd
00000230: a549 01be 2486 a3bf 4f98 8bbd 6355 adbd
00000240: f7f8 08bd 38a8 7dbe 2f4b 823c a6e8 b13d
00000250: 156d 5e3f 3f8e 703f 118f 6fbe c705 e0bd
00000260: 1ee7 1fbe 036e b9bf 3192 24c0 fa04 dcbd
00000270: f311 5ebf 1c1d f23a 0b00 c2be f5f1 933e
00000280: f25c ebbd e15a 5cbd 2dd7 ddbd 2ad6 15be
00000290: 4a59 a6be 46bd 3abc 9203 873e aec6 d8bd
000002a0: def3 9dbd 2a5d 3abe 0e4a f5bd b476 81bd
000002b0: 5e2b 9bbf 63e4 fabf 2604 b6bd 4f23 babd
000002c0: 6b18 27be 43fd 0bc0 f5f0 173d 5422 9fbe
000002d0: 87a2 5abe 433c 89bd d7eb f7bd e77c 80bd
000002e0: 2444 32be 88e4 34bd 0c56 f2bf 8a96 1cbe
000002f0: e958 dfbd 6843 01bd 5eac 38be fc2f 04be

grad_head.bias f4 [3]
1.9408855 2.862903 1.813829
00000000: f06e f83f ce39 3740 8c2b e83f
