trained_value_function.pt (torch, 20318 bytes, 5 tensors)

model.0.weight f4 [64, 1]
2.328007 4.119134 -0.87295187 -0.7376316 0.61579037 3.2304943 2.8021502 4.5068183
1.612178 3.2406578 0.6419613 1.2173196 -1.2559112 -0.17423807 0.32385302 2.7696924
4.2157145 3.6480553 -0.5657841 0.28787005 3.68795 4.438436 0.9514035 4.481142
1.7103046 3.068334 4.278146 -0.9080135 -0.44362336 0.98250455 0.37929624 4.7130837
-0.5543614 -0.040030364 -0.5933151 -0.97004783 -0.25606912 4.2243886 3.9903984 3.9557612
3.6456606 0.15201645 3.6574738 -0.95743644 -0.62877977 -0.31263208 4.2648864 3.8628495
0.26172855 1.7060398 3.8016617 5.040019 3.811483 2.744216 4.056313 -0.4547504
3.0725677 -0.7326922 -0.31757137 0.12235978 4.3355417 4.0198383 -0.17831458 3.9014354
00000000: 11fe 1440 f2cf 8340 c679 5fbf 6dd5 3cbf
00000010: 70a4 1d3f 6bc0 4e40 6e56 3340 db37 9040
00000020: d95b ce3f f066 4f40 9357 243f 21d1 9b3f
00000030: b3c1 a0bf 776b 32be 10d0 a53e a442 3140
00000040: 22e7 8640 bd79 6940 3ad7 10bf b463 933e
00000050: 5f07 6c40 ab07 8e40 2e8f 733f 8465 8f40
00000060: 43eb da3f 965f 4440 92e6 8840 9373 68bf
00000070: 9a22 e3be 6b85 7b3f 1e33 c23e 95d1 9640
00000080: a1ea 0dbf e1f6 23bd 80e3 17bf 0e55 78bf
00000090: 7e1b 83be 312e 8740 b062 7f40 312b 7d40
000000a0: 8152 6940 33aa 1b3e 0d14 6a40 8e1a 75bf
000000b0: b6f7 20bf 5011 a0be f379 8840 ed38 7740
000000c0: 4901 863e 835f da3f 6d4e 7340 d647 a140
000000d0: 56ef 7340 3ca1 2f40 51cd 8140 0bd5 e8be
000000e0: f3a4 4440 b791 3bbf b798 a2be c497 fa3d
000000f0: c2bc 8a40 84a2 8040 1998 36be 1eb1 7940

model.0.bias f4 [64]
0.31061414 0.515821 1.4513316 1.5193367 0.6650779 1.3335531 -0.4465508 0.44166356
0.13003686 1.2023054 0.8376992 0.60964775 1.7974298 0.080169275 0.6571182 -0.4128355
0.09502156 1.1693343 1.7707573 -0.25475606 0.5727773 0.5811343 -0.008444991 0.38566464
0.07306128 -0.29422942 0.9360112 1.8838814 1.6508111 0.34630093 -0.28021178 0.33710983
1.5871451 1.0193373 0.49835134 0.86139697 1.5962662 1.155358 0.29829112 0.38026807
-0.045169502 0.6905065 -0.038792092 0.6928102 1.1895243 1.1100583 0.3631453 0.9369447
0.1666919 0.5693931 1.0445868 0.3259923 0.337135 0.051276635 0.6808118 1.393705
0.953141 1.3826486 0.57579786 1.0569 0.08766864 0.20759511 0.73224366 0.2688277
00000000: d108 9f3e d80c 043f 3cc5 b93f a079 c23f
00000010: 8c42 2a3f deb1 aa3f 4ea2 e4be ba21 e23e
00000020: 6228 053e 25e5 993f 7473 563f e011 1c3f
00000030: 2e12 e63f ca2f a43d e638 283f 2d5f d3be
00000040: aa9a c23d bfac 953f 2da8 e23f 636f 82be
00000050: 88a1 123f 38c5 143f dc5c 0abc d675 c53e
00000060: 27a1 953d 3da5 96be 6e9e 6f3f 0723 f13f
00000070: c74d d33f 5b4e b13e eb77 8fbe a999 ac3e
00000080: 9227 cb3f a579 823f e827 ff3e 8384 5c3f
00000090: 7352 cc3f c5e2 933f 9db9 983e 7fb2 c23e
000000a0: a803 39bd 09c5 303f 75e4 1ebd 025c 313f
000000b0: 5542 983f 6416 8e3f 2eee b93e 9cdb 6f3f
000000c0: 48b1 2a3e bfc3 113f 05b5 853f 76e8 a63e
000000d0: f59c ac3e 7307 523d af49 2e3f ed64 b23f
000000e0: 0c01 743f a1fa b03f 7d67 133f 8048 873f
000000f0: 9e8b b33d d093 543e 5274 3b3f c9a3 893e

model.2.weight f4 [64, 64]
-0.18837716 -0.75669426 0.3527564 0.38048705 0.045099985 -0.39462882 0.07500046 -0.8265694
-0.006814426 -0.37113473 0.12118465 0.0875534 0.52723384 0.4316244 0.330759 -0.057020534
-0.56668013 -0.6598312 0.37588397 0.2845649 -0.5265807 -0.912769 0.008305326 -0.8944702
-0.03645599 -0.043428406 -0.7272972 0.2609636 0.35434312 -0.0028603426 0.23922208 -0.93545115
0.2787058 0.21939337 0.26318762 0.2992034 0.2137974 -0.7797218 -0.562401 -0.4921557
-0.22349815 0.22802693 -0.1359206 0.3463657 0.4667797 0.32139766 -0.7971055 -0.5676008
0.26123604 -0.1557075 -0.5392065 -1.1319848 -0.4351796 -0.2065811 -0.59729713 0.33512187
-0.23116292 0.40582153 0.32042962 0.2044864 -0.62690276 -0.38806507 0.41532025 -0.32585344
0.050554577 -1.0953002 1.4188932 1.3851242 0.84968436 -0.28383395 -0.03185118 -1.3833452
0.50674814 -0.21548785 0.8003774 0.5631207 1.5522448 1.3307068 1.0304813 0.13938011
-1.1916381 -0.79965633 1.3527677 1.0410599 -0.6987481 -1.3474319 0.80642223 -1.3524998
0.37530366 -0.2559945 -1.0876642 1.3928565 1.3082355 0.9184195 1.0821499 -1.544761
1.2582028 1.2613841 1.339836 1.5312737 1.2035692 -1.1519655 -0.97879726 -0.8558927
-0.64498144 1.2471459 -0.6618512 1.4996462 1.4762827 1.1979237 -1.2635206 -0.9170286
1.139585 0.45955026 -0.9545336 -1.8716546 -0.75272053 -0.1959896 -0.9864833 1.2507217
-0.14553949 1.4429212 1.252675 1.160491 -1.2393599 -1.0383672 1.1914531 -0.91921616
0.7626799 2.2461603 -1.8927199 -1.8425844 -0.9140372 1.1589359 2.0698643 2.5783439
0.21018903 1.1068224 -0.87637156 -0.2865008 -1.9145013 -1.3415895 -1.1234002 1.8667954
2.6777813 1.4328163 -1.7434736 -1.1320939 1.9528345 2.223365 -0.48725867 2.5677972
0.29769725 2.1910946 1.8235143 -1.7679127 -1.5833558 -0.3977593 -0.9707166 2.754408
-1.6908351 -1.3342291 -1.6854012 -1.7930889 -1.45212 1.7421126 2.3151417 2.1373584
3.2398026 -1.2682812 2.6897845 -1.8281794 -1.7596437 -1.4815466 2.362362 1.7056568
-1.06195 0.06367413 1.593158 2.9349184 2.2020206 1.4821458 1.8901691 -1.6052544
1.2436416 -1.7944096 -1.443569 -1.1733885 2.8297539 2.4697115 -1.3732393 2.3377018
-0.1794202 -0.6887937 0.31361902 0.39458197 0.21510662 -0.33757207 0.033312973 -0.83194304
0.024299001 -0.48304817 -0.010947717 -0.11935578 0.568737 0.4588974 0.13926293 -0.030269435
-0.4184997 -0.52931076 0.42641652 0.4015503 -0.5543908 -0.89653516 0.227085 -0.75603265
-0.11001136 -0.04047667 -0.771043 0.48380867 0.22251447 0.12652738 0.23858538 -0.8179173
0.30710554 0.31098434 0.42710733 0.49288 0.2107772 -0.75848854 -0.65031415 -0.5671466
-0.23597491 0.1297236 -0.40098396 0.5273959 0.4515048 0.41580838 -0.63069534 -0.80912364
0.20968492 -0.15902738 -0.77158827 -0.9677346 -0.60243493 -0.2910506 -0.8538015 0.25460738
-0.24664775 0.4951589 0.46838418 0.34500343 -0.46857587 -0.5464343 0.39661714 -0.35969204
00000000: f1e5 40be b7b6 41bf 7d9c b43e 33cf c23e
00000010: c3ba 383d ca0c cabe d799 993d 0d9a 53bf
00000020: 8c4b dfbb 5f05 bebe a82f f83d 324f b33d
00000030: ccf8 063f e0fd dc3e 3e59 a93e 5d8e 69bd
00000040: f311 11bf b3ea 28bf dd73 c03e 7eb2 913e
00000050: fecd 06bf 3bab 69bf 1013 083c 00fc 64bf
00000060: e052 15bd fce1 31bd 2630 3abf 059d 853e
00000070: 766c b53e 9674 3bbb a2f6 743e ba79 6fbf
00000080: 87b2 8e3e a8a8 603e 87c0 863e 3031 993e
00000090: b5ed 5a3e d99b 47bf 83f9 0fbf d5fb fbbe
000000a0: b3dc 64be e47f 693e c52e 0bbe d856 b13e
000000b0: c0fd ee3e 3c8e a43e 1b0f 4cbf 494e 11bf
000000c0: bbc0 853e c971 1fbe 7009 0abf e1e4 90bf
000000d0: dccf debe ff89 53be 77e8 18bf 1895 ab3e
000000e0: f9b5 6cbe d7c7 cf3e 5a0f a43e e264 513e
000000f0: b37c 20bf 77b0 c6be dba4 d43e 43d6 a6be
00000100: 5112 4f3d cc32 8cbf 4b9e b53f c04b b13f
00000110: ea84 593f af52 91be 6276 02bd 7511 b1bf
00000120: 3fba 013f d9a8 5cbe 89e5 4c3f ae28 103f
00000130: f5af c63f 9a54 aa3f d0e6 833f a9b9 0e3e
00000140: 9987 98bf 47b6 4cbf 7e27 ad3f 7341 853f
00000150: 28e1 32bf a678 acbf b071 4e3f b71e adbf
00000160: cd27 c03e b611 83be 9538 8bbf 1f49 b23f
00000170: 4374 a73f 8a1d 6b3f e383 8a3f baba c5bf
00000180: ca0c a13f 0975 a13f bf7f ab3f c700 c43f
00000190: 8e0e 9a3f 9b73 93bf 7592 7abf c91b 5bbf
000001a0: 811d 25bf 7aa2 9f3f 156f 29bf 68f4 bf3f
000001b0: d5f6 bc3f 9055 993f 0bbb a1bf 63c2 6abf
000001c0: ecdd 913f 2c4a eb3e 505c 74bf 6192 efbf
000001d0: 4bb2 40bf 7fb1 48be 2b8a 7cbf a617 a03f
000001e0: 4e08 15be a4b1 b83f a857 a03f f88a 943f
000001f0: 58a3 9ebf 37e9 84bf 8981 983f c051 6bbf
00000200: fd3e 433f 17c1 0f40 a544 f2bf ced9 ebbf
00000210: 58fe 69bf 0358 943f a878 0440 9603 2540
00000220: cb3b 573e 5bac 8d3f e359 60bf 3cb0 92be
00000230: 610e f5bf 34b9 abbf 94cb 8fbf 27f3 ee3f
00000240: c560 2b40 8666 b73f 252a dfbf 74e8 90bf
00000250: 7bf6 f93f 9d4b 0e40 f879 f9be ca56 2440
00000260: c66b 983e e53a 0c40 eb68 e93f f74a e2bf
00000270: 67ab cabf 1ba7 cbbe e280 78bf 3848 3040
00000280: 496d d8bf 05c8 aabf 3abb d7bf f083 e5bf
00000290: 11df b9bf 8cfd de3f 482b 1440 7bca 0840
000002a0: ed58 4f40 0a57 a2bf 6e25 2c40 c801 eabf
000002b0: 013c e1bf 52a3 bdbf f030 1740 f652 da3f
000002c0: faed 87bf 9567 823d 9aec cb3f b4d5 3b40
000002d0: e8ed 0c40 f4b6 bd3f 10f1 f13f fa78 cdbf
000002e0: a62f 9f3f 37af e5bf dec6 b8bf 9831 96bf
000002f0: b01a 3540 c10f 1e40 4ec6 afbf e89c 1540
00000300: eeb9 37be c954 30bf ac92 a03e a606 ca3e
00000310: e944 5c3e 3fd6 acbe 2f73 083d 38fa 54bf
00000320: b30e c73c 1752 f7be 0e5e 33bc ce70 f4bd
00000330: bf98 113f 9af4 ea3e f19a 0e3e 9bf7 f7bc
00000340: 9845 d6be e980 07bf 4453 da3e 0098 cd3e
00000350: 8eec 0dbf 5483 65bf f888 683e 5b8b 41bf
00000360: a34d e1bd ddca 25bd 1363 45bf c5b5 f73e
00000370: d5da 633e 6590 013e ba4f 743e 0763 51bf
00000380: f03c 9d3e 5739 9f3e d0ad da3e c45a fc3e
00000390: fad5 573e 4e2c 42bf fd7a 26bf 8530 11bf
000003a0: 68a3 71be 43d6 043e c54d cdbe 6b03 073f
000003b0: a32b e73e d6e4 d43e 4075 21bf ba22 4fbf
000003c0: a5b7 563e 13d8 22be cf86 45bf 74bd 77bf
000003d0: 2d39 1abf 9604 95be bc92 5abf e65b 823e
000003e0: 3a91 7cbe 7885 fd3e 0dd0 ef3e 4aa4 b03e
000003f0: 2de9 efbe 1ee3 0bbf 6711 cb3e 8e29 b8be

model.2.bias f4 [64]
-0.47984168 -0.33130804 -0.79171246 -0.48865083 -0.5787366 -0.6326025 -0.5920793 -0.35342526
-0.42840534 0.058192696 -0.28822282 -0.5942258 -0.56686735 -0.47048643 -0.5964426 -0.6451408
-0.33192256 -0.51865935 -0.49004674 -0.4730573 0.6402642 -0.4995314 -0.5383553 0.034912586
-0.54450375 -0.49025303 -0.12303783 -0.2547044 -0.58091044 -0.30014303 -0.58548063 1.0480086
-0.4442753 -0.15422712 -0.41792953 -0.5093216 -0.27632412 0.87161887 1.0041146 -0.4854598
-0.58052033 -0.5233746 -1.6498061 -0.5935863 -0.522725 -0.5948268 -0.55718905 -0.09077656
-0.57898796 -0.3166683 -0.6829754 -0.6066947 -0.46142733 -0.28137237 -0.87405264 -0.57292914
-0.6445123 -0.5140796 -0.27229846 -0.5234722 -0.5446032 -0.589676 -0.11686145 -0.38648582
00000000: cfad f5be 35a1 a9be abad 4abf 7130 fabe
00000010: 1528 14bf 3df2 21bf 8292 17bf 28f4 b4be
00000020: f257 dbbe 775b 6e3d f191 93be 2f1f 18bf
00000030: 381e 11bf 99e3 f0be 76b0 18bf f327 25bf
00000040: c1f1 a9be dcc6 04bf 68e7 fabe 9134 f2be
00000050: 5be8 233f 94c2 ffbe a7d1 09bf 8000 0f3d
00000060: 9964 0bbf 7202 fbbe 42fb fbbd 9d68 82be
00000070: 8cb6 14bf 59ac 99be 0fe2 15bf 2525 863f
00000080: 0d78 e3be b7ed 1dbe dcfa d5be e662 02bf
00000090: 5b7a 8dbe 6a22 5f3f d486 803f 308e f8be
000000a0: fb9c 14bf e1fb 05bf d92c d3bf 46f5 17bf
000000b0: 4ed1 05bf 9246 18bf f1a3 0ebf 10e9 b9bd
000000c0: 8e38 14bf 5922 a2be 7ad7 2ebf 5850 1bbf
000000d0: 3440 ecbe 0a10 90be eac1 5fbf 7cab 12bf
000000e0: c2fe 24bf b89a 03bf b46a 8bbe 4602 06bf
000000f0: 1e6b 0bbf 02f5 16bf 0e55 efbd 78e1 c5be

model.4.weight f4 [1, 64]
-0.32525155 -2.183082 2.2318537 -0.23932232 -0.94450897 -0.39823666 -0.9027131 -2.512547
-0.31315264 1.7774872 -0.035566162 -0.8490838 -2.0499282 -0.32714775 -0.22924984 -0.33509585
-2.5578575 -0.27172983 -1.1009347 -0.2185102 1.9719487 -0.29837918 -1.1192052 1.7786356
-0.2735 -0.2244432 -0.027362788 -0.05514049 -1.5035069 -0.054396898 -0.29400665 2.1792545
-0.33560467 0.040033706 -2.182386 -0.2924547 -0.036855396 2.144403 2.1277177 -0.30526927
-0.6557686 -0.294947 2.9787278 1.8986398 -0.3006564 -0.251566 1.8670405 0.0304922
-0.28685638 1.7915449 -0.28226843 -0.3489533 -2.4795241 -0.01585381 2.3379161 -0.30696878
-0.29262203 -0.29702103 -0.026900658 -0.3081387 -0.25479087 -0.2898536 -0.05065048 -2.1035087
00000000: 5f87 a6be 9eb7 0bc0 b1d6 0e40 e910 75be
00000010: 57cb 71bf ade5 cbbe 3518 67bf 92cd 20c0
00000020: 8b55 a0be b384 e33f d3ad 11bd 8e5d 59bf
00000030: 0632 03c0 e97f a7be 78c0 6abe af91 abbe
00000040: f0b3 23c0 2c20 8bbe 6eeb 8cbf 23c1 5fbe
00000050: d168 fc3f 28c5 98be 1e42 8fbf 55aa e33f
00000060: 3108 8cbe 70d4 65be ed27 e0bc ffda 61bd
00000070: ea72 c0bf 48cf 5ebd 0a88 96be e878 0b40
00000080: 60d4 abbe 62fa 233d 36ac 0bc0 9fbc 95be
00000090: aff5 16bd e63d 0940 872c 0840 414c 9cbe
000000a0: 73e0 27bf 4b03 97be 7aa3 3e40 a106 f33f
000000b0: a3ef 99be 42cd 80be 2ffb ee3f c7ca f93c
000000c0: d7de 92be 5851 e53f 7d85 90be 02aa b2be
000000d0: 86b0 1ec0 d9df 81bc 6ba0 1540 032b 9dbe
000000e0: 8ed2 95be 2413 98be c55e dcbc 5bc4 9dbe
000000f0: f373 82be b167 94be e176 4fbd e39f 06c0
