trained_inf_function.pt (torch, 21322 bytes, 6 tensors)

trunk.0.weight f4 [64, 3]
-0.71378124 0.49569023 0.76360875 0.36307085 -0.6955786 -0.387141 0.47481814 -0.53886354
0.03022971 0.30321813 -1.2576047 -0.6358634 1.2546182 0.30709556 -0.2737937 0.09643742
-1.3064582 0.8307035 0.7126124 -0.6107856 -0.49944705 -0.7481055 -0.1460512 0.61411774
0.58931065 1.1555104 0.109528355 1.3210595 0.9509152 -1.3045802 -0.113951705 1.1546075
0.8661957 0.7429304 1.3936174 -0.0823776 0.65169907 0.85891134 0.3226487 0.9625852
0.21504705 -1.2770975 1.2858547 0.24819614 1.0581808 0.66895556 -0.16773391 -0.33160418
-0.5704541 0.71863174 -0.6126485 0.85046333 0.16234452 0.26583147 1.2812259 -0.050157726
0.45427835 -1.2294703 -0.9506793 -0.08725163 0.4385032 0.48839027 0.65904045 0.9297817
-0.3677293 -0.82665205 0.5604015 -0.6472745 0.936991 0.40113926 -0.24188375 -0.38687363
-0.64016277 0.9599391 0.0788329 -0.48276684 0.8769299 -0.050815225 -0.109721825 0.8706864
-1.0561254 1.1963115 0.018476024 -0.8802612 -1.0124197 -0.8422716 -0.4964133 -0.6487603
1.103929 0.07459005 -0.7469537 -0.070685804 0.07150424 0.23150758 0.23578435 -1.4211265
-1.157104 0.53118503 1.346913 1.3439052 -0.16807812 -0.35603544 -1.4105558 1.0973709
0.8579272 -0.0625877 -0.08593466 0.49991822 -1.0343561 -1.2830687 0.65663165 0.8987623
-0.6676257 -1.3024848 0.3512659 -0.21162578 -0.2897818 -0.74022543 0.85670793 0.7417538
-1.0280883 -0.36094254 0.14251775 -0.34960902 0.052404977 1.3413855 -0.070791826 0.47186282
0.67129874 -0.83457816 -0.17488864 0.49433053 1.1110634 -0.93531835 -0.89858234 0.06966832
-0.71517634 -0.351673 0.83331716 -0.209622 0.21906944 1.2888451 0.7850573 0.9118354
-0.7248492 0.50770867 0.6103293 0.79275703 1.496872 1.2481098 -1.2496253 -1.3617454
1.288382 0.53863287 0.4268707 -0.38314706 -1.1243008 -1.0238698 -1.0429165 -0.6086558
0.8951591 -1.2514834 1.4080907 1.2709149 1.2428565 0.29312035 0.9153012 0.36588705
-0.21850711 -0.2303288 -0.93009186 1.0159255 0.7951571 1.1732347 0.17793882 0.831179
-0.78780437 -0.9808229 0.3013302 0.44174647 0.9166167 -0.43404537 -0.5809828 1.1673284
-0.14625472 -1.4560165 -1.2453146 0.053444847 1.3048277 -0.7497511 0.30869898 -1.2697597
00000000: 5eba 36bf 1ccb fd3e dd7b 433f 6ce4 b93e
00000010: 7011 32bf 5837 c6be 5d1b f33e f6f2 09bf
00000020: 4ca4 f73c 683f 9b3e 31f9 a0bf f2c7 22bf
00000030: 5497 a03f a13b 9d3e b02e 8cbe fb80 c53d
00000040: 063a a7bf fca8 543f c46d 363f 725c 1cbf
00000050: 86b7 ffbe d883 3fbf 728e 15be d236 1d3f
00000060: 10dd 163f c4e7 933f 6750 e03d 7a18 a93f
00000070: 2e6f 733f 7cfc a6bf 835f e9bd 2eca 933f
00000080: 00bf 5d3f b030 3e3f 0e62 b23f 96b5 a8bd
00000090: c0d5 263f 9de1 5b3f 3632 a53e fc6b 763f
000000a0: 4b35 5c3e ee77 a3bf e396 a43f 2127 7e3e
000000b0: 7872 873f ac40 2b3f 70c2 2bbe 06c8 a9be
000000c0: 4809 12bf 40f8 373f 88d6 1cbf f7b7 593f
000000d0: a43d 263e 101b 883e 36ff a33f 3072 4dbd
000000e0: 2c97 e83e 485f 9dbf b85f 73bf fcb0 b2bd
000000f0: 7e83 e03e 4a0e fa3e e0b6 283f 2c06 6e3f
00000100: 0447 bcbe 789f 53bf 7976 0f3f c8b3 25bf
00000110: a4de 6f3f 2062 cd3e 60b0 77be 4d14 c6be
00000120: b5e1 23bf 92be 753f 2573 a13d 372d f7be
00000130: 7a7e 603f a023 50bd d6b5 e0bd 4ee5 5e3f
00000140: 1e2f 87bf bc20 993f 085b 973c cc58 61bf
00000150: f896 81bf 1d9f 57bf e229 febe 2815 26bf
00000160: 8c4d 8d3f abc2 983d 5c38 3fbf b8c3 90bd
00000170: d170 923d 5310 6d3e 7471 713e 79e7 b5bf
00000180: fc1b 94bf befb 073f a567 ac3f 1605 ac3f
00000190: ac1c 2cbe 474a b6be 188d b4bf a676 8c3f
000001a0: 1ea1 5b3f fb2d 80bd 83fe afbd 48f5 ff3e
000001b0: c865 84bf 983b a4bf 0319 283f 4915 663f
000001c0: 85e9 2abf d2b7 a6bf 20d9 b33e 6eb4 58be
000001d0: 485e 94be 6a7f 3dbf 3651 5b3f 94e3 3d3f
000001e0: 6698 83bf 76cd b8be 2cf0 113e f4ff b2be
000001f0: 9aa6 563d 85b2 ab3f 4efb 90bd 0198 f13e
00000200: 3cda 2b3f eaa6 55bf 0216 33be e418 fd3e
00000210: 5337 8e3f 0671 6fbf 7e09 66bf 44ae 8e3d
00000220: cc15 37bf 7c0e b4be 4654 553f 26a7 56be
00000230: bd53 603e e0f8 a43f 84f9 483f 0b6e 693f
00000240: b88f 39bf 32f9 013f 8a3e 1c3f 20f2 4a3f
00000250: 8099 bf3f 10c2 9f3f b9f3 9fbf ac4d aebf
00000260: b4e9 a43f d8e3 093f cc8e da3e da2b c4be
00000270: 17e9 8fbf 2a0e 83bf 4a7e 85bf ded0 1bbf
00000280: 2629 653f 9c30 a0bf 513c b43f 57ad a23f
00000290: ec15 9f3f df13 963e 2e51 6a3f 8c55 bb3e
000002a0: 54c0 5fbe 50db 6bbe 801a 6ebf d909 823f
000002b0: 6a8f 4b3f 8e2c 963f 9835 363e 26c8 543f
000002c0: 8cad 49bf 3617 7bbf f447 9a3e 982c e23e
000002d0: 64a7 6a3f 323b debe 4abb 14bf 046b 953f
000002e0: ccc3 15be c05e babf 7866 9fbf fce8 5a3d
000002f0: 9804 a73f b0ef 3fbf cb0d 9e3e 7c87 a2bf

trunk.0.bias f4 [64]
-0.03471746 -0.00102624 0.08609618 0.030964948 -0.030154724 -0.026150843 -0.006195047 -0.021592524
0.11118779 0.1201721 0.07190709 -0.010008718 0.10649965 -0.04219526 0.11492311 0.11499168
0.06726191 0.11762847 -0.045701448 0.05053272 -0.036067434 0.11376619 0.11699641 0.0008279799
-0.047435008 0.07084961 -0.04290992 0.10939774 0.11783676 0.04521604 -0.0026684094 -0.0034622105
-0.048610374 0.07617414 0.11845209 -0.01774545 0.089300156 0.11495359 -0.0007149059 -0.044345282
0.07231128 -0.04733395 -0.04985731 -0.017366132 0.11805722 0.018638682 -0.026429534 0.11500538
-0.030921623 0.08800709 0.05106102 0.11012626 0.0368573 0.10299847 0.12799326 0.11899799
0.08963761 0.12589514 -0.03493341 0.06868018 0.11397855 0.09780401 -0.046230603 -0.02311287
00000000: e533 0ebd e682 86ba 3253 b03d 34aa fd3c
00000010: 0a07 f7bc 4b3a d6bc d2ff cabb cee2 b0bc
00000020: 6db6 e33d ca1c f63d 0644 933d 9bfb 23bc
00000030: 7d1c da3d f0d4 2cbd cf5c eb3d c280 eb3d
00000040: 9dc0 893d 32e7 f03d 7131 3bbd 66fb 4e3d
00000050: 72bb 13bd 40fe e83d d09b ef3d ca0c 593a
00000060: 364b 42bd 9a19 913d 50c2 2fbd ec0b e03d
00000070: 6654 f13d 7434 393d 7be0 2ebb 41e6 62bb
00000080: ac1b 47bd 3001 9c3d 0297 f23d e85e 91bc
00000090: 00e3 b63d ca6c eb3d 8668 3bba 66a3 35bd
000000a0: f017 943d 3ee1 41bd 2e37 4cbd 6b43 8ebc
000000b0: fcc7 f13d 26b0 983c c082 d8bc f187 eb3d
000000c0: 584f fdbc 103d b43d 5c25 513d e089 e13d
000000d0: aef7 163d ddf0 d23d aa10 033e 38b5 f33d
000000e0: ec93 b73d a8ea 003e 5616 0fbd 32a8 8c3d
000000f0: 966d e93d 784d c83d 4d5c 3dbd 3457 bdbc

trunk.2.weight f4 [64, 64]
0.15069462 0.022534288 0.07190569 0.10655461 0.25113946 -0.10087073 -0.39834884 0.17429474
0.15629268 -0.08773914 0.31484473 -0.18923092 0.29190952 0.19817483 0.25482768 0.15899667
0.15480058 0.039677486 -0.19662112 0.20829189 -0.09391635 0.05908527 -0.032989353 -0.07935102
0.095230505 0.02258339 0.04014656 -0.049127426 0.17433003 0.22826105 -0.26022327 -0.21043709
-0.38012114 0.26769835 0.058524705 -0.041259065 -0.19548035 0.061748564 -0.2633509 0.0017892477
-0.28510952 -0.26249838 -0.36700508 0.09513748 -0.12839386 -0.21673447 -0.07202753 0.12468234
-0.19424018 0.21150331 -0.22519425 0.20935544 0.18815382 0.07225792 -0.18236825 0.37913203
0.27639085 0.34988457 -0.15153998 0.010541586 0.39289507 0.19147605 -0.0358297 0.054245632
0.011366597 -0.29145157 0.08787197 0.10390104 0.18007353 -0.16453019 0.15444973 -0.11061627
0.1917475 0.13258317 -0.034893274 0.3303232 -0.18897593 -0.34249187 0.20658186 0.28277606
-0.04811531 0.28300637 -0.13445915 0.16493073 -0.22122204 0.35446042 -0.22354761 -0.12932637
0.11276443 0.07659501 -0.18045457 0.3885299 -0.033602007 -0.21997033 -0.0029462005 -0.21840101
-0.3539597 0.36048484 0.02906285 -0.34377578 0.15443602 0.25291127 -0.2589365 -0.0057031233
-0.02965118 -0.076536216 -0.29087186 0.19676588 -0.12110436 0.20074165 -0.024880145 0.2701767
-0.17096996 0.2536367 0.2113043 0.085313015 -0.37021488 0.29768175 -0.16789979 0.33785224
-0.12056486 0.0920738 0.12560636 0.11560854 -0.107502334 0.0495078 -0.045316238 -0.11718406
0.14744756 -0.31544465 0.20223093 -0.04046479 -0.20336531 0.13166481 0.19509846 -0.40694916
0.11277226 0.019098472 0.25221902 -0.10126187 0.37849155 0.01163567 0.2645846 0.37392026
0.28137964 -0.05294273 -0.19517186 -0.19186139 -0.15763962 0.26465628 0.33112314 -0.26849526
-0.22715668 0.17424774 -0.33441067 -0.07837443 0.049825992 0.020847786 0.13071391 -0.04006269
-0.040169857 -0.22276309 0.2649134 0.07435988 0.10063083 0.007198021 0.018278103 -0.3357391
-0.2315023 -0.3524801 -0.2729882 -0.00862681 0.17973039 -0.4018427 -0.34780842 0.10923661
-0.049309023 -0.115265556 0.0519005 0.21855341 -0.22748035 0.2076833 0.14685082 -0.12768522
0.1242892 0.34837568 0.039751124 -0.062290832 0.10475528 -0.1832942 0.03108292 0.04184229
0.30927247 0.03407146 0.19385844 -0.25649077 -0.061914686 -0.034082375 -0.28993267 -0.14443153
-0.045111217 -0.006092743 0.24976826 -0.1560931 -0.16348062 -0.28658962 0.09733688 -0.050616983
-0.054346167 -0.29468274 -0.28176397 0.2877692 -0.07157659 0.24668199 -0.07498176 0.31627077
-0.19637609 -0.2575224 -0.20004123 -0.03311819 -0.23389767 -0.23330043 0.2830274 -0.28107458
0.21791713 -0.14596634 0.107078865 0.13088322 0.050444104 -0.2655993 0.24947608 0.27173543
-0.25381666 0.017641112 0.23278242 0.22473058 -0.015518267 -0.18997261 0.008144757 0.15566695
0.014170675 0.19907957 -0.26687926 -0.2660336 0.084496796 0.1757947 0.065642536 -0.16138497
0.2883136 0.018264366 -0.21805504 0.08179709 -0.23025082 0.11941579 0.0755602 -0.059169583
00000000: b14f 1a3e d499 b83c 4a43 933d 4e39 da3d
00000010: 5a95 803e 5095 cebd 61f4 cbbe 527a 323e
00000020: 300b 203e 94b0 b3bd 5433 a13e c0c5 41be
00000030: 2a75 953e 58ee 4a3e c678 823e 06d0 223e
00000040: 0b84 1e3e dc84 223d 0c57 49be 784a 553e
00000050: 3757 c0bd 6503 723d d81f 07bd ca82 a2bd
00000060: 3608 c33d cd00 b93c b870 243d d739 49bd
00000070: 9283 323e 44bd 693e fc3b 85be d27c 57be
00000080: 3d9f c2be c20f 893e 9ab7 6f3d 44ff 28bd
00000090: 002c 48be 10ec 7c3d eed5 86be 3185 ea3a
000000a0: e0f9 91be 3066 86be 17e8 bbbe 70d7 c23d
000000b0: ae79 03be a4ef 5dbe 2b83 93bd 7459 ff3d
000000c0: e6e6 46be 5394 583e 5299 66be 4661 563e
000000d0: 65ab 403e f6fb 933d bebe 3abe 981d c23e
000000e0: 1a83 8d3e 1224 b33e 4c2d 1bbe 9eb6 2c3c
000000f0: 8b29 c93e 4c12 443e 2ac2 12bd ab30 5e3d
00000100: f73a 3a3c 2439 95be 38f6 b33d 12ca d43d
00000110: 3265 383e 9a7a 28be 1228 1e3e c88a e2bd
00000120: 7559 443e e2c3 073e 40ec 0ebd 1f20 a93e
00000130: e882 41be 185b afbe 328a 533e 06c8 903e
00000140: 8f14 45bd 36e6 903e a9af 09be 9ae3 283e
00000150: 0888 62be d67b b53e aae9 64be 226e 04be
00000160: 0af1 e63d d8dd 9c3d 15c9 38be 64ed c63e
00000170: 42a2 09bd e73f 61be 0b15 41bb 84a4 5fbe
00000180: 353a b5be 7891 b83e 3715 ee3c 6103 b0be
00000190: 7a24 1e3e 967d 813e 5393 84be 44e1 babb
000001a0: 08e7 f2bc 05bf 9cbd 28ed 94be ff7c 493e
000001b0: 9005 f8bd 388f 4d3e 72d1 cbbc 9a54 8a3e
000001c0: c012 2fbe abdc 813e 2860 583e 97b8 ae3d
000001d0: ce8c bdbe be69 983e eced 2bbe f8fa ac3e
000001e0: b6ea f6bd 3091 bc3d f49e 003e 2cc4 ec3d
000001f0: 2f2a dcbd b1c8 4a3d 859d 39bd 32fe efbd
00000200: 7efc 163e f681 a1be a015 4f3e 68be 25bd
00000210: ff3e 50be 24d3 063e e4c7 473e a45b d0be
00000220: 25f5 e63d 6674 9c3c da22 813e 6262 cfbd
00000230: a5c9 c13e 8aa3 3e3c a277 873e 7a72 bf3e
00000240: fe10 903e 7ada 58bd 22db 47be 5077 44be
00000250: 486c 21be 0781 873e f988 a93e 3678 89be
00000260: c39b 68be 006e 323e e037 abbe c682 a0bd
00000270: 5716 4c3d fac8 aa3c ded9 053e c618 24bd
00000280: 2689 24bd 021c 64be bba2 873e fe49 983d
00000290: 8917 ce3d 60dd eb3b f6bb 953c ffe5 abbe
000002a0: f00e 6dbe 4678 b4be 1cc5 8bbe 7757 0dbc
000002b0: 3e0b 383e 54be cdbe f213 b2be 72b7 df3d
000002c0: 42f8 49bd 5910 ecbd 9e95 543d 77cc 5f3e
000002d0: 9cf0 68be eeaa 543e 1060 163e eabf 02be
000002e0: 568b fe3d 4c5e b23e 13d2 223d ac24 7fbd
000002f0: f089 d63d 7ab1 3bbe 9ca1 fe3c d262 2b3d
00000300: f658 9e3e 848e 0b3d d482 463e c252 83be
00000310: 419a 7dbd f699 0bbd 0e72 94be dce5 13be
00000320: 8ac6 38bd a2a5 c7bb 40c3 7f3e dfd6 1fbe
00000330: 7767 27be e0bb 92be 8f58 c73d c153 4fbd
00000340: 169a 5ebd a8e0 96be 5e43 90be 7c56 933e
00000350: bf96 92bd 349a 7c3e 0990 99bd 3eee a13e
00000360: d016 49be fad9 83be 9cd7 4cbe f0a6 07bd
00000370: df82 6fbe 4fe6 6ebe f8e8 903e 02e9 8fbe
00000380: ab25 5f3e 3378 15be 2a4c db3d 4006 063e
00000390: 7a9e 4e3d a2fc 87be a876 7f3e e820 8b3e
000003a0: 42f4 81be 1884 903c 845e 6e3e c61f 663e
000003b0: 5440 7ebc 2e88 42be 9671 053c 2867 1f3e
000003c0: 1e2c 683c 84db 4b3e 66a4 88be 8e35 88be
000003d0: a80c ad3d 8703 343e 986f 863d 1a42 25be
000003e0: d79d 933e 279f 953c d249 5fbe 3c85 a73d
000003f0: dfc6 6bbe 4490 f43d 4ebf 9a3d ce5b 72bd

trunk.2.bias f4 [64]
0.10350891 0.11641933 0.11944757 0.004189916 0.03258286 0.031854264 0.10643418 0.010814978
0.0099997 0.008211509 0.005369114 0.0009990835 0.13267663 -0.023238912 0.110428825 0.079868734
0.054783672 0.007382515 0.11163517 0.01 -0.024819009 0.01 0.01 -0.010956089
0.005017787 0.00064597896 0.013458302 0.0018580585 0.01 0.11758277 0.10199574 0.017210275
0.11212402 0.12093249 0.0489354 0.00943419 0.113576815 0.11508025 0.0025796755 0.031693675
0.11654281 0.11000568 0.0009131024 0.07963054 0.11067647 0.11033333 0.009950208 0.07490955
0.11041619 -0.007223053 0.12549016 0.008217007 0.064962834 0.007898923 -0.013992852 0.01473
0.113066696 0.10150567 0.009545342 0.01 0.009837294 0.08407684 0.010555957 0.011126978
00000000: 7bfc d33d 426d ee3d eda0 f43d 904b 893b
00000010: 9b75 053d 9e79 023d 2afa d93d 4e31 313c
00000020: c8d5 233c 9189 063c 65ef af3b aef3 823a
00000030: 62dc 073e 885f bebc 8228 e23d 3892 a33d
00000040: d864 603d 06e9 f13b fba0 e43d 0ad7 233c
00000050: 3c51 cbbc 0ad7 233c 0ad7 233c 2b81 33bc
00000060: 406c a43b ea56 293a 3680 5c3c 198a f33a
00000070: 0ad7 233c 3ccf f03d 24e3 d03d 90fc 8c3c
00000080: 47a1 e53d 74ab f73d 7c70 483d dc91 1a3c
00000090: f69a e83d 32af eb3d c60f 293b 3ad1 013d
000000a0: ffad ee3d a84a e13d 445d 6f3a 5615 a33d
000000b0: 58aa e23d 71f6 e13d 3206 233c 2e6a 993d
000000c0: e221 e23d 5caf ecbb 7e80 003e a0a0 063c
000000d0: 3c0b 853d 7c6a 013c 4642 65bc 1956 713c
000000e0: 838f e73d 34e2 cf3d 1164 1c3c 0ad7 233c
000000f0: 9a2c 213c 7a30 ac3d e5f2 2c3c ee4d 363c

wage_head.0.weight f4 [3, 64]
0.25438702 0.14968121 -0.08072023 -0.04204744 0.021212388 0.08445017 -0.28249317 -0.12602013
0.024310848 0.27649653 -0.21320069 -0.17244479 -0.0010950008 0.2879589 0.2860853 0.009119386
-0.23152396 -0.09601888 -0.1802512 -0.041160405 -0.07551203 -0.21445812 -0.07833614 -0.12341423
-0.0871838 0.14128022 -0.12716219 0.22356099 -0.1011726 0.038358495 -0.07280053 -0.13785762
-0.028219093 -0.09754048 0.26541913 -0.0742094 -0.0824312 0.13689835 0.090335876 -0.049705476
-0.20072159 0.18785211 0.1126071 -0.092231795 -0.02849437 -0.0422874 -0.23852703 -0.21085292
0.05119998 -0.2828047 -0.16533054 -0.115173765 0.04397793 -0.082957 0.08295025 0.12363584
0.014604053 0.08156985 0.19964275 -0.083300106 0.17155723 -0.07230568 0.28807223 0.034327764
0.3544921 0.1338729 0.09929406 -0.3134672 -0.19580188 -0.18376808 0.2532121 -0.09977602
-0.14868069 -0.06292393 -0.09427478 -0.11787233 0.058126073 -0.09562298 0.13008156 0.21905789
0.13941209 0.2031287 0.2727045 -0.094091795 0.051865935 -0.124995515 0.21367046 -0.030151144
-0.3460546 -0.09190155 -0.20071685 -0.20443323 0.089403026 0.15539514 0.3485974 -0.27166066
0.23667479 0.13898674 0.1919445 -0.24701965 0.22674939 0.12766168 -0.18792021 0.24856251
0.18191758 0.278542 -0.091841675 0.19665593 0.29615426 0.258546 -0.18480454 0.29510602
0.2177771 -0.1288659 0.16547461 0.12524036 -0.05535032 0.09853769 -0.21443573 -0.20877483
0.16711487 0.09914076 0.228225 -0.16308585 -0.082466714 0.03798732 -0.101599775 -0.26770198
0.17697598 0.1712189 0.09865025 -0.20682977 0.12114231 0.1326502 0.17847821 -0.15096466
-0.044327807 0.076541305 -0.20333351 -0.17599359 0.10469589 -0.22568329 0.15509346 0.0057780724
-0.21739331 0.041391913 0.1952722 -0.18828799 -0.23445871 -0.36597055 -0.23726611 -0.38415146
-0.052066375 -0.32065928 -0.17298509 -0.26367646 0.112498775 0.18248764 0.13696924 0.31411046
0.34780866 0.17124842 -0.061139356 0.2001998 0.1799733 0.2331923 -0.2194313 -0.2305518
0.15665218 0.23765598 -0.11298515 -0.03683591 0.3880921 0.34605598 -0.09665727 -0.11653493
0.14646772 -0.010418899 0.18307558 -0.37869066 0.36604202 -0.00049431523 -0.2798198 0.11339843
0.2636872 0.34228283 0.043568503 -0.22047617 -0.20511694 0.2758839 -0.17828025 -0.08797333
00000000: 043f 823e 0846 193e a650 a5bd f039 2cbd
00000010: 9ac5 ad3c 36f4 ac3d f2a2 90be 6c0b 01be
00000020: 8b27 c73c f490 8d3e 4851 5abe 5e95 30be
00000030: 2186 8fba 596f 933e c679 923e 7a69 153c
00000040: 9e14 6dbe 8ca5 c4bd c593 38be d097 28bd
00000050: 0da6 9abd e99a 5bbe b36e a0bd 9ac0 fcbd
00000060: 6c8d b2bd c3ab 103e ce36 02be 2ced 643e
00000070: 9533 cfbd cc1d 1d3d 7218 95bd 8c2a 0dbe
00000080: ba2b e7bc 4ec3 c7bd 04e5 873e 19fb 97bd
00000090: b0d1 a8bd 152f 0c3e 0402 b93d f897 4bbd
000000a0: f689 4dbe 4e5c 403e 8d9e e63d 06e4 bcbd
000000b0: 066d e9bc 8e35 2dbd 6e40 74be d4e9 57be
000000c0: 12b7 513d c7cb 90be 694c 29be 39e0 ebbd
000000d0: 3422 343d 5ce5 a9bd d2e1 a93d ca34 fd3d
000000e0: d745 6f3c 180e a73d 266f 4c3e 3f99 aabd
000000f0: b3ac 2f3e 0015 94bd 347e 933e 459b 0c3d
00000100: fd7f b53e fa15 093e af5a cb3d c67e a0be
00000110: 4a80 48be b32d 3cbe 04a5 813e 5f57 ccbd
00000120: c03f 18be 43de 80bd 2313 c1bd 0c67 f1bd
00000130: 9b15 6e3d fbd5 c3bd 1a34 053e b650 603e
00000140: 0bc2 0e3e f800 503e ed9f 8b3e 33b3 c0bd
00000150: 6071 543d a6fd ffbd 6ecc 5a3e 88ff f6bc
00000160: 122e b1be e136 bcbd b888 4dbe f256 51be
00000170: ef18 b73d e71f 1f3e 5c7b b23e 1b17 8bbe
00000180: e05a 723e 8a52 0e3e 198d 443e b8f2 7cbe
00000190: fe30 683e beb9 023e 286e 40be 2c87 7e3e
000001a0: 9a48 3a3e 0f9d 8e3e 7d17 bcbd 2c60 493e
000001b0: 88a1 973e 2460 843e 673d 3dbe 2318 973e
000001c0: f600 5f3e 6cf5 03be 2d72 293e 023f 003e
000001d0: 04b7 62bd 21ce c93d 0a95 5bbe 12c9 55be
000001e0: 2920 2b3e 500a cb3d d0b3 693e faff 26be
000001f0: 4fe4 a8bd 9898 1b3d 8b13 d0bd 3c10 89be
00000200: 3139 353e 0254 2f3e 2409 ca3d 2fcb 53be
00000210: 7619 f83d 74d5 073e fec2 363e 7b96 1abe
00000220: 1391 35bd b0c1 9c3d a936 50be aa37 34be
00000230: cc6a d63d 8519 67be d2d0 1e3e fc55 bd3b
00000240: 5a9c 5ebe 918a 293d 70f5 473e 91ce 40be
00000250: f215 70be 7e60 bbbe e3f5 72be 80af c4be
00000260: 8d43 55bd 742d a4be 0123 31be 9a00 87be
00000270: c265 e63d 0ade 3a3e aa41 0c3e 16d3 a03e
00000280: fa13 b23e bf5b 2f3e 436d 7abd 2d01 4d3e
00000290: ec4a 383e f6c9 6e3e 99b2 60be c515 6cbe
000002a0: 6e69 203e 175c 733e c264 e7bd 40e1 16bd
000002b0: 02b4 c63e 402e b13e 3ff4 c5bd dea9 eebd
000002c0: a2fb 153e 08b4 2abc 2a78 3b3e bee3 c1be
000002d0: dc69 bb3e ef94 01ba 8a44 8fbe 703d e83d
000002e0: 0202 873e b23f af3e e374 323d 81c4 61be
000002f0: 2d0a 52be a840 8d3e 198f 36be 5c2b b4bd

wage_head.0.bias f4 [3]
0.008984581 0.08874102 0.085529014
00000000: 1034 133c dabd b53d d629 af3d
