trained_value_function.pt (torch, 20318 bytes, 5 tensors)

model.0.weight f4 [64, 1]
0	0x3fae7c49	1.3631679
1	0x4032f668	2.7962894
2	0x3efa4334	0.48879397
3	0x3efbe103	0.49195108
4	0x3f61488f	0.8800134
5	0x3ff04dd0	1.8773746
6	0x4003aa4c	2.057269
7	0x4052f6ea	3.2963204
8	0x3f99f818	1.2028837
9	0x3fdc5243	1.7212604
10	0x3f6c03e5	0.9219344
11	0x3e1308fc	0.14358896
12	0xbe7c5a68	-0.24643862
13	0x3f27e2f2	0.65580666
14	0x3f4cc56a	0.7998873
15	0x40043371	2.0656397
16	0x4045aa6f	3.0885274
17	0x401a7563	2.4134147
18	0x3f0c9569	0.5491548
19	0x3f4b7b84	0.79485345
20	0x4015b613	2.339238
21	0x405040d6	3.2539573
22	0x3f8de6b6	1.1086032
23	0x405359e9	3.3023627
24	0x3f762221	0.96145827
25	0x400ac84b	2.168475
26	0x4044f30e	3.077335
27	0x3e4fd484	0.20295912
28	0x3f13450f	0.5752725
29	0x3f46a681	0.77597815
30	0x3f5e0c5b	0.867376
31	0x406536bd	3.581466
32	0x3f09791c	0.53700423
33	0x3f561c06	0.8363651
34	0x3ef330de	0.4749822
35	0xbe77183c	-0.24130338
36	0x3f25eb30	0.6481199
37	0x403b0358	2.922079
38	0x4031f9e9	2.7808783
39	0x402dc5b4	2.7151918
40	0x4017e2fb	2.3732288
41	0x3f51c9d7	0.8194861
42	0x401ff31a	2.4992127
43	0xc0401729	-3.0014136
44	0x3f0ba5a0	0.545496
45	0x3f4505a2	0.7696172
46	0x40448956	3.0708823
47	0x4022c1ad	2.543071
48	0x3f1909ed	0.5978077
49	0x3f287d2f	0.65816015
50	0x40221bb9	2.532942
51	0x4079f52b	3.9055889
52	0x4022ce17	2.5438287
53	0x3fee68d1	1.8625737
54	0x4035d338	2.8410168
55	0x3f1281b4	0.5722916
56	0x3ff512f0	1.9146404
57	0x3ef96706	0.48711413
58	0x3f1181ca	0.5683867
59	0x3f4d900b	0.8029792
60	0x404d3601	3.2064211
61	0x40331c1c	2.7985907
62	0x3f3a5485	0.72785217
63	0x4024a9bd	2.57286

model.0.bias f4 [64]
0	0xbec83709	-0.39104488
1	0x3ecb333f	0.39687535
2	0xbf829739	-1.02024
3	0xbed29f7d	-0.41137305
4	0xbf5076f6	-0.8143152
5	0x3e75f285	0.24018295
6	0xbefd25f3	-0.49443015
7	0x3f201b69	0.62541825
8	0xbf0c4bf9	-0.54803425
9	0xbce54b2f	-0.027989952
10	0xbf2f5690	-0.6849146
11	0x3ba348b8	0.004983034
12	0x3f6974fa	0.9119412
13	0xbf9ff64d	-1.249704
14	0xbf917da2	-1.1366465
15	0xbeccdb4f	-0.4001107
16	0x3ea840ef	0.3286204
17	0x3efb337e	0.49062723
18	0xbd696af3	-0.05698676
19	0xbfe8853d	-1.8165661
20	0x3e7349da	0.23758641
21	0x3f221c79	0.63324696
22	0xbf6239b4	-0.883693
23	0x3f1ce2b6	0.61283433
24	0xbf6e1f62	-0.93016636
25	0xbea223a8	-0.3166783
26	0x3f2afbb1	0.667903
27	0x3d4cf217	0.050035562
28	0xbd8d99a5	-0.06914071
29	0xbf907d81	-1.1288301
30	0xbfd71249	-1.6802455
31	0x3f3a380b	0.72741765
32	0xbe4ba431	-0.19886853
33	0xbf532032	-0.82471
34	0xbf930340	-1.1485367
35	0x3d91e09e	0.071229205
36	0x3caccb3b	0.021093002
37	0x3f2d0643	0.6758768
38	0x3e8b9ef1	0.272697
39	0x3e8cc1c2	0.27491575
40	0xbea6e0e8	-0.32593465
41	0xbf5ea358	-0.8696799
42	0xbdb95f19	-0.090513416
43	0x3f3960fa	0.724136
44	0xbf0c06fd	-0.54698163
45	0xbf305b6c	-0.688895
46	0x3eef87b8	0.46783233
47	0x3efd0711	0.49419454
48	0xbfbd7515	-1.4801356
49	0xbfa6771e	-1.3005102
50	0x3ef76b17	0.4832389
51	0x3f5c2f54	0.86009717
52	0x3e2426ac	0.16030377
53	0xbe2eefc8	-0.17083657
54	0x3f0147f1	0.505004
55	0xbebf0fbd	-0.37316695
56	0x3da941d7	0.08264511
57	0xbf63e1b5	-0.89016277
58	0xbf5ea7ea	-0.86974967
59	0xbf060d0f	-0.52363676
60	0x3edbdcf7	0.4294202
61	0x3e5be19e	0.21472785
62	0xbf5e2036	-0.867679
63	0x3de31e85	0.110898055

model.2.weight f4 [64, 64]
0	0xbe5078b9	-0.20358552
1	0xbe8ad079	-0.27112177
2	0xbe3edafa	-0.1863822
3	0xbe0b1fd5	-0.13586362
4	0xbe743df3	-0.23851757
5	0xbe2b3628	-0.16719878
6	0xbda6ce56	-0.08144824
7	0xbe3f0576	-0.18654427
8	0xbe207b82	-0.15672114
9	0xbe2db2cd	-0.16962738
10	0xbe065c77	-0.1312121
11	0xbda40ffb	-0.080108605
12	0xbd68147e	-0.056660168
13	0xbdaf76b0	-0.0856756
14	0xbd1c9182	-0.038224705
15	0xbe372d99	-0.17888488
16	0xbe98c21b	-0.2983559
17	0xbe622a42	-0.22086433
18	0xbd9c3e81	-0.07629109
19	0xbe262ac3	-0.1622725
20	0xbe68496c	-0.22684258
21	0xbe887d6b	-0.26658186
22	0xbe8ea645	-0.2786123
23	0xbe8fd49e	-0.28091902
24	0xbe3c5b79	-0.18394269
25	0xbdcf383b	-0.10118147
26	0xbdc77c72	-0.09740533
27	0xbe94f562	-0.29093462
28	0xbdaad189	-0.08340747
29	0xbe822e90	-0.2542615
30	0xbe417713	-0.1889308
31	0xbe6d2791	-0.23159625
32	0xbe3e4215	-0.18579896
33	0xbe3c1663	-0.18367915
34	0xbe8d66d8	-0.27617526
35	0xbe920337	-0.28518078
36	0xbe3890bf	-0.18023966
37	0xbe254aa1	-0.1614175
38	0xbe6af32f	-0.2294433
39	0xbdfa15dc	-0.122112006
40	0xbe93f98a	-0.2890132
41	0xbe2cf17e	-0.16888997
42	0xbd8535cf	-0.06504404
43	0xbe7c637f	-0.2464733
44	0xbd505ca6	-0.050869606
45	0xbdebe408	-0.11518103
46	0xbe929f01	-0.28636935
47	0xbdabde6e	-0.083920345
48	0xbe305121	-0.17218448
49	0xbe583c8d	-0.21116848
50	0xbd7ed91f	-0.06221878
51	0xbe93cd5f	-0.28867623
52	0xbe1eb31a	-0.1549801
53	0xbe423195	-0.18964227
54	0xbd9e1394	-0.07718578
55	0xbe018d6d	-0.12651606
56	0xbdd29ff8	-0.10284418
57	0xbdee81cf	-0.11645853
58	0xbe47b48a	-0.19502464
59	0xbe3e6ece	-0.18596956
60	0xbe9541a4	-0.29151642
61	0xbddbc817	-0.107315235
62	0xbd81a20f	-0.06329738
63	0xbdb0f310	-0.086401105
64	0xbca2c380	-0.019868612
65	0x3f30a075	0.6899484
66	0xbe3037ab	-0.17208736
67	0xbe83d7b4	-0.25750506
68	0xbe310af8	-0.1728934
69	0x3e6b743d	0.2299356
70	0x3eb9a59b	0.3625916
71	0x3f6f6323	0.93510646
72	0x3caf5a78	0.021405444
73	0x3e821ef4	0.2541424
74	0xbe3b500d	-0.18292256
75	0xbdde739e	-0.10861896
76	0xbf5f2fd6	-0.87182367
77	0xbdba4135	-0.090944685
78	0xbdfc117a	-0.12308021
79	0x3f09a540	0.53767776
80	0x3f845e4d	1.0341278
81	0x3ecbef71	0.39831117
82	0xbe4e5286	-0.20148668
83	0xbdf511ae	-0.11966263
84	0x3ef15cc1	0.47141078
85	0x3f5889e7	0.8458542
86	0x3b9d4184	0.00479907
87	0x3f7a920b	0.97879094
88	0xbe16768a	-0.14693657
89	0x3ed47be6	0.41500777
90	0x3f4bb357	0.79570526
91	0xbe4b7248	-0.19867814
92	0xbe4f8213	-0.20264463
93	0x3d814788	0.06312472
94	0xbccaeb1b	-0.02477031
95	0x3f90b4f2	1.130522
96	0xbe99adf8	-0.3001554
97	0xbd44a708	-0.048010856
98	0xbe85b93f	-0.26117894
99	0xbf4d8466	-0.8028015
100	0xbe64b369	-0.22334065
101	0x3f0efad6	0.55851495
102	0x3f3e5ec6	0.7436336
103	0x3f49e2cd	0.78861696
104	0x3f20fda4	0.62887025
105	0x3b8694a2	0.004107074
106	0x3f3b2862	0.73108494
107	0xbfd640dc	-1.6738544
108	0xbe17f7f4	-0.1484068
109	0xbe680c10	-0.22660851
110	0x3f502450	0.8130541
111	0x3f00f57d	0.50374585
112	0xbc512714	-0.012765665
113	0xbb9b15da	-0.0047328295
114	0x3ed603f4	0.4179989
115	0x3fa8e81f	1.3195838
116	0x3f2d587f	0.6771316
117	0x3e2df021	0.16986133
118	0x3f3eb144	0.74489236
119	0xbe8f3e2e	-0.27977127
120	0x3e89fb9b	0.26949772
121	0xbdd5e511	-0.104440816
122	0xbe868f15	-0.26281038
123	0xbdf6b2ea	-0.12045844
124	0x3f94502a	1.1586964
125	0x3f3eda99	0.74552304
126	0xbe6b3bf6	-0.22972092
127	0x3f1ba6a1	0.6080113
128	0xbd1397d2	-0.03603346
129	0x3f3acba9	0.7296701
130	0xbdb30df4	-0.08742896
131	0xbe5a262b	-0.21303622
132	0xbe0a4900	-0.1350441
133	0x3e8d7a50	0.2763238
134	0x3effd43e	0.49966615
135	0x3f81524b	1.0103239
136	0x3da8efe5	0.08248881
137	0x3e173f54	0.14770252
138	0xbdaf3df5	-0.08556739
139	0x3d336c9b	0.043804746
140	0xbf22c1ed	-0.6357716
141	0xbdcf995e	-0.10136674
142	0xbdd674be	-0.104714856
143	0x3ebdf147	0.37098143
144	0x3f580491	0.8438197
145	0x3ed54440	0.41653633
146	0xbe5a4314	-0.21314651
147	0xbe3f7414	-0.18696624
148	0x3f10f19a	0.56618655
149	0x3f45d569	0.77278763
150	0x3c2124da	0.009835446
151	0x3f7957ce	0.97399604
152	0xbcb77c86	-0.022398245
153	0x3ec898c2	0.39179045
154	0x3f153f86	0.58300054
155	0x3d903692	0.070416585
156	0xbdf208ce	-0.118180856
157	0x3d8f9aca	0.070119455
158	0xbdc1253a	-0.094309285
159	0x3f90e0f2	1.1318648
160	0xbe287c99	-0.1645378
161	0xbd9e82f4	-0.07739821
162	0xbe48117b	-0.19537918
163	0xbf2ae7c6	-0.6675991
164	0xbdb65ee8	-0.08904821
165	0x3f121964	0.57069993
166	0x3f3309bb	0.6993672
167	0x3f18b3eb	0.59649533
168	0x3f30098c	0.6876457
169	0xbe26db9f	-0.16294716
170	0x3f31840c	0.6934211
171	0xbfca7e3c	-1.5819774
172	0xbe5921c4	-0.21204287
173	0xbd97d5ee	-0.07413851
174	0x3f47d8e3	0.7806532
175	0x3efec6de	0.497611
176	0xbb8fc68e	-0.0043876832
177	0xbe2a0edb	-0.1660723
178	0x3ef66f75	0.4813191
179	0x3faa9eb2	1.332968
180	0x3f275612	0.6536571
181	0x3e909a06	0.2824251
182	0x3f0b03dc	0.54302764
183	0xbe14343e	-0.14473054
184	0x3ea4dea9	0.32201126
185	0xbd91580d	-0.070968725
186	0xbdcdd0a3	-0.1004956
187	0xbc3578ce	-0.011076165
188	0x3f75f048	0.96069765
189	0x3f441b99	0.7660461
190	0xbd7d428a	-0.061831035
191	0x3f272f07	0.65306133
192	0xbd8a9785	-0.06767181
193	0x3f14ad0a	0.58076537
194	0xbebad4f8	-0.36490607
195	0xbec0db4d	-0.37667313
196	0xbe3ac6a7	-0.18239842
197	0x3e1deb1a	0.15421715
198	0x3ec51cec	0.38498628
199	0x3f593079	0.8483959
200	0xbd95c687	-0.07313257
201	0xbd0674bc	-0.03282617
202	0xbeb98c03	-0.36239633
203	0xbe933176	-0.28748673
204	0xbf515eff	-0.8178558
205	0xbe8d0e13	-0.275498
206	0xbea8b20d	-0.32948342
207	0x3eb5340f	0.3539128
208	0x3f7b7985	0.982323
209	0x3ebd888f	0.37018248
210	0xbe935a76	-0.28779954
211	0xbe151d74	-0.14562017
212	0x3e978318	0.29592204
213	0x3f3871ff	0.72048944
214	0xbd19790d	-0.03746896
215	0x3f6d9be2	0.92815983
216	0xbe8b7a8b	-0.2724193
217	0x3eef204b	0.46704325
218	0x3f227df9	0.6347347
219	0xbe70062c	-0.23439854
220	0xbeee3c5c	-0.46530426
221	0xbe39db13	-0.18149976
222	0xbe8492af	-0.2589316
223	0x3f9063fc	1.1280513
224	0xbed16d55	-0.40903726
225	0xbe6db93b	-0.23215191
226	0xbeaea539	-0.3411043
227	0xbf595fa8	-0.84911585
228	0xbed3ba53	-0.41353092
229	0x3f02daf0	0.5111532
230	0x3f0a24f9	0.53962666
231	0x3f181cb9	0.5941883
232	0x3ed332fd	0.41249838
233	0xbecdad89	-0.4017146
234	0x3ee0186a	0.43768626
235	0xbfcc9e0c	-1.5985732
236	0xbea6fe31	-0.32615808
237	0xbe49076b	-0.19631736
238	0x3f5b23c1	0.8560143
239	0x3e64971b	0.22323267
240	0xbe97b8b2	-0.296331
241	0xbe89cc2b	-0.2691358
242	0x3e79988d	0.243746
243	0x3fa8c9e8	1.3186617
244	0x3eca6f1b	0.39537892
245	0x3dbbc92e	0.09169231
246	0x3ed2ea82	0.4119454
247	0xbedf26ba	-0.43584234
248	0x3e6c10a5	0.23053224
249	0xbe2bf726	-0.16793498
250	0xbe953aac	-0.29146326
251	0xbe5d8c0d	-0.21635456
252	0x3f88c8ba	1.0686257
253	0x3f232074	0.63721395
254	0xbe8d277d	-0.2756919
255	0x3f259821	0.64685255

model.2.bias f4 [64]
0	0xbde0af3e	-0.10970925
1	0xbf1e4550	-0.6182451
2	0xbf03c2f4	-0.5146935
3	0xbf596203	-0.8491518
4	0xbf60dbcb	-0.8783538
5	0xbf3fee1c	-0.749727
6	0xbf675ce8	-0.9037614
7	0xbf499e04	-0.7875674
8	0x40472a7f	3.1119688
9	0xbf0a8218	-0.5410476
10	0xbf46430c	-0.77446055
11	0xbf63a023	-0.88916224
12	0xbf66c344	-0.901417
13	0xbdc9555e	-0.098307356
14	0xbf50ce7d	-0.81565076
15	0xbf6e413e	-0.930683
16	0xbf4c8e78	-0.7990489
17	0xbe26dd7f	-0.16295432
18	0xbf462054	-0.7739308
19	0xbf4fc716	-0.81163156
20	0xbf12e4d2	-0.573804
21	0xbde4ce80	-0.11172199
22	0xbf591eb4	-0.84812474
23	0xbf1b7cfc	-0.60737586
24	0xbe2eaf35	-0.17059024
25	0xbf396f2d	-0.72435266
26	0xbf1e43cf	-0.6182222
27	0xbf50dc21	-0.8158589
28	0xbf6cd38d	-0.925103
29	0xbf5327c8	-0.82482576
30	0xbe664fc2	-0.22491363
31	0xbf02da35	-0.5111421
32	0xbf4014b6	-0.750316
33	0xbf249f4f	-0.64305586
34	0xbf38a261	-0.7212277
35	0xbf57c863	-0.8429014
36	0xbf4b2ee4	-0.79368424
37	0xbf1eebc6	-0.6207851
38	0xbefc2627	-0.49247858
39	0xbdc76181	-0.09735394
40	0xbf5fc955	-0.87416583
41	0xbe22d9ed	-0.15903445
42	0xbf3aef4a	-0.73021376
43	0xbf1f3e52	-0.6220447
44	0xbe1ac6e0	-0.15114927
45	0xbf5bcc39	-0.85858494
46	0xbf24b729	-0.6434198
47	0xbf140755	-0.5782369
48	0xbe56442c	-0.20924443
49	0xbf09277f	-0.5357589
50	0xbf797fff	-0.9746093
51	0xbd801c11	-0.06255353
52	0xbf536a24	-0.8258383
53	0xbf4280eb	-0.75977963
54	0xbf0453c3	-0.5169031
55	0xbe5895c5	-0.21150883
56	0xbe8dc80b	-0.27691683
57	0xbe202be6	-0.15641746
58	0xbf4b2960	-0.7936001
59	0xbe1bbf71	-0.15209748
60	0xbf4da1ba	-0.803249
61	0xbf38f893	-0.72254294
62	0xbf2b4310	-0.66899204
63	0xbf3dc016	-0.74121225

model.4.weight f4 [1, 64]
0	0xbbd1579e	-0.0063886186
1	0x3f079398	0.52959585
2	0x3f0c6845	0.548466
3	0x3f02e7a9	0.51134735
4	0x3efac8e8	0.48981404
5	0x3f04d591	0.51888376
6	0x3ef6f039	0.4823015
7	0x3efce1c5	0.49390998
8	0xc09f5aa1	-4.979813
9	0x3f0fa631	0.5611296
10	0x3f0c085d	0.5470026
11	0x3ef90d26	0.48642844
12	0x3efa9f3a	0.48949605
13	0xbcf19973	-0.029492116
14	0x3f13d4df	0.5774669
15	0x3efa6436	0.4890458
16	0x3efca9ab	0.49348196
17	0x3d58f2be	0.052965872
18	0x3efefb91	0.49801305
19	0x3f074202	0.52835095
20	0x3f1294c0	0.57258224
21	0xbd2b702d	-0.041855026
22	0x3ef898cc	0.48554075
23	0x3f0fe27c	0.5620496
24	0xbbbdbb13	-0.0057901233
25	0x3efbd688	0.49187112
26	0x3f0b5bb7	0.5443682
27	0x3f012149	0.50441414
28	0x3ef895ec	0.4855188
29	0x3f075a3e	0.52872074
30	0x3c33e59d	0.010980037
31	0x3f1a0887	0.6016926
32	0x3ef1e976	0.4724843
33	0x3f0c63b9	0.54839665
34	0x3f026e4e	0.5094956
35	0x3ef4142a	0.47671634
36	0x3f0646ee	0.5245198
37	0x3f1878b7	0.59559196
38	0x3f16ac82	0.58856976
39	0xbd0b2900	-0.033974648
40	0x3ef8fa04	0.48628247
41	0x3a9f1b1d	0.0012138818
42	0x3f0e9e7a	0.55710566
43	0x3f0e3d6b	0.55562466
44	0x3cc58356	0.024110477
45	0x3ef59a20	0.4796915
46	0x3f0ddbd0	0.5541353
47	0x3f0ad4f1	0.5423117
48	0x3c41cb22	0.011828216
49	0x3f0c1307	0.54716533
50	0x3f081707	0.53160137
51	0xc10e201d	-8.88284
52	0x3f0301b5	0.5117448
53	0x3f0ad817	0.54235977
54	0x3f0d6deb	0.55245847
55	0x3d0a9afb	0.033839207
56	0x3cbf4009	0.023345964
57	0x3bb49eb3	0.0055120825
58	0x3f080253	0.53128546
59	0xbc905fb4	-0.01762376
60	0x3ef1e6d4	0.4724642
61	0x3f224a49	0.633946
62	0x3f0281e1	0.5097943
63	0x3f0149a7	0.5050301
