trained_value_function.pt (torch, 20830 bytes, 6 tensors)

model.0.weight f4 [64, 1]
00000000: d6f2 7d3f 10d5 f03f 2af1 c6bf 7b8c 94bf
00000010: ef81 06be 2c97 c43f a9a1 993f 1c2d 1740
00000020: aa87 7f3f e6e7 ad3f 372f dbbe 1c4e f33e
00000030: 4e79 0ac0 214d 84bf fb51 0cbf 61da ac3f
00000040: 6a8b e43f d7cb fd3f 242f 98bf de43 12c0
00000050: 4d74 e03f 5da2 1940 b268 ef3e ff91 1440
00000060: df4d 5b3f 7e0c bb3f a65b 1a40 63fe e4bf
00000070: 72fd 80bf 454e 183f 5109 783d 97e7 1e40
00000080: 17c1 94bf bb1c 35c0 5de7 dcbf 660d f5bf
00000090: d20a 9bbf a1fc 1440 45e4 e93f 2936 ea3f
000000a0: 92bd ba3f 4091 0dc0 5d3b cd3f 42dc 0ec0
000000b0: d577 95bf 878a 36c0 08ab 0b40 6352 0040
000000c0: 7fc3 b4bf fd1b 753f 59f4 f93f 2f3e 2940
000000d0: d64a e93f 644f a53f 896f 0a40 bb65 9cbf
000000e0: 8c5b be3f e629 e3bf 7bdc 8dbf 0346 35c0
000000f0: 16fe fb3f f3c8 f43f 1c81 85bf 7011 de3f
0.99198663 1.8815022 -1.5542347 -1.1605371 -0.13135503 1.5358634 1.200246 2.3621283
0.9981638 1.3586395 -0.4280946 0.4752053 -2.1636539 -1.0336038 -0.5481259 1.3504144
1.7855046 1.9827832 -1.1889386 -2.2853923 1.7535492 2.4005349 0.46759564 2.321411
0.85665697 1.4613187 2.4118438 -1.7890133 -1.0077345 0.5949443 0.06055576 2.4828851
-1.1621426 -2.8298786 -1.7258106 -1.9144714 -1.2112677 2.3279192 1.8272787 1.8297778
1.4589102 -2.2119904 1.6033741 -2.2321935 -1.1677195 -2.852205 2.182314 2.0050285
-1.4122161 0.9574583 1.9527694 2.6444204 1.8225963 1.2914853 2.1630576 -1.2218546
1.4871688 -1.7747161 -1.108291 -2.8323982 1.9686916 1.9123825 -1.0430026 1.7349072

model.0.bias f4 [64]
00000000: 36e5 013f 0bd1 523e f8bf 593f 3514 db3e
00000010: 8098 76bd f43c 883f 4a3e 01bf 33aa 623e
00000020: b141 de3e a0fd 533f 0404 31be 88f3 123f
00000030: 4841 f43f 0981 56bf 4a07 7bbf 1867 8bbe
00000040: 7fd4 c7be b254 883f b8af 583f acdf 88c0
00000050: 9fce f83e bf3a b63e be1b d6be 5f26 1d3e
00000060: f801 c23e 66fc 2abe 28a3 383f 5262 bd3f
00000070: 9608 033f 2fe0 723e 1b1f b5bf 3650 713d
00000080: d595 1d3f 3905 95c0 7d01 243f 2ca3 993f
00000090: 4569 183e e021 693f c906 ab3b 8b63 ed3d
000000a0: ed91 f2be 111c 1bc0 7b6a 78be efc3 e53f
000000b0: cb83 353e 160c 93c0 afa0 283e 79a3 573f
000000c0: 9136 2cc0 8d4a 543f 6ba5 593f cc64 40bd
000000d0: 6058 4b3e d5ed 473e 72ec 0a3f fffd d73e
000000e0: 829b 183f 38d5 973f b5b0 9dbe bb9e 6ec0
000000f0: 4b76 95be e340 79bc 3898 43bf cc1b 68bc
0.50740373 0.20587556 0.85058546 0.42788854 -0.06020403 1.0643601 -0.5048567 0.22135238
0.43409494 0.82808876 -0.17286688 0.5740285 1.9082422 -0.8379064 -0.98058 -0.27227092
-0.3902931 1.0650847 0.84643126 -4.2773037 0.4859514 0.35591695 -0.4181804 0.15346669
0.37892127 -0.16697845 0.72123957 1.479563 0.51184976 0.23718332 -1.4150118 0.058914386
0.6155675 -4.6568875 0.6406477 1.2002921 0.14883907 0.91067314 0.0052193147 0.11591252
-0.47376958 -2.423588 -0.24259369 1.7950419 0.17726056 -4.5952253 0.16467546 0.84233814
-2.6908305 0.82926255 0.8501803 -0.046971127 0.19857931 0.1952432 0.54267037 0.4218597
0.59612286 1.1861944 -0.3079888 -3.7284381 -0.29191813 -0.015213224 -0.7640414 -0.014166784

model.2.weight f4 [64, 64]
00000000: fe13 d83e a53d 403f aa5c 8ebf af14 e6be
00000010: 0a9b 9c3c 4f4e 1c3f ddd3 3b3f b34e 773f
00000020: c4ad f13e 6e48 123f 1c92 bd3d 37f9 a93e
00000030: 6eb8 edbf 219c 8ebe 8ba0 393e a501 323f
00000040: 96df 4d3f 8be4 2f3f 6296 c6be 6872 3a3c
00000050: c9b8 343f a49f 5d3f 1b05 213e afb1 603f
00000060: f999 c43e 6fdd 503f 40a7 763f 8f17 b3bf
00000070: 47e6 dfbd 18c5 583e 2721 013e c6d8 7b3f
00000080: a6a7 f4be 122b ffbc 43ae d2bf 16b9 f9bf
00000090: f381 96bd 5c50 593f 6a61 503f c92c 663f
000000a0: edea 2a3f 5a7e b1ba 359a 6e3f 2cdf 24c0
000000b0: 9d7b dabe 9e65 113c e90e 563f 9555 5d3f
000000c0: b5c0 e73b ce96 be3e 6e79 5e3f 3d27 7b3f
000000d0: fc15 5a3f 456f 193f 2ee8 763f 1062 01bf
000000e0: 9b0f 383f 584d abbf a30b fcbe fb88 86bd
000000f0: 73da 5d3f a115 793f 398b f3bb 947c 6d3f
00000100: 6759 df3e 4b77 703f 0656 94bf 8dc2 04bf
00000110: 269e 923d 3b00 3a3f b11d 223f 4292 883f
00000120: a102 083f ab7c 3a3f c74e 8b3c 67fe 5d3e
00000130: 3e3e 03c0 052c 77be 1bed 763d cd61 603f
00000140: 2f6e 853f 3780 563f b0f4 e4be 4909 f83c
00000150: 22a4 5b3f fcf3 823f 988f a53e 3b73 8b3f
00000160: 0a8a bb3e 553f 403f e8bc 8a3f 154e afbf
00000170: 5270 27be 51c5 f73e aae0 773e 0f09 913f
00000180: 34cd 08bf f835 d63d e93c cebf 6831 f0bf
00000190: 9afb 71bd 7894 693f 83b3 733f 526f 843f
000001a0: 0b86 5d3f 8d7d 273e 3fbd 783f 6a43 27c0
000001b0: d6e7 eabe 56b9 9dbd f387 7b3f 4e5b 663f
000001c0: 0113 d63d a63b 143f b665 4e3f 165c 973f
000001d0: 2a02 7b3f e0fe 113f 4b3e 863f 2abd 1dbf
000001e0: 2768 3a3f e03f b2bf 2b32 00bf 09e8 e23c
000001f0: 6727 943f a90b 733f 4318 16be f04c 5f3f
00000200: cea7 b93e f4b1 753f e798 95bf c44e 13bf
00000210: 5883 f73c e718 383f 41b5 3d3f 63b7 913f
00000220: 8798 083f 67c6 113f d3b1 0a3d 891f 993e
00000230: d897 f4bf 6ea0 acbe 92ed 553b a20d 2e3f
00000240: 8c3d 5a3f 1288 503f 9613 0fbf 6a55 cabd
00000250: ee3c 6b3f a834 713f 608f 8a3e 768e 8a3f
00000260: 18ed db3e 8f5a 333f f5df 593f d556 9abf
00000270: a6c4 36be c146 d93e 988d e93d da1a 923f
00000280: c681 febe eec3 e8bb 9e54 d1bf abf9 eabf
00000290: 0e49 bbbc 2461 653f 30a6 643f 3e06 533f
000002a0: 6ef6 673f d675 b1bd 09a7 6a3f d676 27c0
000002b0: 39dd 1dbf 8a4d 2ebc 6657 713f ebc3 5b3f
000002c0: 66d6 373d 9b19 b53e 7f66 553f d138 9b3f
000002d0: 6456 6f3f 21f8 233f c537 533f 6fcd 12bf
000002e0: 7110 3c3f 3113 babf 9dbb dbbe 1506 483d
000002f0: 20aa 763f 4b73 753f 9d8f 85bd b0f4 653f
00000300: 5500 adbe 39e9 063e 9bd7 1ac0 d2eb cabf
00000310: 79aa 25bf fd4f 94bd bf58 46bd 6acf 983e
00000320: 76a0 91be f2ec 90be b36e 5fbf 9ca6 31bf
00000330: 0da6 4bc0 2b4a b3bf 4689 58bf 149e cebb
00000340: 92a0 983e 9aaf c13d 95af bbbf 745e 3bbf
00000350: aa53 b5bc 2d73 593e a42a e0be 7442 b73e
00000360: 0760 f7be bf84 da3d 5b9c 663e 6356 1dc0
00000370: 8dee a7bf 9a73 f5be 4437 32bf f343 ea3e
00000380: c92f cbbf f44a 37bf a244 36c0 a127 48c0
00000390: a8fc 8cbf b714 233e 5483 5e3d 28bc 133e
000003a0: aef8 3ebd 0a95 86bf 8b9c 78bc a7e6 72c0
000003b0: 95c6 cdbf 7f61 2dbf 39de ae3e 6614 b8bd
000003c0: 0555 63bf 77f6 d5be 6b59 a4bd ee1d 043f
000003d0: 196d 923b c22b 60be 0391 9f3c 412e e1bf
000003e0: b115 bfbc 357b 24c0 1583 c1bf 5afb 38bf
000003f0: f85d c43e fb0e 1e3e 3a23 8cbf f548 5f3e
0.42202753 0.7509406 -1.1122029 -0.44937655 0.019116897 0.6105699 0.7337015 0.9660446
0.47202885 0.5714177 0.09256384 0.33197948 -1.8571908 -0.27853492 0.18127649 0.6953376
0.8041929 0.68708104 -0.38786608 0.011379816 0.7059446 0.8657172 0.15724604 0.87771124
0.38398722 0.8158788 0.96348953 -1.3991565 -0.10932594 0.21168935 0.12610303 0.98377645
-0.47784156 -0.031148467 -1.645943 -1.9509609 -0.073490046 0.84888244 0.8139864 0.89912087
0.6676472 -0.0013541684 0.9320405 -2.5761213 -0.42672434 0.008874325 0.836165 0.8645871
0.007072533 0.3722443 0.86904037 0.9810675 0.85189795 0.5993541 0.9644803 -0.50540257
0.7189881 -1.3382978 -0.49227628 -0.06569096 0.8666145 0.9729863 -0.007432368 0.92768216
0.43622896 0.93932027 -1.1588752 -0.5185936 0.07159071 0.726566 0.63326555 1.0669634
0.5312901 0.7284648 0.017005337 0.21679078 -2.050674 -0.24137886 0.060284715 0.8764923
1.042425 0.8378939 -0.44717932 0.030277865 0.8579732 1.0230708 0.32336116 1.089454
0.36628753 0.75096637 1.08389 -1.3695704 -0.1635144 0.48392728 0.24206796 1.133089
-0.53438115 0.104595125 -1.6112338 -1.8765078 -0.059077837 0.9124217 0.9519579 1.0346472
0.8653266 0.16356488 0.97163767 -2.6134896 -0.45880002 -0.07701366 0.9825432 0.8998307
0.104528435 0.57903516 0.8062395 1.1824977 0.9805018 0.57029533 1.048776 -0.61616766
0.72815174 -1.3925743 -0.5007655 0.027698534 1.1574525 0.94939667 -0.14657693 0.8722677
0.36260837 0.9597466 -1.1687287 -0.5754206 0.030213997 0.71913 0.74104697 1.138409
0.5335774 0.5694336 0.033860993 0.29906872 -1.9108839 -0.33716148 0.0032642824 0.6798955
0.85250163 0.81457627 -0.5588926 -0.09879573 0.91889846 0.9422097 0.2706251 1.0824726
0.42954326 0.70060056 0.85107356 -1.2057749 -0.17848453 0.42436793 0.1140396 1.1414444
-0.49708384 -0.0071034348 -1.6353948 -1.8357443 -0.022861984 0.8960135 0.8931608 0.824314
0.90610397 -0.086650535 0.91661125 -2.6166282 -0.61665684 -0.010638604 0.94273984 0.8584582
0.0448822 0.35371098 0.8335952 1.2126714 0.93491197 0.6405049 0.8250697 -0.57344717
0.7346259 -1.4537107 -0.42916575 0.048833925 0.9635334 0.9587905 -0.06521533 0.8982649
-0.33789316 0.13174905 -2.4194095 -1.5853217 -0.64713246 -0.07241819 -0.04842448 0.29845744
-0.28442734 -0.28305775 -0.8727829 -0.6939485 -3.18201 -1.4007009 -0.8458446 -0.0063054655
0.29810005 0.094573215 -1.4662958 -0.73191 -0.02213462 0.21235342 -0.43782532 0.35792887
-0.4831545 0.106698506 0.22520582 -2.4583976 -1.3119675 -0.4793976 -0.6961558 0.45754966
-1.5873958 -0.71598744 -2.847939 -3.1274188 -1.1014605 0.15925871 0.054324463 0.14427245
-0.04662388 -1.0514233 -0.0151740415 -3.795328 -1.6076227 -0.6772689 0.34153917 -0.08988266
-0.88801605 -0.417896 -0.080248676 0.5160817 0.004468572 -0.21891692 0.019478327 -1.759224
-0.023325773 -2.57002 -1.5118128 -0.7225853 0.38352942 0.15435402 -1.094825 0.21805175

model.2.bias f4 [64]
00000000: 64c0 913d a35e 233e cf5e 0b3e 7e95 4ebf
00000010: eb78 9ebe b568 ce3c 2086 9ebe 8ada 74be
00000020: a07e e83d df3a 3fbe 57b1 f6bd f4c5 a63b
00000030: ce01 debd 4f73 643d 9a3c 3e3d 7903 dbbc
00000040: 018f cd3b cbff 59bf 74f0 c23c a375 273e
00000050: d601 3d3c c376 a63e 8635 bcbc dd6a 6f3d
00000060: 086e fbba bb70 293e b64e bf3d 96a7 4bbd
00000070: 6ef2 67bd 65ee 99bd 54a5 94be 35fd 903c
00000080: 388e dc3d 88ca 85be b20f 503d 0b99 843d
00000090: 8e5f 75bd a650 b0be 6260 b53d 97af 043e
000000a0: afdd 3cbd 4f89 a73d f165 01be 69fb 4e3d
000000b0: f1db b03c 7bc0 76bc ca04 2f3c e250 67bf
000000c0: 4761 83be cfb5 173e 2481 2dbd 161b 8dbe
000000d0: 3d5f 32bd df28 43bd 125e ed3d 3788 c7be
000000e0: dcf5 a5bd 645c db3e b194 24bd 7036 4a3f
000000f0: f1f8 2d3d da88 aabe 2cc2 5a3d 92f4 ab3d
0.07116774 0.1595407 0.13610385 -0.80696857 -0.30951628 0.025196413 -0.30961704 -0.23911491
0.11352277 -0.18674801 -0.12045544 0.005089516 -0.10840188 0.05577403 0.046444513 -0.026735054
0.006273151 -0.85155934 0.023796298 0.16353469 0.011536082 0.32512483 -0.02297474 0.058451522
-0.0019182572 0.1654691 0.09341185 -0.04972037 -0.056627683 -0.07516173 -0.29032385 0.017698864
0.107693136 -0.26131082 0.05079622 0.06474503 -0.05990558 -0.3443653 0.08856274 0.12957607
-0.04610985 0.081804864 -0.12636544 0.050532732 0.021589251 -0.015060539 0.010682294 -0.9035779
-0.25660154 0.14815448 -0.042359486 -0.27559727 -0.043547858 -0.0476464 0.11590208 -0.3897111
-0.081035346 0.42843926 -0.040180866 0.78989315 0.042473737 -0.33307534 0.053407833 0.083962575

model.4.weight f4 [3, 64]
00000000: 2914 273f a912 503f 9cdb 5a3f bbd4 933f
00000010: f3de a7bc f4c6 a43f ec2f 93bc 7090 a73c
00000020: 6695 243f 4a10 933d 287b 5f3f 1ad8 443f
00000030: 6128 5f3f 18c9 433f a60d 3c3f b4b5 413f
00000040: 8004 473f fc26 1540 615a 563f 1e48 383f
00000050: c217 613f 111d 62c0 e8fd 483f 1bca 593f
00000060: eacd 413f 5642 443f 68f9 563f 6cdb 4c3f
00000070: 1a72 443f d6da 503f 7f23 c0bd dac0 723f
00000080: bb0f 633f 70c3 3f3d 7950 513f 918d 453f
00000090: fac6 4f3f f91c a43d fa14 623f 63d0 253f
000000a0: 96f8 563f ec46 2d3f 75f7 703f 3c3c 593f
000000b0: 8415 463f 99bd 513f c5f2 583f 1a46 703f
000000c0: 517c 02be 7832 573f 2e24 3f3f 5712 69be
000000d0: 4c2b 4c3f ac5d 543f 6d1e 593f c53c 0c3f
000000e0: d992 2c3f f790 c4be eb76 523f 57d1 07c0
000000f0: 1df8 623f a416 55bd 0147 6a3f f0c5 493f
00000100: 2a43 353f 4bf2 573f ed8e 6b3f 46f6 823f
00000110: 7170 93bc dab1 983f c98a 73bd a558 223a
00000120: 4dcb 413f 25e7 cfbc 0a04 723f 9b2b 503f
00000130: 5ab6 723f 91c1 4a3f a151 493f 16cf 533f
00000140: d4e8 3e3f 8bf9 fe3f 914c 313f 8c8c 623f
00000150: dd64 6e3f 5290 42c0 413c 413f bb78 343f
00000160: 1b17 473f 5828 663f 4c92 613f 5bf3 453f
00000170: a6a1 573f ab4e 563f edb4 f93d 9432 3f3f
00000180: 2d7e 643f c8b5 87bd d77d 393f 6e00 3e3f
00000190: bed4 473f 29fd 9fbd 4256 4c3f e0b2 4e3f
000001a0: 36b6 453f e88f 573f 1810 7c3f e7b8 453f
000001b0: 3d17 3f3f fe45 313f 0bc1 333f d5a1 553f
000001c0: 6039 2bbd 5d1a 3e3f 4570 5f3f 7484 03bd
000001d0: 2206 6b3f 7728 6e3f a786 423f 64f8 4c3f
000001e0: f891 4e3f 0f35 dcbe cfbb 5a3f c4ae e1bf
000001f0: 2edd 403f 36d9 bfbd 8570 3d3f 414c 553f
00000200: 3e62 5a3f b23a 673f dfe4 413f 2e6d 393f
00000210: 5635 84bc 51a3 843f f62e 863b 3ee3 7ebd
00000220: 030e 553f aa5b 99bd f6e0 3d3f 473b 5c3f
00000230: 048e 3a3f c711 4e3f bc0c 623f 1663 673f
00000240: a809 553f 6039 c23f 0af9 5a3f a5e8 463f
00000250: 7039 433f 6fcb 34c0 8170 4e3f 574c 5e3f
00000260: 7ef5 573f f2fd 593f cebd 513f 6cb4 433f
00000270: 7c08 543f 35ea 503f 66d0 6dbd 4567 563f
00000280: 8ee8 413f c517 ffbc 66df 553f 10ff 4a3f
00000290: c3ce 4c3f bd0f 68bc 8fe4 563f 0519 643f
000002a0: 6c72 4e3f b341 563f d732 3c3f 942f 5b3f
000002b0: 8710 4f3f 8d51 533f 04c2 543f e814 863e
000002c0: 1928 303d 7e46 663f 7f4f 613f a09a aa3c
000002d0: 2069 633f d166 6a3f 1058 4d3f 34b7 86be
000002e0: 4247 4d3f d86f 07bf 116c 5d3f deb3 6cbf
000002f0: 18ec 323f 392b 0c3e 865d 4b3f 4eaf 5e3f
0.65265137 0.81278473 0.8549135 1.1549295 -0.020492053 1.2873216 -0.017967187 0.020454615
0.64290464 0.07180841 0.87297297 0.76892245 0.8717099 0.7647872 0.73458326 0.7566788
0.7774124 2.3305044 0.8373166 0.7198504 0.87926877 -3.533024 0.7851243 0.85074013
0.75704825 0.7666372 0.83974314 0.8002231 0.76736605 0.8158392 -0.0938177 0.9482552
0.8869588 0.046817243 0.81763417 0.7716914 0.8116299 0.080133386 0.8831326 0.647711
0.8397306 0.67686343 0.9412759 0.84857535 0.7737658 0.8192993 0.84745437 0.93856966
-0.12742735 0.84061384 0.7466458 -0.22760902 0.79753566 0.8295543 0.8481205 0.54780227
0.6741157 -0.3839185 0.82212704 -2.122152 0.8865984 -0.052023545 0.91514593 0.78817654
0.7080561 0.84354085 0.9201496 1.0231407 -0.017997952 1.1929276 -0.059458528 0.00061930186
0.7570084 -0.025378773 0.94537413 0.81316537 0.94809496 0.7920161 0.7864018 0.82737863
0.7457402 1.9919904 0.69257456 0.8849571 0.93122655 -3.0400586 0.75482565 0.7049672
0.7776963 0.8990531 0.88113856 0.77324456 0.8423103 0.8371379 0.12192712 0.7468655
0.8925503 -0.06626469 0.7245764 0.74219406 0.78058994 -0.07811958 0.7981912 0.8074169
0.77231157 0.8420396 0.9846206 0.77235264 0.74644834 0.69247425 0.70216435 0.8345006
-0.041802764 0.7425898 0.87280685 -0.03210874 0.9180623 0.93030494 0.75986713 0.80066514
0.8069148 -0.4300923 0.85442823 -1.7631459 0.75337493 -0.093676016 0.73999816 0.8331948
0.85306156 0.90323937 0.75739855 0.7243222 -0.016138714 1.036234 0.0040949536 -0.062228434
0.83224505 -0.07488187 0.7417139 0.8602795 0.7287295 0.80495876 0.8830068 0.9038557
0.8321786 1.517376 0.85536253 0.7769874 0.7625952 -2.8249166 0.8064042 0.86835235
0.84358966 0.85153115 0.81930244 0.76447177 0.82825446 0.8160737 -0.058060072 0.83751327
0.75745475 -0.031139264 0.83544004 0.79295444 0.80002993 -0.014163909 0.839425 0.89100677
0.80643344 0.83694 0.73515075 0.85619473 0.80884594 0.8254631 0.83108544 0.26187825
0.04300699 0.8995131 0.88011926 0.020825684 0.88832283 0.91563135 0.802125 -0.26311648
0.80186856 -0.52905035 0.8649302 -0.92461956 0.698915 0.13688363 0.7943958 0.86986244

model.4.bias f4 [3]
00000000: 33ed b6bd e856 453d 9a68 453e
-0.08931961 0.048178583 0.19278184
