trained_inf_function.pt (torch, 56387 bytes, 8 tensors)

trunk.0.weight f4 [128, 3]
0.6357137 0.5359633 0.7945701 0.17446658 -0.7363223 0.3745057 0.93156934 -0.4311242
1.0488869 0.17889354 0.24657962 0.42770267 -0.67647076 0.31083214 1.2803792 0.20453547
-0.40269083 0.82462895 0.21416654 1.0301887 0.10962581 -0.34361276 -0.6874958 -0.16304101
0.047689755 -0.39653552 -0.06046544 0.35720408 -0.30454195 -0.64588326 -0.14617391 -0.3587952
0.897658 1.2686313 -0.9572114 0.22362371 -1.1635324 -0.7937022 0.21219873 0.67627776
-0.882062 -0.030372636 -0.43943343 0.08937958 -0.67025405 -0.78135437 0.53697264 1.1364101
0.89122283 -0.10066881 0.6141108 -1.409568 0.78142464 0.7622951 -1.0046629 1.3874947
-0.31176662 1.108106 -0.82157695 0.21528113 -0.9067584 -0.82737786 0.71995723 0.1174604
1.336119 0.33421385 -0.1422336 -0.7624604 -0.6769295 -0.08731465 -1.3196849 -0.0038867185
1.3234774 -0.094702154 -0.4842565 -0.7994953 -1.0732691 0.89881146 -0.3704717 -1.3282969
-0.49984592 -0.41577384 -1.0235322 1.2094482 1.0822808 -1.2520944 -1.2352738 0.20586808
0.53299844 -0.63120246 0.23311427 -0.025707634 -0.8085851 -0.99627864 0.29202366 1.1050597
-0.25013465 -0.65234923 1.2352141 -0.0071381596 0.5045618 -1.4056848 -0.64870584 -0.97924674
-1.080591 0.57813156 -0.30922142 -0.38777673 -0.6220033 -0.3105589 -1.2439885 -1.175644
0.5825889 1.3735517 -0.6717754 -0.41454348 -0.23772433 1.3685285 1.0665065 -0.20241527
-1.2465404 1.0703999 -0.24715702 0.23939736 1.2527028 1.1225885 -1.0048815 0.850731
-0.75834554 0.2262365 -0.3452415 -0.66977745 -1.2522438 -1.0940593 -0.1926396 -1.3640035
0.98181903 0.8896967 1.1773676 0.7290698 0.17685725 -0.84926474 -0.03317903 0.738572
0.9617342 -0.42572406 -1.1793059 1.014875 -0.2968633 0.08493696 -0.23499946 -1.2467471
0.985844 -1.3675817 -0.8858595 0.16931064 -0.33831403 0.80812085 1.2216045 0.01555719
0.35338175 0.9394616 0.9131495 1.2043647 0.61439097 -0.75476503 1.4101571 1.1166333
0.5264168 -0.4506297 -1.3154202 -0.07654844 1.1129674 -0.70744884 0.84248966 0.52190304
-0.73487747 0.98341954 0.44513395 0.65163815 0.90533125 0.42280364 -0.18539725 -0.23499027
-0.33530453 0.046816994 -0.9946056 0.34908283 0.5073581 -0.47356537 1.3461844 -1.1527807
-0.9806376 -0.03132038 -1.3624024 -0.8335589 1.020801 0.4161649 -0.98240995 0.9176959
0.20028059 -1.0560142 0.9315995 -1.4135464 0.3510671 0.8411845 -0.80656826 1.3715318
-1.0543125 0.28633097 1.0103275 -0.06391533 0.5119566 0.4200856 -1.3031987 1.2152742
0.21182914 -0.4170568 0.3758428 1.0038997 0.3537426 -0.97782385 0.27485836 0.94195974
1.1680351 -0.49899107 0.73369443 -1.3526603 0.26276448 0.016077554 0.49358928 0.4926543
-1.1648654 -0.6409433 0.08832044 -0.522511 -0.10156687 -0.77755946 -0.67074144 1.2179567
-0.38924772 -1.4003347 1.048798 -0.7508984 -0.37653822 -1.3323851 -0.2808338 0.0239593
-0.6451312 -0.9267825 -1.0910208 -1.0647378 -1.1132324 0.43014848 0.9143566 0.81376374
00000000: 22be 223f e434 093f f268 4b3f 5ea7 323e
00000010: 9e7f 3cbf 36bf bf3e 547b 6e3f 50bc dcbe
00000020: ed41 863f de2f 373e 5e7f 7c3e d8fb da3e
00000030: 302d 2dbf 6425 9f3e 77e3 a33f bf71 513e
00000040: 7e2d cebe e21a 533f 794e 5b3e 39dd 833f
00000050: 7f83 e03d 03ee afbe baff 2fbf 39f4 26be
00000060: 5556 433d b406 cbbe 9caa 77bd 74e3 b63e
00000070: ecec 9bbe 9b58 25bf 9dae 15be 01b4 b7be
00000080: eacc 653f 8362 a23f ce0b 75bf 9dfd 643e
00000090: a1ee 94bf 1130 4bbf a04a 593e 8a20 2d3f
000000a0: d1ce 61bf 09d0 f8bc 6bfd e0be a40c b73d
000000b0: c595 2bbf d706 48bf 0a77 093f e375 913f
000000c0: 2e27 643f 732b cebd 5e36 1d3f b96c b4bf
000000d0: 720b 483f c625 433f cb98 80bf 6d99 b13f
000000e0: e09f 9fbe 6bd6 8d3f de52 52bf a872 5c3e
000000f0: 5221 68bf 09cf 53bf 1e4f 383f 148f f03d
00000100: f305 ab3f 141e ab3e afa5 11be 9b30 43bf
00000110: 404b 2dbf 06d2 b2bd 6feb a8bf 51b8 7ebb
00000120: b567 a93f 34f3 c1bd 78f0 f7be b9ab 4cbf
00000130: e260 89bf 8218 663f 77ae bdbe a205 aabf
00000140: ceeb ffbe 4fe0 d4be 1a03 83bf 33cf 9a3f
00000150: 2d88 8a3f a144 a0bf 741d 9ebf 15cf 523e
00000160: 9672 083f 7c96 21bf 82b5 6e3e d198 d2bc
00000170: 6fff 4ebf 1e0c 7fbf 2084 953e 9972 8d3f
00000180: a611 80be 5c00 27bf 7f1b 9e3f 39e7 e9bb
00000190: f62a 013f 7bed b3bf 9611 26bf eaaf 7abf
000001a0: ce50 8abf 6e00 143f 4552 9ebe ac8a c6be
000001b0: 9c3b 1fbf 9301 9fbe 043b 9fbf 817b 96bf
000001c0: 8c24 153f 8bd0 af3f 79f9 2bbf 0b3f d4be
000001d0: 026e 73be f12b af3f 4983 883f f345 4fbe
000001e0: a38e 9fbf dd02 893f bb16 7dbe 9524 753e
000001f0: 9158 a03f fbb0 8f3f f59f 80bf 82c9 593f
00000200: ef22 42bf 8baa 673e 7ec3 b0be 8976 2bbf
00000210: 8649 a0bf 230a 8cbf 5143 45be ab97 aebf
00000220: 7e58 7b3f 2ac3 633f fbb3 963f 52a4 3a3f
00000230: 111a 353e 6a69 59bf bce6 07bd 0e13 3d3f
00000240: 3634 763f 81f8 d9be 7ff3 96bf 6de7 813f
00000250: 77fe 97be 6ef3 ad3d b3a3 70be 6995 9fbf
00000260: 4660 7c3f eb0c afbf b0c7 62bf c55f 2d3e
00000270: 7f37 adbe 02e1 4e3f 895d 9c3f 96e3 7e3c
00000280: 74ee b43e 8e80 703f 2ac4 693f 9f28 9a3f
00000290: ba48 1d3f 4838 41bf 0780 b43f d7ed 8e3f
000002a0: 40c3 063f f0b8 e6be b05f a8bf 6ec5 9cbd
000002b0: b775 8e3f 5e1b 35bf 67ad 573f 709b 053f
000002c0: ee20 3cbf 62c1 7b3f 99e8 e33e c2d1 263f
000002d0: cac3 673f b879 d83e c7d8 3dbe 4aa1 70be
000002e0: 09ad abbe 2dc3 3f3d 799e 7ebf fcba b23e
000002f0: 38e2 013f 2977 f2be c54f ac3f 518e 93bf
00000300: 110b 7bbf cc49 00bd 3463 aebf 1e64 55bf
00000310: 9ba9 823f 9113 d53e 387f 7bbf 1eee 6a3f
00000320: 5b16 4d3e 792b 87bf 4e7d 6e3f 17ef b4bf
00000330: 11bf b33e de57 573f 427b 4ebf 5b8e af3f
00000340: b6f3 86bf f999 923e 6952 813f 0ae6 82bd
00000350: 960f 033f 7615 d73e 37cf a6bf 1b8e 9b3f
00000360: bde9 583e 7888 d5be 786e c03e c97f 803f
00000370: c01d b53e aa52 7abf 3cba 8c3e 4624 713f
00000380: 2d82 953f c27b ffbe 66d3 3b3f f923 adbf
00000390: 1189 863e 13b5 833c bcb7 fc3e 2f3d fc3e
000003a0: 4f1a 95bf dc14 24bf 59e1 b43d 48c3 05bf
000003b0: 4b02 d0bd 230e 47bf b6b5 2bbf 01e6 9b3f
000003c0: 7a4b c7be 2b3e b3bf 033f 863f e13a 40bf
000003d0: 9ec9 c0be 988b aabf 73c9 8fbe 4b46 c43c
000003e0: 5127 25bf 9e41 6dbf 92a6 8bbf 5449 88bf
000003f0: 667e 8ebf 6c3c dc3e 4613 6a3f d252 503f

trunk.0.bias f4 [128]
0.0099985115 0.010009933 0.010014357 0.009964819 0.009953184 0.010005989 0.010000543 0.009978816
0.009983963 0.009976427 0.010021412 0.010023307 0.010022156 0.010009052 0.009977917 0.010053565
0.01002798 0.010006127 0.00994712 0.009970231 0.010022014 0.010044547 0.009982509 0.010000834
0.009974892 0.010010431 0.009982969 0.010016191 0.010015341 0.009960115 0.009973097 0.009968799
0.010004336 0.009985911 0.009999545 0.009973107 0.009971577 0.009986826 0.010028693 0.009957608
0.009970351 0.010015141 0.009985731 0.010005665 0.010013531 0.010052297 0.010027471 0.009950648
0.010025903 0.009985731 0.010012704 0.01002705 0.009949284 0.010029802 0.0100529175 0.010006034
0.010025476 0.010012456 0.00998177 0.010042587 0.0100370655 0.009981256 0.009958831 0.009970866
0.010025321 0.010014825 0.010022371 0.009986449 0.010005561 0.010018793 0.010042832 0.010010779
0.009966859 0.009966258 0.010037291 0.009957773 0.0100469515 0.010007627 0.009993992 0.010007837
0.01002015 0.0099755 0.00995648 0.009982383 0.009955156 0.009943568 0.009977933 0.009970536
0.009953486 0.010033623 0.010041184 0.009968443 0.009978529 0.009980365 0.00994236 0.009996255
0.009978185 0.009969605 0.009978463 0.010019684 0.010042115 0.009979764 0.010046586 0.009949643
0.009962919 0.010044719 0.010036036 0.009979835 0.009966736 0.01003787 0.010004667 0.0099760825
0.010022791 0.0099811535 0.010024058 0.010020704 0.01001927 0.010013379 0.009984318 0.010010767
0.009991233 0.009989049 0.0099864965 0.010053113 0.009987379 0.00995184 0.010020883 0.010013977
00000000: ccd0 233c b400 243c 4213 243c 7b43 233c
00000010: ae12 233c 29f0 233c 51d9 233c 307e 233c
00000020: c793 233c 2b74 233c d930 243c cc38 243c
00000030: f833 243c 02fd 233c 6b7a 233c b5b7 243c
00000040: 664c 243c bdf0 233c 3ff9 223c 2e5a 233c
00000050: 6033 243c e291 243c ad8d 233c 8ada 233c
00000060: bb6d 233c ca02 243c 9b8f 233c f31a 243c
00000070: 6317 243c c02f 233c 3366 233c 2c54 233c
00000080: 3ae9 233c f29b 233c 22d5 233c 3e66 233c
00000090: d35f 233c c99f 233c 634f 243c 3c25 233c
000000a0: af5a 233c 8c16 243c 319b 233c cdee 233c
000000b0: cb0f 243c 64b2 243c 434a 243c 0b08 233c
000000c0: af43 243c 319b 233c 530c 243c 7f48 243c
000000d0: 5202 233c 0a54 243c feb4 243c 59f0 233c
000000e0: e541 243c 490b 243c 948a 233c aa89 243c
000000f0: 8172 243c 6c88 233c 5d2a 233c d85c 233c
00000100: 3e41 243c 3815 243c df34 243c 349e 233c
00000110: 5dee 233c dd25 243c b18a 243c 4004 243c
00000120: 094c 233c 8449 233c 7373 243c ed25 233c
00000130: f89b 243c 08f7 233c d7bd 233c e9f7 233c
00000140: 8e2b 243c 4870 233c 8120 233c 268d 233c
00000150: f31a 233c 59ea 223c 7c7a 233c 765b 233c
00000160: f213 233c 1164 243c c783 243c ae52 233c
00000170: fc7c 233c af84 233c 48e5 223c 55c7 233c
00000180: 8b7b 233c 8e57 233c b57c 233c 9a29 243c
00000190: af87 243c 2a82 233c 709a 243c d403 233c
000001a0: 833b 233c 9b92 243c 306e 243c 7682 233c
000001b0: 854b 233c e175 243c 9dea 233c b972 233c
000001c0: a236 243c fe87 233c f23b 243c e12d 243c
000001d0: dd27 243c 280f 243c 4495 233c 3304 243c
000001e0: 45b2 233c 1ca9 233c 679e 233c d0b5 243c
000001f0: 1ba2 233c 0b0d 233c a12e 243c aa11 243c

trunk.2.weight f4 [64, 128]
0.066885225 0.05407425 0.14943357 -0.15786329 0.041195363 0.009349778 -0.20879106 0.036282018
0.008736896 -0.14040174 -0.14509104 -0.069228955 0.14038543 0.09325823 -0.09319238 0.0044850847
-0.045318797 -0.059865795 -0.050140437 -0.017454494 -0.05713569 -0.06730816 0.16365309 0.096992396
-0.04560887 -0.0083184615 0.10762311 -0.05046463 0.21536018 -0.03166423 0.007203228 0.21083617
0.14310127 0.17701702 -0.08648968 0.0027511648 -0.021375863 0.1482296 0.07075825 0.19780174
-0.12629521 -0.11571019 -0.16169834 0.030020872 -0.06666451 0.16355783 -0.18106042 -0.19147478
-0.028173376 0.041664895 -0.17727546 0.11237184 -0.10482702 0.21379308 -0.10107815 0.036223892
-0.20668714 -0.20813403 -0.047281746 -0.06661782 0.032807812 -0.19082938 -0.11830443 0.17401671
0.035358302 0.17935105 0.09341663 -0.031804927 0.10322261 -0.12823838 -0.12960154 0.18619484
-0.08446242 -0.18111083 -0.06554744 0.15378176 -0.07879108 -0.09129493 -0.16542827 -0.14889704
-0.010594919 -0.12851158 0.0941064 -0.087373205 0.040604237 -0.0056514167 0.0036374363 -0.12374203
0.007968821 0.06384318 -0.058262058 -0.04946549 0.121759385 0.026348606 -0.18777084 -0.18596363
-0.034875784 0.07940381 -0.123801336 0.17516717 0.010323905 -0.060743805 0.030927172 0.052021816
0.15446146 0.1304183 0.082022615 0.15033503 -0.033146597 0.08076744 0.12845314 -0.088502474
-0.14188991 0.13557634 0.18707396 -0.1256704 -0.17625494 0.17994754 0.07984103 -0.14062528
0.169478 0.027018413 0.016999507 -0.15881842 0.12122515 0.034920137 -0.12906377 0.12910089
0.014945743 -0.18789142 0.089000165 0.020519773 0.18688187 -0.14491352 -0.018197276 -0.10156623
-0.029944925 -0.0467371 -0.0579255 0.12733299 -0.17823681 -0.16755068 -0.02788459 -0.02550131
-0.01583459 -0.053862777 0.20703262 0.04556874 0.008318814 0.05625215 -0.12219098 -0.004752906
-0.008356467 0.10248669 0.010677244 -0.007412531 -0.13021179 0.038156033 0.15050364 -0.12815224
-0.1854583 -0.14552858 0.11962961 0.038639348 0.12522945 0.16749659 -0.13020548 0.009914892
0.1549575 0.1123726 0.07107101 0.13841979 0.112955675 -0.07168741 -0.033560228 0.10438756
0.20517528 -0.0022452062 0.07901976 -0.0714738 0.107975535 0.06188546 -0.015776202 0.0677572
0.10104032 0.13515092 0.21633875 -0.20080355 0.15706913 0.15889621 0.17425162 0.16507538
-0.047400914 -0.038228247 0.13459863 -0.09963659 -0.11026977 -0.07664112 -0.14718124 -0.17480429
0.07174271 -0.18082234 -0.20827614 0.035493314 -0.11484221 -0.080393344 0.2046419 -0.085930176
-0.036001742 -0.017959686 -0.04424365 -0.0009324935 -0.02821167 -0.13179103 0.16110262 0.06128106
0.12099971 -0.17269744 0.09504179 -0.17297913 0.17165655 -0.08017174 -0.1332805 -0.17918018
-0.2073002 -0.057855327 0.16767848 0.15593491 0.023887968 -0.090398826 -0.212752 0.13083863
0.19291534 0.12786096 -0.101554744 0.101205625 0.13607119 0.038790815 -0.13258816 0.049284425
0.08977638 -0.17367353 0.083683506 -0.1913545 0.13146713 0.14545774 1.8402152e-05 0.20542184
0.08999558 0.11877999 -0.14550374 0.030215068 -0.09761362 0.034132864 -0.10833464 0.022061422
00000000: 1ffb 883d f67c 5d3d 1d05 193e eaa6 21be
00000010: 78bc 283d d02f 193c 53cd 55be 749c 143d
00000020: 3325 0f3c 79c5 0fbe bf92 14be e9c7 8dbd
00000030: 33c1 0f3e 2cfe be3d a6db bebd 9ef7 923b
00000040: 34a0 39bd d635 75bd 0f60 4dbd bafc 8ebc
00000050: 1d07 6abd dcd8 89bd ad94 273e f3a3 c63d
00000060: 5ed0 3abd 284a 08bc 8169 dc3d 00b4 4ebd
00000070: 6187 5c3e 5ab2 01bd 0e09 ec3b 70e5 573e
00000080: 2489 123e f343 353e 8021 b1bd e34c 343b
00000090: 6f1c afbc 80c9 173e b4e9 903d 8a8c 4a3e
000000a0: 8853 01be 77f9 ecbd 4094 25be 55ee f53c
000000b0: 6787 88bd b47b 273e e767 39be f711 44be
000000c0: dacb e6bc cfa8 2a3d b387 35be 3523 e63d
000000d0: 8caf d6bd 93ec 5a3e 1002 cfbd 815f 143d
000000e0: cba5 53be 1621 55be 81aa 41bd ec6e 88bd
000000f0: 7c61 063d c768 43be 9849 f2bd 7031 323e
00000100: ded3 103d cda7 373e 3851 bf3d e245 02bd
00000110: 6066 d33d ec50 03be 44b6 04be dca9 3e3e
00000120: a2fa acbd 1e75 39be bc3d 86bd f778 1d3e
00000130: 385d a1bd d6f8 babd 0766 29be 7778 18be
00000140: 5096 2dbc 8a98 03be dbba c03d b9f0 b2bd
00000150: a150 263d 852f b9bb 0e62 6e3b 766c fdbd
00000160: a88f 023c 37c0 823d 32a4 6ebd 539c 4abd
00000170: fc5c f93d 08d9 d73c 0047 40be 406d 3ebe
00000180: e9d9 0ebd 779e a23d 8e8b fdbd 065f 333e
00000190: 9925 293c 7fce 78bd fb5a fd3c d414 553d
000001a0: 252b 1e3e 608c 053e 79fb a73d 6df1 193e
000001b0: bac4 07bd 6669 a53d 3889 033e c940 b5bd
000001c0: 974b 11be 86d4 0a3e 5190 3f3e beaf 00be
000001d0: 2d7c 34be 2b44 383e b283 a33d 1300 10be
000001e0: a48b 2d3e b855 dd3c 8d42 8b3c 4ca1 22be
000001f0: e444 f83d 6b08 0f3d 4b29 04be 0633 043e
00000200: fdde 743c 9c66 40be b845 b63d 1519 a83c
00000210: f65d 3f3e 3664 14be 7412 95bc f501 d0bd
00000220: 0f4f f5bc 676f 3fbd 4a43 6dbd 9463 023e
00000230: b683 36be 6892 2bbe 396e e4bc 20e8 d0bc
00000240: 8bb7 81bc 379f 5cbd 5c00 543e 4aa6 3a3d
00000250: a34b 083c a868 663d 443f fabd 44be 9bbb
00000260: 90e9 08bc 8be4 d13d 9bef 2e3c d1e4 f2bb
00000270: 3d56 05be 8049 1c3d a01d 1a3e 573a 03be
00000280: c8e8 3dbe 7205 15be 5e00 f53d 4b44 1e3d
00000290: 263c 003e 3a84 2b3e 9654 05be 1272 223c
000002a0: 2ead 1e3e 9b23 e63d ad8d 913d ebbd 0d3e
000002b0: 4e55 e73d d9d0 92bd 7376 09bd 25c9 d53d
000002c0: 7819 523e 4f24 13bb 1dd5 a13d db60 92bd
000002d0: 4722 dd3d 9c7b 7d3d 183d 81bc 49c4 8a3d
000002e0: 3aee ce3d 0165 0a3e e887 5d3e 729f 4dbe
000002f0: bbd6 203e b0b5 223e 046f 323e 8509 293e
00000300: 7627 42bd 3995 1cbd 39d4 093e 450e ccbd
00000310: 1ed5 e1bd 05f6 9cbd aeb6 16be e5ff 32be
00000320: d8ed 923d 7e29 39be 5746 55be 7061 113d
00000330: 6532 ebbd 44a5 a4bd a58d 513e 29fc afbd
00000340: 9076 13bd 3120 93bc d438 35bd 9472 74ba
00000350: 291c e7bc 3af4 06be 16f8 243e d901 7b3d
00000360: b2ce f73d 99d7 30be 45a5 c23d 7121 31be
00000370: bcc6 2f3e 1531 a4bd af7a 08be 027b 37be
00000380: 8146 54be b5f9 6cbd e8b3 2b3e 67ad 1f3e
00000390: b3b0 c33c 0523 b9bd a9db 59be 90fa 053e
000003a0: 998b 453e fced 023e effb cfbd e544 cf3d
000003b0: 3f56 0b3e 1ee3 1e3d 31c5 07be 77de 493d
000003c0: aedc b73d 79d7 31be 4262 ab3d 6ff2 43be
000003d0: 529f 063e e0f2 143e 525e 9a37 1a5a 523e
000003e0: 9a4f b83d ec42 f33d effe 14be 9785 f73c
000003f0: a6e9 c7bd e7ce 0b3d 8dde ddbd 28ba b43c

trunk.2.bias f4 [64]
0.010037991 0.009958688 0.01 0.009984795 0.01005262 0.010032504 0.01 0.01002559
0.010012868 0.009996338 0.00999971 0.009957349 0.01 0.010012311 0.009992008 0.010014939
0.010016811 0.010049934 0.010002766 0.009976163 0.009996167 0.01 0.00998842 0.009945185
0.009946941 0.01000025 0.009999392 0.0100149205 0.010011371 0.009976599 0.010004193 0.010046577
0.009970976 0.010032487 0.010004771 0.010010214 0.0100451475 0.01 0.009950623 0.009978666
0.009950692 0.010051279 0.009955489 0.01 0.01 0.009969083 0.010026825 0.010021439
0.009945042 0.0100433305 0.0100301895 0.010029482 0.009987475 0.009947398 0.010048721 0.009955087
0.010031413 0.010031954 0.01 0.00996373 0.010050983 0.010037587 0.01000422 0.01
00000000: 6376 243c c429 233c 0ad7 233c 4497 233c
00000010: bfb3 243c 5f5f 243c 0ad7 233c 5f42 243c
00000020: 030d 243c aec7 233c d3d5 233c 2624 233c
00000030: 0ad7 233c ad0a 243c 85b5 233c b315 243c
00000040: 8d1d 243c 7aa8 243c a4e2 233c 0f73 233c
00000050: f7c6 233c 0ad7 233c 78a6 233c 21f1 223c
00000060: 7ff8 223c 17d8 233c 7dd4 233c 9f15 243c
00000070: bc06 243c e474 233c a0e8 233c 669a 243c
00000080: 4e5d 233c 4d5f 243c 0deb 233c e101 243c
00000090: 6794 243c 0ad7 233c f007 233c 8f7d 233c
000000a0: 3a08 233c 1fae 243c 591c 233c 0ad7 233c
000000b0: 0ad7 233c 5d55 233c 8d47 243c f630 243c
000000c0: 88f0 223c c88c 243c aa55 243c b252 243c
000000d0: 82a2 233c 69fa 223c 64a3 243c a91a 233c
000000e0: cc5a 243c 115d 243c 0ad7 233c ea3e 233c
000000f0: e1ac 243c b174 243c bde8 233c 0ad7 233c

trunk.4.weight f4 [64, 64]
-0.041013513 -0.07498654 0.21711645 0.28384733 0.20462903 0.25528792 -0.17742302 0.051974293
-0.008728984 0.02254723 0.17377654 0.079265825 -0.18569028 0.2516581 0.13286966 -0.20935929
-0.27966118 0.11830021 0.1290384 -0.19033739 -0.048644807 -0.081696555 0.05549375 -0.056348868
-0.152834 -0.2338209 -0.2924655 0.07392699 -0.23865183 0.080728285 -0.03151056 -0.0056836586
0.14117678 0.033680487 0.16966277 0.19214861 -0.17838642 0.073963165 0.23171908 -0.19019505
0.08909344 0.13839382 -0.15303285 -0.058998376 -0.23067285 -0.051856305 -0.011374501 -0.13094725
-0.10657712 -0.06085762 0.10798674 0.044518948 -0.14686494 0.04260103 0.18803675 0.13937236
-0.049732517 0.25074953 -0.014820784 0.25934374 -0.018041672 -0.2723892 0.21855822 -0.003632903
0.24959344 0.22716467 -0.22527531 -0.1083271 -0.004315626 0.25232702 0.00075152516 -0.033703472
0.0768815 0.2238053 0.20593823 0.20866314 -0.10789099 0.00060307287 -0.0046194354 -0.24381118
0.24984583 0.08187193 0.14502221 0.27233174 0.088604584 -0.052562 -0.25167826 -0.1138849
0.012805538 -0.12290041 0.25312644 -0.10208344 -0.23748797 0.2897626 0.20242588 -0.21750282
0.08079702 -0.27933097 0.2710745 0.19547185 0.124141164 0.078642875 -0.012855925 0.020026919
0.11274445 -0.28568965 -0.16386972 -0.2551627 0.11011323 -0.23232795 -0.03646677 -0.15053728
0.21520303 0.09039371 -0.251003 0.061362896 -0.037424847 -0.020579005 0.19772589 0.0078017977
0.19612996 -0.14811388 0.29859552 0.103811644 -0.078183405 0.25361934 0.19936533 0.27431014
0.09295526 0.0594097 -0.09112939 0.13525411 0.12235368 0.11896497 -0.1719948 -0.16953088
0.14595962 -0.2537207 0.1426014 -0.11458232 0.21644953 -0.024239695 -0.041976113 0.028818088
0.095155194 -0.17366403 -0.17552212 -0.055755496 -0.043291863 0.030054301 -0.17991865 -0.05978268
0.15274213 -0.14741468 -0.260568 0.077035 -0.13006185 0.1887632 0.15099001 0.19135737
-0.099241376 0.24022612 0.059338614 0.043699175 -0.11020375 -0.07879494 -0.00060658716 0.09212374
0.017056677 -0.2762672 -0.038051877 0.10611835 -0.10610762 -0.21336068 -0.02934439 -0.24022828
0.113991275 -0.043745294 0.20819934 0.22949079 -0.114066474 0.06149605 0.046404872 0.16247879
0.20946838 -0.2689636 -0.01761055 0.3036087 -0.23680106 -0.17235172 0.23108284 0.008271962
0.13547547 0.23841734 0.09331474 -0.0070233718 -0.023545032 0.16731635 0.30200544 0.17461117
0.1892535 0.27870825 -0.18832064 0.26110888 0.20289615 0.21189532 0.28326896 0.23632398
-0.12476053 0.2101361 0.09391607 -0.14582053 -0.05894625 -0.13475586 -0.006848759 -0.12028009
-0.061648123 0.047734585 -0.25963226 -0.2028434 0.13055456 -0.011378504 -0.28175446 -0.08922229
-0.1634417 0.020731496 -0.2992706 0.14665064 0.08253026 0.09577006 0.13548185 -0.24453089
0.12983544 -0.020820953 0.21787094 -0.30473545 0.1035727 -0.10943241 0.116733484 -0.24936992
-0.144112 0.1290624 -0.21060736 -0.20529641 -0.027407182 -0.05020822 0.23142798 -0.141168
-0.003547996 0.0026907995 0.047148198 0.17488621 -0.23029293 0.033116613 0.21954197 0.30146983
00000000: c9fd 27bd 8b92 99bd c653 5e3e 7054 913e
00000010: 468a 513e 19b5 823e 61ae 35be ffe2 543d
00000020: 0304 0fbc f8b4 b83c 7af2 313e 1f56 a23d
00000030: 9825 3ebe 55d9 803e fc0e 083e 4862 56be
00000040: c02f 8fbe 6147 f23d a422 043e cee7 42be
00000050: c73f 47bd 8650 a7bd 6a4d 633d 12ce 66bd
00000060: 8480 1cbe bf6e 6fbe 0abe 95be 0967 973d
00000070: 2561 74be df54 a53d 3811 01bd fc3d babb
00000080: a590 103e 8df4 093d 14bc 2d3e 9bc2 443e
00000090: eeaa 36be 007a 973d c447 6d3e 7ec2 42be
000000a0: 9f76 b63d 1cb7 0d3e a5b4 1cbe 48a8 71bd
000000b0: 8135 6cbe 4767 54bd 1d5c 3abc 0917 06be
000000c0: 1b45 dabd d745 79bd 2728 dd3d 8059 363d
000000d0: c363 16be 6b7e 2e3d b58c 403e a1b7 0e3e
000000e0: 53b4 4bbd 3e62 803e e0d2 72bc b4c8 843e
000000f0: 21cc 93bc 9976 8bbe bacd 5f3e 0016 6ebb
00000100: 6c95 7f3e db9d 683e 92ae 66be 99da ddbd
00000110: 186a 8dbb 0231 813e 0002 453a a70c 0abd
00000120: 0c74 9d3d 372d 653e 79e1 523e caab 553e
00000130: f4f5 dcbd 8917 1e3a a25e 97bb a3a9 79be
00000140: 96d7 7f3e 78ac a73d b480 143e 116f 8b3e
00000150: 5276 b53d 404b 57bd f9db 80be 7d3c e9bd
00000160: 52ce 513c 36b3 fbbd ca99 813e 1f11 d1bd
00000170: 0c30 73be c35b 943e bb48 4f3e 0fb9 5ebe
00000180: e878 a53d 7804 8fbe 47ca 8a3e c629 483e
00000190: b93d fe3d 840f a13d a8a1 52bc 7e0f a43c
000001a0: 90e6 e63d ea45 92be 77cd 27be afa4 82be
000001b0: 0c83 e13d 61e7 6dbe 2e5e 15bd 7226 1abe
000001c0: 2f5e 5c3e 5620 b93d 7783 80be a957 7b3d
000001d0: cc4a 19bd 4d95 a8bc a878 4a3e 39a6 ff3b
000001e0: 4bd6 483e 2aab 17be 83e1 983e 339b d43d
000001f0: 9f1e a0bd 65da 813e 6d26 4c3e 6172 8c3e
00000200: 545f be3d 9657 733d 0ca2 babd 0e80 0a3e
00000210: 9194 fa3d e8a3 f33d 681f 30be 8199 2dbe
00000220: 7076 153e aee7 81be 1a06 123e 23aa eabd
00000230: f2a4 5d3e 5392 c6bc 25ef 2bbd e913 ec3c
00000240: bae0 c23d fcd4 31be 12bc 33be e05f 64bd
00000250: cf52 31bd 7034 f63c 983c 38be afde 74bd
00000260: 6f68 1c3e e0f3 16be 2b69 85be 87c4 9d3d
00000270: ef2e 05be 244b 413e 209d 1a3e 30f3 433e
00000280: 103f cbbd d6fd 753e 0c0d 733d e8fd 323d
00000290: 81b2 e1bd 3e5f a1bd 6003 1fba 5fab bc3d
000002a0: 72ba 8b3c e572 8dbe 49dc 1bbd 9454 d93d
000002b0: f44e d9bd 397b 5abe a563 f0bc 67fe 75be
000002c0: 4274 e93d 442e 33bd 3532 553e a2ff 6a3e
000002d0: af9b e9bd 48e3 7b3d 0913 3e3d d760 263e
000002e0: e17e 563e 99b5 89be 0044 90bc 9972 9b3e
000002f0: fa7b 72be f87c 30be fba0 6c3e 2087 073c
00000300: 15ba 0a3e ad23 743e cc1b bf3d 5024 e6bb
00000310: 83e1 c0bc fa54 2b3e 75a0 9a3e 45cd 323e
00000320: abcb 413e d9b2 8e3e 20d7 40be 10b0 853e
00000330: 02c4 4f3e 16fb 583e a108 913e eafe 713e
00000340: 7382 ffbd eb2d 573e 1257 c03d fa51 15be
00000350: 9f71 71bd 71fd 09be 8e6b e0bb 6855 f6bd
00000360: be82 7cbd 5785 433d 85ee 84be 2eb6 4fbe
00000370: 18b0 053e e86c 3abc 1f42 90be 2dba b6bd
00000380: 435d 27be 19d5 a93c ff39 99be 962b 163e
00000390: a005 a93d 1823 c43d c1bb 0a3e 4e66 7abe
000003a0: 95f3 043e b490 aabc 8f19 5f3e 4906 9cbe
000003b0: ec1d d43d 191e e0bd f711 ef3d d45a 7fbe
000003c0: 1992 13be ef28 043e 75a9 57be 3939 52be
000003d0: 0785 e0bc 22a7 4dbd 75fb 6c3e 588e 10be
000003e0: 7f85 68bb 2058 303b 781e 413d 5f15 333e
000003f0: e9d1 6bbe 49a5 073d 9ccf 603e 415a 9a3e

trunk.4.bias f4 [64]
0.010045651 0.010033901 0.009945545 0.009953751 0.009972999 0.01 0.010003836 0.009953246
0.00999472 0.010053573 0.01 0.010030244 0.0100481 0.01 0.009997544 0.01003682
0.009984303 0.009947809 0.009946877 0.010036132 0.01 0.009993358 0.0099787135 0.009973062
0.01 0.010042254 0.0100046955 0.009953438 0.01 0.010043337 0.0099616945 0.010012557
0.010011154 0.010048859 0.010016061 0.01 0.01 0.010026726 0.009949071 0.009946558
0.010009419 0.01000397 0.01 0.009983365 0.01 0.01 0.01004438 0.01
0.01 0.010052787 0.010004128 0.009953671 0.010038962 0.010034791 0.009945111 0.01
0.009996438 0.009963121 0.009960751 0.01000613 0.01 0.01 0.010026783 0.009945102
00000000: 8496 243c 3b65 243c a4f2 223c 0f15 233c
00000010: ca65 233c 0ad7 233c 21e7 233c f112 233c
00000020: e5c0 233c beb7 243c 0ad7 233c e455 243c
00000030: c9a0 243c 0ad7 233c bdcc 233c 7971 243c
00000040: 3495 233c 23fc 223c 3af8 223c 976e 243c
00000050: 0ad7 233c 2ebb 233c c27d 233c 0e66 233c
00000060: 0ad7 233c 4488 243c bcea 233c bf13 233c
00000070: 0ad7 233c cf8c 243c 6036 233c b50b 243c
00000080: d305 243c f8a3 243c 681a 243c 0ad7 233c
00000090: 0ad7 233c 2347 243c 6e01 233c e3f6 223c
000000a0: 8cfe 233c b1e7 233c 0ad7 233c 4591 233c
000000b0: 0ad7 233c 0ad7 233c 2f91 243c 0ad7 233c
000000c0: 0ad7 233c 72b4 243c 5be8 233c b914 233c
000000d0: 757a 243c f768 243c d2f0 223c 0ad7 233c
000000e0: 1ac8 233c 5c3c 233c 6b32 233c c0f0 233c
000000f0: 0ad7 233c 0ad7 233c 6047 243c c8f0 223c

wage_head.0.weight f4 [3, 64]
-0.088246316 -0.286336 0.102135934 0.19463012 0.235557 -0.22457355 -0.035241615 0.06915933
-0.069642335 -0.28709033 -0.13450387 -0.29466277 -0.2610196 -0.2831424 -0.15113302 0.0030487499
0.16825195 0.15819724 0.26836225 -0.004325703 0.21100453 -0.07777225 0.2833781 0.21858475
-0.14574127 -0.016840216 -0.17608084 0.3052484 0.2029275 -0.25223917 0.18296464 0.1296698
0.13381977 -0.12661295 -0.23938204 0.18914694 0.051338404 -0.22459807 0.30378821 0.2514654
-0.08881696 -0.1835977 0.026797652 0.28529403 0.2682154 0.17659596 -0.2858478 0.19500706
0.24482897 -0.24845292 -0.17553824 0.28791746 -0.19229765 -0.16343829 0.16391772 -0.25459996
-0.25128824 0.04148563 0.016394427 -0.1159892 0.04687795 0.17725033 0.051863316 0.24302828
-0.21304695 0.09109217 -0.21087828 0.23053882 0.2496784 -0.022419095 -0.12711594 -0.11185168
-0.18270674 -0.30399308 -0.013437569 -0.16537358 0.027236015 0.0660651 -0.081653446 -0.11046003
0.20927498 -0.08980064 -0.27219063 0.030008286 -0.0314582 0.095178485 -0.124455646 -0.29150122
-0.0006482005 -0.1095895 0.037136108 0.09837401 -0.18921915 0.033595413 0.2038981 -0.06691104
0.0036606193 -0.08497858 0.21185645 -0.09176764 -0.27714273 0.21958658 -0.27355537 -0.12380652
0.17273507 -0.025512874 -0.2901407 0.161307 0.054002285 -0.29013976 -0.06438121 0.0494698
0.06098616 0.08632845 0.12809026 0.07794586 0.10783133 -0.11376497 0.21700624 -0.07359278
0.025348067 0.22540411 0.024829805 0.03653434 -0.08657515 0.23818514 0.11984736 0.10835105
-0.2882935 -0.2092788 0.022187494 0.089956805 -0.0060410397 -0.23333685 0.043631356 0.18940555
0.10251177 -0.24740773 -0.014809966 0.18811697 0.05243693 -0.23855552 0.21891491 -0.19570845
-0.25866914 0.18474142 0.17834349 -0.04644322 0.059344947 0.25750595 -0.23194231 -0.10155406
-0.01724425 -0.106371745 -0.13962482 -0.07772016 0.30186227 0.087603934 -0.023229137 -0.25333008
-0.2489176 -0.25343305 0.15075116 0.2852241 0.09862855 0.09923811 -0.025750376 0.020882975
0.096472055 0.22678392 -0.03737679 -0.26213372 0.002946347 0.2552072 -0.060404584 -0.27010104
-0.14458957 -0.25622928 0.18363813 -0.07545812 0.0871028 0.08893289 0.065343946 -0.1409915
0.2637067 -0.02104144 0.2882426 -0.2792672 0.0828875 0.30354205 -0.20722608 0.09487374
00000000: 7cba b4bd a29a 92be a52c d13d 1e4d 473e
00000010: db35 713e 9cf6 65be 8359 10bd 68a3 8d3d
00000020: a4a0 8ebd 81fd 92be 62bb 09be 0ade 96be
00000030: 5ca4 85be 0af8 90be 9dc2 1abe 89cd 473b
00000040: 3d4a 2c3e 75fe 213e c766 893e a0be 8dbb
00000050: 9211 583e 0f47 9fbd ef16 913e aed4 5f3e
00000060: 333d 15be 7ef4 89bc 894e 34be 8549 9c3e
00000070: 3acc 4f3e 7e25 81be 155b 3b3e 29c8 043e
00000080: 0d08 093e d3a6 01be 9120 75be bcaf 413e
00000090: 3848 523d 09fd 65be 218a 9b3e 13c0 803e
000000a0: abe5 b5bd 0901 3cbe c086 db3c 0f12 923e
000000b0: 8753 893e 92d5 343e a55a 92be eeaf 473e
000000c0: 72b4 7a3e 716a 7ebe 4cc0 33be eb69 933e
000000d0: ade9 44be 5e5c 27be 0cda 273e ed5a 82be
000000e0: daa8 80be d6ec 293d 9b4d 863c bf8b edbd
000000f0: 1803 403d 1c81 353e a16e 543d 68dc 783e
00000100: fb28 5abe 888e ba3d 7af0 57be 5e12 6c3e
00000110: b2ab 7f3e 40a8 b7bc ae2a 02be 7e12 e5bd
00000120: 7a17 3bbe fba4 9bbe 4029 5cbc b157 29be
00000130: 101e df3c 244d 873d ec39 a7bd de38 e2bd
00000140: 2e4c 563e 66e9 b7bd 925c 8bbe f0d3 f53c
00000150: 50da 00bd f0ec c23d 9ae2 febd a63f 95be
00000160: 00ec 29ba 7670 e0bd 081c 183d 5078 c93d
00000170: aac2 41be 589b 093d aaca 503e a808 89bd
00000180: 00e7 6f3b 4009 aebd e6f0 583e acf0 bbbd
00000190: a7e5 8dbe 4edb 603e 730f 8cbe 468e fdbd
000001a0: 76e1 303e 6000 d1bc 528d 94be aa2d 253e
000001b0: 8031 5d3d 338d 94be 4cda 83bd d8a0 4a3d
000001c0: a0cc 793d f8cc b03d 182a 033e 14a2 9f3d
000001d0: acd6 dc3d 9cfd e8bd e236 5e3e d0b7 96bd
000001e0: c0a6 cf3c 56d0 663e e067 cb3c 08a5 153d
000001f0: 504e b1bd cee6 733e 8872 f53d 28e7 dd3d
00000200: 359b 93be 2f4d 56be 8cc2 b53c 463b b83d
00000210: eaf3 c5bb dbef 6ebe cbb6 323d 87f3 413e
00000220: b1f1 d13d 7458 7dbe 80a5 72bc bca1 403e
00000230: 1bc8 563d e647 74be 3b2b 603e cc67 48be
00000240: 4870 84be db2c 3d3e ad9f 363e 3f3b 3ebd
00000250: b013 733d d2d7 833e 4982 6dbe 93fb cfbd
00000260: d043 8dbc 6ed9 d9bd cff9 0ebe bf2b 9fbd
00000270: b18d 9a3e b169 b33d 084b bebc 7bb4 81be
00000280: 41e4 7ebe fac1 81be 835e 1a3e e508 923e
00000290: c4fd c93d 5a3d cb3d 74f2 d2bc c612 ab3c
000002a0: 2493 c53d 0b3a 683e 6818 19bd 6436 86be
000002b0: 8017 413b 85aa 823e cc6a 77bd af4a 8abe
000002c0: 4a0f 14be 7c30 83be a20b 3c3e c989 9abd
000002d0: f462 b23d 7222 b63d 0cd3 853d 1360 10be
000002e0: 9104 873e 195f acbc 8994 933e 1cfc 8ebe
000002f0: ecc0 a93d dd69 9b3e 1333 54be 2a4d c23d

wage_head.0.bias f4 [3]
0.009947635 0.01 0.009962642
00000000: 68fb 223c 0ad7 233c 593a 233c
