trained_inf_function.pt (torch, 21745 bytes, 6 tensors)

trunk.0.weight f4 [64, 3]
0	0x3f168d94	0.5880978
1	0xbcedb049	-0.029014723
2	0x3ec5df66	0.38647002
3	0x3ec4ce94	0.38438857
4	0x3e23ba9a	0.15989152
5	0x3f2f9a6b	0.68595
6	0x3f4cf46d	0.80060464
7	0xbde3c1ce	-0.1112095
8	0x3e180a72	0.14847735
9	0xbefcb977	-0.49360248
10	0xbcbd239e	-0.023088273
11	0xbefdec60	-0.49594402
12	0x3f004a05	0.50112945
13	0x3f17330c	0.59062266
14	0x3efcfe4e	0.4941277
15	0x3dbf3875	0.0933694
16	0xbd9768a0	-0.073930025
17	0xbedfe647	-0.43730375
18	0xbf02e386	-0.51128423
19	0xbf181d5e	-0.5941981
20	0xbe85d388	-0.26137948
21	0x3f003eeb	0.50096005
22	0x3f33c150	0.70216846
23	0xbe8b5a51	-0.27217343
24	0xbf125ea7	-0.5717568
25	0xbdcb028b	-0.099125944
26	0xbf0e367e	-0.555519
27	0xbf232710	-0.6373148
28	0xbe9bf04b	-0.30456766
29	0xbe85edd4	-0.2615801
30	0x3f3393a3	0.7014715
31	0x3eced3ed	0.40396062
32	0x3e68ea94	0.22745734
33	0xbda9f749	-0.08299119
34	0x3f2aa7e6	0.6666244
35	0x3ef66e32	0.48130947
36	0x3eeec18c	0.4663204
37	0x3e1f3cfc	0.15550607
38	0x3e46bbf9	0.19407643
39	0xbee65e99	-0.44994047
40	0xbf24333c	-0.6414068
41	0xbf1badb6	-0.60811937
42	0xbf17a0f1	-0.5922995
43	0xbe805850	-0.25067377
44	0x3d06bd10	0.032895148
45	0xbf4f1bf9	-0.8090206
46	0xbf416665	-0.75546867
47	0xbdfb8934	-0.12282029
48	0x3ed20d8f	0.4102597
49	0x3d44575b	0.04793487
50	0x3ebe43af	0.37161013
51	0xbe55f1b6	-0.20892987
52	0xbf24cdce	-0.64376533
53	0xbcaf3544	-0.021387704
54	0x3eb16d37	0.34653637
55	0xbe1cd305	-0.15314873
56	0x3ee1e495	0.44119707
57	0x3e9b217d	0.30298987
58	0xbe9b51b5	-0.30335775
59	0xbeceac8c	-0.40366018
60	0x3eb89202	0.36048895
61	0xbd0fe36a	-0.03512899
62	0x3eb77be4	0.3583671
63	0x3e26ff1b	0.16308253
64	0x3e124d3e	0.14287278
65	0xbe88b1a7	-0.26698038
66	0x3d984369	0.074347325
67	0xbf559daf	-0.8344373
68	0xbee6aeb5	-0.45055166
69	0x3ded24e7	0.11579304
70	0xbe84880a	-0.2588504
71	0xbe93a6fa	-0.2883833
72	0x3e1e2eb4	0.15447503
73	0x3cb4883b	0.022037616
74	0x3f12782a	0.57214606
75	0xbe89db72	-0.26925236
76	0xbe04c5bc	-0.12966055
77	0xbf2c4330	-0.6729002
78	0xbd9d5eec	-0.076841205
79	0xbf111472	-0.5667182
80	0xbec55cf0	-0.38547468
81	0xbdfe9c66	-0.124321744
82	0xbdfc6c8f	-0.123253934
83	0x3f25a606	0.64706457
84	0xbee588af	-0.44830844
85	0x3cb2cc63	0.021825975
86	0xbe885941	-0.26630595
87	0xbd6658fd	-0.05623721
88	0xbef7ac0e	-0.48373455
89	0xbf26d148	-0.6516309
90	0xbf302a31	-0.6881438
91	0xbe8924fc	-0.2678603
92	0xbf05f894	-0.52332425
93	0xbf36c75e	-0.7139796
94	0x3d28465f	0.041082736
95	0xbf1a0264	-0.601599
96	0x3e70c426	0.23512325
97	0xbf02e7b0	-0.5113478
98	0x3e8ae2cb	0.27126154
99	0xbcf23728	-0.029567316
100	0xbe964fb9	-0.293577
101	0xbf16205a	-0.58643115
102	0x3e8158bd	0.25263014
103	0x3ca276d5	0.019832054
104	0xbf30f780	-0.69127655
105	0x3d5f7d32	0.054562755
106	0x3f063b1b	0.5243394
107	0x3f1805fc	0.5938413
108	0xbecd11bf	-0.40052602
109	0xbf3792d9	-0.71708447
110	0xbe2ec69f	-0.17067955
111	0x3ee7f3a4	0.4530307
112	0x3e9d7912	0.30756432
113	0x3f1bf939	0.6092716
114	0xbdd1432b	-0.102178894
115	0xbc1b5bf9	-0.009482377
116	0x3e8e420e	0.2778477
117	0x3e73472f	0.23757623
118	0xbe95eb74	-0.292812
119	0xbefdf5d6	-0.4960162
120	0x3e4076d7	0.18795334
121	0xbeaed349	-0.34145573
122	0xbf015365	-0.50517875
123	0x3e82628e	0.25465816
124	0xbe10a68b	-0.14126031
125	0x3edaa260	0.42702007
126	0x3efc13db	0.492339
127	0xbdffdc4b	-0.124931894
128	0x3f0a9422	0.5413228
129	0x3ed7f300	0.42177582
130	0x3f0caa6a	0.5494753
131	0x3f1ecf3e	0.62034976
132	0xbe06cbd7	-0.13163696
133	0x3d78449f	0.060612317
134	0xbec70355	-0.3886973
135	0xbf129013	-0.5725109
136	0xbf1fc615	-0.62411624
137	0x3eb30d4e	0.34971088
138	0xbecd606c	-0.40112627
139	0xbf6265ef	-0.8843679
140	0x3ada8ae9	0.0016673479
141	0x3da7bb16	0.08189981
142	0xbeb43944	-0.3519994
143	0xbed01d84	-0.4064752
144	0xbf4a96cc	-0.7913635
145	0xbf35e0c6	-0.710461
146	0xbee19ff9	-0.44067362
147	0x3e1a8da1	0.1509309
148	0xbe2c039e	-0.16798255
149	0x3ed0af26	0.40758628
150	0x3e278154	0.16357929
151	0x3dca8d89	0.09890277
152	0x3d3343e4	0.043765917
153	0x3ef3246e	0.4748873
154	0x3f5d29b0	0.86391735
155	0x3f107c9b	0.5644013
156	0xbdd50015	-0.10400406
157	0x3e9222f2	0.28542286
158	0x3f1321b8	0.57473326
159	0x3f325812	0.69665635
160	0x3ee20de9	0.44151238
161	0x3ee9439f	0.45559403
162	0xbebb80af	-0.36621615
163	0xbf1bef94	-0.6091244
164	0xbee619b7	-0.44941494
165	0xbee1d0f4	-0.4410473
166	0xbe84c861	-0.25934127
167	0x3e9cce92	0.3062635
168	0xbea72205	-0.32643142
169	0x3e856b97	0.26058647
170	0x3e9e8fb0	0.30969
171	0x3d7980e0	0.06091392
172	0xbe6644d1	-0.22487189
173	0x3f1ecd58	0.6203208
174	0xbf08af26	-0.53392255
175	0x3decc591	0.1156112
176	0xbef355d8	-0.4752643
177	0xbf24876f	-0.64269155
178	0xbe83313a	-0.25623494
179	0xbeeb7350	-0.45986414
180	0x3e893867	0.26800844
181	0xbdd3149e	-0.10306667
182	0x3e76566b	0.24056403
183	0x3e971fff	0.295166
184	0x3e23c5dd	0.15993448
185	0x3e62bf50	0.22143292
186	0x3f46c6d2	0.77647126
187	0x3d8e8ba1	0.06960226
188	0x3eb6b69b	0.35686192
189	0xbf14a292	-0.5806056
190	0xbf5db135	-0.8659852
191	0xbdd1191c	-0.10209867

trunk.0.bias f4 [64]
0	0x3d562a13	0.05228622
1	0x3e846e19	0.25865248
2	0x3dde3b06	0.108511016
3	0xbe8a53aa	-0.27016956
4	0x3e555979	0.20834912
5	0xbdea51ad	-0.1144136
6	0xbe159833	-0.1460884
7	0xbd2d7b28	-0.04235378
8	0xbdd7fccf	-0.10546266
9	0xbd9a0cf2	-0.07522
10	0x3dd2ab33	0.1028656
11	0x3e204121	0.15649845
12	0xbb8afec4	-0.004241796
13	0xbe22d29c	-0.15900654
14	0xbde2a63a	-0.110668615
15	0xbdcca49e	-0.09992336
16	0x3e0baacd	0.13639374
17	0xbe189456	-0.14900336
18	0x3e33965f	0.17537831
19	0xbe08e38a	-0.1336805
20	0x3db7da95	0.08977238
21	0xbe8db4f5	-0.27677122
22	0xbe8d9a5e	-0.27656835
23	0xbd26f37c	-0.04075955
24	0x3df5cba4	0.12001732
25	0xbe407470	-0.18794417
26	0xbe8306fb	-0.25591263
27	0x3e25e206	0.16199502
28	0xbdbff01f	-0.09371971
29	0xbe604efc	-0.2190513
30	0xbdf3aa62	-0.11897732
31	0xbdf6a945	-0.12044004
32	0x3da5c918	0.08094996
33	0xbd999602	-0.07499315
34	0xbe444853	-0.19168214
35	0x3e66d268	0.22541201
36	0xbdebab56	-0.11507289
37	0x3e53ca7a	0.20682707
38	0x3dea3346	0.11435561
39	0xbe4a1014	-0.19732696
40	0xbdc24a65	-0.09486846
41	0x3e18b9d9	0.14914645
42	0x3d976192	0.07391657
43	0x3da99066	0.08279495
44	0xbde0a617	-0.10969179
45	0x3d80576a	0.06266673
46	0xbde3a10e	-0.11114703
47	0xbd8ca00e	-0.068664655
48	0xbe05747c	-0.13032717
49	0x3da889d7	0.08229416
50	0x3df8a2de	0.121404395
51	0x3dbf79b2	0.093493834
52	0x3e1acd92	0.15117481
53	0x3e6b36df	0.2297015
54	0xbe8554f6	-0.26041383
55	0x3c65eed8	0.014033996
56	0x3e5d3be4	0.21604878
57	0x3e60ef6a	0.21966329
58	0xbe02f20b	-0.12787645
59	0xbe6d3a39	-0.23166741
60	0x3e2062fd	0.15662761
61	0x3e60c648	0.21950638
62	0x3da542be	0.08069371
63	0xbdfe16aa	-0.124066666

trunk.2.weight f4 [64, 64]
0	0xbef1c30d	-0.47219124
1	0xbeffb57a	-0.49943143
2	0xbc41bfd4	-0.011825521
3	0x3ec4e9d7	0.38459656
4	0xbe06db72	-0.13169649
5	0x3f00608d	0.50147325
6	0x3e149cfa	0.14513007
7	0x3ea7b1c9	0.32752827
8	0x3ead06d3	0.3379427
9	0x3ef968ce	0.48712772
10	0xbea312c9	-0.3185027
11	0xbdf0d0d6	-0.11758582
12	0xbee2fc46	-0.44333094
13	0x3d70eb68	0.05881825
14	0x3e7b45aa	0.24538293
15	0xbd7614e1	-0.060078505
16	0xbe4f80d8	-0.20263994
17	0x3f19390a	0.5985266
18	0x3d8ad48c	0.06778821
19	0xbd914614	-0.070934445
20	0xbee177db	-0.44036755
21	0x3eda4970	0.42634153
22	0x3ed98296	0.42482442
23	0x3ee25251	0.44203427
24	0xbec7cd33	-0.39023742
25	0xbe35fbbe	-0.17771813
26	0xbd36821c	-0.044557676
27	0xbd944c5e	-0.072411284
28	0xbc9c930f	-0.019113092
29	0xbc1a1ab6	-0.009405782
30	0x3dc71b62	0.0972202
31	0x3cbd6d0d	0.023123289
32	0xbe6942ce	-0.2277939
33	0xbe15fbf5	-0.14646895
34	0x3d26e582	0.04074622
35	0xbce2737e	-0.027642962
36	0x3f0085c8	0.50204134
37	0xbe705f36	-0.2347382
38	0x3d1adbbf	0.037807222
39	0x3e735bea	0.23765531
40	0x3e5329b1	0.20621373
41	0xbea1e312	-0.31618553
42	0xbdffae18	-0.124843776
43	0xbe0025dd	-0.12514444
44	0x3e2e5f2c	0.17028493
45	0x3d867aa4	0.065663606
46	0x3f22d877	0.6361155
47	0x3e242df2	0.16033152
48	0x3e5a7b57	0.21336113
49	0xbe3434e0	-0.17598295
50	0xbf089a27	-0.5336022
51	0xbe43e681	-0.19130899
52	0xbb7e114a	-0.003876763
53	0xbdcce823	-0.10005214
54	0x3cdc485a	0.026889969
55	0xbea871e9	-0.32899407
56	0xbe168800	-0.14700317
57	0x3da7be54	0.08190599
58	0x3e639ca7	0.22227727
59	0xbda4045f	-0.08008646
60	0x3e08990c	0.13339633
61	0xbed79c17	-0.42111275
62	0x3d9c00e3	0.07617357
63	0x3d66a696	0.056311212
64	0xbdc2103d	-0.094757535
65	0xbb8010e7	-0.003908265
66	0xbdafae29	-0.0857814
67	0x3e5dd905	0.21664818
68	0xbed4ebc9	-0.4158614
69	0x3e5a9c66	0.21348724
70	0x3eb50d4a	0.353617
71	0xbe63a639	-0.22231378
72	0x3eb0ee2a	0.34556705
73	0xbd7d5e35	-0.06185742
74	0xbea5d72c	-0.32390726
75	0xbee30f50	-0.4434762
76	0x3ba11fa9	0.0049171043
77	0xbe088095	-0.133303
78	0xbdf61284	-0.1201525
79	0x3eec296e	0.46125358
80	0x3e2e45d6	0.17018828
81	0x3e42b4f0	0.19014335
82	0xbc951536	-0.01819859
83	0xbe5c1c5d	-0.21495195
84	0xbd61241e	-0.054966085
85	0x3ed4cf69	0.4156449
86	0x3ee45960	0.44599438
87	0xbe17e081	-0.14831735
88	0xbebaaebe	-0.36461443
89	0xbdec7b19	-0.115469165
90	0xbc57abba	-0.013163501
91	0xbe8b1c47	-0.2717001
92	0x3dad459a	0.08460541
93	0x3e857070	0.26062346
94	0x3eb32c41	0.349947
95	0x3d0fd5d0	0.035116017
96	0xbda16985	-0.078814544
97	0xbe4c0eb8	-0.1992749
98	0xbe4183a0	-0.18897867
99	0x3da46764	0.08027533
100	0x3ea1f436	0.3163163
101	0x3d3c9561	0.046040896
102	0x3de3b969	0.111193486
103	0x3eeb26f4	0.45928156
104	0x3ddb1d8a	0.106989935
105	0xbe314982	-0.17313197
106	0x3e5d15c0	0.21590328
107	0xbeca9a0a	-0.39570647
108	0x3cb3f6bd	0.02196824
109	0xbe0d15da	-0.13777867
110	0x3d19b70d	0.037528086
111	0x3dab3a91	0.0836078
112	0x3c29e07f	0.010368465
113	0xbe1f80cb	-0.15576474
114	0xbe2d6e9a	-0.16936722
115	0xbe006cce	-0.12541506
116	0x3d8c52a2	0.068516985
117	0xbd19c7c2	-0.03754402
118	0x3e852d7c	0.26011264
119	0x3ebfaeb0	0.37437963
120	0x3e0b9c13	0.13633756
121	0xbea0feec	-0.3144449
122	0x3d869698	0.06571692
123	0x3ccf0c6c	0.025274478
124	0xbb3fb17a	-0.0029250071
125	0x3dc3e815	0.095657505
126	0xbe414b39	-0.18876351
127	0x3df8dbe6	0.12151317
128	0xbeb18fe8	-0.34680104
129	0x3e8628a5	0.26202884
130	0xbe5da453	-0.21644716
131	0x3e8aecf3	0.27133903
132	0x3c5b3258	0.013378702
133	0x3e503d4c	0.20335883
134	0xbd14380b	-0.03618626
135	0xbe4656a3	-0.19368987
136	0x3e4be4e2	0.1991153
137	0x3d4301f2	0.047609277
138	0xbea7bf99	-0.32763365
139	0xbec797ae	-0.3898291
140	0x3d907a60	0.07054591
141	0xbdeb00e9	-0.11474783
142	0x3ee79ea7	0.4523823
143	0x3dbf079f	0.093276255
144	0x3e24137e	0.1602306
145	0xbdfc4dd1	-0.1231953
146	0xbe5d9d67	-0.21642075
147	0x3d31d89d	0.04341947
148	0xbd07c1bd	-0.033143748
149	0xbe01eae2	-0.12687257
150	0x3e6f43e1	0.23365737
151	0x3e1ac6b6	0.15114865
152	0x3c49a162	0.012306543
153	0x3dbedca1	0.093194254
154	0x3ed00e7a	0.40636045
155	0xbea4dc0f	-0.3219914
156	0x3e928c8a	0.28622848
157	0x3e788ba6	0.24272022
158	0x3e8a3e7d	0.270008
159	0xbd852596	-0.065013096
160	0x3e82c6c0	0.2554226
161	0xbe107937	-0.1410874
162	0x3ed7624c	0.42067182
163	0xbe2ffd1c	-0.17186397
164	0xbe35e1ca	-0.17761913
165	0xbe236276	-0.15955529
166	0xbee0622e	-0.43824905
167	0x3ede6259	0.43434408
168	0x3ccce423	0.025011128
169	0xbe824314	-0.25441802
170	0x3e5234bb	0.20527928
171	0xbe8574e8	-0.26065755
172	0x3e0ba59e	0.13637397
173	0x3e9dcb25	0.3081905
174	0x3ee8e0d1	0.4548402
175	0x3e47fa99	0.19529189
176	0x3e8277c8	0.2548201
177	0x3dc42e6a	0.09579165
178	0xbea9d3e1	-0.33169463
179	0xbd90f1bc	-0.07077357
180	0xbe9eec01	-0.31039432
181	0xbee0c6fa	-0.43901807
182	0xbdf01dd6	-0.11724441
183	0xbead64af	-0.33865878
184	0xbe8bc20a	-0.27296478
185	0xbebd3f8c	-0.36962545
186	0x3ecabd3c	0.395975
187	0x3d25fe36	0.040525638
188	0xbee66dde	-0.45005697
189	0x3dc7a48f	0.09748184
190	0xbe962f8b	-0.29333147
191	0xbe04a80f	-0.12954734
192	0xbd4cd538	-0.05000803
193	0x3caf4d14	0.021399058
194	0x3dfb97f6	0.122848436
195	0xbea532bc	-0.3226527
196	0x3d6739a5	0.05645146
197	0x3c4e264a	0.012582371
198	0xbeb6de51	-0.3571649
199	0xbde313ca	-0.11087759
200	0xbcf81be4	-0.030286737
201	0xbed510ad	-0.41614285
202	0x3e9cedf2	0.30650288
203	0x3d93eef0	0.07223308
204	0x3ea2c285	0.31789032
205	0x3d6c1901	0.057641033
206	0x3ddd45b6	0.10804312
207	0x3e219e5a	0.15783063
208	0x3e2ab01a	0.1666874
209	0x3e0226f0	0.12710166
210	0x3e28158d	0.16414471
211	0xbd4401e1	-0.047853354
212	0xbe2531cb	-0.16132276
213	0xbed16048	-0.4089377
214	0xbe098df2	-0.13433054
215	0xbe37d7ca	-0.1795341
216	0xbdc1ca99	-0.094624706
217	0xbeba9fef	-0.36450145
218	0x3c8547e0	0.016269624
219	0x3c2e3ade	0.010634152
220	0x3cc2eb7f	0.023793934
221	0xbea222c9	-0.31667164
222	0xbedc790f	-0.4306111
223	0xbd1689d1	-0.036752526
224	0xbd8b749c	-0.06809351
225	0xbe88c891	-0.2671552
226	0xbe8dc138	-0.27686477
227	0xbe44c6f0	-0.19216514
228	0xbc2a84ba	-0.010407621
229	0x3de50e87	0.111844115
230	0x3e700cc0	0.23442364
231	0xbe87a6ee	-0.26494545
232	0xbe027e9e	-0.12743613
233	0x3ecc4011	0.3989263
234	0x3d067091	0.032822195
235	0x3e1cbb94	0.1530593
236	0xbebaa641	-0.36454967
237	0xbdfbfe47	-0.12304359
238	0xbf0506e4	-0.5196364
239	0xbe9704c2	-0.29495817
240	0x3e5fd9bb	0.21860401
241	0x3ec1ce32	0.37852627
242	0x3ecf1b74	0.40450633
243	0x3e0e9f7d	0.13928027
244	0x3ecccd16	0.40000218
245	0xbe746354	-0.23866016
246	0xbed41dcf	-0.41428992
247	0xbeb8ad5d	-0.36069766
248	0xbe446324	-0.19178444
249	0x3eaa37b4	0.33245623
250	0x3ccf612e	0.025314894
251	0xbdcd6ac8	-0.100301325
252	0x3d8b5e19	0.06805057
253	0x3dc6566a	0.09684451
254	0x3ed160fb	0.40894303
255	0xbef8ca3d	-0.48591796

trunk.2.bias f4 [64]
0	0xbd9f194c	-0.07768497
1	0xbb6bc56d	-0.003597583
2	0x3bf0645e	0.0073361835
3	0xbcd050ea	-0.025429208
4	0xbda10536	-0.07862322
5	0xbdd40a83	-0.103535675
6	0x3d480797	0.048835363
7	0xbd880fc0	-0.06643629
8	0x3d616a9b	0.055033308
9	0xbce1c636	-0.027560335
10	0xbd5bf5af	-0.0537011
11	0x3d8a4f1d	0.06753371
12	0x3c522a3d	0.012827453
13	0x3c60f36d	0.013729912
14	0xbcdaaee2	-0.026694719
15	0xbd7a9b57	-0.0611833
16	0x3d0604bf	0.03271937
17	0x3dc7eee6	0.09762363
18	0x3d14deab	0.036345165
19	0xbd7b32d5	-0.061327774
20	0x3d4f6f02	0.050642975
21	0x3cc68b9f	0.024236498
22	0xbd4e5793	-0.050376486
23	0x3cc43e92	0.023955617
24	0x3c253c8d	0.010085237
25	0x3cb1a131	0.021683307
26	0x3d9ae14d	0.07562504
27	0x3de2c429	0.11072571
28	0x3d795a4c	0.06087713
29	0xbd0f87d4	-0.035041645
30	0xbdf96733	-0.12177887
31	0x3c4c85f7	0.012483112
32	0xbc82d8ca	-0.015972514
33	0xbca7773d	-0.0204426
34	0xbcda0e9d	-0.026618296
35	0x3b0e6471	0.0021727348
36	0xbc264f3a	-0.010150725
37	0xbdfc8cd5	-0.12331549
38	0x3db0a819	0.08625812
39	0xbd4ec9f2	-0.05048556
40	0x3d648a9e	0.05579626
41	0x3a92aaba	0.0011189796
42	0x3d2a7891	0.041618887
43	0x3df94b0d	0.12172518
44	0xbdac0368	-0.08399087
45	0x3da4dac3	0.08049538
46	0x3df81c0f	0.12114727
47	0xbd825948	-0.06364685
48	0xbd58fb7e	-0.052974217
49	0xbc8a73bd	-0.016900891
50	0x3d489c26	0.04897704
51	0xbd422760	-0.047400832
52	0x3d4ca3be	0.049960844
53	0xbcbee700	-0.023303509
54	0x3da0d0d2	0.07852329
55	0xbcfda19e	-0.030960854
56	0xbc22cb16	-0.009936115
57	0xbd03af7f	-0.032149788
58	0xbcef1a77	-0.029187424
59	0x3d846843	0.06465199
60	0x3c947f0f	0.018126993
61	0xbd5f6179	-0.054536317
62	0x3c3e4d68	0.011615135
63	0xbda2c493	-0.0794765

wage_head.0.weight f4 [3, 64]
0	0xbf89dbc3	-1.0770191
1	0xbf7cac90	-0.9870081
2	0xbf7cc6b3	-0.9874069
3	0x3f84efbf	1.0385665
4	0x3f53b977	0.8270487
5	0xbf696c5c	-0.9118097
6	0x3f8d6768	1.1047182
7	0xbf6077a7	-0.87682575
8	0xbf65ac7b	-0.8971631
9	0x3f80e61c	1.0070224
10	0xbf50d8f9	-0.81581074
11	0x3f6b92ab	0.9202067
12	0x3f403882	0.75086224
13	0x3f4925ca	0.78573287
14	0x3f8212df	1.0162009
15	0xbf606af4	-0.876632
16	0x3f7eed91	0.9958125
17	0x3f8570e5	1.0425078
18	0xbf838551	-1.027506
19	0xbf50fde4	-0.81637406
20	0xbf858c11	-1.043337
21	0x3f6a0fcc	0.91430354
22	0xbf82fc97	-1.0233334
23	0x3f472e00	0.77804565
24	0xbf83bad9	-1.0291396
25	0x3f79ccc5	0.9757808
26	0x3f6e7011	0.9313975
27	0x3f61146d	0.8792179
28	0x3f5c330a	0.8601538
29	0xbf4da8c5	-0.80335647
30	0xbf81da72	-1.0144789
31	0xbf83328f	-1.0249804
32	0xbf8139cc	-1.0095763
33	0x3f75f8b5	0.9608262
34	0xbf77d130	-0.9680357
35	0xbf75d539	-0.96028477
36	0x3f6e3dce	0.93063056
37	0xbf824418	-1.017703
38	0x3f829647	1.0202111
39	0xbf833d9b	-1.0253175
40	0xbf788941	-0.9708443
41	0xbf5586ad	-0.83408624
42	0xbf537260	-0.825964
43	0x3f8158a7	1.010518
44	0xbf4e5b74	-0.80608296
45	0x3f63a828	0.8892846
46	0x3f4c23a2	0.7974187
47	0xbf720b74	-0.94548726
48	0x3f66ac47	0.90106624
49	0xbf82e71e	-1.0226781
50	0xbf7f98f4	-0.9984276
51	0x3f51cec5	0.8195613
52	0xbf414612	-0.75497544
53	0xbf476ec0	-0.77903366
54	0x3f815b44	1.0105977
55	0xbf44c5bd	-0.76864225
56	0x3f303761	0.688345
57	0x3f88f8bc	1.0700908
58	0xbf82c463	-1.0216182
59	0x3f4b01b7	0.7929949
60	0x3f8ba546	1.0909812
61	0xbf2ac110	-0.6670084
62	0xbf41599d	-0.75527364
63	0xbf81f992	-1.0154288
64	0x3e7fdf57	0.24987541
65	0xbdad50ec	-0.084627
66	0xbdd8976e	-0.10575758
67	0x3e1d8c9a	0.15385666
68	0x3e5f910e	0.21832678
69	0x3ec4bafa	0.38423902
70	0x3d0d1c18	0.03445062
71	0x3da4d043	0.08047535
72	0xbe00c1c9	-0.12573923
73	0x3e30242a	0.17201295
74	0xbb805497	-0.003916334
75	0xbe28a672	-0.16469744
76	0x3dc53e2e	0.096310005
77	0x3e8d4382	0.27590567
78	0xbddd4588	-0.10804278
79	0x3c81ad58	0.015829727
80	0xbd0d0489	-0.034428153
81	0xbe9a40a6	-0.30127448
82	0xbe32a8ba	-0.17447177
83	0x3dc9d01c	0.09854147
84	0xbe87a49a	-0.2649277
85	0xbcfdfb87	-0.031003727
86	0x3dab41a6	0.08362131
87	0x3e2754d4	0.16340953
88	0xbda5183f	-0.08061265
89	0xbe07d297	-0.13263927
90	0xbda7b407	-0.08188634
91	0xbe3a1d1e	-0.1817517
92	0xbdc3bca2	-0.09557463
93	0x3ce2de66	0.027693938
94	0x3ead0452	0.3379236
95	0xbe60cc53	-0.21952944
96	0x3d4d43d9	0.050113533
97	0x3e28fd7d	0.16502948
98	0x3c83ae4b	0.01607432
99	0xbdf56f6c	-0.11984143
100	0x3cf1e87c	0.029529803
101	0x3eb7c98f	0.35895965
102	0xbe84cb87	-0.2593653
103	0x3e46bc58	0.19407785
104	0xbe00bbea	-0.12571684
105	0xba8cc68d	-0.0010740325
106	0xbe85d5cc	-0.26139677
107	0xbea03be5	-0.31295696
108	0x3e83d276	0.25746506
109	0xbd88af11	-0.06674016
110	0xbdb3b9a5	-0.08775643
111	0x3e45844c	0.19288749
112	0x3e74ffe1	0.23925735
113	0x3d6a026d	0.05713122
114	0xbe621913	-0.22079878
115	0x3e30b059	0.17254771
116	0xbe37be42	-0.17943671
117	0xbe16b03b	-0.14715664
118	0xbd5c627c	-0.05380486
119	0xbe0baa53	-0.13639192
120	0x3e8ad636	0.27116555
121	0x3e3f1cf5	0.1866339
122	0x3e9315d4	0.2872759
123	0xbca3f0fe	-0.020012375
124	0x3e000146	0.12500486
125	0xbe499a22	-0.19687703
126	0xbe89a82d	-0.2688612
127	0x3eb4ece1	0.35336974
128	0x3e71099e	0.23538825
129	0x3e5d4a21	0.21610309
130	0xbcbd2b50	-0.023091942
131	0x3d5a841c	0.053348646
132	0x3e7d608b	0.2474386
133	0xbe820dad	-0.2540106
134	0xbe01eaf1	-0.1268728
135	0x3deac217	0.11462801
136	0x3e868c67	0.26278993
137	0xbe3eb40e	-0.18623373
138	0x3e94c726	0.29058188
139	0xbe216995	-0.15762933
140	0x3e406a86	0.18790635
141	0xbdce3a1c	-0.10069677
142	0x3e42ec8f	0.19035552
143	0x3e73bf6e	0.23803493
144	0xbe523539	-0.20528115
145	0xbe0a6d02	-0.13518146
146	0x3e81732d	0.25283185
147	0x3e8f5ccc	0.28000486
148	0x3cc5e777	0.024158223
149	0x3de8884d	0.11354122
150	0x3c01e61c	0.0079283975
151	0x3d74b0d1	0.059738938
152	0x3e1ef60a	0.15523544
153	0xbe94af15	-0.29039827
154	0xbd000ebc	-0.03126405
155	0x3c3fe415	0.011712094
156	0xbe625a94	-0.22104865
157	0x3e10f384	0.14155394
158	0xbd60e5bc	-0.05490659
159	0xbe5dde40	-0.21666813
160	0x3de3b2e5	0.11118106
161	0x3d93b363	0.0721195
162	0xbe8e8f0b	-0.27843508
163	0x3cbbe582	0.022936586
164	0xbdacf286	-0.08444695
165	0x3e913dfa	0.28367597
166	0xbe3dd5ad	-0.18538542
167	0x3e5644ef	0.20924734
168	0xbdba85af	-0.09107529
169	0x3e8e835d	0.27834597
170	0xbe28557a	-0.16438857
171	0xbe8a33d6	-0.26992673
172	0xbe155baf	-0.14585756
173	0xbe973153	-0.2952982
174	0x3d58fd18	0.052975744
175	0xbe236492	-0.15956333
176	0x3d20b667	0.039236452
177	0xbd941ae6	-0.07231693
178	0xbe3935e0	-0.18086958
179	0x3e8201f2	0.2539211
180	0x3d462ad5	0.04838069
181	0x3e5ce91b	0.21573298
182	0x3dbbc2d2	0.091680184
183	0x3e153ed5	0.1457475
184	0x3e8b89f0	0.27253675
185	0x3e880e28	0.265733
186	0xbdf68162	-0.120363966
187	0x3e4ad1d6	0.19806609
188	0xbd206270	-0.039156377
189	0x3e82ba6b	0.2553285
190	0xbe0dd84d	-0.13852043
191	0xbe828baa	-0.2549718

wage_head.0.bias f4 [3]
0	0x3f3f0d66	0.7462982
1	0xbd2818d0	-0.041039288
2	0x3bf633a6	0.007513481
