trained_policy_function.pt (torch, 23756 bytes, 14 tensors)

trunk.0.weight f4 [32, 3]
0	0xbdade78c	-0.0849143
1	0x3e3acc1d	0.18241926
2	0x3f30c232	0.6904632
3	0xbe9b63f4	-0.30349696
4	0xbc658580	-0.01400888
5	0xbeae8ff4	-0.34094203
6	0x3f26be2a	0.6513392
7	0xbebe4896	-0.37164754
8	0xbf5c827e	-0.86136615
9	0xbe3cc191	-0.18433215
10	0x3e009fb6	0.12560925
11	0x3f536d79	0.82588917
12	0x3f38f107	0.7224278
13	0xbe9a87b4	-0.30181658
14	0xbfcfbbda	-1.6229203
15	0xbee66fac	-0.45007074
16	0x3e1dfc22	0.15428212
17	0xbe881a2c	-0.26582468
18	0xbf132e82	-0.5749284
19	0x3e5b7126	0.21429881
20	0x3f6fb8c8	0.9364133
21	0xbe04674c	-0.1293003
22	0x3fd6548b	1.674455
23	0x3fc00b89	1.500352
24	0x3ef5803c	0.47949398
25	0x3f9ab30c	1.2085891
26	0xbdb11e42	-0.08648349
27	0x3f35c5d8	0.7100501
28	0x3e9ddc28	0.30832028
29	0xbfa08072	-1.2539198
30	0x3ea67fba	0.32519323
31	0x3fca68d8	1.5813246
32	0x3eba5fef	0.36401317
33	0x3ea345f7	0.31889316
34	0xbe5ad34c	-0.21369666
35	0xbfb24778	-1.392806
36	0x3eafd493	0.3434187
37	0x3eaa1a20	0.33223057
38	0x3f23de79	0.6401134
39	0x3f926150	1.1435947
40	0xbf2d8cc6	-0.6779293
41	0x3fa6d3a4	1.3033338
42	0xbea22434	-0.31668246
43	0xbed33168	-0.4124863
44	0xbf3719f1	-0.7152396
45	0xbf27ca26	-0.6554283
46	0x3cd98a12	0.026555095
47	0xbf40be54	-0.7529042
48	0x3ed59f9a	0.4172333
49	0xbfc1c457	-1.5138043
50	0xbf21e1bb	-0.6323506
51	0x3f2fd036	0.6867708
52	0xbf50f03c	-0.8161657
53	0x3fbbe2b2	1.4678557
54	0xbf4d4bdc	-0.8019388
55	0xbf1d7653	-0.61508673
56	0x3f377778	0.7166667
57	0x3f41b79b	0.75670785
58	0x3f8359ee	1.0261819
59	0x3fbafb5e	1.4607961
60	0xbf248a2e	-0.64273345
61	0x3d1a7b5a	0.037715293
62	0xbee68f41	-0.4503117
63	0xbedf2948	-0.43586183
64	0x3e606355	0.21912892
65	0x3ef54502	0.4790421
66	0xbf628779	-0.88487965
67	0xbdb9172c	-0.09037623
68	0x3e6fc519	0.2341503
69	0x3f204d10	0.6261759
70	0xbe6b2684	-0.22963911
71	0x3fb44d67	1.4086121
72	0xbe06d495	-0.13167031
73	0x3e399566	0.18123397
74	0xbf867ceb	-1.0506872
75	0xbf9f3aec	-1.2439857
76	0xbf395dd6	-0.7240881
77	0xbdd55b40	-0.10417795
78	0x3e178132	0.14795378
79	0x3fb2670e	1.39377
80	0xbdfb5571	-0.12272156
81	0x3f9005e2	1.1251795
82	0xbf86427e	-1.0489042
83	0x3f0fe1b6	0.5620378
84	0xbf9edd66	-1.2411315
85	0xbfa5e3b0	-1.296011
86	0x3f63f3f6	0.8904413
87	0xbf6c5350	-0.92314625
88	0xbf4819d2	-0.781644
89	0xbf55cd64	-0.83516526
90	0x3ee44170	0.44581175
91	0x3e66622a	0.22498384
92	0xbdcc8534	-0.09986344
93	0xbf870553	-1.05485
94	0x3dad67d0	0.08467066
95	0xbf9219c3	-1.1414112

trunk.0.bias f4 [32]
0	0xbec68ebc	-0.38780773
1	0x00000000	0.0
2	0xbd59d4e0	-0.05318153
3	0xbedfc8e8	-0.43707967
4	0x3ea257bb	0.31707558
5	0xbdc75294	-0.097325474
6	0xbedc132c	-0.42983377
7	0xbd7ba704	-0.061438575
8	0xbe028340	-0.1274538
9	0x3e81b8d5	0.25336328
10	0xbe4f115c	-0.20221466
11	0xba791e28	-0.000950309
12	0xbd0c7cec	-0.034298822
13	0x3ea72f40	0.32653236
14	0x00000000	0.0
15	0x3f1fb9e8	0.62393045
16	0xbd94e5c6	-0.07270388
17	0x3e046374	0.12928563
18	0xbe84fc0c	-0.25973547
19	0x3ced3e86	0.028960478
20	0x3f37299e	0.7154788
21	0xbeb4fbf1	-0.35348466
22	0xbe0a26dd	-0.13491388
23	0x3ee784e3	0.45218572
24	0xbdab9fbc	-0.08380076
25	0x00000000	0.0
26	0x3e379d2a	0.17931047
27	0xbd897322	-0.06711413
28	0xbd79abac	-0.060954735
29	0x00000000	0.0
30	0x3ed844c2	0.42239958
31	0xbd555d01	-0.05209065

trunk.2.weight f4 [32, 32]
0	0xbedef9c4	-0.4354993
1	0xbe8bb10d	-0.27283517
2	0xbe1d25fc	-0.15346521
3	0x3de08180	0.109622
4	0x3e213344	0.15742213
5	0xbd514fb9	-0.05110142
6	0x3e5a257e	0.21303365
7	0x3d81c980	0.06337261
8	0x3d8d5694	0.06901279
9	0x3f063467	0.5242371
10	0x3ed54c9c	0.4166001
11	0x3e9825c2	0.29716307
12	0xbec54184	-0.38526547
13	0x3ee90ee1	0.45519164
14	0x3dc59e37	0.09649318
15	0x3e8ca022	0.27465922
16	0xbed43ecc	-0.4145416
17	0xbe0a21f4	-0.13489515
18	0xbd88506a	-0.06655963
19	0x3e33bc2c	0.1755225
20	0x3e370106	0.17871484
21	0xbe924c6c	-0.2857393
22	0xbeb20635	-0.3477036
23	0x3f1131dc	0.56716704
24	0xbf1fc2c5	-0.6240657
25	0xbf049ee4	-0.5180495
26	0x3ee805bd	0.45316878
27	0xbdfceb14	-0.12349525
28	0xbf165f5d	-0.5873926
29	0xbe69be08	-0.22826397
30	0x3f15ab5c	0.584646
31	0xbea4dd8b	-0.32200274
32	0x3e068d1a	0.13139763
33	0x3e13f27e	0.14447972
34	0x3de169cc	0.11006507
35	0xbe976b7c	-0.29574192
36	0xbecd55ac	-0.40104425
37	0xbe53697c	-0.20645708
38	0xbebd41b9	-0.36964205
39	0xbec0227e	-0.37526315
40	0xbe19187e	-0.1495075
41	0xbd3bb638	-0.045828074
42	0x3d82e648	0.06391579
43	0xbe64cf74	-0.22344762
44	0xbe8ea5d9	-0.27860907
45	0xbdea51ec	-0.114414066
46	0x3e8154ff	0.2526016
47	0x3e688c26	0.22709712
48	0x3ece6087	0.4030802
49	0x3e4cc5be	0.19997308
50	0x3e9ec29f	0.3100786
51	0x3be55f80	0.00699991
52	0xbe88a310	-0.26686907
53	0x3e086b92	0.13322285
54	0x3ec0e8bb	0.3767756
55	0xbe1b663a	-0.15175715
56	0xbc5d1a20	-0.013494998
57	0xbec54db0	-0.38535833
58	0x3eab1ae3	0.3341895
59	0xbeb4128a	-0.35170394
60	0xbe45cc4a	-0.19316211
61	0x3b83bd40	0.004020363
62	0xbe53a518	-0.20668447
63	0x3aece400	0.001807332
64	0xbe5dec11	-0.21672083
65	0x3edf03ac	0.4355749
66	0xbe713cb6	-0.23558316
67	0x3d90ec0e	0.07076274
68	0xbecc3296	-0.39882344
69	0x3d8c962b	0.0686458
70	0x3e8f74ce	0.28018802
71	0xbe923522	-0.28556162
72	0xbdd1c112	-0.10241903
73	0xbc91a11b	-0.017777016
74	0xbd029965	-0.03188457
75	0x3dcc9e8e	0.099911794
76	0x3eac4d60	0.33652782
77	0xbddb7a96	-0.10716741
78	0x3e234ae4	0.15946537
79	0xbeb1fff2	-0.34765583
80	0xbe76bd00	-0.24095535
81	0xbe96d692	-0.2946058
82	0x3decbc1f	0.11559319
83	0x3d7be7c5	0.06150033
84	0x3edf053e	0.43558687
85	0x3e1af2cc	0.15131682
86	0xbcc2547d	-0.023721928
87	0xbe1fbd19	-0.15599479
88	0x3d4cf26e	0.050035886
89	0xbe3f4640	-0.18679142
90	0x3d4b34c3	0.049610864
91	0xbda76aca	-0.08174665
92	0xbe86f324	-0.26357377
93	0x3d245ede	0.040129535
94	0x3e1b578c	0.15170115
95	0xbd832fa9	-0.06405575
96	0x3c248824	0.010042224
97	0xbee6eb03	-0.45101175
98	0xbf36cf2c	-0.7140987
99	0xbeebdefa	-0.46068555
100	0x3f202698	0.6255889
101	0x3eb5e5b7	0.3552682
102	0xbecba858	-0.39776874
103	0xbf258a66	-0.64664304
104	0xbf3e637c	-0.7437055
105	0x3e888f91	0.26672032
106	0xbee1b890	-0.44086123
107	0xbeea1a61	-0.4572325
108	0xbf36c45a	-0.7139336
109	0x3e96207a	0.29321653
110	0xbcd4be66	-0.025969695
111	0x3ea1018a	0.31446487
112	0x3d94a9a4	0.07258919
113	0x3e78060e	0.2422106
114	0x3ebf4a5c	0.3736142
115	0xbe706d1c	-0.23479122
116	0x3f301acf	0.68790907
117	0x3cb9e20e	0.0226908
118	0x3e987f47	0.29784605
119	0x3eab9fae	0.33520263
120	0xbec38673	-0.38188514
121	0x3e5375b9	0.20650376
122	0x3e73a69a	0.23794022
123	0xbf9b09c8	-1.211236
124	0xbe62295a	-0.22086087
125	0x3e8c8679	0.27446344
126	0x3f395794	0.7239926
127	0xbeccc45b	-0.39993557
128	0x3e159cee	0.14610645
129	0x3e9c5600	0.30534363
130	0x3df8066e	0.12110601
131	0x3e805f16	0.25072545
132	0x3e0dc2ea	0.13843885
133	0x3e2729e8	0.1632458
134	0x3e899bf0	0.26876783
135	0xbe49990a	-0.19687286
136	0xbd3fc652	-0.046819992
137	0xbe04e984	-0.12979704
138	0xbe1273c3	-0.14301972
139	0x3e571896	0.21005473
140	0xbe1bb366	-0.15205154
141	0xbc4d4ee7	-0.012531019
142	0x3ed3548e	0.41275448
143	0x3e1aaa36	0.15103993
144	0x3eed8d9e	0.46397108
145	0x3c485fb2	0.012229847
146	0xbdf076d8	-0.11741418
147	0x3eade2be	0.33962053
148	0xbe6d0cf5	-0.23149474
149	0x3e67f568	0.22652209
150	0x3ed0b4aa	0.40762836
151	0xbe6c53da	-0.23078862
152	0xbd921466	-0.07132797
153	0x3ede9e3c	0.43480098
154	0xbd950a0c	-0.07277307
155	0xbeaf35cd	-0.34220734
156	0xbe4b09eb	-0.19828002
157	0xbeba4982	-0.36384207
158	0xbe3b9d8e	-0.18321821
159	0x3e90cab4	0.2827965
160	0x3d250712	0.040289946
161	0xbd00c6e8	-0.03143969
162	0xbe36baba	-0.17844668
163	0x3d234e5a	0.039869644
164	0xbe739ee8	-0.23791087
165	0xbd98b102	-0.074556366
166	0x3dffe43a	0.12494703
167	0x3c23a52c	0.0099881105
168	0xbd96fac8	-0.073720515
169	0xbe608ee6	-0.21929511
170	0x3e48f760	0.19625616
171	0xbcfaf365	-0.030633638
172	0xbdd55bdc	-0.104179114
173	0xbe9c4d04	-0.30527508
174	0x3eb57532	0.35440975
175	0x3f01b650	0.5066881
176	0x3e6de176	0.23230538
177	0x3dd2651e	0.10273193
178	0xbe63fb12	-0.22263744
179	0xbcf3dde2	-0.029768888
180	0xbee598d1	-0.44843152
181	0x3dae1ce0	0.08501601
182	0x3ef2e836	0.47442788
183	0xbec93968	-0.3930161
184	0x3f4c8c70	0.7990179
185	0xbe61922e	-0.2202842
186	0x3e8c5c01	0.27413943
187	0x3ec3a54a	0.38212043
188	0xbed203aa	-0.4101842
189	0xbec1884c	-0.377993
190	0xbe3c66e2	-0.18398622
191	0x3e848020	0.25879002
192	0x3f025af2	0.5092002
193	0xbeabe6dd	-0.33574572
194	0xbe3b5ff0	-0.18298316
195	0x3d8f3f1e	0.069944605
196	0x3d1dfa5c	0.03856884
197	0xbeb68fd3	-0.35656604
198	0xbe4c3abd	-0.19944282
199	0xbd829082	-0.06375219
200	0xbecf5089	-0.4049113
201	0x3aa00a15	0.0012210036
202	0x3e5e5176	0.21710762
203	0x3ee5b52c	0.44864786
204	0xbea529f7	-0.3225858
205	0x3ec59dda	0.38596994
206	0x3da84656	0.082165405
207	0x3e81a2d3	0.25319538
208	0xbc825200	-0.015908241
209	0xbe22ae86	-0.15886888
210	0x3eb83c2b	0.35983405
211	0xbeec709b	-0.4617966
212	0x3e1d1160	0.1533866
213	0xbe50b3f5	-0.20381148
214	0xbe0355af	-0.12825654
215	0x3e8b8049	0.2724631
216	0xbec49f4b	-0.3840278
217	0xbd3b0510	-0.045659125
218	0xbde63eba	-0.11242433
219	0x3e79aa36	0.24381337
220	0xbea9c667	-0.3315918
221	0xbd9432a2	-0.0723622
222	0xbe0ce084	-0.13757521
223	0x3eab68b3	0.33478317
224	0x3e9e83a2	0.30959803
225	0x3dba5c46	0.09099631
226	0x3e85a9da	0.2610615
227	0x3ec249bc	0.3794688
228	0xbebd14de	-0.36929983
229	0x3dd053b4	0.10172215
230	0x3eafd1f1	0.3433986
231	0xbe150766	-0.14553604
232	0xbeae6964	-0.34064782
233	0x3ed6f6aa	0.41985065
234	0x3ecccc02	0.39999396
235	0x3e9d8cf0	0.3077159
236	0x3ea10bbe	0.3145427
237	0xbe1909aa	-0.14945093
238	0xbe5fb9a0	-0.21848154
239	0xbe796b9c	-0.24357456
240	0x3e85a998	0.26105952
241	0xbdf46e3a	-0.119350865
242	0x3eee6600	0.46562195
243	0xbd3c7af4	-0.046015695
244	0x3eaa37f5	0.33245817
245	0x3d9a0fa4	0.075225145
246	0xbce09b36	-0.02741776
247	0xbe95e173	-0.29273567
248	0xbe8e7172	-0.27820927
249	0xbead86bc	-0.33891857
250	0xbdc503b4	-0.09619847
251	0xbe47012e	-0.19434044
252	0xbed0913a	-0.407358
253	0x3e9885a0	0.29789448
254	0xbea249ce	-0.31696934
255	0x3da9be32	0.0828823

trunk.2.bias f4 [32]
0	0x3edb15da	0.4279011
1	0x00000000	0.0
2	0xbcb0643e	-0.021532174
3	0x3e4eee0e	0.20207998
4	0xbd161a20	-0.03664601
5	0xbd16bac8	-0.036799222
6	0xbe7d86bc	-0.24758428
7	0xbd8afe04	-0.06786731
8	0x3e3460e0	0.1761508
9	0x3ea28814	0.31744444
10	0x00000000	0.0
11	0x3e3cbbc8	0.18431008
12	0xbd267a06	-0.040643714
13	0xbd1cf11c	-0.038315877
14	0xbbcea754	-0.006306568
15	0xbd47fef9	-0.048827145
16	0x3e717788	0.23580754
17	0x39b84a58	0.00035150605
18	0x3da80714	0.08204475
19	0xbda65d86	-0.08123307
20	0x00000000	0.0
21	0xbe021a5d	-0.1270537
22	0xbde17cd0	-0.11010134
23	0x3e63878b	0.22219674
24	0xbdd0c312	-0.10193457
25	0x3def569f	0.116864435
26	0x3eb6db07	0.3571398
27	0x3e129115	0.14313157
28	0x38e80ff9	0.00011065597
29	0xbcedeb7b	-0.02904295
30	0x00000000	0.0
31	0x3ef6e51a	0.48221666

trunk.4.weight f4 [32, 32]
0	0x3d466e66	0.048445128
1	0xbf605792	-0.8763362
2	0xbf063374	-0.5242226
3	0xbf96d6c6	-1.1784294
4	0xbf2cdc28	-0.6752343
5	0xbe2a16b6	-0.16610226
6	0xbf05f634	-0.523288
7	0xbe77f43f	-0.24214266
8	0x3f2a6e52	0.66574585
9	0x3f5ac4b4	0.85456395
10	0xbe97ce4c	-0.2964958
11	0x3f03be25	0.5146201
12	0x3f6011c3	0.875271
13	0x3eb9c5f6	0.36283845
14	0xbdddefee	-0.108367786
15	0xbf01cc14	-0.50702024
16	0x3f587e9f	0.8456821
17	0xbf3d5ec4	-0.73972726
18	0xbf5ec1fd	-0.8701475
19	0xbe483229	-0.19550385
20	0xbf399cee	-0.7250508
21	0xbe943c78	-0.28952384
22	0xbd98cdc8	-0.07461125
23	0xbd20683a	-0.0391619
24	0xbf4ce01e	-0.80029476
25	0x3ef1f1c6	0.4725477
26	0x3e12c876	0.14334282
27	0x3b35feb7	0.002777023
28	0xbe7959a3	-0.243506
29	0xbed2d79e	-0.41180128
30	0xbf03c44c	-0.514714
31	0xbedee75a	-0.43535882
32	0x3e8c25cc	0.27372587
33	0x3c92e378	0.017930731
34	0x3e86304a	0.26208717
35	0xbe07c4c4	-0.13258654
36	0x3dc855ec	0.09782013
37	0x3ec8bd48	0.3920691
38	0xbd2ec760	-0.042670608
39	0x3eac9022	0.33703715
40	0x3f208608	0.62704515
41	0x3db73ce3	0.0894716
42	0xbe05451a	-0.13014641
43	0xbe9f5652	-0.31120545
44	0x3f0a84cd	0.5410889
45	0xbd410ade	-0.047129504
46	0x3e978808	0.2959597
47	0xbe75fed8	-0.24022996
48	0xbe87d78c	-0.26531637
49	0xbe3599f0	-0.17734504
50	0x3eafcc07	0.34335348
51	0x3bfeb106	0.0077725677
52	0xbe5551bc	-0.2083196
53	0x3e53830c	0.20655459
54	0xbdf155e6	-0.11783962
55	0xbd0b39cc	-0.033990666
56	0xbe2a1bea	-0.16612211
57	0x3cf10d22	0.029425208
58	0xbd908774	-0.07057086
59	0xbdb19264	-0.086705
60	0xbed5a104	-0.41724408
61	0xbea41c78	-0.3205297
62	0x3dd82ef8	0.105558336
63	0xbf2318c4	-0.63709664
64	0xbe6a9ff3	-0.22912578
65	0xbe7ace7c	-0.2449283
66	0xbea934d3	-0.33048114
67	0xbe589601	-0.21150972
68	0x3e9b8d1f	0.30381104
69	0xbecbf376	-0.39834183
70	0x3e92e779	0.28692225
71	0xbec027a1	-0.37530234
72	0xbdef2f68	-0.11678964
73	0xbe142ff8	-0.14471424
74	0x3e8ca4bd	0.27469435
75	0xbeb39b28	-0.35079312
76	0xbe5c9269	-0.21540226
77	0xbeda53fe	-0.42642206
78	0xbe025f7e	-0.1273174
79	0x3e306d66	0.17229232
80	0x3ed1c307	0.40969107
81	0x3ec01137	0.37513134
82	0xbdebe00c	-0.11517343
83	0xbe6c23c7	-0.23060523
84	0x3dc4c47c	0.09607789
85	0x3e9311b1	0.28724435
86	0x3ec69bbd	0.38790694
87	0x3e97b84f	0.29632804
88	0xbbfedf40	-0.0077780783
89	0xbeb72848	-0.3577292
90	0xbe8628fe	-0.2620315
91	0x3e8723eb	0.2639459
92	0xbebcbb36	-0.3686158
93	0xbea26142	-0.31714827
94	0xbe8d2196	-0.27564687
95	0xbdee3124	-0.116304666
96	0x3e126ff4	0.14300519
97	0x3eb5a8ee	0.35480446
98	0x3ec662ec	0.38747346
99	0x3e1a780c	0.15084857
100	0x3e1c3d54	0.1525777
101	0xbd8d1384	-0.06888488
102	0xbe57bb10	-0.21067452
103	0xbe257236	-0.1615685
104	0xbd6e1d8a	-0.05813364
105	0x3eaa344e	0.3324303
106	0xbdcba3e0	-0.09943366
107	0xbdc12e94	-0.09432712
108	0xbd88ef48	-0.06686264
109	0xbe69ab08	-0.2281915
110	0xbe20b2c6	-0.15693197
111	0x3e443aa0	0.19162989
112	0xbec5d4fa	-0.3863905
113	0x3d1114dc	0.035420284
114	0xbdd7bd2b	-0.10534128
115	0x3e100986	0.14066133
116	0xba2ab852	-0.0006512451
117	0xbe3058f6	-0.17221436
118	0xbda9b454	-0.08286348
119	0xbe0cf2d5	-0.13764508
120	0x3e74609c	0.23864979
121	0x3d822270	0.06354225
122	0xbe45f9af	-0.19333528
123	0x3e9cbca2	0.30612665
124	0x3dbeb8c6	0.093125865
125	0x3e950508	0.291054
126	0xbde1392a	-0.10997231
127	0xbec316a2	-0.38103205
128	0xbedfac6f	-0.43686244
129	0xbdf5dc85	-0.120049514
130	0x3e951e6c	0.29124773
131	0x3e97517a	0.2955435
132	0x3e200600	0.15627289
133	0x3ddd3217	0.108005695
134	0xbe888f60	-0.26671886
135	0xbdd3c3b1	-0.103400595
136	0x3c1555b9	0.009114676
137	0xbed325d0	-0.41239786
138	0xbebd3ca4	-0.36960328
139	0xbeb0e7f9	-0.3455198
140	0x3dd4aca7	0.10384493
141	0xbdb1009e	-0.08642696
142	0xbdb26785	-0.08711151
143	0x3e966188	0.29371285
144	0xbe959c18	-0.29220653
145	0xbe795758	-0.24349725
146	0xbdc90e6d	-0.098172046
147	0x3e941596	0.2892272
148	0x3dc02e49	0.09383828
149	0xbeb2c064	-0.34912407
150	0x3ea95662	0.33073717
151	0xbe7ed25a	-0.2488493
152	0x3eadf4ac	0.33975732
153	0x3e17086f	0.14749311
154	0x3dcb043c	0.09912917
155	0x3ebd6e9e	0.36998457
156	0x3e3bf7ba	0.18356219
157	0xbece349e	-0.4027452
158	0x3e491f4a	0.19640842
159	0x3edc9984	0.43085873
160	0xbd889432	-0.06668891
161	0x3e43f70c	0.1913721
162	0x3e61f16c	0.22064751
163	0x3d9720d2	0.07379307
164	0xbd7bd262	-0.061479934
165	0xbe4c8572	-0.1997278
166	0x3eaa8222	0.33302408
167	0x3d3dc4c2	0.04633022
168	0x3ec22c11	0.37924245
169	0xbe70d2d3	-0.23517923
170	0xbe9a4cd6	-0.30136746
171	0xbe149d98	-0.14513242
172	0x3e11a67d	0.14223666
173	0xbdeb3a3b	-0.11485716
174	0x3da55eb6	0.08074705
175	0x3db18b22	0.086691156
176	0x3d0dcb48	0.034617692
177	0xbd847e10	-0.06469357
178	0xbef2b3d9	-0.47402838
179	0xbe3bf140	-0.18353748
180	0xbd641c8e	-0.055691294
181	0x3eb2c4f1	0.3491588
182	0x3dc0711c	0.09396574
183	0x3e39cc02	0.18144229
184	0x3dc7630a	0.09735687
185	0x3ed0e448	0.40799165
186	0x3e38655e	0.18007419
187	0x3f100d79	0.5627056
188	0xbec785ca	-0.3896926
189	0x3ca75d80	0.020430326
190	0xbdfe9e08	-0.12432486
191	0x3ecbb7ea	0.39788753
192	0xbed38ecc	-0.41319883
193	0x3e5733f2	0.2101591
194	0xbebeaedc	-0.37242782
195	0xbe049158	-0.12946069
196	0xbe0f0262	-0.13965753
197	0xbe14693a	-0.14493266
198	0xbe5766a0	-0.21035242
199	0xbeb4c0a3	-0.3530322
200	0xbec2141b	-0.37905964
201	0xbdb4e5c4	-0.08832887
202	0x3eb51011	0.3536382
203	0xbdedda84	-0.11613944
204	0xbe95cad2	-0.29256302
205	0xbdfd2e20	-0.12362313
206	0xbeb6cde2	-0.3570395
207	0xbcc06bf0	-0.023488969
208	0x3eb62589	0.35575512
209	0xbed87aab	-0.42281088
210	0x3e6f3236	0.23358998
211	0x3ea45c2f	0.3210158
212	0x3e9fdc47	0.31222746
213	0xbe838314	-0.25685942
214	0x3d4f7338	0.05064699
215	0x3e79ed42	0.24406913
216	0xbebdfd07	-0.37107107
217	0x3eaa4cdf	0.33261773
218	0xbd022a00	-0.031778336
219	0xbec3239e	-0.3811311
220	0xbde37c34	-0.11107674
221	0x3c4bb4a0	0.012433201
222	0xbe34bc8e	-0.17650053
223	0xbe34080e	-0.17581198
224	0x3efc762b	0.49308905
225	0xbeb1b8ac	-0.34711206
226	0xbe9c21f2	-0.30494648
227	0xbf0a0928	-0.5392022
228	0xbf0b7ac8	-0.54484224
229	0x3c2c7cde	0.0105278175
230	0xbdd12f32	-0.1021408
231	0xbe89cc9c	-0.26913917
232	0x3f50459a	0.81356204
233	0x3efa73cb	0.48916468
234	0xbf09d04a	-0.5383345
235	0x3e1e49b0	0.15457797
236	0x3ea603e6	0.3242485
237	0x3f1d359d	0.6140993
238	0xbeb32f52	-0.3499704
239	0xbd99e51a	-0.07514401
240	0xbd470f6a	-0.048598684
241	0xbe4ff4cc	-0.20308226
242	0x3df3abed	0.118980266
243	0x3dd91672	0.10599984
244	0xbe204670	-0.1565187
245	0xbf1ff536	-0.6248354
246	0xbe77e5b4	-0.24208719
247	0xbefd3882	-0.49457175
248	0xbee2ab16	-0.44271153
249	0x3eb21652	0.34782654
250	0x3f1ea64e	0.6197251
251	0x3cffdb3c	0.031232469
252	0xbf57dc4a	-0.8432051
253	0xbf61fadc	-0.88273406
254	0xbef9d232	-0.4879318
255	0xbe0bbc5e	-0.13646075

trunk.4.bias f4 [32]
0	0xbe779dca	-0.24181286
1	0xbdf1ed5a	-0.11812849
2	0x00000000	0.0
3	0xbd3b84fe	-0.045781128
4	0xbc409c20	-0.011755973
5	0x3e55dc9a	0.20884934
6	0x00000000	0.0
7	0x3e839cda	0.25705606
8	0xbcbac9b0	-0.02280125
9	0x3eb619de	0.3556661
10	0xbded9319	-0.11600322
11	0xbd418654	-0.047247246
12	0x00000000	0.0
13	0xbe28566c	-0.16439217
14	0xbd9833be	-0.07431744
15	0x3d75a58b	0.059972327
16	0x3e96114b	0.29310068
17	0xbd04cb18	-0.032420248
18	0x3ea2a9f6	0.31770295
19	0x3e27b422	0.16377309
20	0x3da4480c	0.08021554
21	0x00000000	0.0
22	0xbcc33dd0	-0.023833185
23	0x3eb0e250	0.34547663
24	0x3c253374	0.010083068
25	0x3ec2893e	0.37995332
26	0xbc89fb98	-0.016843602
27	0xbc66c9de	-0.014086215
28	0xbe0eecfc	-0.1395759
29	0x3e334fde	0.17510936
30	0x3cf6806e	0.030090537
31	0xbc80bfe6	-0.015716504

value_adapter.0.weight f4 [32, 32]
0	0xbecfa0e9	-0.40552452
1	0xbe4f218c	-0.20227641
2	0x3cd06580	0.025439024
3	0xbe45c6fc	-0.19314188
4	0xbe366de2	-0.17815354
5	0x3e1761c8	0.14783394
6	0x3e6fae1c	0.23406261
7	0x3d689d19	0.056790445
8	0xbea374a5	-0.3192493
9	0xbecd54c5	-0.40103737
10	0x3d3668a2	0.04453338
11	0xbeb94e39	-0.36192492
12	0x3e1b4d16	0.15166125
13	0x3d37cdbe	0.044873945
14	0x3d0546ca	0.032538213
15	0x3c50a2e2	0.012734147
16	0x3e59e548	0.2127887
17	0xbe44e6b2	-0.19228628
18	0xbea6ebcc	-0.32601774
19	0xbdff6009	-0.12469489
20	0x3e6c6c83	0.23088269
21	0xbea13ded	-0.31492558
22	0x3de16656	0.11005847
23	0x3e8aa7dc	0.27081192
24	0x3e85183b	0.2599505
25	0x3e1303cf	0.14356922
26	0xbdce7f74	-0.100829035
27	0x3dd106e8	0.102063954
28	0xbd72c102	-0.059266098
29	0x3eb21a90	0.3478589
30	0x3e8d7fbb	0.27636513
31	0x3e2a39c6	0.16623601
32	0xbf121b4d	-0.5707291
33	0x3f43e97a	0.7652813
34	0xbf219dd3	-0.63131446
35	0xbf61fb79	-0.8827434
36	0xbf8855c2	-1.0651171
37	0xbf1c0d62	-0.6095792
38	0xbf2f1b97	-0.68401474
39	0x3f752ddb	0.95773095
40	0x3f23710f	0.6384439
41	0x3e864210	0.26222277
42	0xbf3b345f	-0.73126787
43	0xbf8bb826	-1.0915573
44	0xbebf2acf	-0.37337348
45	0xbefc38cc	-0.49262083
46	0xbf76cdeb	-0.96407956
47	0x3f8bf2c2	1.0933459
48	0xbee061ad	-0.4382452
49	0x3e996735	0.29961553
50	0x3d3c69a0	0.04599917
51	0xbdd93c42	-0.106071964
52	0xbf3f0300	-0.7461395
53	0xbf0df10d	-0.5544594
54	0xbf450b51	-0.7697039
55	0xbdd6c016	-0.10485856
56	0x3f35bdd3	0.70992774
57	0x3f2d1ece	0.6762513
58	0xbef84b1b	-0.484948
59	0xbe8cc223	-0.27491865
60	0x3ed7ad80	0.42124557
61	0xbf240016	-0.6406263
62	0xbf10b8b9	-0.56531864
63	0xbf05ea73	-0.52310866
64	0x3d27f024	0.0410005
65	0xbb818cb1	-0.0039535393
66	0x3e29b2f8	0.16572177
67	0xbeb4753c	-0.35245693
68	0x3df6dc8e	0.12053786
69	0xbebe8a4f	-0.37214896
70	0x3bb44714	0.0055016372
71	0x3e87c42e	0.2651686
72	0xbea17460	-0.315341
73	0xbe08b110	-0.13348794
74	0x3ed291c2	0.4112683
75	0x3e574992	0.21024159
76	0x3d73e81a	0.05954752
77	0x3d90f2f9	0.07077593
78	0xbe30f54d	-0.17281075
79	0x3d52d8ba	0.051476218
80	0x3ec0a764	0.3762771
81	0x3e0aef0c	0.13567752
82	0x3ec16bac	0.3777746
83	0x3e9bd45e	0.3043546
84	0xbd1a7030	-0.037704647
85	0xbc123944	-0.008924786
86	0x3e85cab8	0.26131225
87	0xbdacf2ad	-0.08444724
88	0x3d77360c	0.060354277
89	0xbea0e8df	-0.31427667
90	0x3e152eac	0.14568585
91	0x3dd3fd62	0.10351063
92	0xbee3c6c6	-0.4448759
93	0x3dfe6e86	0.124234244
94	0x3e59d676	0.21273217
95	0x3d3a3f32	0.045470424
96	0xbeba656c	-0.36405504
97	0x3e4f2ad6	0.20231184
98	0xbe842fb7	-0.25817654
99	0x3ebcdd61	0.3688765
100	0x3df7fcd3	0.12108769
101	0x3c43d7e3	0.011953327
102	0xbe50e7ce	-0.20400926
103	0x3e8fdc87	0.28097937
104	0x3ea9258b	0.33036456
105	0xbed8ff6a	-0.42382365
106	0xbd7ea1f6	-0.062166177
107	0xbe390e7c	-0.18071932
108	0xbdf99545	-0.12186674
109	0xbc996cc6	-0.018728625
110	0x3ec941b0	0.39307928
111	0xbe2b2f3b	-0.16717236
112	0x3efd8a1a	0.49519426
113	0xbf0cd362	-0.55010045
114	0xbd835b02	-0.06413843
115	0x3e1053fd	0.14094539
116	0xbe038d6f	-0.12846921
117	0x3defd71f	0.11710953
118	0x3dcc43c3	0.09973862
119	0x3e8316d3	0.2560335
120	0xbe28a20c	-0.16468066
121	0xbdbc3ac2	-0.09190895
122	0x3eb45083	0.35217676
123	0xbd1a0694	-0.03760393
124	0x3e59656a	0.21230093
125	0x3ed68902	0.41901404
126	0xbe1b6808	-0.15176404
127	0x3e20faac	0.15720624
128	0xbf374f1f	-0.71605104
129	0x3f8227d3	1.0168403
130	0xbf3b9b91	-0.7328425
131	0xbf56127b	-0.8362195
132	0xbed6f6b2	-0.4198509
133	0xbf2ae436	-0.6675447
134	0xbec826a8	-0.39091992
135	0x3f0ebc46	0.5575603
136	0x3da6baee	0.08141123
137	0x3f131456	0.57452905
138	0xbe6e6976	-0.23282418
139	0xbeb50ada	-0.35359842
140	0xbf5d5773	-0.8646156
141	0xbde1aba8	-0.11019069
142	0xbf5aaf73	-0.85423964
143	0x3f9551a0	1.1665535
144	0xbf4cb1a0	-0.79958534
145	0x3e6a6d1e	0.22893187
146	0x3d299e68	0.041410834
147	0x3e8e5518	0.27799296
148	0xbebfc525	-0.37455097
149	0xbf66ad1b	-0.9010789
150	0xbf109a53	-0.5648548
151	0x3eda8ceb	0.42685637
152	0x3ee7ae43	0.4525014
153	0x3edeb532	0.43497616
154	0xbe8a8102	-0.2705155
155	0xbf34a261	-0.7056027
156	0x3f635124	0.88795686
157	0xbf84a1b0	-1.0361843
158	0xbf3fc68d	-0.7491234
159	0xbf13d7bd	-0.57751065
160	0xbd0cff4c	-0.034423158
161	0xbefe0062	-0.49609667
162	0x3dc22d4e	0.094812974
163	0xbd5aed8a	-0.05344919
164	0x3eac9030	0.33703756
165	0x3ed061c3	0.40699586
166	0xbe0ee864	-0.13955837
167	0x3df5cf64	0.12002447
168	0x3e0f43ba	0.1399068
169	0x3c871952	0.016491566
170	0xbdeb3860	-0.11485362
171	0xbe36446a	-0.17799535
172	0x3e1b1aa6	0.15146884
173	0x3e84b4cf	0.25919196
174	0x3e9b90a5	0.30383793
175	0xbf0e8ac6	-0.556805
176	0x3f01d386	0.50713384
177	0x3eae6d3a	0.34067708
178	0xbdf4c020	-0.119507074
179	0x3d273ac2	0.04082752
180	0x3e5fc26e	0.21851513
181	0xbe1e9560	-0.1548667
182	0xbe7bd812	-0.24594143
183	0x3dcf2616	0.10114686
184	0x3e871ff8	0.26391578
185	0xbdd8f3e8	-0.105933964
186	0xbe569002	-0.20953372
187	0x3e318b1c	0.17338222
188	0xbeab25be	-0.33427233
189	0x3ea718e9	0.32636192
190	0x3f0d6aeb	0.5524127
191	0x3f194e01	0.5988465
192	0x3e191eba	0.14953128
193	0x3e96e061	0.29468063
194	0x3e274486	0.16334733
195	0xbed40ca8	-0.41415906
196	0xbe860942	-0.26178938
197	0xbf0d280c	-0.5513923
198	0xbda783e8	-0.08179456
199	0x3ef224e6	0.47293776
200	0x3e4faa5a	0.20279828
201	0x3f1e42f0	0.6182089
202	0x3de2adb8	0.110682905
203	0xbf2c709e	-0.6735934
204	0xbec4eb56	-0.38460797
205	0xbeff0c0c	-0.4981388
206	0x3def814c	0.11694583
207	0x3eccd4ea	0.4000619
208	0xbf34cb16	-0.70622385
209	0x3e728384	0.23682982
210	0xbd4d506b	-0.05012552
211	0x3ea1ee3d	0.31627074
212	0x3c20119c	0.009769823
213	0xbcac8cea	-0.021063287
214	0x3c2b1c98	0.010443829
215	0x3e890b66	0.2676651
216	0x3d3102d8	0.043215603
217	0x3e0fb328	0.14033186
218	0xbf305bc8	-0.6889005
219	0xbeb9c4ca	-0.3628295
220	0x3ee4db91	0.44698766
221	0xbd197875	-0.037468392
222	0xbf1396c2	-0.57651913
223	0xbe1d99f0	-0.15390754
224	0x3ecbafd5	0.39782587
225	0xbeb04a35	-0.34431615
226	0xbd31b7d8	-0.043388218
227	0xbe6e500d	-0.23272724
228	0xbbcc3000	-0.006231308
229	0xbe4164a1	-0.18886043
230	0x3ec232cb	0.37929377
231	0x3e663722	0.22481969
232	0xbdabd41c	-0.08390066
233	0xbec001b7	-0.37501308
234	0xbe6bf283	-0.2304173
235	0xbd3b5678	-0.04573676
236	0x3deeace4	0.1165407
237	0xbe3336e6	-0.17501411
238	0xbe87caca	-0.26521903
239	0xbd59bfb0	-0.053161323
240	0xbeb063e9	-0.34451225
241	0x3dc56abc	0.096394986
242	0xbec71cf4	-0.38889277
243	0xbd96de30	-0.07366598
244	0xbeb9b1c0	-0.36268425
245	0xbe2dbf40	-0.16967487
246	0x3b9a3ec0	0.0047071874
247	0xbe56d03c	-0.20977873
248	0xbe914c55	-0.2837855
249	0x3d480360	0.048831344
250	0xbe611b09	-0.2198297
251	0x3cc1e570	0.023668975
252	0x3dbce034	0.09222451
253	0xbd3bbb70	-0.04583305
254	0xbec1c231	-0.3784347
255	0xbdfcbaf8	-0.12340349

value_adapter.0.bias f4 [32]
0	0xbd5dc919	-0.05414686
1	0x3f9cf3a0	1.2261848
2	0xbd4c4880	-0.04987383
3	0xbd80a074	-0.06280604
4	0x3f91db44	1.139504
5	0xbe785081	-0.2424946
6	0x3f680160	0.906271
7	0x00000000	0.0
8	0x3f991fea	1.1962864
9	0x3b86fff8	0.0041198693
10	0x3f4cb2bf	0.79960245
11	0x3f7d0c21	0.9884663
12	0xbcf07c2e	-0.029356088
13	0xbd0eee4e	-0.034895234
14	0x00000000	0.0
15	0xbd312ac1	-0.043253664
16	0x3d17e106	0.037079833
17	0xbe81e949	-0.25373295
18	0xbecda3d8	-0.40164065
19	0xbe8c4f44	-0.27404225
20	0xbe5c1e7c	-0.21496004
21	0x3c8ef462	0.017450515
22	0xbd3a33a6	-0.045459412
23	0x3ffb7db0	1.9647732
24	0x00000000	0.0
25	0xbe722513	-0.23646955
26	0xbe511a05	-0.20420082
27	0x3b6d77c9	0.0036234728
28	0xbe2f3b5c	-0.17112488
29	0x3f87fb70	1.0623608
30	0xbd26dc37	-0.040737357
31	0xbc22bfb4	-0.009933401

value_head.0.weight f4 [3, 32]
0	0x3f1fbc2c	0.623965
1	0xbfa6f015	-1.3042017
2	0x3fa3c57c	1.2794642
3	0x3f89e396	1.0772579
4	0xbf991ba8	-1.1961565
5	0x3f5b5084	0.8566973
6	0xbf4c5f12	-0.79832566
7	0x3fa28b61	1.2698785
8	0xbfa945b2	-1.3224394
9	0x3f87c565	1.0607115
10	0xbf8628ca	-1.0481198
11	0xbfb456b6	-1.4088962
12	0x3fa428cb	1.2824949
13	0x3f99af42	1.200661
14	0x3f63e0f0	0.890151
15	0x3fa4c681	1.2873079
16	0x3f5e42a4	0.86820436
17	0x3f959f57	1.1689252
18	0x3e9a8ffb	0.30187973
19	0x3f721a9f	0.9457187
20	0x3f870087	1.0547036
21	0x3f96257d	1.173019
22	0x3fa2ab69	1.270856
23	0xbfe063fc	-1.7530513
24	0x3f1bb28c	0.60819316
25	0x3f5d4255	0.8642934
26	0x3f754f63	0.9582426
27	0x3fb25639	1.3932563
28	0x3fa2f624	1.2731366
29	0xbfa98675	-1.3244158
30	0x3fb6c715	1.4279505
31	0x3f7350ca	0.9504515
32	0x3f25eba8	0.6481271
33	0xbf93eff0	-1.1557598
34	0x3f9a9408	1.2076426
35	0x3ea4f80d	0.32220498
36	0xbf9dd4cc	-1.2330565
37	0x3f8f7388	1.1207132
38	0xbfb03004	-1.3764653
39	0x3f222cb6	0.63349473
40	0xbf8c5cbc	-1.09658
41	0x3f924a94	1.142901
42	0xbfa4631e	-1.2842748
43	0xbf81a6c2	-1.0129015
44	0x3f73419a	0.95021975
45	0x3f68f8f6	0.91004884
46	0x3f4ad46a	0.7923037
47	0x3f8cf0ca	1.1010983
48	0x3f3b9c8c	0.73285747
49	0x3f95b33b	1.1695322
50	0x3f0a2af4	0.5397179
51	0x3f0a6bcc	0.54070735
52	0x3f41af00	0.75657654
53	0x3fa68bc2	1.3011401
54	0x3f45f546	0.7732738
55	0xbff36a43	-1.9016804
56	0x3f46571e	0.7747668
57	0x3f27b6e0	0.6551342
58	0x3eec9345	0.46206108
59	0x3f89a908	1.0754709
60	0x3fac48a7	1.3459672
61	0xbf88bf16	-1.0683315
62	0x3f945300	1.158783
63	0x3f8fb05a	1.1225693
64	0x3f0f8dad	0.56075555
65	0xbfb36808	-1.4016123
66	0x3f4de6ef	0.804305
67	0x3f521a11	0.82071024
68	0xbf8c9677	-1.0983418
69	0x3f14932f	0.58037084
70	0xbfc64593	-1.5489982
71	0x3f416903	0.7555086
72	0xbf308f66	-0.6896881
73	0x3f68d0b3	0.9094345
74	0xbef48ea0	-0.47765064
75	0xbf97b73f	-1.1852797
76	0x3f94c34c	1.16221
77	0x3ef4fc25	0.4784862
78	0x3f894314	1.0723596
79	0x3f640b6b	0.8907992
80	0x3f94c772	1.1623366
81	0x3f98115e	1.18803
82	0x3dc7e88c	0.09761152
83	0x3f3ef517	0.7459273
84	0x3f2acf87	0.6672291
85	0x3f76c43b	0.96393174
86	0x3f0c800b	0.5488288
87	0xc000a599	-2.0101073
88	0x3efc23c5	0.4924604
89	0x3f81e88e	1.0149095
90	0x3f6baf9f	0.9206485
91	0x3f75d569	0.96028763
92	0x3f705215	0.9387525
93	0xbfb3232e	-1.3995111
94	0x3ef68a3d	0.48152342
95	0x3ed6cec3	0.41954622

value_head.0.bias f4 [3]
0	0xbfa6ebc0	-1.3040695
1	0xbf9fedf7	-1.2494496
2	0xbfaa0026	-1.3281295

hiring_adapter.0.weight f4 [32, 32]
0	0x3cd87be0	0.026426256
1	0xbe536a53	-0.20646028
2	0xbd45dd38	-0.048306674
3	0x3e41bfa6	0.18920764
4	0x3ec2d099	0.38049772
5	0xbe235d76	-0.15953621
6	0x3eafbdbd	0.34324446
7	0xbe965a48	-0.29365754
8	0x3e1d41ba	0.15357104
9	0xbed2067a	-0.41020566
10	0x3edb3f77	0.42821857
11	0x3e9be513	0.30448207
12	0x3e879307	0.2647936
13	0xbe05bcf2	-0.13060358
14	0x3e24b59e	0.16084906
15	0xbd90ed58	-0.0707652
16	0x3e23344e	0.15937921
17	0x3e92e6fb	0.2869185
18	0x3eb9f217	0.36317512
19	0x3ce10370	0.02746746
20	0x3e4a26f2	0.19741419
21	0xbe8b9585	-0.27262512
22	0x3e332046	0.1749278
23	0xbb1e1900	-0.0024123788
24	0xbc2fcd00	-0.010730028
25	0xbea3dfe1	-0.32006744
26	0x3e87db2f	0.2653441
27	0xbed2d95a	-0.4118145
28	0xbe6b26b2	-0.2296398
29	0x3ecf1b01	0.4045029
30	0x3ecbe5db	0.39823803
31	0x3e6fa356	0.23402151
32	0xbefd95ab	-0.4952825
33	0x3efa09d9	0.48835638
34	0xbe160bc6	-0.14652929
35	0xbe18f4b2	-0.14937094
36	0x3e95ed83	0.2928277
37	0xbe5c7554	-0.21529132
38	0xbd7526e1	-0.05985153
39	0x3e467716	0.19381365
40	0x3f524189	0.8213125
41	0x3e0c6b92	0.1371291
42	0xbea50d8d	-0.322369
43	0x3b9bcddb	0.0047547645
44	0xbda74ee7	-0.08169346
45	0xbde10e5b	-0.10989066
46	0xbe2b2404	-0.16712958
47	0x3e9b3db1	0.30320504
48	0xbeabc14c	-0.3354591
49	0x3ebd4f18	0.36974406
50	0x3d19112a	0.037369885
51	0xbf288352	-0.6582538
52	0xbe89bf4e	-0.26903766
53	0xbed07e21	-0.4072123
54	0xbdb9fb6b	-0.09081157
55	0xbe9c6e01	-0.30552676
56	0x3eaf32c3	0.34218416
57	0xbec5d040	-0.38635445
58	0xbe3d3080	-0.18475533
59	0x3ec92e97	0.39293358
60	0x3ed003cb	0.40627894
61	0x3d85c251	0.065312035
62	0xbdafd6f0	-0.08585918
63	0x3bfd3a59	0.007727903
64	0xbe7f4b92	-0.24931172
65	0x3f041334	0.515918
66	0x3e9e9caf	0.30978915
67	0x3e4ce1dc	0.20008034
68	0x3dee761c	0.11643621
69	0xbedb0016	-0.42773503
70	0xbe9adda9	-0.30247238
71	0x3d9be6b8	0.076123655
72	0x3ed6d4e3	0.41959295
73	0xbd97af08	-0.074064314
74	0xbe153096	-0.14569315
75	0x3c8a57ea	0.016887624
76	0x3d8f38dc	0.06993267
77	0xbd8f10a6	-0.06985597
78	0xbe9113ee	-0.28335518
79	0x3f1800d1	0.59376246
80	0xbed902ad	-0.42384854
81	0x3f0e1e54	0.5551503
82	0xbf197891	-0.59949595
83	0xbef5b206	-0.47987384
84	0xbec873c3	-0.3915082
85	0x3e2f61fa	0.17127219
86	0x3dbe494a	0.092913225
87	0xbbb6c945	-0.0055781924
88	0x3e81d362	0.25356585
89	0xbd555e06	-0.05209162
90	0xbed9ddb9	-0.42551973
91	0xbdcfab54	-0.101401
92	0x3eaa7651	0.33293393
93	0xbf0efbec	-0.5585315
94	0x3eaa3dc2	0.33250242
95	0xbe2a3cca	-0.16624752
96	0xbe50213c	-0.20325178
97	0xbe9a38a8	-0.3012135
98	0x3e7b8a9c	0.24564594
99	0x3ef4f946	0.4784643
100	0x3ec9c1a0	0.39405537
101	0xbef3b2c6	-0.4759733
102	0xbc5014e8	-0.012700297
103	0xbe8f25e2	-0.2795859
104	0xbe820950	-0.2539773
105	0xbea65074	-0.32483256
106	0x3ee8b72a	0.45452243
107	0x3ec298fe	0.3800735
108	0xbe8f2f56	-0.27965802
109	0x3e5bf437	0.2147988
110	0xbe6f4003	-0.23364262
111	0x3e78b328	0.24287093
112	0x3d2761c8	0.040864736
113	0x3d8de22c	0.069279045
114	0x3d8a61ac	0.06756911
115	0x3ccecb12	0.025243316
116	0xbeca0b04	-0.3946153
117	0xbe999c06	-0.3000185
118	0x3ede76bc	0.43449962
119	0x3efca718	0.49346232
120	0x3e96d331	0.29458
121	0x3eb8ffae	0.36132568
122	0xbebbc2b4	-0.36671984
123	0xbe9dad96	-0.30796498
124	0xbca0cafb	-0.019628039
125	0xbecff6c4	-0.40617955
126	0xbc5ef8a0	-0.0136090815
127	0x3e2a361e	0.16622207
128	0xbe554f2e	-0.20830986
129	0x3db71a55	0.08940569
130	0x3e2adb98	0.16685331
131	0xbb463490	-0.0030243732
132	0x3e35610a	0.17712799
133	0x3e1f6f87	0.15569888
134	0xbe671930	-0.22568202
135	0x3e909a7f	0.2824287
136	0x3f078d81	0.5295029
137	0xbec01684	-0.37517178
138	0x3d114ac5	0.035471696
139	0x3e040872	0.12893847
140	0x3e081236	0.13288197
141	0xbe8f1e33	-0.27952728
142	0xbd839aad	-0.064259864
143	0xbd2d7d42	-0.042355783
144	0x3de20b72	0.11037339
145	0x3ece7d8f	0.4033017
146	0x3e34ffa6	0.17675647
147	0xbd30f255	-0.043199856
148	0xbe359f84	-0.17736632
149	0x3cbba23e	0.022904512
150	0x3eac24a5	0.33621708
151	0x3e998e4c	0.29991376
152	0xbd9b5b3e	-0.075857624
153	0xbee90e82	-0.4551888
154	0x3e8cd9c7	0.275099
155	0xbe2541a0	-0.16138315
156	0x3e19da06	0.15024576
157	0x3ed654e2	0.41861635
158	0xbe11636e	-0.14198086
159	0x3d9d2545	0.07673124
160	0x3db49ece	0.08819352
161	0x3e4f9a13	0.20273618
162	0x3ed60544	0.41800892
163	0xbe51eb02	-0.20499805
164	0xbd8d6f73	-0.06906023
165	0xbe91354c	-0.28360975
166	0xbe6c385e	-0.23068377
167	0x3ce42846	0.027851235
168	0x3f03f09e	0.5153903
169	0x3f0aecf0	0.5426779
170	0xbe259c4e	-0.16172907
171	0x3ebfbaa2	0.37447077
172	0xbe9bfb74	-0.3046528
173	0xbf2957cb	-0.66149586
174	0xbe78bb56	-0.24290213
175	0x3e89d3fe	0.2691955
176	0x3e8ababe	0.27095598
177	0xbe63d534	-0.222493
178	0xbca698a6	-0.02033646
179	0x3eb30438	0.34964156
180	0x3e6c91e2	0.23102525
181	0x3c5bf8a8	0.0134259835
182	0xbe41ce3c	-0.18926328
183	0x3ec7d04b	0.39026102
184	0x3ddabb1d	0.1068022
185	0x3ec480eb	0.38379607
186	0x3e3dab8a	0.18522468
187	0xbe802e82	-0.25035483
188	0xbf2eda32	-0.6830169
189	0x3ef2239d	0.47292796
190	0x3c946490	0.018114358
191	0x3d70ff4c	0.05883722
192	0x3e263bce	0.16233751
193	0xbe273804	-0.16329962
194	0xbea0afa7	-0.31384012
195	0x3e720cfa	0.23637763
196	0xbd55df18	-0.052214712
197	0xbed4281e	-0.41436857
198	0xbda6ac94	-0.081383854
199	0xbd8541f0	-0.06506717
200	0xbea1dd68	-0.31614232
201	0xbeaf858a	-0.3428157
202	0xbdcd0eac	-0.10012564
203	0xbeb82c0a	-0.359711
204	0x3e614b96	0.2200149
205	0xbed62006	-0.41821307
206	0xbe494118	-0.19653738
207	0xbea15362	-0.3150893
208	0xbe1da452	-0.15394714
209	0xbedbf21c	-0.42958152
210	0xbdf870a4	-0.121308595
211	0xbe930c0c	-0.2872013
212	0x3e884b4f	0.26619956
213	0xbeb93751	-0.36175016
214	0x3ed00175	0.40626112
215	0x3ed08f55	0.40734354
216	0x3de96f1c	0.113981456
217	0xbd20afa8	-0.03923002
218	0xbe835a12	-0.25654656
219	0xbe451241	-0.19245245
220	0xbe96004c	-0.29297101
221	0x3d863308	0.06552702
222	0x3ed242f9	0.4106672
223	0xbe14524e	-0.14484522
224	0xbe792e16	-0.24333987
225	0x3e95299d	0.2913331
226	0xbeef3aca	-0.4672454
227	0xbe59af7a	-0.21258345
228	0xbea98e3e	-0.33116335
229	0xbed9eea2	-0.42564875
230	0xbe4555fa	-0.19271079
231	0x3ee2076a	0.4414628
232	0x3ed531f4	0.41639674
233	0xbd453b59	-0.0481523
234	0x3e8f3878	0.2797277
235	0x3e412646	0.18862256
236	0xbd895efa	-0.067075685
237	0x3d2d53ce	0.04231625
238	0xbe1112e2	-0.1416736
239	0x3ebe738d	0.37197533
240	0xbd8cd62c	-0.068767875
241	0x3ed9dcac	0.42551172
242	0xbf432aaa	-0.76236975
243	0xbea04010	-0.31298876
244	0xbd3bd45e	-0.045856826
245	0x3dcd08d4	0.100114495
246	0x3d3a77ee	0.04552453
247	0xbebaf259	-0.36513022
248	0x3eeafc42	0.45895582
249	0xbe1b5514	-0.15169173
250	0xbe98066e	-0.29692405
251	0xbe89f9ba	-0.2694834
252	0x3e7adce0	0.2449832
253	0xbf2d161c	-0.6761186
254	0x3e6dd126	0.23224315
255	0xbb90850c	-0.0044103917

hiring_adapter.0.bias f4 [32]
0	0x00000000	0.0
1	0xbca89694	-0.020579614
2	0x3adc9028	0.001682763
3	0x3e023f64	0.12719494
4	0xbe1c1f2f	-0.1524627
5	0x3e7f7cfe	0.24950024
6	0x00000000	0.0
7	0x3dbcd159	0.092196174
8	0x3eca2006	0.39477557
9	0x3d5736ba	0.052542426
10	0x3e948630	0.29008627
11	0x3e1e9e7e	0.15490147
12	0x3cdb8c12	0.02680019
13	0x3e9176ba	0.28410894
14	0x3e8fd6a6	0.2809345
15	0x3e574294	0.21021491
16	0x3e65f390	0.22456193
17	0xbc32e332	-0.010918425
18	0x3d39473c	0.04523395
19	0xbe07004e	-0.1318371
20	0x39da9e13	0.00041697975
21	0xbd0e11c2	-0.034684904
22	0x3dfe3a58	0.12413472
23	0xbde06ea5	-0.10958604
24	0xbe21c7b2	-0.15798834
25	0x3f03b5e8	0.5144944
26	0xb70b9097	-8.318711e-06
27	0x3d593313	0.053027224
28	0x3d3a9e29	0.04556099
29	0xbdc85590	-0.09781945
30	0x3d139e12	0.03603942
31	0xbc14c25c	-0.009079542

hiring_head.0.weight f4 [3, 32]
0	0xbe28f28a	-0.16498771
1	0xbebd7bee	-0.37008613
2	0x3d8793e0	0.06620002
3	0xbe3975da	-0.18111363
4	0x3dc4f010	0.09616101
5	0x3e97b259	0.29628256
6	0x3e0f4292	0.13990238
7	0xbcca7165	-0.024712274
8	0x3eb43908	0.3519976
9	0xbed16ac1	-0.4090176
10	0x3efb8818	0.4912727
11	0x3f14f338	0.5818362
12	0x3f1d8a51	0.6153918
13	0xbd412a0d	-0.047159243
14	0x3ec18c00	0.37802124
15	0xbea99ce4	-0.3312751
16	0x3e0d769a	0.13814774
17	0x3ecac460	0.39602947
18	0x3d93b638	0.0721249
19	0xbdfb5429	-0.12271912
20	0x3d0051ca	0.031328
21	0xbe946674	-0.28984416
22	0x3e956c86	0.2918436
23	0xbea24dac	-0.31699884
24	0xbe07db94	-0.13267356
25	0xbc830f0e	-0.01599839
26	0x3ccc6a5f	0.024953065
27	0xbf113cc8	-0.5673337
28	0xbe848950	-0.2588601
29	0xbe3f4a8e	-0.18680784
30	0x3d9c0056	0.076172516
31	0x3e9c234e	0.30495685
32	0xbec0e9d4	-0.37678397
33	0xbe178f82	-0.14800838
34	0xbf04113e	-0.5158881
35	0x3ed1ccbe	0.40976518
36	0xbee8ca08	-0.45466638
37	0x3dc0fdcb	0.09423407
38	0xbd73d6c8	-0.059531003
39	0xbeb2c31a	-0.34914476
40	0x3eb5ba24	0.35493577
41	0xbc129ba4	-0.00894824
42	0x3eb22d30	0.348001
43	0x3f0430b2	0.51636803
44	0xbe0cb6d8	-0.13741624
45	0x3eb56e6e	0.35435814
46	0x3ed70236	0.41993874
47	0xbe307572	-0.17232302
48	0xbe0dd76e	-0.13851711
49	0x3dfe81f0	0.12427127
50	0xbee05400	-0.43814087
51	0xbe178fba	-0.14800921
52	0xbd4c803a	-0.049926974
53	0xbed3a4f4	-0.41336787
54	0x3e4c3595	0.19942315
55	0xbed5af04	-0.4173509
56	0xbee2c9c8	-0.44294572
57	0x3eb9c956	0.3628642
58	0x3d82a054	0.063782364
59	0x3d22348f	0.039600905
60	0xbca48461	-0.020082654
61	0xbef5bb90	-0.4799466
62	0xbec22d72	-0.37925297
63	0xbe0c892a	-0.13724199
64	0xbe8668d9	-0.26251867
65	0xbeaee239	-0.3415697
66	0xbeb1c361	-0.34719375
67	0x3ef5e55a	0.48026544
68	0x3e26bbbc	0.16282552
69	0x3ea71a1a	0.326371
70	0xbe7f5254	-0.2493375
71	0xbefb4487	-0.4907572
72	0x3f29a7bc	0.6627157
73	0xbc14ae80	-0.009074807
74	0x3e80d486	0.25162143
75	0x3d841d04	0.06450847
76	0xbd84e414	-0.06488815
77	0x3ee9377a	0.45550138
78	0x3e0755a8	0.13216269
79	0xbe72dd0e	-0.23717138
80	0xbe934b7b	-0.28768525
81	0xbe479208	-0.194893
82	0xbec9120d	-0.39271584
83	0xbf0ea7ae	-0.5572461
84	0x3eca7101	0.3953934
85	0xbe0e3dc8	-0.13890755
86	0x3c4da619	0.012551808
87	0x3e577f0a	0.21044555
88	0xbda19496	-0.07889669
89	0x3e0f50c4	0.13995653
90	0x3e8b9585	0.27262512
91	0xbe742390	-0.23841691
92	0xbf00ecb4	-0.5036118
93	0x3e58b463	0.21162562
94	0xbed92847	-0.42413542
95	0xbe97390b	-0.29535708

hiring_head.0.bias f4 [3]
0	0xbe434470	-0.19069076
1	0xbe33382b	-0.17501895
2	0xbe2dd273	-0.16974811
