trained_value_function.pt (torch, 24245 bytes, 10 tensors)

trunk.0.weight f4 [64, 2]
0.18991007 0.6121272 -0.613853 -0.56767565 -0.36229932 0.08760668 -0.11927159 0.51308626
-0.14834894 0.085191034 -0.23688279 -0.24909143 -0.5102763 -0.40892068 -0.37895316 -0.08243684
0.22341862 0.38503495 -0.2599125 -0.34681597 0.16143514 0.51702046 -0.085443 0.5823018
-0.10273769 0.098146364 0.6053945 -0.59696066 -0.46161735 -0.18824317 -0.21965584 0.69617784
-0.42776248 -0.30075422 -0.37625104 -0.63254935 -0.545096 0.46794546 0.33306015 0.4091607
0.032457832 -0.37522218 0.1343711 -0.6441315 -0.41627535 -0.2917954 0.376397 0.34497982
-0.20419456 -0.026547255 0.28409162 0.5876217 0.3129846 0.1769996 0.45509443 -0.4398991
0.25404826 -0.39731652 -0.46890193 -0.34451577 0.29601163 0.3205378 -0.45127 0.16223927
0.34579983 -0.1792073 -0.0025433984 0.17551568 0.48779926 0.7353004 -0.5644801 -0.32388523
0.22126347 0.5583637 0.53025925 0.61589944 0.21718498 -0.6565717 0.077966124 -0.5476996
-0.58082604 0.6971834 0.48290622 -0.8175921 0.103953496 -0.11089501 -0.05162124 -0.29058212
0.23575069 -0.42992824 0.32788032 0.48704162 0.48114023 0.21735515 -0.5902561 -0.4282305
0.37069744 0.22382025 -0.54375803 -0.42461368 0.57681125 0.43264496 -0.308972 -0.18431549
-0.60279775 -0.04553559 -0.4690335 -0.5256786 -0.12792084 0.042183716 -0.28851306 0.45325866
-0.43965364 0.6429863 0.39675856 -0.70731115 -0.27836296 -0.12605752 0.3135114 0.4671117
0.3137961 0.10097554 -0.29204997 0.43050697 -0.5007576 -0.34616074 -0.016735217 -0.16493066
00000000: c977 423e 5eb4 1c3f 7825 1dbf 3153 11bf
00000010: 4c7f b9be 226b b33d aa44 f4bd 9f59 033f
00000020: c9e8 17be a378 ae3d 6791 72be d311 7fbe
00000030: 78a1 02bf 0d5e d1be 2606 c2be a5d4 a8bd
00000040: dac7 643e 4d23 c53e 4013 85be dd91 b1be
00000050: 414f 253e 745b 043f bdfc aebd bb11 153f
00000060: 2368 d2bd f600 c93d 22fb 1a3f 6ad2 18bf
00000070: 1c59 ecbe d1c2 40be 76ed 60be b638 323f
00000080: af03 dbbe 75fc 99be faa3 c0be c1ee 21bf
00000090: 698b 0bbf 8c96 ef3e dc86 aa3e 837d d13e
000000a0: 81f2 043d 1f1d c0be 9498 093e cde5 24bf
000000b0: 0b22 d5be 3566 95be 1cb7 c03e 32a1 b03e
000000c0: 6118 51be a179 d9bc 7574 913e 606e 163f
000000d0: 843f a03e 623f 353e 2302 e93e 743a e1be
000000e0: 9d12 823e 126d cbbe ea13 f0be 5f64 b0be
000000f0: d68e 973e 881d a43e dd0c e7be 0d22 263e
00000100: ad0c b13e 1e82 37be 25af 26bb 62ba 333e
00000110: d3c0 f93e a63c 3c3f c581 10bf 49d4 a5be
00000120: e492 623e ecf0 0e3f 12bf 073f 96ab 1d3f
00000130: bd65 5e3e 1515 28bf b4ac 9f3d 0a36 0cbf
00000140: 04b1 14bf 9c7a 323f 7c3f f73e b74d 51bf
00000150: 92e5 d43d ec1c e3bd cb70 53bd 2ec7 94be
00000160: a168 713e 8e1f dcbe eedf a73e 855d f93e
00000170: 0358 f63e 5992 5e3e 061b 17bf 0741 dbbe
00000180: 0ecc bd3e 2331 653e ba33 0bbf f766 d9be
00000190: e7a9 133f a483 dd3e 9431 9ebe 33bd 3cbe
000001a0: f450 1abf 8783 3abd 2925 f0be df92 06bf
000001b0: aefd 02be d5c8 2c3d fcb7 93be 8511 e83e
000001c0: 481a e1be c09a 243f f023 cb3e 5812 35bf
000001d0: 9785 8ebe 3915 01be 9184 a03e 4429 ef3e
000001e0: e2a9 a03e 44cc ce3d 9387 95be 696b dc3e
000001f0: a631 00bf fb3b b1be 4b18 89bc 95e3 28be

trunk.0.bias f4 [64]
-0.0811286 -0.65886664 -0.2523729 0.031278603 -0.5509002 -0.12267136 0.63303304 -0.1883568
-0.045218885 0.08640495 0.036825404 0.4705811 0.6900983 0.47395498 0.6503125 -0.0084855715
-0.6195719 -0.1872629 0.33333257 -0.0009164346 -0.40182385 -0.55819255 -0.5546048 -0.6856252
-0.04380575 0.2183966 0.48142827 -0.7134803 0.5917977 -0.55429345 -0.154971 -0.35956886
-0.19653916 -0.20071694 -0.60352874 -0.61832005 -0.17465745 -0.068138726 -0.26337448 0.26118502
-0.56656164 -0.0386549 0.59296316 -0.2411151 0.65146065 0.3048364 -0.6990501 0.5321284
-0.06650605 -0.30026692 0.4871862 -0.55521595 0.064392045 -0.17338814 0.42794228 0.23719016
0.31351623 0.17247117 -0.29758006 0.036596496 -0.5487751 0.41597092 0.62893057 0.70030284
00000000: c026 a6bd 7cab 28bf 0537 81be fe1d 003d
00000010: cc07 0dbf 1f3b fbbd 740e 223f 9be0 40be
00000020: 7037 39bd 14f5 b03d 3cd6 163d 02f0 f03e
00000030: 48aa 303f 3aaa f23e e17a 263f 1107 0bbc
00000040: 449c 1ebf d8c1 3fbe 91aa aa3e e33c 70ba
00000050: dbbb cdbe b5e5 0ebf 95fa 0dbf 2285 2fbf
00000060: a86d 33bd 5ca3 5f3e c47d f63e a5a6 36bf
00000070: 0e80 173f 2de6 0dbf b8b0 1ebe 6919 b8be
00000080: 9041 49be be88 4dbe dc80 1abf 394a 1ebf
00000090: 67d9 32be 518c 8bbd 05d9 86be 0bba 853e
000000a0: 2f0a 11bf 9a54 1ebd 6fcc 173f e0e6 76be
000000b0: 20c6 263f 8413 9c3e f3f4 32bf 9139 083f
000000c0: 5334 88bd 96bc 99be 7870 f93e a222 0ebf
000000d0: fadf 833d a98c 31be 401b db3e fae1 723e
000000e0: 3385 a03e 489c 303e 6a5c 98be 35e6 153d
000000f0: 867c 0cbf 24fa d43e 9801 213f 0c47 333f

trunk.1.weight f4 [64]
1.295275 1.1546535 1.1618689 0.92663825 1.2220061 1.1811233 0.9252865 1.2230626
0.9429293 0.9659514 0.9089812 1.038069 1.0147818 0.9416167 0.9509614 1.066338
0.99316174 0.8497338 0.86351264 1.0338191 1.0010191 0.9355952 0.9606299 0.97125846
0.91650516 0.8683851 1.0682037 1.0468032 1.1413728 1.0011805 0.98787427 1.0946978
0.9321372 1.468258 1.0709082 1.0907083 0.94739586 0.93323946 1.1007853 1.5224414
1.0338455 1.1164742 0.9884358 0.9338377 1.0000815 1.0973686 1.0389043 0.9475509
1.0292424 1.0864418 0.9352068 1.0090959 0.9578051 0.87662345 0.92032754 1.0291545
0.97960645 1.5304453 1.2566813 1.3179117 0.99062353 1.0423367 0.7825721 1.2271386
00000000: 92cb a53f b0cb 933f 1fb8 943f 2a38 6d3f
00000010: b26a 9c3f 0c2f 973f 93df 6c3f 518d 9c3f
00000020: d163 713f 9748 773f feb2 683f 72df 843f
00000030: 5fe4 813f cb0d 713f 3572 733f c37d 883f
00000040: d93f 7e3f 2888 593f 2a0f 5d3f 2f54 843f
00000050: 6521 803f 2b83 6f3f d7eb 753f 65a4 783f
00000060: 15a0 6a3f 7c4e 5e3f e6ba 883f a6fd 853f
00000070: 8118 923f af26 803f 54e5 7c3f 0f1f 8c3f
00000080: 8ba0 6e3f e1ef bb3f 8513 893f 549c 8b3f
00000090: 8988 723f c8e8 6e3f 88e6 8c3f 5cdf c23f
000000a0: 0d55 843f a0e8 8e3f 210a 7d3f fd0f 6f3f
000000b0: ac02 803f 9376 8c3f d1fa 843f b292 723f
000000c0: 37be 833f 8610 8b3f b669 6f3f 0e2a 813f
000000d0: b732 753f 656a 603f 969a 6b3f 56bb 833f
000000e0: 7dc7 7a3f a2e5 c33f efda a03f 55b1 a83f
000000f0: 8199 7d3f 4a6b 853f a556 483f e112 9d3f

trunk.1.bias f4 [64]
0.24768999 -0.16463494 -0.17052814 -0.09290397 -0.21948215 -0.15464516 0.08696541 -0.25170097
-0.055163193 0.031381924 -0.09359899 0.05745784 0.026192963 0.032931905 -0.005322722 0.056470867
0.0024322418 0.23602545 -0.13163166 0.035384864 -0.0069846828 0.12203216 0.03871243 -0.08336711
0.03794957 -0.12895231 0.0814848 -0.055246916 0.14313848 -0.0079909945 0.00941841 -0.09360984
-0.053892173 -0.037803903 0.05234001 -0.09666948 -0.054276016 -0.06788524 0.095187604 -0.032889254
0.020745235 -0.04181525 0.0051802066 0.0728487 0.004951756 0.097843595 -0.039022654 0.058142092
0.040022537 -0.05765961 -0.05585172 -0.013030249 -0.051197898 0.06415937 -0.060211133 0.037369996
-0.013078453 -0.07887147 -0.24022706 0.28026968 0.049352665 0.049966943 0.086326435 0.18756296
00000000: 72a2 7d3e 1096 28be ee9e 2ebe 7044 bebd
00000010: eebf 60be 4d5b 1ebe ec1a b23d f3de 80be
00000020: cdf2 61bd 558a 003d d4b0 bfbd e958 6b3d
00000030: a092 d63c 9be3 063d 3a6a aebb ff4d 673d
00000040: 3f66 1f3b a8b0 713e 73ca 06be b8ef 103d
00000050: c4df e4bb ffeb f93d ed90 1e3d 60bc aabd
00000060: 0271 1b3d 130c 04be 81e1 a63d 974a 62bd
00000070: e592 123e a9ec 02bc ad4f 1a3c 84b6 bfbd
00000080: 0abe 5cbd 44d8 1abd 7a62 563d a6fa c5bd
00000090: 8750 5ebd 6b07 8bbd b8f1 c23d e2b6 06bd
000000a0: e9f1 a93c 7846 2bbd b9be a93b b331 953d
000000b0: 5742 a23b 3962 c83d 38d6 1fbd 6726 6e3d
000000c0: acee 233d 7c2c 6cbd c6c4 64bd d37c 55bc
000000d0: e3b4 51bd fd65 833d f39f 76bd 4811 193d
000000e0: 0247 56bc 5e87 a1bd 15fe 75be 827f 8f3e
000000f0: 0526 4a3d 23aa 4c3d eacb b03d 8110 403e

trunk.3.weight f4 [64, 64]
-0.16765466 0.07759466 0.029471941 -0.15400007 0.02533248 0.13364263 0.085211135 0.100927874
-0.07512145 0.17975156 -0.17073798 -0.16081452 -0.1530273 -0.02927188 -0.07446075 0.023928298
0.12440469 0.10775523 -0.063093856 -0.11117595 0.096943304 0.054694567 0.08004246 -0.10969553
-0.018020606 -0.15173031 0.002531459 -0.021155806 -0.14749475 0.20378384 -0.047609817 0.09575451
-0.018201115 -0.033972166 -0.1709103 0.044586338 -0.1268345 -0.10388237 0.0894562 0.2793458
0.09713311 0.1886641 -0.013742081 0.0056371978 -0.032566387 -0.1737481 -0.17753725 0.17450301
-0.04729371 0.17800093 -0.12854896 0.08148431 0.17360382 -0.031323384 0.008748959 -0.18233806
-0.06869797 0.2578932 0.031195773 -0.081749134 0.1166646 -0.111558795 0.08792947 -0.16236989
0.015816081 -0.06462876 -0.18684441 0.05146066 -0.19597493 -0.05231126 -0.09462447 -0.030465184
0.15755457 -0.18015614 0.08350357 0.1737825 0.22812745 0.14369184 0.05987137 0.07487224
-0.23580116 -0.099160254 0.065650105 0.014369325 -0.014768177 -0.20244256 -0.13420853 0.16134138
-0.13538976 0.05064005 0.020779975 -0.032018926 0.16642004 -0.018622808 0.09415436 -0.09130703
0.051585846 0.113567136 0.038152646 -0.0730097 0.14333762 0.11202617 -0.15403168 -0.21838474
-0.038918987 -0.23868099 0.1778663 -0.15360586 0.052499782 0.14880423 0.018246606 -0.12161529
0.14194754 -0.21609974 0.12940736 -0.066673964 -0.08192821 -0.14268434 0.025085496 0.11817278
0.14975342 -0.1141432 -0.080697626 0.21518047 -0.17600536 0.14093435 -0.076875485 0.15442656
-0.12458918 0.116290964 0.016334008 -0.12072537 0.20452514 0.23242964 0.23404045 0.13735238
-0.053032197 0.055514198 -0.21250196 -0.21459794 0.013842814 -0.008428759 -0.13815764 -0.086185046
0.2056736 0.24287748 0.011502773 -0.011687014 0.08619443 0.07181082 0.21506247 -0.07535453
0.01297344 -0.0022642284 -0.06085718 0.17941032 -0.17358902 0.14728443 -0.1524297 0.21112345
0.020889819 -0.06751215 -0.111743376 0.16508368 -0.1806755 -0.054082997 0.038923826 0.29782766
0.021333897 0.03695477 -0.21055274 0.21528465 -0.022442326 0.005005241 -0.049399555 0.040437352
-0.20019518 0.09157433 -0.19694147 0.19807526 0.021260206 0.052842073 -0.21959412 -0.20124294
-0.0057454566 0.361438 0.21150944 -0.04245927 0.1353586 -0.1441686 0.22487392 0.0016128501
0.124955915 0.019931039 -0.045184005 0.14543524 -0.15093692 -0.036811348 -0.025523845 -0.12889896
0.033583973 -0.15358262 0.0043081706 0.16900659 0.17283769 0.09597429 0.0016001596 0.1434811
-0.025079137 -0.08540739 0.030157955 0.20622458 -0.04187937 -0.1915067 0.016259091 0.16164614
-0.12192455 0.15093982 0.026912922 -0.10035744 0.23963845 -0.09596517 0.020567032 -0.14476267
-0.06916059 0.10011485 0.11283031 0.012747206 0.09758163 0.02571654 -0.08222926 0.05309166
-0.040196396 -0.14453256 0.07823579 -0.18648402 0.056263577 0.14732884 -0.026949078 0.007957894
0.20592627 -0.084740326 0.020254107 -0.14650472 -0.05157084 -0.18439175 0.14056395 -0.034755606
-0.021521827 -0.12190946 -0.13030359 0.17804484 -0.15667178 0.16713569 -0.053228095 0.1759615
00000000: aaad 2bbe f3e9 9e3d 246f f13c 32b2 1dbe
00000010: 1086 cf3c 9dd9 083e 2d83 ae3d 46b3 ce3d
00000020: 46d9 99bd cb10 383e f0d5 2ebe 90ac 24be
00000030: 30b3 1cbe 95cb efbc e17e 98bd 4705 c43c
00000040: e3c7 fe3d c6ae dc3d 5a37 81bd 37b0 e3bd
00000050: 368a c63d 6907 603d 4ded a33d 0da8 e0bd
00000060: f39f 93bc 315f 1bbe d6e6 253b f14e adbc
00000070: dd08 17be b6ac 503e 8302 43bd f11a c43d
00000080: 811a 95bc 6626 0bbd 1c03 2fbe 2aa0 363d
00000090: e7e0 01be 48c0 d4bd d034 b73d 6a06 8f3e
000000a0: b9ed c63d 2931 413e 7726 61bc 3eb8 b83b
000000b0: 5564 05bd 06eb 31be 53cc 35be ebb0 323e
000000c0: 0db7 41bd e045 363e 57a2 03be 3fe1 a63d
000000d0: 33c5 313e f34c 00bd cb57 0f3c d4b6 3abe
000000e0: 85b1 8cbd 940a 843e 478e ff3c 176c a7bd
000000f0: daed ee3d f078 e4bd 5e14 b43d 4b44 26be
00000100: ba90 813c 155c 84bd 2454 3fbe 6ac8 523d
00000110: a7ad 48be 5544 56bd 79ca c1bd 1f92 f9bc
00000120: fc55 213e da7a 38be eb03 ab3d 0af4 313e
00000130: 3e9a 693e f423 133e af3b 753d 9e56 993d
00000140: dc75 71be 8814 cbbd 9073 863d 516d 6b3c
00000150: 39f6 71bc 1a4d 4fbe f66d 09be ad36 253e
00000160: 9da3 0abe f16b 4f3d c43a aa3c 4726 03bd
00000170: 046a 2a3e dc8e 98bc 00d4 c03d 2eff babd
00000180: ae4b 533d e395 e83d f345 1c3d 1c86 95bd
00000190: 19c7 123e fa6d e53d 7bba 1dbe 40a0 5fbe
000001a0: 8469 1fbd ca68 74be 9522 363e db4a 1dbe
000001b0: 030a 573d 2360 183e e879 953c 7011 f9bd
000001c0: b25a 113e 4049 5dbe 5d83 043e 5c8c 88bd
000001d0: fac9 a7bd d81b 12be 1980 cd3c 9204 f23d
000001e0: f658 193e e9c3 e9bd cc44 a5bd 4558 5c3e
000001f0: c03a 34be 1851 103e e570 9dbd ff21 1e3e
00000200: 9d28 ffbd f529 ee3d e6ce 853c dd3e f7bd
00000210: 0a6f 513e 0902 6e3e 4da8 6f3e 1aa6 0c3e
00000220: 4a38 59bd db62 633d 1d9a 59be 90bf 5bbe
00000230: f8cc 623c c718 0abc 3279 0dbe c981 b0bd
00000240: 1a9c 523e e0b4 783e 2076 3c3c e47a 3fbc
00000250: b586 b03d 8d11 933d 5639 5c3e 7a53 9abd
00000260: 8d8e 543c 7363 14bb 6145 79bd 57b7 373e
00000270: 52c1 31be bbd1 163e 8816 1cbe bf30 583e
00000280: 2021 ab3c cf43 8abd b6d9 e4bd b20b 293e
00000290: 0003 39be 2286 5dbd 976e 1f3d de7c 983e
000002a0: 6dc4 ae3c e35d 173d 239b 57be 9473 5c3e
000002b0: f8d8 b7bc 0103 a43b 3057 4abd a3a1 253d
000002c0: f7ff 4cbe 538b bb3d 06ab 49be 3ed4 4a3e
000002d0: e229 ae3c ee70 583d 48dd 60be a112 4ebe
000002e0: 6244 bcbb 670e b93e ee95 583e c6e9 2dbd
000002f0: 729b 0a3e efa0 13be 5945 663e 4566 d33a
00000300: e3e8 ff3d 6b46 a33c dd12 39bd faec 143e
00000310: 358f 1abe 7fc7 16bd 6217 d1bc 17fe 03be
00000320: 598f 093d c344 1dbe 8e2b 8d3b 1010 2d3e
00000330: 5dfc 303e 2b8e c43d 72bc d13a b6ec 123e
00000340: c372 cdbc 12ea aebd d10d f73c 892c 533e
00000350: b489 2bbd 551a 44be c931 853c 9186 253e
00000360: 94b3 f9bd f88f 1a3e 7d78 dc3c 3488 cdbd
00000370: c863 753e 6389 c4bd 317c a83c aa3c 14be
00000380: 11a4 8dbd 0409 cd3d 9413 e73d a8d9 503c
00000390: e1d8 c73d 7eab d23c d067 a8bd a476 593d
000003a0: faa4 24bd 5800 14be 163a a03d abf5 3ebe
000003b0: a374 663d 5fdd 163e 50c4 dcbc d461 023c
000003c0: 56de 523e 568c adbd f1eb a53c 5505 16be
000003d0: f23b 53bd 31d1 3cbe ffef 0f3e e55b 0ebd
000003e0: 8b4e b0bc abab f9bd 4e6e 05be 6351 363e
000003f0: 916e 20be 9e25 2b3e b405 5abd 402f 343e

trunk.3.bias f4 [64]
-0.18154421 0.14476657 -0.03126331 0.07248889 -0.08205361 -0.086597264 -0.10144574 -0.07102439
-0.21312313 0.006672032 0.11180282 -0.07088889 -0.08603355 -0.22885486 -0.12603202 -0.10802151
0.12650567 0.045927107 -0.09707299 -0.13745923 0.13799167 -0.18862502 -0.09624954 -0.022337003
-0.19575295 0.07581713 0.13254933 -0.030858852 -0.0954346 -0.050165005 -0.17658617 0.21482465
-0.09538019 -0.04143961 0.1439142 -0.12297289 -0.053329486 0.004636391 0.22084491 -0.2182056
-0.10003548 -0.16604613 -0.04087842 -0.037908778 -0.12188114 -0.12738839 -0.019068493 0.16162698
0.022060128 -0.020281816 -0.09779528 -0.19073653 -0.0709119 0.073051065 -0.04268466 -0.19475575
-0.16212225 -0.011889495 -0.036887728 -0.02481772 -0.0713033 -0.13452917 -0.045272816 -0.06753199
00000000: bae6 39be b03d 143e f50d 00bd 0e75 943d
00000010: b90b a8bd e859 b1bd c9c2 cfbd 3c75 91bd
00000020: f33c 5abe 10a1 da3b e0f8 e43d 322e 91bd
00000030: 5c32 b0bd ee58 6abe 8a0e 01be 623a ddbd
00000040: b48a 013e 101e 3c3d 34ce c6bd 1dc2 0cbe
00000050: b04d 0d3e eb26 41be 7b1e c5bd 17fc b6bc
00000060: 7673 48be 0346 9b3d 03bb 073e b4cb fcbc
00000070: 3773 c3bd d279 4dbd 01d3 34be fefa 5b3e
00000080: b056 c3bd 95bc 29bd 3e5e 133e 36d9 fbbd
00000090: 0570 5abd deec 973b 2b25 623e 4a71 5fbe
000000a0: 67df ccbd ff07 2abe 2170 27bd 3c46 1bbd
000000b0: d29c f9bd 1a72 02be 8735 9cbc 8b81 253e
000000c0: 71b7 b43c 0d26 a6bc e448 c8bd 7050 43be
000000d0: 423a 91bd cc9b 953d 1cd6 2ebd 0d6e 47be
000000e0: 6003 26be 28cc 42bc 9617 17bd 884e cbbc
000000f0: 7707 92bd 04c2 09be fd6f 39bd 364e 8abd

trunk.4.weight f4 [64]
1.4008795 2.0619085 0.3127367 2.0817056 1.4212193 1.4213064 1.2789377 1.383027
1.3913977 1.4340768 1.8831549 1.4346404 1.4659392 1.1717197 1.4123838 1.4234148
2.0498896 2.0720053 1.398754 1.4012283 1.9452776 1.4080056 1.4210116 1.364404
1.4329764 1.9706389 2.006085 1.4001901 1.4765248 1.4349227 1.3853825 2.198684
1.408325 1.5612521 2.1021981 1.3993338 1.4248184 1.4615353 2.1931043 1.4195629
1.3880581 1.41997 1.3225343 1.1138223 0.87797034 1.388624 1.4324557 1.9743345
2.1420815 1.3791571 1.4004006 1.4030157 1.401408 1.2067683 1.3944863 1.3844438
1.381825 1.8868831 1.415301 2.157292 1.4074881 1.3982619 1.3967566 1.4143294
00000000: 0550 b33f 4ff6 0340 061f a03e aa3a 0540
00000010: 84ea b53f 5eed b53f 3bb4 a33f 0707 b13f
00000020: 5219 b23f d48f b73f 380b f13f 4ca2 b73f
00000030: e5a3 bb3f e9fa 953f fec8 b43f 7532 b63f
00000040: 6431 0340 bc9b 0440 5f0a b33f 735b b33f
00000050: dbfe f83f 8739 b43f b5e3 b53f caa4 ae3f
00000060: c56b b73f e53d fc3f b263 0040 6e39 b33f
00000070: c4fe bc3f 8cab b73f 3754 b13f 3db7 0c40
00000080: fe43 b43f 1cd7 c73f 6a8a 0640 5f1d b33f
00000090: 7360 b63f 9713 bb3f d25b 0c40 3db4 b53f
000000a0: e3ab b13f 94c1 b53f ce48 a93f bb91 8e3f
000000b0: aac2 603f 6ebe b13f b55a b73f feb6 fc3f
000000c0: dd17 0940 3888 b03f 5440 b33f 0596 b33f
000000d0: 5661 b33f 6277 9a3f 877e b23f 7435 b13f
000000e0: a4df b03f 6385 f13f 9528 b53f 1211 0a40
000000f0: 9228 b43f 3ffa b23f ecc8 b23f bf08 b53f

trunk.4.bias f4 [64]
-0.4786902 1.0778041 0.9618042 1.0725931 -0.46854514 -0.45656312 -0.53274995 -0.4828081
-0.47725976 -0.442916 0.9717193 -0.4423793 -0.42853546 -0.105827 -0.45509288 -0.45927888
1.0521101 1.0634401 -0.4511297 -0.46550083 1.0006058 -0.46449804 -0.46689442 -0.50014895
-0.44377458 1.0094037 1.0231911 -0.47994515 -0.41461024 -0.4551646 -0.4853982 1.1338174
-0.4686473 -0.54873556 1.0710633 -0.47979304 -0.45729694 -0.4154198 1.1629188 -0.41457567
-0.4824071 -0.44480115 -0.5084098 -0.6081436 -0.53159976 -0.46394458 -0.43682763 1.0139953
1.1263846 -0.48963404 -0.46843445 -0.47869518 -0.4743585 -0.50139815 -0.45511076 -0.48252213
-0.47702765 0.9724423 -0.45779637 1.143835 -0.46483007 -0.4578103 -0.47541282 -0.46022984
00000000: e216 f5be 7cf5 893f cd38 763f bb4a 893f
00000010: 26e5 efbe a4c2 e9be 4d62 08bf a032 f7be
00000020: 645b f4be e3c5 e2be 99c2 783f 8a7f e2be
00000030: 0069 dbbe d4bb d8bd ef01 e9be 9a26 ebbe
00000040: 8bab 863f ce1e 883f 79fa e6be 2056 eebe
00000050: da13 803f b0d2 edbe c90c efbe c309 00bf
00000060: 6c36 e3be 2434 813f edf7 823f 5fbb f5be
00000070: cb47 d4be 560b e9be 1d86 f8be ee20 913f
00000080: 8af2 efbe ef79 0cbf 9a18 893f 6fa7 f5be
00000090: d322 eabe e7b1 d4be 86da 943f 4343 d4be
000000a0: 10fe f6be fabc e3be 2527 02bf 4daf 1bbf
000000b0: ec16 08bf 258a edbe dfa7 dfbe 99ca 813f
000000c0: 5f2d 903f 50b1 fabe a4d6 efbe 8917 f5be
000000d0: 1edf f2be a15b 00bf 4704 e9be 240d f7be
000000e0: f83c f4be fbf1 783f 4964 eabe 2f69 923f
000000f0: 35fe edbe 1d66 eabe 4f69 f3be 3fa3 ebbe

value_head.0.weight f4 [5, 64]
-0.7597016 0.9586694 0.38044795 1.023488 -0.9662855 -0.8409731 -0.7362788 -0.97502077
-0.7902941 -0.84490573 0.9980699 -0.7340295 -0.86889184 -0.18792063 -0.5758983 -0.8596196
0.8872489 0.9066267 -0.9817705 -0.79402083 0.5833293 -0.9096326 -0.89924645 -0.40926445
-1.0181886 1.1354322 0.9912142 -0.95149463 -0.47145826 -0.83772004 -1.0022933 1.02129
-0.6067599 -1.0691392 0.9574188 -0.6170894 -0.8886175 -0.3961963 0.9868203 -0.57724583
-0.49629983 -0.9955157 -0.56342393 -0.34956917 -0.82907104 -0.56113255 -1.007518 1.1139247
1.130778 -0.7407548 -1.0119487 -0.77047753 -0.6336822 -0.7444199 -0.7549894 -1.0033325
-1.0457674 0.7862174 -0.48889446 0.9291473 -0.6797593 -0.87631583 -0.8454608 -0.7800816
-0.85929644 1.0602158 0.4658427 0.69055235 -0.61594075 -0.83482647 -0.5990639 -0.71828425
-0.78145 -0.9105312 0.79941094 -0.56528944 -0.8185907 -0.17410876 -0.6780594 -0.85439587
1.0321907 1.1699702 -0.71185845 -0.68620837 1.0151454 -0.44914252 -0.8954786 -0.71434265
-0.98502344 0.99455273 1.0522434 -0.8096299 -0.56647205 -0.6499927 -0.96179897 1.1172414
-0.5594134 -0.7121189 0.95540243 -0.6343701 -0.5029384 -0.107222416 1.0718335 -0.19382316
-0.7609293 -0.5491295 -0.6256259 -0.67571545 -0.49664953 -0.55968696 -0.64284766 0.92429674
0.99181324 -0.54046774 -0.58657414 -0.89846027 -0.71170896 -0.5142259 -0.7022666 -0.8998333
-0.6661747 0.9202845 -0.8564692 1.1553928 -0.6541385 -0.58028996 -0.81562036 -0.94235843
-0.8287967 0.93394667 0.17609605 1.1775087 -0.9303065 -0.94433254 -0.5273505 -0.437034
-0.83991224 -0.5014853 0.9032995 -0.8007749 -0.6290063 -0.021997303 -0.8735029 -0.7933133
1.1799275 1.0859467 -0.85853016 -0.79972094 0.97315997 -0.55916387 -0.63178176 -0.826966
-0.953941 0.7771249 0.9594795 -0.74427646 -0.95218277 -0.80713284 -0.4063155 0.7990371
-0.962826 -0.5701039 1.2124844 -0.9818496 -1.0093648 -0.4925461 1.3612398 -0.5229571
-0.6862496 -0.4959294 -0.64954627 -0.5016439 -0.8886858 -0.6449668 -0.43985185 0.93963546
1.1812072 -0.6925255 -0.7725726 -0.79938304 -0.5352464 -0.7056752 -0.9691881 -0.78886586
-0.58795786 1.0240936 -0.77261007 0.6583052 -0.9759631 -0.9597811 -0.59209436 -0.49547058
-0.68086565 1.0616554 0.5522444 1.1779537 -0.6067366 -0.62183046 -0.3848103 -0.60807157
-0.96449053 -1.0299171 0.9012025 -0.76050454 -1.1077805 -0.40233782 -1.0148072 -0.54093623
1.146196 0.8349517 -0.7174495 -0.8416013 1.1175754 -1.0439004 -0.9313692 -0.9378315
-0.60314924 0.75594854 1.0787042 -0.6625761 -0.9028202 -0.86966604 -0.88839126 1.2225887
-0.90308553 -0.7093873 1.0181266 -0.9848111 -0.9804078 -0.66813844 1.2724378 -0.34098187
-0.7732748 -0.9821423 -0.89686745 -0.56584 -0.9549299 -1.0110246 -1.0680953 0.702961
0.75812256 -0.630358 -0.66473514 -0.67776376 -1.0667963 -0.52973056 -0.7025062 -0.57934695
-0.836385 0.9506345 -1.0601671 1.0750757 -0.55432075 -0.64476824 -1.057353 -0.858419
00000000: ce7b 42bf 5c6b 753f 13ca c23e a801 833f
00000010: 7d5e 77bf 034a 57bf c47c 3cbf f69a 79bf
00000020: b750 4abf be4b 58bf 8281 7f3f 5be9 3bbf
00000030: b26f 5ebf 446e 40be 126e 13bf 0810 5cbf
00000040: be22 633f b018 683f 5055 7bbf f344 4bbf
00000050: 1255 153f afdd 68bf 0435 66bf 1c8b d1be
00000060: 0154 82bf d855 913f 37c0 7d3f 2795 73bf
00000070: fa62 f1be d274 56bf 264b 80bf a1b9 823f
00000080: 9e54 1bbf 8ed9 88bf 6619 753f 92f9 1dbf
00000090: 707c 63bf 3eda cabe 41a0 7c3f 62c6 13bf
000000a0: 031b febe 1eda 7ebf 8d3c 10bf bbfa b2be
000000b0: 003e 54bf 62a6 0fbf 5af6 80bf 1695 8e3f
000000c0: 55bd 903f 1ba2 3dbf 8987 81bf 043e 45bf
000000d0: ff38 22bf 4d92 3ebf fc46 41bf 336d 80bf
000000e0: b5db 85bf 8b45 493f 6050 fabe 99dc 6d3f
000000f0: b504 2ebf 3c56 60bf 1e70 58bf 6eb3 47bf
00000100: dafa 5bbf 27b5 873f ef82 ee3e 0ac8 303f
00000110: 4bae 1dbf 30b7 55bf 405c 19bf 7ae1 37bf
00000120: 1b0d 48bf 9318 69bf 32a6 4c3f cfb6 10bf
00000130: 298f 51bf 9149 32be 4d95 2dbf b0b9 5abf
00000140: d31e 843f 95c1 953f 5b3c 36bf 5aab 2fbf
00000150: 49f0 813f 02f6 e5be 163e 65bf 29df 36bf
00000160: 7f2a 7cbf 029b 7e3f e9af 863f e843 4fbf
00000170: 5004 11bf ec65 26bf 7538 76bf c401 8f3f
00000180: b735 0fbf 6d4d 36bf 4195 743f 1466 22bf
00000190: 92c0 00bf 6d97 dbbd d731 893f 9479 46be
000001a0: 43cc 42bf c093 0cbf 0529 20bf b0fb 2cbf
000001b0: d948 febe a547 0fbf aa91 24bf b69e 6c3f
000001c0: 79e7 7d3f 185c 0abf b929 16bf 7e01 66bf
000001d0: 8f32 36bf 4fa4 03bf bec7 33bf 7a5b 66bf
000001e0: 6d8a 2abf c497 6b3f 9141 5bbf e9e3 933f
000001f0: 9f75 27bf e28d 14bf 7fcc 50bf 673e 71bf
00000200: 052c 54bf 2117 6f3f 8652 343e 9bb8 963f
00000210: 9128 6ebf c7bf 71bf 7100 07bf ecc2 dfbe
00000220: 7d04 57bf 5761 00bf a33e 673f 95ff 4cbf
00000230: 8f06 21bf b033 b4bc e39d 5fbf 9516 4bbf
00000240: dd07 973f 4d00 8b3f a2c8 5bbf 83ba 4cbf
00000250: 0321 793f 5d25 0fbf 73bc 21bf 0bb4 53bf
00000260: 7a35 74bf a8f1 463f 73a0 753f e788 3ebf
00000270: 40c2 73bf 42a0 4ebf 9608 d0be b28d 4c3f
00000280: c47b 76bf 54f2 11bf b032 9b3f 7f5a 7bbf
00000290: de32 81bf 012f fcbe 1b3d ae3f 84e0 05bf
000002a0: 0eae 2fbf 75ea fdbe aa48 26bf bc6b 00bf
000002b0: ea80 63bf 8b1c 25bf 4334 e1be f38b 703f
000002c0: cc31 973f 5a49 31bf 51c7 45bf 5ea4 4cbf
000002d0: e805 09bf 21a7 34bf b61c 78bf 1df3 49bf
000002e0: 6884 16bf 8015 833f c6c9 45bf b186 283f
000002f0: b8d8 79bf 37b4 75bf 7f93 17bf 52ae fdbe
00000300: 364d 2ebf 53e4 873f e45f 0d3f 30c7 963f
00000310: 1753 1bbf 4830 1fbf db05 c5be 94aa 1bbf
00000320: dae8 76bf 53d4 83bf 35b5 663f 6db0 42bf
00000330: c0cb 8dbf 39ff cdbe 34e5 81bf cc7a 0abf
00000340: 8db6 923f 65bf 553f c5aa 37bf 2f73 57bf
00000350: b60c 8f3f 879e 85bf 366e 6ebf ba15 70bf
00000360: fd67 1abf d885 413f fb12 8a3f 969e 29bf
00000370: 3a1f 67bf 6fa2 5ebf 9c6d 63bf c97d 9c3f
00000380: 9d30 67bf 689a 35bf f951 823f 951c 7cbf
00000390: 01fc 7abf 1f0b 2bbf 3edf a23f 2d95 aebe
000003a0: 56f5 45bf ae6d 7bbf 1b99 65bf e4da 10bf
000003b0: 4976 74bf 4169 81bf 59b7 88bf 41f5 333f
000003c0: 5214 423f 245f 21bf 152c 2abf ed81 2dbf
000003d0: c88c 88bf 6c9c 07bf 72d7 33bf 1550 14bf
000003e0: 541d 56bf c85c 733f 8eb3 87bf 159c 893f
000003f0: f7e7 0dbf 880f 25bf 5857 87bf 59c1 5bbf

value_head.0.bias f4 [5]
0.7260773 0.6811061 0.69492406 0.7475103 0.738457
00000000: 34e0 393f f85c 2e3f 8be6 313f d65c 3f3f
00000010: 850b 3d3f
