trained_value_function.pt (torch, 21257 bytes, 6 tensors)

model.0.weight f4 [64, 1]
0	0x3f897d36	1.0741336
1	0x401d2bfd	2.4558098
2	0xc0098c42	-2.1491857
3	0xbfe7f820	-1.8122597
4	0xbfcdb877	-1.6071919
5	0x3ff7b3ea	1.935178
6	0x3fbe38dd	1.4861103
7	0x40423aec	3.0348463
8	0x3fa0167c	1.2506862
9	0x3fdc3244	1.720284
10	0xbfbd20e8	-1.4775667
11	0xc00d6965	-2.2095578
12	0xc0216d3f	-2.5222929
13	0xbfd8179d	-1.6882206
14	0xbfa3dcd8	-1.2801771
15	0x3fd3d5f7	1.6549672
16	0x40178ba3	2.3678977
17	0x401e162a	2.4701028
18	0xbfd78d95	-1.6840082
19	0xbfa2ddd9	-1.2723953
20	0x400d3286	2.2062087
21	0x40439e49	3.056536
22	0xbfdd5a06	-1.7293098
23	0x40404a7b	3.004546
24	0x3f6d6e5e	0.9274653
25	0x3fe7ae4d	1.8100067
26	0x40402f35	3.0028813
27	0xc00fc527	-2.2464082
28	0xbfbd8445	-1.480599
29	0xbfcd0898	-1.6018248
30	0xbfadc934	-1.3577027
31	0x40500e71	3.2508814
32	0xbfdcd8eb	-1.7253698
33	0xbfa7a64f	-1.3097628
34	0xc02bbbb2	-2.683331
35	0xc026f780	-2.6088562
36	0xbfb279be	-1.3943403
37	0x40390ec6	2.8915267
38	0x4018f224	2.389779
39	0x4018d76a	2.3881478
40	0x3feb2748	1.8371363
41	0xbfb24292	-1.3926566
42	0x4002ad9a	2.0418458
43	0xc03db23f	-2.9640043
44	0xbfe14467	-1.7599
45	0xbfa2bb4c	-1.2713408
46	0x4033fd0b	2.8123195
47	0x40204ac2	2.5045629
48	0xbfa07720	-1.2536354
49	0x3f68b002	0.90893567
50	0x401e7374	2.4757967
51	0x4061029e	3.5157847
52	0x401459d1	2.317982
53	0x3fcf5f3a	1.6200936
54	0x402e4b1c	2.7233343
55	0xbffa4830	-1.955328
56	0x3fef74f3	1.8707565
57	0xc01afd5b	-2.4217136
58	0xbfe937f0	-1.8220196
59	0xbfa65d87	-1.2997292
60	0x40269f86	2.6034865
61	0x401d5b4c	2.4586973
62	0xbfb33783	-1.4001316
63	0x400de9de	2.2173991

model.0.bias f4 [64]
0	0xbc79124d	-0.015202117
1	0xbc4af7f0	-0.0123882145
2	0x3f000ee1	0.50022703
3	0x3eef394a	0.46723396
4	0xbf875907	-1.0574044
5	0x3f461214	0.77371335
6	0xbf6c10a9	-0.9221292
7	0x3db7b4d2	0.089700356
8	0x3ce7c02f	0.028289882
9	0x3efbbd8e	0.49168056
10	0xbf29fdee	-0.6640309
11	0xc0695c9d	-3.6462777
12	0x3f6bbf95	0.92089206
13	0xbf2968f3	-0.66175765
14	0xbf42fd22	-0.761675
15	0xbf2cbd1d	-0.67476064
16	0xbf21b16c	-0.6316135
17	0x3f536c63	0.8258726
18	0x3f4684e5	0.7754653
19	0xbfc61607	-1.5475472
20	0x3e550156	0.20801291
21	0x3e513aa5	0.20432527
22	0xc09c9486	-4.8931303
23	0x3ca9ac4e	0.020712044
24	0xbe28ec3c	-0.16496366
25	0xbf08a98b	-0.533837
26	0x3f0cb554	0.54964185
27	0x3f7f83f9	0.9981075
28	0x3f1fb0d3	0.6237919
29	0xc08398c4	-4.112398
30	0xc014b3a4	-2.3234644
31	0xbcb818bc	-0.022472732
32	0x3f18bd90	0.5966425
33	0xbe742183	-0.23840909
34	0x3e7e3dd8	0.24828279
35	0x3ed705b7	0.41996548
36	0x3f216d0f	0.63057035
37	0x3f36cf7a	0.71410334
38	0xbe63ba0d	-0.22238941
39	0xbde9a582	-0.11408521
40	0xbf5a57ba	-0.8529011
41	0xbe5a63cd	-0.21327133
42	0xbf11385b	-0.56726617
43	0x3f15d852	0.58533204
44	0x3e0f3ee3	0.13988833
45	0xbecf9f0a	-0.40551025
46	0xbc44831f	-0.011994152
47	0x3f195237	0.59891075
48	0xbfa2fae1	-1.2732812
49	0x3e6c8229	0.23096527
50	0x3f1c328e	0.6101464
51	0xbd770b65	-0.0603136
52	0xbd54953c	-0.051900133
53	0xbe2a371a	-0.16622582
54	0x3eaa3587	0.33243963
55	0x3f044733	0.5167114
56	0x3e938f21	0.28820136
57	0x3f380696	0.7188505
58	0xbe30df4d	-0.17272682
59	0xbe100c3e	-0.1406717
60	0xbef9e1c1	-0.4880505
61	0xbe8067c1	-0.25079158
62	0xbef14148	-0.47120118
63	0xbe96cf93	-0.29455242

model.2.weight f4 [64, 64]
0	0x3e832bd3	0.25619373
1	0x3efe5b9f	0.49679276
2	0xbf59136a	-0.8479525
3	0xbee92fd4	-0.45544302
4	0xbd8c48ee	-0.06849848
5	0x3ee00cfb	0.43759903
6	0x3eded046	0.43518275
7	0x3f3e2247	0.74271053
8	0x3ea22aed	0.31673375
9	0x3ecd9dff	0.40159604
10	0x3d90dc30	0.070732474
11	0x3cdb8660	0.026797473
12	0xbf80f1a0	-1.0073738
13	0xbee704ae	-0.45120758
14	0x3e1970cf	0.1498444
15	0x3ec56b1c	0.3855828
16	0x3ee53ee6	0.4477455
17	0x3f000726	0.5001091
18	0xbe6d64c1	-0.23182966
19	0xbd910da4	-0.0708268
20	0x3ef1596d	0.4713854
21	0x3f271a08	0.65274096
22	0xbd3c5c31	-0.045986358
23	0x3f251b01	0.6449433
24	0x3e72d15d	0.23712678
25	0x3f008421	0.5020161
26	0x3f45d0ec	0.77271914
27	0xbf6b20f4	-0.9184716
28	0xbdc57421	-0.096412905
29	0xbb8b8fb4	-0.004259074
30	0xbc0e985d	-0.008703318
31	0x3f45fc1d	0.7733782
32	0xbecec804	-0.40386975
33	0xbd9922c5	-0.07477335
34	0xbfd02392	-1.6260855
35	0xbfc09cbd	-1.5047833
36	0xbdaf640f	-0.085640065
37	0x3f29ae57	0.66281646
38	0x3f0687b4	0.52550817
39	0x3f20d1df	0.6282024
40	0x3e9f3221	0.31092933
41	0xbe1db3e8	-0.1540066
42	0x3f189591	0.5960322
43	0xbfec06d6	-1.8439586
44	0xbec574ea	-0.3856576
45	0x3c828530	0.01593265
46	0x3f1531f0	0.58279324
47	0x3f29b07e	0.6628493
48	0xbd11b2fe	-0.03557109
49	0x3e624f60	0.22100592
50	0x3f2c795d	0.67372686
51	0x3f4ef2d0	0.8083925
52	0x3f14904d	0.58032686
53	0x3ebfaa84	0.3743478
54	0x3f3e5685	0.7435077
55	0xbf1087f3	-0.5645744
56	0x3f020342	0.5078622
57	0xbf81335f	-1.0093802
58	0xbf22b06a	-0.63550436
59	0xbd1938ed	-0.037407804
60	0x3f08397a	0.532127
61	0x3f2c297f	0.6725082
62	0xbdb5bc5d	-0.08873818
63	0x3f1fb142	0.6237985
64	0x3e470ba9	0.19438042
65	0x3f3a5fe6	0.7280258
66	0xbf7ffcf4	-0.9999535
67	0xbf2eeae7	-0.6832718
68	0xbe10f038	-0.14154136
69	0x3efeaa41	0.49739268
70	0x3eb192fb	0.3468245
71	0x3f6a3b37	0.91496605
72	0x3e9e407b	0.3090857
73	0x3f015fc8	0.50536776
74	0xbe1a0021	-0.15039112
75	0xbe09ba50	-0.13449979
76	0xbfa2bb30	-1.2713375
77	0xbf0629bf	-0.5240745
78	0xbe058e2b	-0.13042514
79	0x3f161f53	0.58641547
80	0x3f4b2253	0.7934925
81	0x3f1f16bf	0.6214408
82	0xbef509a3	-0.47858915
83	0xbe4da09a	-0.20080796
84	0x3f201cf2	0.6254417
85	0x3f5e51fa	0.86843836
86	0x3c7e4295	0.015518804
87	0x3f6f5218	0.9348464
88	0x3e09c4bf	0.13453959
89	0x3eee45e4	0.46537697
90	0x3f69bb47	0.9130139
91	0xbf833b3f	-1.0252455
92	0xbeb0398b	-0.34418902
93	0x3e1a1d5d	0.15050264
94	0xbc972063	-0.01844806
95	0x3f82b15e	1.0210378
96	0xbf22a126	-0.63527143
97	0xbdf95d91	-0.121760495
98	0xbfc56955	-1.542277
99	0xbfb59144	-1.4184957
100	0xbe889dd9	-0.26682928
101	0x3f39e019	0.7260757
102	0x3f3941d2	0.7236606
103	0x3f4fc9bf	0.81167215
104	0x3f11221d	0.5669268
105	0xbe2871ff	-0.16449736
106	0x3f320d36	0.6955141
107	0xbfe6021f	-1.7969397
108	0xbf0fbe9e	-0.56150234
109	0xbe8060d1	-0.25073865
110	0x3f4c63c3	0.79839724
111	0x3f2fe405	0.68707305
112	0xbdbaebda	-0.09127016
113	0x3ea9cfa8	0.33166242
114	0x3f18e390	0.5972223
115	0x3f905146	1.1274803
116	0x3f3e93f2	0.74444497
117	0x3ea6cfc3	0.32580385
118	0x3f5a6f0b	0.8532569
119	0xbf5122fa	-0.81693995
120	0x3ef90420	0.4863596
121	0xbf91960f	-1.1373919
122	0xbf41bf2a	-0.7568232
123	0xbe076560	-0.13222265
124	0x3f6fe5f2	0.93710244
125	0x3f3821be	0.71926486
126	0xbec74ae1	-0.38924316
127	0x3f1e9caa	0.619578
128	0x3de0d504	0.109781295
129	0x3f5069b0	0.81411266
130	0xbf80b4db	-1.0055193
131	0xbf46f304	-0.7771456
132	0xbe542956	-0.20718893
133	0x3efc3519	0.4925926
134	0x3f004db9	0.50118595
135	0x3f88919f	1.066944
136	0x3e9cbc78	0.3061254
137	0x3eb36efe	0.35045618
138	0xbe31ba75	-0.17356284
139	0xbc810822	-0.015750948
140	0xbf8d5e6c	-1.104444
141	0xbf1d8143	-0.6152536
142	0xbe721944	-0.2364245
143	0x3ee24eff	0.44200894
144	0x3f36646c	0.7124698
145	0x3f1e1895	0.6175626
146	0xbf285762	-0.65758336
147	0xbebbcad4	-0.36678183
148	0x3f39fc7d	0.7265089
149	0x3f5c358a	0.86019194
150	0xbd5c71c2	-0.053819425
151	0x3f81a661	1.01289
152	0x3e390d30	0.18071437
153	0x3ef237b1	0.47308114
154	0x3f3aad0e	0.7292031
155	0xbf62ff03	-0.88670367
156	0xbedc41c3	-0.43018922
157	0x3d854b6b	0.065085255
158	0xbe2f9467	-0.17146455
159	0x3f900309	1.1250926
160	0xbf26c889	-0.6514974
161	0xbe944cc9	-0.28964832
162	0xbfb4ca66	-1.4124267
163	0xbfa1fb27	-1.2654771
164	0xbe9be560	-0.30448437
165	0x3f3f1cb4	0.7465317
166	0x3f3e038f	0.7422418
167	0x3f2bb371	0.6707068
168	0x3f2f6db3	0.6852676
169	0xbeecdae0	-0.46260738
170	0x3f380cc6	0.7189449
171	0xbfcef423	-1.6168255
172	0xbf3f3a89	-0.7469869
173	0xbe76ebc5	-0.24113376
174	0x3f56f4c9	0.8396726
175	0x3f2d4331	0.6768065
176	0xbe45e8d6	-0.19327101
177	0x3da974a6	0.08274202
178	0x3f276ac5	0.6539729
179	0x3fa199b4	1.2625031
180	0x3f42b51d	0.76057607
181	0x3ed8340c	0.4222721
182	0x3f2eeaf3	0.68327254
183	0xbf4b3bfc	-0.79388404
184	0x3f0315b7	0.5120501
185	0xbf94f20f	-1.163637
186	0xbf2e4557	-0.68074554
187	0xbe2f4d80	-0.17119408
188	0x3f5ad53c	0.8548162
189	0x3f4ff70c	0.8123634
190	0xbeb48915	-0.35260835
191	0x3f37c677	0.7178721
192	0xbea220a8	-0.3166554
193	0xbea89393	-0.3292509
194	0xbf1868d5	-0.5953496
195	0xbecfd5d0	-0.40592813
196	0xbe2bdb1b	-0.16782801
197	0xbe47f770	-0.19527984
198	0xbea23cac	-0.31686914
199	0xbe9c304c	-0.30505598
200	0xbe8ce321	-0.27517036
201	0xbec254d7	-0.37955353
202	0xbebd2b60	-0.36947155
203	0xbe94df75	-0.29076734
204	0xbee2f347	-0.4432623
205	0xbeb4c484	-0.3530618
206	0xbec11dbe	-0.37718004
207	0xbeaafdfa	-0.33396894
208	0xbea7d0d3	-0.32776508
209	0xbe2e2c53	-0.17009096
210	0xbe8a41f1	-0.27003434
211	0xbe5d831f	-0.2163205
212	0xbeb5d220	-0.35511875
213	0xbeb5cbb8	-0.35506988
214	0xbdced63e	-0.10099457
215	0xbe856d6d	-0.26060048
216	0xbecf6ea1	-0.4051409
217	0xbe88d9e0	-0.26728725
218	0xbe6b31f5	-0.22968276
219	0xbed33fc0	-0.41259575
220	0xbedc5538	-0.43033767
221	0xbe35edfb	-0.17766564
222	0xbe99b60b	-0.300217
223	0xbe6df385	-0.23237427
224	0xbed4a21e	-0.41529936
225	0xbe8bebec	-0.27328432
226	0xbf3403b1	-0.7031813
227	0xbf1e3e02	-0.61813366
228	0xbebe64a1	-0.3718615
229	0xbe681896	-0.22665629
230	0xbee827ac	-0.45342767
231	0xbea74fe6	-0.32678145
232	0xbefe345a	-0.49649316
233	0xbeef07a2	-0.4668551
234	0xbefd11b3	-0.49427566
235	0xbf369b27	-0.71330494
236	0xbeb5f1bf	-0.35536
237	0xbe4bc2cc	-0.19898528
238	0xbe73dc41	-0.23814489
239	0xbed38a9c	-0.41316688
240	0xbec6afd4	-0.3880602
241	0xbeacc1d3	-0.33741626
242	0xbec50f35	-0.38488165
243	0xbe770cda	-0.24125996
244	0xbee1ab07	-0.44075796
245	0xbed10e87	-0.40831396
246	0xbedc9a1b	-0.43086323
247	0xbf034eea	-0.5129229
248	0xbe645901	-0.22299577
249	0xbee7e508	-0.45291924
250	0xbeb87d4e	-0.360331
251	0xbe5d648c	-0.21620387
252	0xbe96ad5b	-0.29429135
253	0xbecc7f98	-0.39941096
254	0xbe986002	-0.29760748
255	0xbe846133	-0.25855407

model.2.bias f4 [64]
0	0x3e29f17e	0.16596028
1	0x3d9bd9ac	0.07609877
2	0xbcca52f6	-0.024697762
3	0xbe4e1a3f	-0.201272
4	0xbe9c2196	-0.30494374
5	0xbe88b542	-0.2670079
6	0xbe9075d1	-0.28214887
7	0xbebb198c	-0.36542928
8	0x3daf933a	0.08573003
9	0xbeb148cf	-0.3462586
10	0xbe958dae	-0.29209656
11	0xbd0efd96	-0.034909807
12	0xbe90fc40	-0.2831745
13	0xbd9d0628	-0.0766719
14	0x3d00e391	0.031467024
15	0xbd66eae5	-0.056376357
16	0xbda07a19	-0.07835788
17	0xbe7cb99f	-0.24680184
18	0xbda20a99	-0.079121776
19	0x3ca2560b	0.01981642
20	0xbe195286	-0.14972886
21	0x3fe03f0c	1.751924
22	0xbe1516d3	-0.14559488
23	0xbc11f862	-0.008909317
24	0xbde45b4d	-0.11150227
25	0x3d938e3c	0.072048634
26	0xbd64c8ad	-0.05585544
27	0xbe4b92e4	-0.19880253
28	0xbe30509f	-0.17218255
29	0xbe5506e5	-0.20803411
30	0xbeb28fe3	-0.34875402
31	0xbe1150f8	-0.14191043
32	0xbd7d43ad	-0.06183212
33	0xbe657173	-0.22406559
34	0xbd82a3cf	-0.063789
35	0xbd59eca9	-0.053204212
36	0xbe4af943	-0.19821648
37	0xbead4275	-0.33839765
38	0xbccc0d82	-0.024908785
39	0x3ebdd242	0.37074476
40	0xbe493bb1	-0.19651677
41	0xbcc74ca6	-0.024328541
42	0xbe9c6993	-0.30549297
43	0xbd0daa73	-0.03458638
44	0xbdad00db	-0.08447429
45	0xbde6f699	-0.112775035
46	0xbdbfc7e8	-0.09364301
47	0xbebe4fe0	-0.37170315
48	0xbeaaa316	-0.3332755
49	0x3e1ce5d0	0.15322042
50	0xbde4cdf4	-0.11172095
51	0xbe978ff9	-0.2960203
52	0xbe06674a	-0.13125339
53	0xbdf4ee12	-0.11959471
54	0xbc95d2fa	-0.018289078
55	0xbe9a8af3	-0.30184135
56	0xbe408f52	-0.18804672
57	0xbd033bed	-0.03203957
58	0xbdb4732d	-0.088110305
59	0xbebe23b7	-0.37136623
60	0xbdc1a1a4	-0.09454659
61	0xbee1aef6	-0.44078797
62	0xbdce064d	-0.100597955
63	0x3b93bc19	0.004508507

model.4.weight f4 [3, 64]
0	0x3e974be2	0.29550081
1	0x3f2313f5	0.63702327
2	0x3f422de9	0.75851303
3	0xbd9931ce	-0.074802026
4	0x3f4d9092	0.8029872
5	0x3fae30da	1.3608658
6	0x3f0265ca	0.5093657
7	0x3ec08994	0.37604964
8	0x3eff0c47	0.49814054
9	0x3dcef880	0.10105991
10	0x3f5bcf48	0.8586316
11	0x3ef4cbe1	0.47811797
12	0x3f694f16	0.911363
13	0x3f50a276	0.81497896
14	0x3edfa4db	0.43680462
15	0x3f076a0c	0.5289619
16	0x3f1e39bc	0.61806846
17	0xbe00a490	-0.12562776
18	0x3f4b5502	0.79426587
19	0x3f1932cc	0.59843135
20	0x3f4f2cd3	0.8092777
21	0xbf798a3a	-0.9747654
22	0x3f3eb5a1	0.74495894
23	0x3f1bdb86	0.6088184
24	0x3f488952	0.78334534
25	0x3f11bc47	0.56927913
26	0x3f3977f6	0.7244867
27	0x3f34c4f8	0.7061305
28	0x3f1cd120	0.612566
29	0x3f2e8349	0.68169075
30	0xbf001141	-0.5002633
31	0x3f74f0f5	0.9568017
32	0x3f69e7b3	0.9136917
33	0x3f02b7df	0.51061815
34	0x3f43c715	0.7647565
35	0x3f417416	0.7556776
36	0x3f354075	0.7080148
37	0xbe4eea72	-0.20206621
38	0x3f30d937	0.69081444
39	0x3c369c47	0.011145658
40	0x3f5cf865	0.8631652
41	0x3f106abc	0.56412864
42	0x3f8aa7f1	1.0832502
43	0x3f1950b9	0.598888
44	0x3f3d10a3	0.7385351
45	0x3f40811c	0.75197005
46	0x3f2f89f7	0.6856989
47	0xbe9cd0bc	-0.30628002
48	0xbdd88c89	-0.1057368
49	0x3eeb4708	0.4595263
50	0x3f0b9633	0.5452606
51	0xbd26f1fc	-0.040758118
52	0x3f2591df	0.64675707
53	0x3f1ae904	0.60511804
54	0x3f4827dc	0.7818582
55	0x3e3166b8	0.1732434
56	0x3f22588e	0.63416374
57	0x3c265bdf	0.01015374
58	0x3ef7d292	0.4840284
59	0x3eba8b42	0.3643437
60	0x3f6138ca	0.8797728
61	0x3c7ba169	0.015358307
62	0x3f668f96	0.90062845
63	0x3f153cae	0.58295715
64	0x3eeabce5	0.4584724
65	0x3f317cf0	0.69331264
66	0x3f4d3acc	0.8016784
67	0x3de3652c	0.111032814
68	0x3e7bdd13	0.24596052
69	0x3f97b63a	1.1852486
70	0x3e227b0a	0.15867248
71	0xbd8945e1	-0.067027815
72	0x3f219be5	0.631285
73	0x3e0377d1	0.12838675
74	0x3f623bd4	0.8837254
75	0x3f183226	0.5945152
76	0x3f6ede88	0.93308306
77	0x3f4bd3a9	0.7961984
78	0x3f11c211	0.56936747
79	0x3f2438dd	0.64149266
80	0x3f1a8ef5	0.60374385
81	0xbcd8ef9e	-0.026481446
82	0x3f22fb0e	0.6366433
83	0x3f44a3fd	0.76812726
84	0x3f531707	0.8245701
85	0xbeb2d6c8	-0.3492949
86	0x3f30b8b9	0.69031864
87	0x3f062077	0.5239329
88	0x3f46195e	0.7738246
89	0x3f3bef63	0.7341215
90	0x3f435d3f	0.7631416
91	0x3f2bc9ab	0.67104596
92	0x3f31849f	0.6934299
93	0x3f35341f	0.70782655
94	0xbe051dba	-0.12999621
95	0x3f353756	0.7078756
96	0x3f5dd595	0.86654025
97	0x3de7728a	0.113011435
98	0x3f2818f3	0.6566307
99	0x3f322c64	0.69598985
100	0x3f2b6d6c	0.6696384
101	0xbb6ba361	-0.0035955536
102	0x3f22745b	0.63458794
103	0x3eb94394	0.3618437
104	0x3f416f47	0.7556042
105	0x3f391188	0.72292376
106	0x3f872933	1.0559448
107	0x3f151a79	0.5824352
108	0x3f339313	0.7014629
109	0x3f1f662c	0.62265277
110	0x3f11565a	0.5677239
111	0xbe6c11b1	-0.23053624
112	0x3cc80aef	0.024419276
113	0x3ef4ba48	0.4779837
114	0x3f32afdf	0.6979961
115	0xbefd1a1a	-0.49433976
116	0x3f44b233	0.7683441
117	0x3f3d45a2	0.73934376
118	0x3f2c744d	0.6736496
119	0xbd8be937	-0.068315916
120	0x3f3ed712	0.7454692
121	0x3e7c6596	0.24648127
122	0x3f1aa204	0.60403466
123	0x3e87fb05	0.265587
124	0x3f3376f5	0.7010339
125	0xbe4c9994	-0.1998046
126	0x3f32336a	0.696097
127	0x3f29445f	0.6611995
128	0x3f4da7e5	0.8033431
129	0x3f543522	0.82893574
130	0x3f206793	0.6265804
131	0xbd1765a4	-0.036962166
132	0xbf4cf1b7	-0.8005633
133	0x3f291deb	0.66061276
134	0xbf0ca963	-0.54945964
135	0xbec3322d	-0.3812422
136	0x3f3c969c	0.7366731
137	0x3d8a694d	0.06758366
138	0x3f1938ff	0.59852594
139	0x3f51b961	0.8192349
140	0x3f1af491	0.6052943
141	0x3f2e4ec0	0.6808891
142	0x3f5a733e	0.85332096
143	0x3f53078c	0.8243339
144	0x3f3865e8	0.72030497
145	0x3e0e31d4	0.13886195
146	0x3f345637	0.70444053
147	0x3f332d2b	0.69990796
148	0x3f1d36f4	0.61411977
149	0x3f5ba03c	0.85791373
150	0x3f2b50ad	0.66919976
151	0x3f4dc719	0.80381924
152	0x3f3d3eb9	0.7392383
153	0x3f49d067	0.7883362
154	0x3f38de6d	0.72214395
155	0x3f24c3a8	0.6436105
156	0x3f37cbbb	0.71795243
157	0x3f37a4f8	0.717361
158	0xbdb93c72	-0.09044732
159	0x3f2a9e37	0.66647667
160	0x3f215214	0.63015866
161	0xbef0a44d	-0.47000352
162	0x3f33c2e9	0.70219284
163	0x3f26781b	0.65027016
164	0x3f2d6eb9	0.67747074
165	0xbe94e7c5	-0.29083076
166	0x3f3f7d75	0.7480081
167	0x3f6c5204	0.92312646
168	0x3f2b617b	0.6694562
169	0x3f3bec6e	0.7340764
170	0x3f2a1734	0.66441655
171	0x3f4d7b21	0.80266005
172	0x3f2fefa0	0.68725014
173	0x3f2f0961	0.68373686
174	0x3f3c35d1	0.7351962
175	0x3a6473bb	0.0008714755
176	0x3e61bcea	0.22044721
177	0x3f6392ac	0.8889568
178	0x3f4bea50	0.7965441
179	0xbf9d116a	-1.2270939
180	0x3f46cc7a	0.77655756
181	0x3f563f44	0.83690286
182	0x3f2a7cc8	0.6659665
183	0xbf01d218	-0.507112
184	0x3f323dc6	0.6962551
185	0x3e050236	0.12989125
186	0x3f561a51	0.83633906
187	0xbda28a3e	-0.07936524
188	0x3f2fc2a5	0.6865638
189	0xbedce888	-0.43146157
190	0x3f273857	0.6532034
191	0x3f4a9192	0.7912837

model.4.bias f4 [3]
0	0xbfa8d8e8	-1.3191195
1	0xbf1f68b4	-0.6226914
2	0x3f8ce24d	1.1006562
