trained_value_function.pt (torch, 20318 bytes, 5 tensors)

model.0.weight f4 [64, 1]
2.444742 4.274737 -0.8062311 -0.15637475 1.5668983 2.7117176 3.922824 4.8157783
2.083521 2.7311366 1.4196925 1.7826675 -2.517714 1.381305 1.5690476 3.4649158
4.8562584 3.4371264 0.14611587 2.0775206 3.408089 4.7476306 2.0334098 4.7882476
2.2103226 3.6487134 4.577456 -0.6625631 0.3891 1.8113058 2.2271264 5.0881042
0.2204633 1.2147934 0.347419 -5.244834 0.5866985 4.497342 4.04023 3.9405746
4.884947 1.6058943 4.4843545 -6.92143 0.23716606 0.8804443 4.475092 3.866152
1.8213639 2.0238874 3.7587714 5.511304 3.7409892 2.7934659 4.1922297 0.5778202
2.790733 0.0042664204 1.1290454 1.1947181 4.863825 4.2909446 1.1915985 4.057358
00000000: a776 1c40 a5ca 8840 2965 4ebf b420 20be
00000010: 2090 c83f c88c 2d40 8c0f 7b40 db1a 9a40
00000020: 6858 0540 f1ca 2e40 7cb8 b53f 732e e43f
00000030: 3a22 21c0 9ace b03f 8dd6 c83f 2ec1 5d40
00000040: 7866 9b40 e1f9 5b40 669f 153e 19f6 0440
00000050: 211e 5a40 97ec 9740 6323 0240 5339 9940
00000060: ed75 0d40 8584 6940 857a 9240 bc9d 29bf
00000070: 1d38 c73e ded8 e73f 3d89 0e40 c0d1 a240
00000080: 22c1 613e 5a7e 9b3f e7e0 b13e aed5 a7c0
00000090: df31 163f 3aea 8f40 9049 8140 6032 7c40
000000a0: 7c51 9c40 f28d cd3f d57f 8f40 5b7c ddc0
000000b0: a9db 723e cc64 613f f433 8f40 096f 7740
000000c0: 7422 e93f 5f87 0140 b68f 7040 9a5c b040
000000d0: 5e6c 6f40 25c8 3240 bf26 8640 06ec 133f
000000e0: 5f9b 3240 54cd 8b3b 8f84 903f 86ec 983f
000000f0: 74a4 9b40 6b4f 8940 4d86 983f e0d5 8140

model.0.bias f4 [64]
0.044399694 0.5826997 2.0716987 1.6486197 0.23988032 0.43065256 0.7985462 0.67694145
-0.07796369 0.33689928 0.61715263 0.410276 3.2755737 -0.73225176 -0.1501882 0.40231183
1.0556103 0.6085801 1.7878019 -1.0911237 0.2897607 0.68033344 -0.5109246 0.67069805
-0.11281292 0.5353608 0.78354996 2.352541 1.4943078 -0.025919886 -0.99200326 0.74356043
1.503089 0.24645476 0.32274446 1.6843498 1.4649892 0.88578814 0.5298525 0.46293068
1.275518 -0.29476905 0.9998926 1.5917599 0.97001356 0.49492303 0.60713774 0.65651673
-0.8021917 0.3622057 0.6647078 0.8498802 0.4329313 -0.083365 0.61554885 0.95702994
0.07071732 1.3342775 -0.26611263 0.43192464 0.9918891 0.75631994 -0.13701335 0.62149704
00000000: 74dc 353d cf2b 153f b696 0440 f805 d33f
00000010: 30a3 753e 7e7e dc3e 866d 4c3f 094c 2d3f
00000020: 6dab 9fbd 107e ac3e b7fd 1d3f b20f d23e
00000030: 00a3 5140 da74 3bbf efca 19be d1fb cd3e
00000040: 3d1e 873f e8cb 1b3f b1d6 e43f f1a9 8bbf
00000050: 845b 943e 552a 2e3f f4cb 02bf deb2 2b3f
00000060: 760a e7bd 680d 093f bb96 483f 0890 1640
00000070: 7a45 bf3f f155 d4bc edf3 7dbf fa59 3e3f
00000080: 3865 c03f a35e 7c3e c33e a53e c698 d73f
00000090: c484 bb3f 03c3 623f 6aa4 073f 4005 ed3e
000000a0: 2c44 a33f f8eb 96be f6f8 7f3f cabe cb3f
000000b0: cf52 783f 8d66 fd3e 616d 1b3f 7b11 283f
000000c0: 6f5c 4dbf 0773 b93e 4a2a 2a3f c091 593f
000000d0: 2ca9 dd3e 45bb aabd 9c94 1d3f eaff 743f
000000e0: 3ed4 903d 9bc9 aa3f ea3f 88be 3a25 dd3e
000000f0: 72ec 7d3f 2f9e 413f 3a4d 0cbe 6e1a 1f3f

model.2.weight f4 [64, 64]
-0.121207416 -0.38817117 0.086812004 0.12500808 -0.06926941 -0.16254316 0.067497626 -0.40775922
-0.029095951 -0.15659654 0.027075784 0.052321225 0.2526907 0.17840225 0.16120827 -0.047140475
-0.29461095 -0.30545935 0.15665539 0.072058134 -0.2500191 -0.48317945 -0.10256809 -0.48460236
-0.058781896 0.008152345 -0.30785745 -0.010977587 0.14364122 -0.09557601 0.039923575 -0.4800917
0.0525585 0.028799 0.0008383181 0.037584268 0.029824222 -0.36018845 -0.26692602 -0.1787298
-0.1613976 0.04187986 0.0050133965 0.09391593 0.21060571 0.11119726 -0.42064068 -0.19330105
0.051935475 -0.1176425 -0.16664624 -0.6208342 -0.17292063 -0.11564171 -0.21376126 0.109675646
-0.06568738 0.14533725 0.06495064 0.022146665 -0.31712916 -0.11977422 0.17960258 -0.08414593
-0.24922833 -0.39268076 0.049567826 0.05795599 -0.054773107 -0.23135127 -0.15032202 -0.51289546
-0.06530318 -0.17971607 -0.093393914 -0.14341839 0.07559684 0.21888365 0.023426026 0.006337503
-0.2740107 -0.3494351 0.10278338 0.08130806 -0.29621375 -0.5233697 0.020926842 -0.47369605
-0.17301717 -0.20872542 -0.37881958 0.034221023 0.08878243 0.124113314 0.14248914 -0.5667424
0.0005650838 0.14610222 0.051650397 0.1175778 0.036100827 -0.48494062 -0.3370687 -0.24784528
-0.13231629 0.19003946 -0.15218823 0.07176227 0.18427594 0.010379653 -0.46976516 -0.3510202
0.14095715 -0.033189233 -0.42182902 -0.81110597 -0.24868095 -0.30390772 -0.32223397 0.004361798
-0.23580906 0.108452104 0.061299905 0.09322234 -0.24633875 -0.35510305 0.04008561 -0.34776407
0.44554132 1.7968737 -2.2331996 -1.8214592 -0.3521867 0.76521176 2.0172038 2.1479528
0.28195584 0.6878382 -0.43779776 -0.029169025 -3.1342854 -0.8167131 -0.39838806 1.4358392
2.7643962 1.1193813 -1.5706155 -0.37804937 1.449796 1.8486743 0.10356273 2.1208334
0.3666526 1.5949618 1.5074872 -2.0456202 -1.290872 0.056952056 -0.18249291 2.3884203
-1.48096 -0.6636661 -1.4894607 -3.813198 -1.0926996 1.4684747 1.9296703 1.718484
3.1962833 -0.43402117 2.6525276 -4.5411096 -1.5297705 -0.9336177 1.8855889 1.3619598
-0.24846411 0.06286981 1.2754322 2.688211 1.7860327 0.9038067 1.4951153 -1.1953266
0.92552865 -1.6759089 -0.85767484 -0.57115895 2.741866 2.2705617 -0.7307724 2.0794203
-0.07866903 -0.49961087 0.9642131 0.74418205 0.19195628 -0.06091523 -0.26653782 -0.6683476
0.046002336 -0.23038945 0.01968055 -0.06508805 1.8561689 0.2881456 0.04025373 -0.20769067
-0.65777284 -0.1816979 0.62598324 0.1486872 -0.3327663 -0.66361356 0.12873402 -0.6255208
-0.10140496 -0.18751657 -0.45941785 0.9777881 0.36004552 0.09203415 -0.021046406 -0.708806
0.4949231 0.25678197 0.64640224 2.8087866 0.3147612 -0.41472235 -0.572093 -0.420219
-0.71559 0.003000304 -0.6463183 3.5218866 0.647984 0.41777125 -0.5072724 -0.4882474
0.01031629 -0.042092424 -0.43551937 -0.86289483 -0.48099792 -0.2165457 -0.59170955 0.3457372
-0.07255992 0.7927037 0.36445183 0.30712652 -0.69215626 -0.5656331 0.29288563 -0.3597889
00000000: 983b f8bd 5fbe c6be 7eca b13d 1e02 003e
00000010: 1fdd 8dbd b771 26be 323c 8a3d d1c5 d0be
00000020: a25a eebc d85a 20be 09ce dd3c c84e 563d
00000030: ad60 813e 14af 363e c813 253e 5f16 41bd
00000040: 3fd7 96be 2b65 9cbe 456a 203e 3793 933d
00000050: 8102 80be 4c63 f7be 380f d2bd cd1d f8be
00000060: 49c5 70bd 6a91 053c 7e9f 9dbe 56db 33bc
00000070: af16 133e 5bbd c3bd e786 233d 94ce f5be
00000080: 9547 573d e1eb eb3c 93c2 5b3a f6f1 193d
00000090: ed51 f43c 9f6a b8be 87aa 88be f204 37be
000000a0: 6a45 25be 378a 2b3d 6b47 a43b ff56 c03d
000000b0: 06a9 573e 64bb e33d 375e d7be b6f0 45be
000000c0: 4bba 543d 8dee f0bd 50a5 2abe fdee 1ebf
000000d0: 1b12 31be 90d5 ecbd 3be4 5abe a09d e03d
000000e0: 1b87 86bd 4ad3 143e d704 853d ec6c b53c
000000f0: c15e a2be 304c f5bd bde9 373e b454 acbd
00000100: b635 7fbe 740d c9be a207 4b3d 4363 6d3d
00000110: c459 60bd 59e7 6cbe 04ee 19be 1e4d 03bf
00000120: acbd 85bd 7d07 38be 4f45 bfbd 45dc 12be
00000130: 84d2 9a3d 0923 603e f0e7 bf3c d4aa cf3b
00000140: 214b 8cbe 28e9 b2be 1880 d23d d784 a63d
00000150: 54a9 97be 8ffb 05bf c56e ab3c 4a88 f2be
00000160: 6a2b 31be 1ebc 55be a4f4 c1be 582b 0c3d
00000170: 90d3 b53d 1f2f fe3d ace8 113e 0816 11bf
00000180: 2222 143a d29b 153e 5e8f 533d a1cc f03d
00000190: 76de 133d 234a f8be 4594 acbe 27cb 7dbe
000001a0: ec7d 07be b499 423e 3bd7 1bbe 19f8 923d
000001b0: d5b2 3c3e 6c0f 2a3c 0f85 f0be ebb8 b3be
000001c0: 1257 103e 6ff1 07bd f9f9 d7be a4a4 4fbf
000001d0: 38a6 7ebe cb99 9bbe dafb a4be 6aed 8e3b
000001e0: ee77 71be 231c de3d 9c15 7b3d 5beb be3d
000001f0: 3a40 7cbe 11d0 b5be cf30 243d 220e b2be
00000200: fe1d e43e f5ff e53f beec 0ec0 9325 e9bf
00000210: d151 b4be ebe4 433f de19 0140 0f78 0940
00000220: 845c 903e 2a16 303f 0727 e0be e1f3 eebc
00000230: 2298 48c0 1c14 51bf 85f9 cbbe 94c9 b73f
00000240: deeb 3040 e347 8f3f ee09 c9bf b08f c1be
00000250: ea92 b93f 5ca1 ec3f b218 d43d bcbb 0740
00000260: e4b9 bb3e b527 cc3f 57f5 c03f 71eb 02c0
00000270: 4b3b a5bf 8f46 693d 6cdf 3abe e1db 1840
00000280: 1990 bdbf 06e6 29bf a6a6 bebf 700b 74c0
00000290: 95dd 8bbf fbf6 bb3f 70ff f63f 49f7 db3f
000002a0: e88f 4c40 0638 debe 03c3 2940 c550 91c0
000002b0: 85cf c3bf 9201 6fbf fa5a f13f b354 ae3f
000002c0: 606d 7ebe e3c1 803d 5d41 a33f a60b 2c40
000002d0: b89c e43f e05f 673f f05f bf3f 7600 99bf
000002e0: 72ef 6c3f 2f84 d6bf 9490 5bbf 7937 12bf
000002f0: bc7a 2f40 e250 1140 e613 3bbf 3915 0540
00000300: 3a1d a1bd ffcc ffbe abd6 763f b782 3e3f
00000310: 3090 443e 4082 79bd a577 88be d418 2bbf
00000320: f26c 3c3d 36eb 6bbe 1b39 a13c e24c 85bd
00000330: f196 ed3f d287 933e 18e1 243d ddac 54be
00000340: cd63 28bf 040f 3abe 7040 203f 7541 183e
00000350: 5860 aabe 94e2 29bf dad2 033e 2222 20bf
00000360: 67ad cfbd 5804 40be d138 ebbe 5250 7a3f
00000370: e357 b83e 677c bc3d 8369 acbc 4f74 35bf
00000380: 9066 fd3e ed78 833e 9e7a 253f 29c3 3340
00000390: 6128 a13e 7d56 d4be b074 12bf f226 d7be
000003a0: e830 37bf c0a0 443b 1e75 25bf 9766 6140
000003b0: 48e2 253f 1de6 d53e 9bdc 01bf 90fb f9be
000003c0: a805 293c 1b69 2cbd 65fc debe ade6 5cbf
000003d0: 5c45 f6be 28be 5dbe 477a 17bf 7704 b13e
000003e0: 4c9a 94bd a1ee 4a3f 6e99 ba3e b03f 9d3e
000003f0: 2731 31bf 55cd 10bf 1bf5 953e 4036 b8be

model.2.bias f4 [64]
-0.12308166 -0.18875027 -0.74412906 0.115435325 -0.29410428 -0.21502796 -0.3028857 -0.33108115
-0.07428483 -0.49992895 -0.33033 -0.29638663 -0.37491858 -0.11346094 -0.20138326 -0.26565394
-0.36359248 0.050085276 -0.21860676 -0.07170775 -0.3084954 -0.14399044 -0.26788735 -0.6437467
-0.17925018 -0.08364004 -0.1589092 -0.3123147 -0.3460062 -0.35438508 -0.22326134 -0.024435975
-0.08728148 -1.0507896 -0.24996199 -0.1089298 -0.32150424 -0.15244244 -0.02471726 -0.12455835
-0.27105305 -0.15737207 -1.0108006 -0.76757634 -0.14909497 -0.1797751 -0.78743505 -0.9148351
-0.21852718 -0.63930684 -0.28353897 -0.16538432 -0.40143842 -0.31249663 -0.6521926 -0.21276042
-0.2826682 -0.14790504 -0.30506226 -0.17701805 -0.1320019 -0.19946465 -0.16998301 -0.2582269
00000000: 3d12 fcbd c047 41be 3e7f 3ebf 5b69 ec3d
00000010: d694 96be 4a30 5cbe d613 9bbe 7883 a9be
00000020: a522 98bd b0f6 ffbe 0421 a9be fdbf 97be
00000030: 54f5 bfbe 365e e8bd 6a37 4ebe cb03 88be
00000040: cb28 babe 3826 4d3d 73da 5fbe 83db 92bd
00000050: 1cf3 9dbe 3b72 13be 8828 89be 95cc 24bf
00000060: 5c8d 37be 784b abbd 18b9 22be b6e7 9fbe
00000070: ba27 b1be f671 b5be 9f9e 64be f42d c8bc
00000080: a2c0 b2bd 4680 86bf 09f6 7fbe 9616 dfbd
00000090: 349c a4be df19 1cbe da7b cabc 7318 ffbd
000000a0: 77c7 8abe 2526 21be ea61 81bf e27f 44bf
000000b0: 5aac 18be f716 38be 5895 49bf a232 6abf
000000c0: 97c5 5fbe 9da9 23bf 052c 91be 825a 29be
000000d0: 5689 cdbe 8fff 9fbe 18f6 26bf dedd 59be
000000e0: e3b9 90be 6b74 17be 1f31 9cbe 3844 35be
000000f0: 822b 07be 7640 4cbe 0710 2ebe 5136 84be

model.4.weight f4 [1, 64]
-0.116089344 -0.123045705 1.9206519 -0.6627799 -0.07607659 -0.022784868 -0.07600083 -0.19633092
-0.12506367 1.8961241 5.2939686e-05 -0.06552316 -0.13035715 -0.11916224 -0.030772047 -0.048502073
-0.22566462 -0.68309104 -0.07972893 -0.031526275 1.9247292 -0.10774013 -0.08482369 1.8971562
-0.0912452 -0.009988414 0.009097328 -0.024293302 -0.09577 -0.025758443 -0.092514776 1.9666048
-0.041068055 1.9617997 -0.119489186 -0.05197685 -0.0029443926 1.9592769 1.9397249 -0.11035226
-0.067611516 -0.09566755 1.9456984 1.8964169 -0.09854057 -0.03426872 1.9014747 1.9445773
-0.09393119 1.8974966 -0.045777865 -0.3096627 -0.22732553 0.030755024 1.9229968 -0.09774598
-0.09481253 -0.09049956 0.0051170625 -0.11171995 -0.022432785 -0.061240662 -0.020162331 -0.12646833
00000000: 40c0 edbd 63ff fbbd ecd7 f53f f2ab 29bf
00000010: 0bce 9bbd 55a7 babc 53a6 9bbd f90a 49be
00000020: b110 00be 32b4 f23f 8e0b 5e38 0231 86bd
00000030: 587c 05be 550b f4bd a915 fcbc 1caa 46bd
00000040: a014 67be 0edf 2ebf ec48 a3bd b221 01bd
00000050: 875d f63f dba6 dcbd 0bb8 adbd 04d6 f23f
00000060: c3de babd 72a6 23bc f60c 153c bf02 c7bc
00000070: 1023 c4bd 5f03 d3bc 6378 bdbd b5b9 fb3f
00000080: fa36 28bd 411c fb3f bfb6 f4bd ade5 54bd
00000090: b6f6 40bb 96c9 fa3f e848 f83f 5e00 e2bd
000000a0: e877 8abd 59ed c3bd a50c f93f cabd f23f
000000b0: a3cf c9bd 5b5d 0cbd 8663 f33f e9e7 f83f
000000c0: ff5e c0bd 2be1 f23f 9281 3bbd 1c8c 9ebe
000000d0: 06c8 68be f6f1 fb3c c224 f63f 0b2f c8bd
000000e0: 122d c2bd d557 b9bd 08ad a73b 6ecd e4bd
000000f0: f6c4 b7bc 7dd7 7abd 792b a5bc ea80 01be
