trained_sup_function.pt (torch, 58025 bytes, 12 tensors)

trunk.0.weight f4 [64, 4]
00000000: 048f 333e 2235 df3e fb3b d6be 75d7 34bd
00000010: 35ed dbbe 3d52 a43f 7996 8a3d 3098 123d
00000020: 8618 5fbe 5f4d 5f3f 7ceb 65be 825a e53e
00000030: 5e11 b53e 9040 68bf 9c16 5cbc 731e ec3e
00000040: fdae 093f cfb3 e13e 527d b9be b2bf 9c3e
00000050: d492 eabe 3664 12bf fcee 8e3e 567a b03e
00000060: 5d48 9b3d 605d 27bf 8c46 c53e 9fd7 8cbe
00000070: 2966 6fbe c592 283f 03b8 a33d d39f 9ebe
00000080: 952e 85be b4b2 46bf 984a 6d3e 165a b7be
00000090: 5fd1 be3e cdf2 a7bf 52c0 b23d af45 d8be
000000a0: 4743 4d3e ebb7 eebe 5373 1c3e 4bfe 613c
000000b0: 92a7 d23e 0b17 ffbe 27ac a83e 94aa 943d
000000c0: 66e9 24bf 660d 82bf 5f09 95be e475 deba
000000d0: f09e 1bbe 9da8 13bf 00bf 43bd 665a 8d3e
000000e0: 1191 143f 0ab6 4a3f 35e0 e3be 37dc 073e
000000f0: 2c12 2bbe b7a2 6dbf d1f0 b0be 4eb2 0e3e
00000100: f834 febe 3460 95bf 42c6 d0be 3ac5 683e
00000110: ed36 1a3e 16b7 993f a713 1abd f936 183d
00000120: e75e 413e bd96 123d 82d4 9ebe 618c 3fbe
00000130: cc11 b43e 0f05 8c3f da0a af3e 2c18 6bbe
00000140: 356f e2be 0349 8bbf dc4d d1be e334 053f
00000150: eb04 cc3e 2641 903f b294 ddbc eb45 a93e
00000160: 750f 4bbc 4078 48bf 8114 903e ddb1 a8bd
00000170: ed3e 5fbe 4114 87bf 0744 d53e 84ec 013e
00000180: a2de d3be 8cf0 a1bf c90b 283e cd8c 62bd
00000190: 8e8c 193f 49f9 833f 974c 1abe df33 913e
000001a0: 6244 e6be ce83 55bf c58c a8be 5147 2b3e
000001b0: 75ab 273c 0594 ab3e 0e9c aebe caa0 883e
000001c0: 5cfa 133f d631 6e3f 6d11 19bd aef8 d43d
000001d0: dca1 d5be 416b 5bbf 54ee bebe a32e fe3d
000001e0: b8b5 c6be 442f 59bf c5fe 6d3e aedc e03e
000001f0: 5393 a3bd 76d0 0d3f c457 0e3e b513 bbbe
00000200: 46c1 a3be 4065 9a3f a93e 34be 4bf9 b5be
00000210: b4c0 dc3e 4628 6c3f 1445 3a3e 8714 ec3d
00000220: 5df4 d73e 3049 7d3f e8d3 9cbe 09f6 e03e
00000230: f053 243e a2f6 443f d947 36be 6839 2f3e
00000240: 8823 e83e 74e9 783f 8c41 8abe d151 3f3e
00000250: 0ce5 80be b85a 5b3f 67b8 f13d 7417 d1be
00000260: b0b8 d63c 3a71 193f 8cc0 d5be 4b50 0b3e
00000270: 38dd bc3e dfc9 8b3e 1494 af3d f181 8a3e
00000280: 3038 7bbe c006 63bf ebfd 343e ebb0 763e
00000290: b817 303d 66ba e43e aac7 11bc 02f2 41be
000002a0: f88c e1be 35be 6bbf ab66 8abe 9f0e 41be
000002b0: 375b a8be 6b8e 86bf 0d08 8cbe ebb8 eb3e
000002c0: 8437 0b3f 4ed1 983f 8675 6d3e b7d6 4bbd
000002d0: d47b 18bf b49e bebe 5982 9ebe 0611 9a3d
000002e0: e1d7 91bc ab6b 9abf cd5c 903d d827 6bbe
000002f0: e32b 53be 3bf4 e8be d54a 7f3e d094 1c3e
00000300: 903a cfbe ca9f e2be 39e9 c8bd 905d 623e
00000310: 7ae7 f53e ad4d 2f3f 353b 84be 7b60 373e
00000320: 1573 9cbe bb3d b83d 9c2b 0dbe a952 663e
00000330: ffaa 993e fa56 9cbf 160d 67bd 95b5 75be
00000340: 23e2 923e d93a e3be ebb1 0f3e 8eea c33e
00000350: e4fe 493e fc64 db3e a823 00be fd00 79be
00000360: c913 fa3d 0196 99bf 56c9 5fbc 09c2 3abe
00000370: 8301 b5bd f9db 9d3f 9947 c53e 6812 c0be
00000380: 168a 8b3d 6f27 3cbf 31eb fb3e e6d3 c83e
00000390: 9ba7 533d 2b9b 923f a161 013d 2e45 903e
000003a0: a2d8 263d add9 44bf aabe 023f 3969 8e3e
000003b0: efd6 c4be b145 903f edff 26be f302 623e
000003c0: f525 c8be 1108 91bf 4b0b e0be ff81 56bd
000003d0: e9b5 573e fa43 653f 1ced 26be cdb2 ce3e
000003e0: 3e72 4c3e 8779 993f 0fb5 7fbe e108 393e
000003f0: 38e1 17bf a285 81bf ec7d b3be ebeb 683e
0.17535025 0.43595225 -0.41842636 -0.04415079 -0.42954412 1.2837597 0.06766982 0.03578967
-0.21786699 0.87227434 -0.22453111 0.44795614 0.35364813 -0.90723515 -0.013433125 0.4611698
0.53782636 0.44082496 -0.36228424 0.30615002 -0.45815146 -0.5718416 0.27916706 0.34468335
0.075821616 -0.65376854 0.38530385 -0.27508256 -0.23378815 0.6584895 0.07994082 -0.3098131
-0.26012102 -0.7761643 0.23172987 -0.35810918 0.37269112 -1.3120972 0.087280884 -0.42240664
0.20045196 -0.46624693 0.15278368 0.013793538 0.4114347 -0.49822268 0.32943842 0.07259098
-0.6441864 -1.0160339 -0.29108712 -0.001697239 -0.15197349 -0.5767916 -0.047789574 0.2760803
0.58033854 0.7918402 -0.44506994 0.13267599 -0.16706151 -0.9282641 -0.34558728 0.13935205
-0.49649787 -1.1669984 -0.4077626 0.22731486 0.15060015 1.2008998 -0.0376164 0.0371618
0.18883859 0.035788286 -0.31021506 -0.18705894 0.35169828 1.0939044 0.34187967 -0.2295844
-0.4422547 -1.0881656 -0.40879714 0.52033824 0.39847502 1.1269882 -0.027048443 0.33061156
-0.012393822 -0.78308487 0.28140643 -0.0823705 -0.21801348 -1.0553056 0.41653463 0.1268788
-0.41380793 -1.2651534 0.16410746 -0.05531006 0.59980094 1.0310451 -0.15068279 0.28359887
-0.44974047 -0.83404243 -0.329199 0.16726424 0.01023375 0.33511367 -0.34103435 0.26685172
0.57803893 0.93044794 -0.037370134 0.103989944 -0.4172505 -0.8571053 -0.37291205 0.12411239
-0.38810515 -0.84837747 0.23241718 0.43918365 -0.07987084 0.5539621 0.13900667 -0.36538473
-0.31983393 1.2062149 -0.17602028 -0.35541758 0.4311577 0.9224895 0.18190414 0.11527353
0.42178622 0.989398 -0.30630422 0.4393771 0.16047645 0.7693883 -0.17800845 0.17111742
0.45339608 0.9723122 -0.27003133 0.18683554 -0.2517475 0.856853 0.1180275 -0.40838206
0.026211113 0.59938395 -0.41748464 0.13604848 0.36887527 0.27302453 0.085731655 0.27052262
-0.24533153 -0.88682175 0.17674987 0.24090926 0.04299137 0.4467346 -0.008897701 -0.18939975
-0.44052863 -0.9208711 -0.27031454 -0.18853234 -0.3288209 -1.0512213 -0.27349892 0.4603952
0.54381585 1.1938875 0.23189363 -0.049765315 -0.59563947 -0.37230456 -0.30958822 0.07522778
-0.017803134 -1.2064108 0.0704895 -0.22964418 -0.2062221 -0.45498833 0.2493089 0.15291142
-0.40474367 -0.44262534 -0.09810109 0.22106004 0.48028165 0.684779 -0.2582642 0.17907898
-0.3055655 0.08996149 -0.13786167 0.2249247 0.30013272 -1.2214043 -0.056408964 -0.2399505
0.28688154 -0.44380835 0.14032714 0.3826489 0.1972614 0.42850482 -0.12513602 -0.24316783
0.12210805 -1.1998903 -0.013658842 -0.18238081 -0.08838179 1.2332755 0.38531187 -0.37514043
0.06813447 -0.7349767 0.49202874 0.39224166 0.051673513 1.1453604 0.031587247 0.2817778
0.04073394 -0.76894647 0.5107218 0.27814654 -0.3844523 1.1271268 -0.16308565 0.22071438
-0.3909146 -1.1330587 -0.43758616 -0.052370068 0.21065487 0.8955685 -0.16301388 0.4037079
0.19965455 1.1990212 -0.24971412 0.18069793 -0.5932803 -1.0118906 -0.35057008 0.22746246

trunk.0.bias f4 [64]
00000000: 987a 56bc d74a 1abb 0b90 03bb e3e2 d63d
00000010: d7bb 41bd 87b5 9a3b 9e68 e83c 7c43 70bd
00000020: 365f 1d3d 4d5b 873d 4c28 1dbc 8838 99bb
00000030: d96e 323d 186a 0a3d 3349 bfbc fcfa 333d
00000040: 1b3d c53c beba 5ebd fd4a 0dbc 46d0 15bd
00000050: 6785 a83c cffb a7bd ac3c 823c f4c8 9ebc
00000060: a8a1 7b3d 0f69 6dbd 9eda bb3b e703 b5bd
00000070: d758 e4bc 16c9 6c3d 6620 083d 3e48 843c
00000080: 1689 22bc 39c5 a4bc 9298 63bd fe6a e23c
00000090: a82c e1bc 201d cabc 153c 82bd 6842 ebba
000000a0: 8bac 733c 9b28 debb fffd 363d cb8e 743c
000000b0: 14a0 a2bc 9198 1a3a 8e90 3a3d 75a3 c83b
000000c0: 3cc2 263c 24bf 3abc fe61 9cbc 7e0f 1f3d
000000d0: 498a 1b3b a801 0ebd cfbe 2d3d a447 a4bb
000000e0: b03d df3c 4f82 0cbd 7e42 463c 76fa 2abd
000000f0: 7f42 6a3d f479 33bd ae4b 31bd dd42 013d
-0.013090752 -0.0023543143 -0.002007487 0.10492494 -0.04729828 0.004721347 0.028370198 -0.058658108
0.03842088 0.06609211 -0.009592127 -0.0046759285 0.043562744 0.033792585 -0.023350334 0.04394053
0.024076989 -0.05437731 -0.008623836 -0.03657558 0.020571424 -0.082023256 0.015898071 -0.019382931
0.061433464 -0.05796152 0.0057328483 -0.08838635 -0.027874393 0.057808958 0.033234023 0.016147729
-0.009920379 -0.020113574 -0.055565424 0.027638908 -0.027487114 -0.024672091 -0.06359116 -0.0017948868
0.01487268 -0.006779743 0.044675823 0.014926623 -0.019851722 0.0005897368 0.045548014 0.006123001
0.010178145 -0.011398111 -0.019089695 0.038833134 0.0023733547 -0.03466955 0.042418297 -0.005013423
0.027251095 -0.03430396 0.012100814 -0.041742764 0.057192322 -0.043817475 -0.043285064 0.031557906

trunk.2.weight f4 [64, 64]
00000000: 136f a4bd 2807 da3e 079b bdbe e8ae 83be
00000010: 8d05 803d 69f0 aebd 4e2d 6f3e 2272 2a3d
00000020: ef4d 943e d13e bdbc 5a12 653e 7418 b6be
00000030: 98a8 a13e 24b5 17be 72c9 0b3d 6c0e 893d
00000040: a5ef d3be 1faf 983d 9b05 d13d a222 06be
00000050: 519b 2c3e 6575 053e 114d 15bd 9542 b23c
00000060: 638b 0bbf dd0a 4abe f44b 8cbd cb6a 71be
00000070: 27e3 83be 82b9 9cbe c52a 013e 5a97 84be
00000080: f78f d13e 1e2b fd3d 61c7 a9be bdab a8be
00000090: 51b3 46be 792e 683e 3f4c 15be 1672 3c3e
000000a0: 8600 6dbe 2249 85bd 5d1f 50bc 0509 8c3e
000000b0: a218 f4bd 4903 a23e 1127 44be db9b b03d
000000c0: 73f8 7d3e 17e2 d33e 31d5 343d 3822 89be
000000d0: e573 90be 1b01 9c3e df2a 35bd 166a c4bd
000000e0: 083e 90be 72dd a5be 4fb8 c1bd c1d3 81be
000000f0: 271c 9d3e 5e80 503d 86de 843d 3712 df3d
00000100: 5d90 fbbd 5792 a93e 2eec 70be 2d2c 3e3e
00000110: 494a c0bd d60a bc3e 1846 27bd d024 c6bc
00000120: c273 0a3e f11f 993d d607 babe b8de 583c
00000130: ae2a 303e 645a 08be beef 35bd 5729 8a3e
00000140: e889 b93d 6659 a73d cc2f 8dbd 7a87 043e
00000150: 2f4d 613e 3909 0bbc f7c6 a1bd 28a8 34be
00000160: 7a23 073f f9ed abbe f812 0b3e bced bdbd
00000170: 5d17 9e3d c7b2 6abe 37a1 9cbe 020a 98be
00000180: a64a bc3d 0740 f73d f1d7 a23d 0124 55be
00000190: 2af5 83be 39f7 75bd 26b4 e3bd ce22 43be
000001a0: 4d87 aa3d 65cd aabe 69d4 783e 7abb 9a3e
000001b0: b45f aebd 59c0 f9bd 2769 083e c5a4 083e
000001c0: 3ea3 b73e 5d61 b8be e58c 3bbe 0fb1 e1bd
000001d0: 2a38 6dbe d1be 5dbe 6a2c c7bd 0201 a83e
000001e0: 36f1 0d3e 7851 92be dc7e 28be 7feb 8fbd
000001f0: 4db4 82be be45 27be 3426 e6bc 623b a13d
00000200: 8acf 993e 6e28 97be aa18 2f3d 128e fa3d
00000210: 1c69 f8bd 6357 983e 345f 533e c90a 713d
00000220: 1535 4b3e 0aba 923e 504c a0be a538 b6bd
00000230: c70d 15be 82b2 cf3c 6305 11be 3774 07be
00000240: 26f6 843e 7613 87be 7ba1 eebd e5e6 903e
00000250: e2a6 753e 901d ffbc 8e9a bd3b e5d0 29be
00000260: 07fd 873e 4d05 403e 5338 8c3e f4f1 d83d
00000270: e811 b9be 752c 9ebd a0a4 113d ed85 563e
00000280: 96a5 0cbe cd8e 93be f1b2 19be 3b84 dcbd
00000290: 2652 f5be 5067 ebbc e078 b13d 59b6 72bd
000002a0: 5e4d 9a3e ef49 ad3e 6469 89bc 8e9d 923c
000002b0: 7284 2cbe 53ec 3d3e 54c1 a63e 3387 813e
000002c0: 62db 943e 9c47 653e 6428 723e 35ed acbe
000002d0: ff81 693d 5699 d83d a676 763e def7 5cbe
000002e0: 49b5 95be 24cb a33e 45be b13e 341f 8a3e
000002f0: 03e5 a5be 1cce 57be 9029 79bd 9c5d 4abe
00000300: 5704 fe3d b6f5 0f3e 6e9a abbd 33d7 3c3e
00000310: 5006 433e d474 b5be 6aae 30be 0e12 a33e
00000320: 794c a8be 0cb5 1bbe 643c 06be 02c4 2abd
00000330: d750 1abe 603f 81be ffd5 be3e 1e05 e3ba
00000340: 1463 5c3e 08a7 9f3e 3a37 c7bd a2de 543e
00000350: 2ae3 debe 0661 883b fd9c b33d aa23 10be
00000360: 9fdd 92be 9f3a 8f3e 28d3 963e 12d9 95be
00000370: 060b a0be 4d16 c1be c47c e8bc 99d3 bfbd
00000380: 1aef 803e db05 27be dd00 943e e03e 2fbe
00000390: 84bf 443e 9e8d 84be fe02 81b9 868d 9d3e
000003a0: 17d9 cf3d 3671 a7be 078c 4fbe 40bd 313e
000003b0: 8a54 173d 92c1 d33d 9065 313e 3921 b3be
000003c0: e0ce 99be 6c3c 913e 3113 563e e6b2 40be
000003d0: d27a bf3c 8860 40be 0256 1ebe 5bdc bb3e
000003e0: 33b3 61be e0f1 5c3c a5c5 c83d f82e 1bbe
000003f0: f969 ba3c 8da5 b0bd 5c2a d53e 3a69 0a3d
-0.08028998 0.42583585 -0.3703234 -0.2571938 0.06251059 -0.08541948 0.23357126 0.04161275
0.2896571 -0.023101242 0.22370282 -0.3556553 0.3157394 -0.14815193 0.03412766 0.06692204
-0.41393772 0.07455277 0.10206147 -0.13099149 0.16856124 0.13033064 -0.03645045 0.021760264
-0.5450956 -0.19730707 -0.068504244 -0.23575895 -0.2575924 -0.3061028 0.12613972 -0.25896722
0.4093015 0.123617396 -0.33159927 -0.32943526 -0.19404341 0.22673978 -0.14579867 0.18402895
-0.23144731 -0.065080896 -0.01270279 0.2735063 -0.11918761 0.3164313 -0.19155528 0.08623477
0.24801807 0.4138343 0.044148628 -0.2678392 -0.2821342 0.30469593 -0.04423034 -0.09590547
-0.28172326 -0.32395512 -0.09458982 -0.25356868 0.3068554 0.05090367 0.064877555 0.10892146
-0.122833945 0.3311946 -0.23527595 0.18571539 -0.09389169 0.36727017 -0.04083833 -0.024187475
0.1352072 0.074767955 -0.36334103 0.013236694 0.17203781 -0.13315731 -0.04441809 0.26984665
0.09059507 0.08171348 -0.06893882 0.12942305 0.220021 -0.008486086 -0.07899278 -0.17642272
0.5278851 -0.33579996 0.13581455 -0.0927386 0.077193 -0.2291976 -0.30591747 -0.29695135
0.091939256 0.12072759 0.07951344 -0.20814516 -0.25772983 -0.060050223 -0.11118345 -0.19056246
0.08326588 -0.3335983 0.24299778 0.30221158 -0.08514348 -0.121948905 0.13321362 0.13344105
0.3586673 -0.36011782 -0.18315466 -0.11020099 -0.23165956 -0.21654822 -0.09725268 0.3281327
0.13861546 -0.2857778 -0.16454643 -0.07027339 -0.25528184 -0.16335198 -0.028094389 0.078726545
0.30041152 -0.29523033 0.04274813 0.12234129 -0.12129423 0.2975417 0.20641786 0.058848176
0.19844468 0.28657562 -0.31308222 -0.08897523 -0.14556037 0.025353674 -0.14162211 -0.13227926
0.25969046 -0.26382035 -0.11651894 0.2830116 0.23989442 -0.031142026 0.0057862466 -0.16583593
0.26560232 0.18752022 0.27386722 0.10593024 -0.36146474 -0.07723323 0.03555739 0.20949526
-0.13735041 -0.28819886 -0.15009667 -0.107674085 -0.47914237 -0.028735787 0.08665633 -0.05925593
0.3013715 0.3384547 -0.016773887 0.017897394 -0.16847399 0.18547182 0.32569373 0.2529846
0.29073626 0.22390598 0.2364822 -0.33774725 0.05700874 0.105761215 0.24068698 -0.21578929
-0.29239872 0.31990921 0.34715477 0.2697693 -0.32401285 -0.21074718 -0.060830653 -0.19762272
0.124031715 0.14058575 -0.083790645 0.18441467 0.19045377 -0.35440695 -0.17254034 0.31849712
-0.32870844 -0.15205783 -0.13108975 -0.041690834 -0.150699 -0.25243664 0.3727264 -0.0017320251
0.2152217 0.31182122 -0.097273305 0.20788053 -0.43532687 0.0041619567 0.087701775 -0.14076105
-0.28684708 0.27974412 0.29457974 -0.29267174 -0.3125841 -0.37712327 -0.028379805 -0.09366531
0.2518242 -0.16310827 0.2890691 -0.17113829 0.19213682 -0.25889295 -0.00024607027 0.30772036
0.101488285 -0.3270356 -0.2026826 0.1735735 0.036945857 0.10339655 0.173239 -0.34986284
-0.30040646 0.2836641 0.20905758 -0.18818244 0.023373995 -0.18786824 -0.15462497 0.36691555
-0.22041015 0.013485402 0.09803323 -0.15154636 0.02275561 -0.08625326 0.4163388 0.033791758

trunk.2.bias f4 [64]
00000000: 3f5a d3bc 4315 9cbb c6ab 3b3d 5a0d b7bc
00000010: be46 77bb 7e28 29bd 2235 b8bc da6c 273c
00000020: cdc6 03be 4ae7 9f3c 58a5 803c 422a d53c
00000030: 886b 2bbd ef23 a7bd 956e 7a3c 6f74 18bc
00000040: 4548 e5bc e87d 033c 09e6 073d cd52 b7bb
00000050: ff09 163d 70a0 143d 02fa 7abc cf92 4abc
00000060: a82f 3a3c 079c 653d 44b5 033d 60f1 99bc
00000070: 4a88 58bd 318a c23c 63ed 0abd 96b7 30bc
00000080: c0c3 a7bc 3928 de3c b227 493d 56bc 183d
00000090: e18b ce3c d259 78bd d5a1 473d ba13 0e3d
000000a0: 5e69 b13c a859 88bd 95eb 24be 39fd 0d3d
000000b0: 49d0 eebc 497f aebc 34f9 683d cfe3 a5bc
000000c0: 603e 06bc 3b0b b23c 9c34 f7bb ed10 2ebd
000000d0: a0e0 93bd 4bce 14bc d6cc 013b 0b13 fabc
000000e0: 9cc8 c93d 4411 8d3d 6abb 923b 3ad9 5abd
000000f0: 6185 1ebd 5e08 debd 83b4 4e3c cb65 0e3d
-0.025799869 -0.004763277 0.045818113 -0.022345234 -0.0037731375 -0.041298382 -0.022486273 0.010218823
-0.12868805 0.019519467 0.015703842 0.026021127 -0.041850597 -0.08161151 0.015285154 -0.009305104
-0.027988562 0.008025624 0.033178363 -0.0055945874 0.036630627 0.036285818 -0.015318396 -0.012364103
0.011363901 0.056057002 0.03215529 -0.018791854 -0.05286435 0.023747535 -0.033917796 -0.010785958
-0.020479083 0.027118789 0.049110122 0.037288986 0.025213184 -0.060632534 0.04873832 0.03468678
0.021656688 -0.066577256 -0.16105492 0.03466532 -0.029152052 -0.021300929 0.056878284 -0.02025023
-0.008193582 0.02173387 -0.0075441133 -0.04249661 -0.07220578 -0.009082387 0.001980593 -0.030526659
0.09852716 0.06888059 0.004477908 -0.05342982 -0.03870142 -0.1084144 0.01261628 0.034765046

value_adapter.0.weight f4 [64, 64]
00000000: 03f1 663d 86a6 96be c9d0 bfbe d886 f23e
00000010: 56be 9f3b 464d 9a3e 51a2 95be 865a 12bd
00000020: 1fdc d1be b867 edbd 6807 2bbd 173f a5be
00000030: 5803 bcbe abb1 67be 3d04 793d 6f39 b1be
00000040: 290c 1bbe e782 2bbe b628 78be e7b6 ccbd
00000050: 0aaa b0be 031e 973e 9154 47be 72f6 4a3e
00000060: 58e4 c2be a570 643d 760d bb3c 369c 893e
00000070: fcab c0be 8315 20be 2e66 a63d 8ff1 a2be
00000080: 508f 3f3e 4fe7 b7bd bac6 45bc 6dca 34be
00000090: f5c6 a83e 716c a43e fdff a93d 8200 643e
000000a0: 8523 8e3e d493 a73e cea8 233d 16b7 403e
000000b0: 546c 66bd 1db6 913e 67b9 93be 9492 a23e
000000c0: 75e4 24bd 3e89 f7bd 845c 5bbe a843 2c3d
000000d0: 737a d4ba 66ae a9bd 43f6 19be de8f 863e
000000e0: d239 0bbe 5b14 eb3d 147d 96bd 1dad 743e
000000f0: 2124 f3be bb04 24bd a650 6dbe 73fd cdbe
00000100: 2a8c b1bc 430d 153e d8a1 b7be 7216 8a3a
00000110: cd17 e33c bb2e d23e 572e b03e 361d 9839
00000120: 0613 c1be 914b 85be 8191 a83e 3fe5 ecbe
00000130: a664 90be 99e7 80be 0f2e 4abe 30d6 94bb
00000140: 398e dbbd 3383 b4be 5e22 eabe 06f0 0b3e
00000150: 7a3b 533e ba8d dc3d 3b50 ae3e adc0 24be
00000160: 6356 4bbe 9b51 d93d 5768 443e 79da 7dbd
00000170: 971d 013d 3b88 06be cd3e 80bc 8fad 223e
00000180: 803c 44be aeb1 f5bd 39f6 2b3e bf43 babe
00000190: f61a 1e3e 0d2d fe3d 964c 92be c5e5 933e
000001a0: 626c 853d 4212 ed3e 162b ddba 7973 583d
000001b0: c882 37bd e910 49bd dde0 c3be 501b b43e
000001c0: 6423 9dbe b05e 073d 427a 25be dde2 43be
000001d0: d2fe ca3e 43fd 40be b819 b7bd 81f4 90be
000001e0: beaf 24bc 5857 db3d e39c 94be ecb7 8dbb
000001f0: 175f df3b 90d3 003d 702f d53d d7c3 0d3e
00000200: e62a d1bd 4a6d babe f4c8 f5bd 5f6a b6bc
00000210: 1dd6 abbd affa 943e ab06 eabc c710 9fbe
00000220: e9db 8fbe 6276 203e 9a0a 3fbd 094a b6bd
00000230: 3bec 20be 2ba7 93be 9902 483e efe8 703e
00000240: 1036 55be d1cd 843c 1456 2fbd 8e23 5cbe
00000250: 6381 08be 7baf 69bd 3df9 b33e c210 0c3d
00000260: 0c12 d6be f2bd 12bd 006b 0bbe b18f 82bd
00000270: b306 8dbe e46b af3d 34ef ab3c f11c 37be
00000280: 17a3 6f3d 724a c3be 31b6 93be 0010 973d
00000290: f18e 423e 1c28 af3e f845 bfbc 30ed 973e
000002a0: b082 9a3e 636d c23e 9999 23bd 0eb9 4abe
000002b0: aa0d 2e3e 75b1 993e af41 8f3e aff5 e13e
000002c0: 835b 3c3e a72b 2e3e 96aa 8dbd ab57 a8bd
000002d0: 59cc f63e 2e6f 89be 8df9 833e b375 3e3c
000002e0: fd0a 59be 8b9e 3cbe 8ee5 c6bd 20a4 aabc
000002f0: 5c29 033e b586 cdbd 89a3 9c3b 4808 2c3d
00000300: 5eb6 f03d d495 d7be 08d8 82be 669a b4bd
00000310: 20dc 18bd 7e9f bb3e 940b b43d a1bb 08be
00000320: c137 153e 3b82 9cbe eb57 cb3e 287a 683e
00000330: 6af4 bcbe 64b1 b13c 21f6 543e 5fc1 92be
00000340: b82b 46be ce8f 683e 73d9 d93d 6369 d5be
00000350: 6aa3 923d d6d2 6cbe d996 d53d 7027 9ebe
00000360: 697d bcbe 7ec2 553d 2ede 54be 7445 86be
00000370: 1dfc e23d c10c 813e 185b 32be 3a35 8a3e
00000380: 8cf9 f53e 7b68 46be 4115 b83c d485 24be
00000390: 9435 3a3e a0f2 973d ce4a 39bd a6aa ca3e
000003a0: 6d18 0fbe bfa4 5fbc ddbd da3e e861 573e
000003b0: 3e2d bfbe df0e e43e 6df2 f2bd 0c01 6d3e
000003c0: 0255 86bc 0385 c83d 69b3 9dbe b2ad ec3d
000003d0: afb2 e9bd 81e5 1fbe 3345 983e 267f 9d3e
000003e0: 5d92 93be 5645 6b3e ac96 58be e02e bd3e
000003f0: c1df 173e 266a 8ebc e57c 7c3e 59d4 d73c
0.05638219 -0.29423922 -0.37463978 0.47368503 0.0048749847 0.3013708 -0.292254 -0.03573086
-0.40988252 -0.115920484 -0.04175511 -0.32274696 -0.367213 -0.22626369 0.060795058 -0.3461413
-0.15141357 -0.16749154 -0.2423428 -0.09995823 -0.3450473 0.29515085 -0.19465853 0.19820574
-0.38064837 0.05577149 0.022833567 0.26876992 -0.37631214 -0.15633206 0.08124958 -0.3182492
0.18707013 -0.089796655 -0.012071306 -0.17655344 0.32964292 0.32113984 0.08300779 0.22265819
0.27761474 0.3272997 0.039955907 0.18819842 -0.056255654 0.28459254 -0.28852388 0.31752455
-0.040256936 -0.12086724 -0.2142201 0.04205671 -0.0016210809 -0.08285217 -0.15035348 0.26281637
-0.13596275 0.11478492 -0.073480755 0.23894162 -0.47488502 -0.040043574 -0.23175296 -0.4023243
-0.02167328 0.1455584 -0.35865664 0.0010535254 0.02772131 0.41051278 0.34410354 0.00029013463
-0.37709826 -0.26034215 0.3292351 -0.4626865 -0.2820179 -0.25176695 -0.19744132 -0.0045421347
-0.10720486 -0.35256347 -0.45729345 0.1366578 0.20628157 0.1076922 0.34045586 -0.16089125
-0.19857173 0.10611268 0.19180427 -0.06197593 0.03152236 -0.13137905 -0.015654946 0.1588652
-0.19163704 -0.1199678 0.16793145 -0.3637981 0.15439972 0.124109365 -0.28574055 0.28886238
0.06514813 0.46302992 -0.0016873803 0.0528445 -0.044802457 -0.049088392 -0.38257495 0.35177088
-0.30691063 0.033049285 -0.16159919 -0.1912951 0.39647537 -0.18846612 -0.08940452 -0.28311542
-0.010051666 0.10710019 -0.29025945 -0.0043249037 0.0068167555 0.03145176 0.104094386 0.13844238
-0.1021326 -0.36411506 -0.120012194 -0.022267519 -0.08390448 0.29097506 -0.028567633 -0.31067488
-0.28097466 0.1567016 -0.04664097 -0.0890084 -0.15715115 -0.28838477 0.19532241 0.23526357
-0.20821404 0.016211422 -0.0428067 -0.21497938 -0.13330607 -0.057052117 0.3515109 0.03419567
-0.41810644 -0.035825677 -0.13615036 -0.06375063 -0.27544174 0.085655004 0.020988084 -0.17882134
0.058505144 -0.38142735 -0.2884994 0.07376099 0.1899984 0.3421029 -0.023348793 0.29673147
0.30177832 0.3797408 -0.039941404 -0.19797155 0.169974 0.300182 0.279798 0.44132754
0.18394284 0.1700884 -0.06917302 -0.08219846 0.4820278 -0.26842636 0.2577633 0.011624741
-0.21195598 -0.18419854 -0.09711753 -0.020830214 0.12808746 -0.10035459 0.004780237 0.042000085
0.11753534 -0.42106497 -0.25555444 -0.08818512 -0.037319303 0.3664512 0.08791271 -0.13352825
0.1457205 -0.30568108 0.39715514 0.22702849 -0.36905223 0.021691032 0.20797016 -0.28663155
-0.19352615 0.22711107 0.10637178 -0.41681966 0.07160075 -0.23127303 0.104291625 -0.30889463
-0.3681443 0.052187435 -0.2078788 -0.26224864 0.11083243 0.25205043 -0.17417562 0.26993734
0.48041952 -0.19375794 0.022471072 -0.16066676 0.18184501 0.07419324 -0.045237355 0.3958332
-0.13974161 -0.013650118 0.4272298 0.21033442 -0.37339205 0.44542596 -0.11862645 0.2314493
-0.016397957 0.09790995 -0.30800942 0.11556567 -0.11411034 -0.15614893 0.29740295 0.3076107
-0.28822604 0.22975668 -0.21151227 0.36949825 0.14831449 -0.0173846 0.24657018 0.026346372

value_adapter.0.bias f4 [64]
00000000: b408 1f3e 3dbb 323e 1738 1a3e 98e0 283e
00000010: 677e 413e c255 32be 545d 38be 04ad fbbd
00000020: bb45 2fbe fd41 dc3d 13a6 343e a921 11be
00000030: 5cfa 34be abd1 013e f886 24be 839a 2c3e
00000040: 6130 1e3e bc21 1d3e f1d5 e33d 937e 16be
00000050: a195 1c3e fa09 353e a92d 253e 92fa f7bd
00000060: fcb3 3e3e 7976 033e 3609 62bd 05da 1e3e
00000070: 105e 17be 2466 25be d50f 2e3e cf19 2fbe
00000080: 0c7e 17be 5ec9 96bd 5330 063e 6c93 0abe
00000090: 87b0 0c3e 962b 273e c6b0 163e aefb 39be
000000a0: 6297 00be 77ff 87bd ac18 f83d 29d8 34be
000000b0: 3e73 22be 30ba d7bd b68d 1cbe d1e1 0b3e
000000c0: 7c80 2abe 0b5c 1bbe db9c 3d3e 0ae9 033e
000000d0: 465b e83d 889e 29be d39e febd 7561 00be
000000e0: b16a 36be 93ab 3c3e 48aa fd3d 87d7 32be
000000f0: 8f62 183e 1d9c fa3d 7bc1 113e d21a 373e
0.15530664 0.17454238 0.15060459 0.16491926 0.18895875 -0.17415527 -0.18004352 -0.122888595
-0.17116444 0.10754774 0.17641477 -0.14172997 -0.1767363 0.12677638 -0.16067111 0.16855817
0.15448143 0.153449 0.111247905 -0.14696722 0.15291454 0.17679587 0.16130699 -0.12108339
0.18623346 0.12838162 -0.055184565 0.15512855 -0.14781976 -0.16152245 0.16998227 -0.17099689
-0.14794177 -0.073626265 0.13104372 -0.135328 0.13739215 0.1632522 0.14715871 -0.18162414
-0.12557748 -0.06640523 0.12114081 -0.17660584 -0.15864274 -0.10533559 -0.15288433 0.13660361
-0.16650575 -0.1517183 0.18516867 0.12881866 0.11345534 -0.16564381 -0.12432637 -0.12537177
-0.17814137 0.18424825 0.12385994 -0.1746503 0.14881347 0.122368075 0.14233963 0.17881325

value_head.0.weight f4 [3, 64]
00000000: 606e aabe 5c7b 53be cd9e 7bbe abaf bebe
00000010: 87f3 fdbe b3f8 393e fa3e 033f 4474 043f
00000020: 9d70 ae3e cca8 2cbe b7db 9bbe 08fb 073f
00000030: b4e8 143f 925c 18bf 320e 8b3e 4ef2 03bf
00000040: 77c1 fabe d172 b2be 2145 d4be 6190 de3e
00000050: 1589 aebe 6d94 21bf 1a22 11bf b5b8 0e3f
00000060: 9469 c6be 932e 01bf 99e7 9b3d 7d34 c9be
00000070: fdae 1d3f afc6 013f 19fc cdbe 76b8 ba3e
00000080: f993 d63e 4f6a c33d eede eebe 3590 4d3e
00000090: 13d6 a1be 2c84 92be 56c9 f0be fa63 e43e
000000a0: 1d0a 373e 9b70 e13e 93ed febe 7120 933e
000000b0: 25ec f63e 5aae 593e e083 af3e 6036 edbe
000000c0: 406e 143f 2975 a93b 0f75 47be 7a42 cbbe
000000d0: f04d b3bc a350 e93e 9843 053f b353 d73e
000000e0: 6ff1 aa3e 76f9 fcbe 8cd8 80be ccb2 8f3e
000000f0: b65f cbbd c46e 16bf 9d11 8ebe 9d30 bdbe
00000100: 2489 ffbe cd05 ebbe c9dc 02bf d095 bdbe
00000110: 1e47 55bd 1a3d ce3e 5fb0 683e f98c 923d
00000120: 17d5 fb3c 9296 ccbe b237 ebbe 81e9 4a3e
00000130: 981b b53e af5c b9be 8e90 2b3e 2885 04bf
00000140: e461 13bf 1cdd 0dbf 3620 06bf 3989 143f
00000150: eae7 d0be fb4a 93be e247 85bd 53e6 003f
00000160: 9bfa efbe 0ded 25bf 6e7e c93e d0f7 0abf
00000170: 7520 e73e 333f be3e 2e85 abbe 4261 2c3e
00000180: 068a 113f 480a 1d3f 3acd fcbe 6b03 e13e
00000190: 3ca5 10bf 88e1 89be 4c42 57be 2ba4 433e
000001a0: 3f4f 503e ba35 6e3e bc6c 7fbe fc01 3f3e
000001b0: 1c15 053f f784 9f3e 8a9a f43d 7c51 5cbe
000001c0: 8e45 4d3e 79ac db3d b9aa 73be 3846 313d
000001d0: 3036 e3be 6a1c 943e f400 c83e c48c 0c3f
000001e0: 6639 0f3f f4b6 4dbe bfc5 d5be 52d6 083f
000001f0: 05c0 0abf 16df b3be 8c99 e7be fb2b 07bf
00000200: 003b 1bbd 4376 27be dc92 50be 1bed 8dbe
00000210: df07 09bf 348d 153f 610d 8b3e 17f9 d53e
00000220: af0f cc3e 932c bbbe f9b3 46be eecb 053f
00000230: a71b 243f 1dbe 00bf e873 ad3e 7e39 cbbd
00000240: 88d7 1fbf eb77 bebe 69c8 a9be ca0b 883e
00000250: 1aab 4ebe 7cda 04bf 1e61 e0be 747c 283e
00000260: 9b10 01bf 8f79 b2be ef49 073f ac0d 96be
00000270: ff27 a93e e0fb 653e 95b3 3cbe b29f 013f
00000280: e330 a53e f124 c53e 6d0e 19be f7d0 d53e
00000290: 17ba 09bf cca5 e9be 7b64 9fbe dc0f 023f
000002a0: acb5 503e 7ced 023f 390e b9bd ea2f f93e
000002b0: 8f87 4b3e 119d 073f f27c 913d 91a9 f3be
000002c0: 58ea 773e 88db bf3e 3ac5 e4be f1d7 efbe
000002d0: cb00 93bd 64ac f93e 2f85 a13c a22e 083e
000002e0: dad5 ef3e 5bd3 acbe 20a7 bcbe 3533 b23e
000002f0: 9128 11bf 3f15 e3be 4fd3 22be 4718 4bbe
-0.33287334 -0.20652527 -0.24572296 -0.372434 -0.4959986 0.18161277 0.5126797 0.5173991
0.34070292 -0.16861266 -0.30441067 0.5311742 0.58167577 -0.5951625 0.27159268 -0.515416
-0.48975727 -0.34853223 -0.4145899 0.43469527 -0.3408896 -0.63117105 -0.5669266 0.5575059
-0.38752425 -0.5046169 0.07612533 -0.39297858 0.61595136 0.5069379 -0.40231398 0.36468858
0.4190977 0.09541761 -0.46654457 0.20074542 -0.31608638 -0.28616464 -0.47028607 0.44607526
0.17874952 0.44031224 -0.4979063 0.28735688 0.4822704 0.21257916 0.342803 -0.46330547
0.5798073 0.0051714373 -0.19478248 -0.39699155 -0.02188775 0.45569333 0.52056265 0.42056045
0.33387324 -0.49409074 -0.25165212 0.280661 -0.09930365 -0.58762765 -0.27747813 -0.36951151
-0.49909317 -0.45902863 -0.5111814 -0.3702836 -0.052069776 0.40280992 0.2272353 0.07155795
0.030741258 -0.39958626 -0.4594093 0.19815637 0.35372615 -0.36203524 0.16754362 -0.5176568
-0.57571244 -0.5541551 -0.523929 0.58021885 -0.40801936 -0.28768143 -0.06507851 0.50351447
-0.46870884 -0.64814836 0.3935427 -0.5428438 0.4514195 0.37157592 -0.33500046 0.16833976
0.5685123 0.6134381 -0.49375325 0.4394792 -0.5650213 -0.2692988 -0.21021384 0.19105594
0.2034273 0.23262683 -0.24943823 0.186531 0.51985335 0.31156132 0.119435385 -0.21515459
0.20046064 0.10726256 -0.23795594 0.043279856 -0.4437728 0.28927928 0.39063227 0.5490229
0.5594696 -0.20089322 -0.4175243 0.53452027 -0.5419925 -0.3513114 -0.45234334 -0.52801484
-0.037898064 -0.16353707 -0.20368522 -0.2771996 -0.53527635 0.58418584 0.27158645 0.41791603
0.39855716 -0.36557445 -0.19404592 0.52264297 0.64104694 -0.5029009 0.33877492 -0.09923075
-0.6243825 -0.37200865 -0.33160713 0.26571494 -0.20182458 -0.5189588 -0.43824095 0.16453725
-0.5041596 -0.34858367 0.5284719 -0.29307306 0.33038327 0.22459364 -0.1842788 0.506343
0.3226386 0.38504747 -0.14946909 0.4176099 -0.53799576 -0.45634305 -0.31131348 0.5080545
0.20381802 0.5114362 -0.09035916 0.48669368 0.1987593 0.5297404 0.071039096 -0.47590306
0.24210489 0.37472177 -0.44681722 -0.46844438 -0.071778856 0.48764336 0.019716827 0.13299039
0.46842843 -0.33755 -0.36846256 0.34804693 -0.56702524 -0.44352147 -0.1590092 -0.1983348

value_head.0.bias f4 [3]
00000000: 42f7 51be 1bea 59be 0332 61be
-0.20504478 -0.2128071 -0.21991734

hiring_adapter.0.weight f4 [64, 64]
00000000: 120b 85be a36a 193e 138c 2abe f757 aabe
00000010: 0116 473d 83c8 aabe 748d 743e b68b d1be
00000020: bda0 93be 22d5 093f 0f69 87be e5ec 763e
00000030: 2be6 52be 09e3 313e 020c 99bd 4d11 9dbe
00000040: 4e06 52be daba de3e 0754 c43e 9021 b5be
00000050: 9d63 83be f101 67be b272 3b3d 6676 5a3e
00000060: 1041 ecbc 6115 ca3c da7f 0e3e 65cb 94be
00000070: e448 a23d 5153 843e b498 313d 65bc 913e
00000080: f5ab d53d e025 173e 9762 5bbe a99d a03d
00000090: 8c31 903e de04 6abd 10ad 323e 0ad5 5f3c
000000a0: 44f9 cf3e 84d7 94be 6d3f 9cbd c486 3d3e
000000b0: 0087 debd 6f87 c9be 715e 323e eb32 5bbe
000000c0: 3584 cd3d a70d d7bd 6303 92be 39e4 cabe
000000d0: 6ac9 59be 027d 4a3e e50e 64be 55f9 c5be
000000e0: 9a5f a5be b2a9 703c dcbd b4be 91d1 c9be
000000f0: 8fc9 3ebb 2a28 06bf a6d6 d8be caa3 883e
00000100: e14f 9f3e 98fa 97be d99d 2fbe 07ee 56be
00000110: 6e31 143e bb10 d03d 8441 3d3e 7551 733c
00000120: caf6 7bbe 049b 0abf 451a dcbd 8114 823e
00000130: 9260 e03e 8f7e 873e f31c ba3e ed02 76be
00000140: b826 3b3e 8cdb 443e 4c9b 37bd 5d0c 813e
00000150: f0a7 2c3d af2f 26bd ddc0 ab3e 5372 a93e
00000160: 0662 aebe a315 b5be bcf6 d2be 8252 cf3e
00000170: 622a 063e c70c 02bf 894c babe b04b 0b3e
00000180: b62a b63d f06c babd 877b 3a3d dfd5 363e
00000190: fd6e 0fbe e63a 5d3e 122e 0e3e 6ae6 c93e
000001a0: 88bd 00bf 252d 223e 718b a53e 1277 7eba
000001b0: fa70 5e3e 840f b93e 60d4 e53c 71cc a1bd
000001c0: b2c5 3ebd c35f ee3c 047f 213e 16d4 8b3e
000001d0: 92ef d43e ec7b ac3d 696d 103d cc79 d93e
000001e0: 69e3 aebe e4aa 733e 9957 c03d e928 973e
000001f0: 7fdb 07be 9602 ef3d 9fd5 7c3e 8e88 22bf
00000200: d2d9 35be 567e aa3e 49d7 afbe 3438 533e
00000210: ce57 bc3d 83a7 3d3e d1dd 523e 292e 27bd
00000220: b7a3 253d 78c8 81be 2413 943e f6f1 b0be
00000230: 2f52 903e f437 d23e 3875 6c3d 25fe 763e
00000240: a0e8 eb3c bc8f d6be 45a7 853e 403d 793e
00000250: d36b 19be 1135 243e 1e1f acbd f809 34bd
00000260: 68f2 82bd 5117 7c3d 172d 063e 0d05 cd3d
00000270: bba8 14bd 68f1 08be f538 00bd 1f24 3fbd
00000280: a85e 9f3e 3084 a8bd e562 85be 4689 fdbe
00000290: b483 e1be 90e0 6abe d120 9a3e 4c00 28bc
000002a0: ecb2 80bd bc10 46be 9053 d73d 4f00 01bd
000002b0: fbf5 73be 1dfe ca3d 2871 403e 97c3 c3bd
000002c0: 89f2 8dbe b5c8 07be b966 13bd 6b22 b73e
000002d0: bcb5 873e 9e3b b63e 6030 abbe 71a6 083d
000002e0: 7408 93be a0bd 653e c1a7 3cbe c7a5 3b3e
000002f0: 3ef6 c93e df9a 00be 4526 41bc 8461 56be
00000300: 721a 40bd b0ed 623d 489d 2e3e 44d4 8abd
00000310: 5be6 0c3e fd99 153e d0e0 813e 6904 223e
00000320: be94 393d a3f7 b53e 58fa 263d 7745 88bd
00000330: 1f49 c6be d047 8b3d 9429 583d eec3 523e
00000340: 96a9 9ebd cd10 1dbe 2998 a23e cc96 8fbe
00000350: 59f8 633e c116 533d 069b 5cbe 121b 053d
00000360: c736 f83e bb3a 8fbd 1cff c33e 967d b1be
00000370: d017 13bd 679e 3dbb 8f92 063e 9fb0 5f3e
00000380: 3a61 833e 6581 903e d088 8bbd 3665 113d
00000390: 6b70 8cbd 293f ab3d 9acf 673e 7d9c 543e
000003a0: 2fef e73e 1fdf 87be f4e0 803e 31ed 8bbe
000003b0: 9e31 4cbe df8e a63e da06 cb3d d0c5 3a3e
000003c0: ee72 d1bb d347 c83e 2168 37be 9b92 c0bd
000003d0: 2a95 c0be 8f19 32be d31e 873c 92ae dfbe
000003e0: 0ff5 9abe 26eb 2a3e 3dac 7a3d 1ef5 33be
000003f0: d8a0 2d3e 8834 88be cc1d 1ebe 562b 163e
-0.25985008 0.14982085 -0.16654997 -0.33270237 0.04860497 -0.33356103 0.23882085 -0.40926903
-0.2883357 0.5384084 -0.2644734 0.24113806 -0.20595615 0.17371763 -0.074729934 -0.30677262
-0.20510218 0.4350193 0.38345358 -0.3537717 -0.25661936 -0.22559334 0.04576368 0.21334228
-0.028839618 0.024668397 0.13915959 -0.29061428 0.07924059 0.25844815 0.04335852 0.28464046
0.10433189 0.14760542 -0.21424328 0.07842571 0.281628 -0.057133548 0.1744883 0.013661632
0.40619862 -0.29070675 -0.07629285 0.1850844 -0.10865593 -0.3936114 0.17418839 -0.21406142
0.10034982 -0.10500651 -0.2851821 -0.39627245 -0.2126824 0.19774249 -0.22271307 -0.38666788
-0.322995 0.014688896 -0.353011 -0.394177 -0.0029111838 -0.52405035 -0.42351264 0.2668746
0.3111563 -0.29683375 -0.17150058 -0.20989238 0.14471981 0.10159441 0.18482023 0.014850964
-0.24605861 -0.54142785 -0.10747198 0.25406268 0.43823677 0.26463744 0.36350212 -0.24024554
0.18276489 0.19224375 -0.044825837 0.25204745 0.042152345 -0.04057282 0.3354558 0.33095035
-0.3405916 -0.3536807 -0.41203868 0.40492636 0.13102105 -0.50800747 -0.36386517 0.13603091
0.08894865 -0.091028094 0.04552796 0.17855023 -0.14007182 0.21604499 0.13884762 0.39433604
-0.502892 0.15837534 0.32332948 -0.0009707074 0.21722785 0.3614465 0.02805537 -0.07900322
-0.046575256 0.029098397 0.15771109 0.27310246 0.41589028 0.08422074 0.03526059 0.42475736
-0.34157875 0.23795658 0.09391708 0.295234 -0.13267325 0.11670415 0.24690865 -0.63489616
-0.17758873 0.33299512 -0.34343937 0.20626909 0.09196435 0.18520932 0.20592429 -0.040815506
0.040439334 -0.25348258 0.28920853 -0.34559602 0.281877 0.41058314 0.057728976 0.24120386
0.028797448 -0.41906536 0.2610418 0.24339771 -0.14982538 0.16035868 -0.08404373 -0.04395482
-0.063938916 0.061545674 0.13103138 0.10010729 -0.036293726 -0.13373339 -0.03130432 -0.046665307
0.31126904 -0.08228338 -0.26052013 -0.49518794 -0.44045794 -0.22937226 0.30103162 -0.010253977
-0.06284127 -0.19342321 0.10513985 -0.031494435 -0.23824303 0.099117495 0.18793166 -0.0955879
-0.27724102 -0.13260157 -0.035986636 0.35768446 0.2650584 0.3559236 -0.33435345 0.033361856
-0.28717387 0.22435617 -0.18423368 0.18324958 0.3944568 -0.12559079 -0.011788909 -0.20935637
-0.04690022 0.055402458 0.17052186 -0.06778768 0.13759749 0.14609523 0.2536683 0.15821995
0.045307867 0.35540494 0.04076609 -0.06653874 -0.38727662 0.068008065 0.052774027 0.20582554
-0.0774719 -0.1533844 0.31756714 -0.28044736 0.22262706 0.05153537 -0.21543512 0.03249652
0.48479292 -0.06993624 0.3828057 -0.34666127 -0.03591138 -0.0028933526 0.13141845 0.2184472
0.25660115 0.2822372 -0.06813204 0.035496913 -0.068573795 0.08361656 0.22637787 0.2076282
0.4529967 -0.26537415 0.25171626 -0.273294 -0.19940802 0.32530877 0.09913416 0.18239522
-0.0063918745 0.39117298 -0.17910816 -0.09402963 -0.37613803 -0.17392562 0.01649419 -0.43687874
-0.3026509 0.16691265 0.061199415 -0.17573974 0.16955888 -0.26602578 -0.15441054 0.14664969

hiring_adapter.0.bias f4 [64]
00000000: 31ee 563d 4007 18bc 1fb0 cfbd 8712 bd3d
00000010: 2d98 963b ce10 c6bc c541 40bd c6b6 56bd
00000020: b86c 803d e1d7 ccbc 642b 983c 991c a73b
00000030: f482 04bc 3f2c fdbc 63f1 f33d 8551 8fbc
00000040: 8b93 5fbc e3a5 72bd 5092 84bd 5fe8 97bb
00000050: 3582 ea3c e1d4 453d eefa 32bd 8c3f 41bc
00000060: 404e 6abb 15dd ad3c 7fc1 8cbc bada dfbc
00000070: d00a 7f3d 0452 893d a68d 81bd 96c0 36bc
00000080: bb9d 8dbc a0f4 75bd 8c94 a63d d6f0 a83d
00000090: cdb7 ffbc b421 443d 76db a73b 0b1b fdbd
000000a0: 256e c5bd f52e 0bbd d7a5 d63c a953 6fbc
000000b0: f0e0 e63c 587e a63d 39ed d63d 397b 3ebc
000000c0: aa45 c13c 41f3 b23d de33 a9bd a4ce 113e
000000d0: cade f53d d6bf 6c3d 49c3 ef3c c30a 0bbc
000000e0: b717 06bd 1966 9ebc 4f75 4ebd 8c85 aa3d
000000f0: 27ed 9abc 1656 7e3c 6bce 6e3d d7f2 28bd
0.05247325 -0.009279072 -0.10141014 0.092320494 0.0045957775 -0.024177935 -0.046937723 -0.0524204
0.062707365 -0.025005283 0.018575378 0.0050998447 -0.008087862 -0.030904887 0.11911275 -0.017494926
-0.013646017 -0.059240233 -0.064732194 -0.004635855 0.02862654 0.04829872 -0.043696336 -0.011794936
-0.0035752207 0.021223584 -0.01718211 -0.027325977 0.06226617 0.06705096 -0.063258454 -0.0111543145
-0.017287126 -0.060047746 0.08133802 0.08249061 -0.031215573 0.047883704 0.0051225973 -0.12358674
-0.09640149 -0.03398033 0.026202125 -0.0146073485 0.02818343 0.08129567 0.104944654 -0.011626058
0.023592789 0.08737803 -0.08261846 0.14238983 0.12005384 0.057800137 0.029267924 -0.0084864525
-0.03273746 -0.019335793 -0.050404843 0.08326253 -0.018911911 0.015523454 0.058302324 -0.041247215

hiring_head.0.weight f4 [3, 64]
00000000: f6ec a73e cabb 87bd b1f6 92be 9c51 743e
00000010: f461 8f3b c1cf 973c 79a4 c3be f5a2 29be
00000020: e898 50be bd1c 8bbd b16f e43d 3361 b0be
00000030: 3503 233e d2ad a3be 2abf 983e 1eaf 81be
00000040: 6489 f0bb f5cd 9dbd c179 58be b8ea 6d3d
00000050: ecce 68bc 0365 6cbe 8fc8 00be 3ccd 9e3e
00000060: 18e6 663d 110c ec3c 413d 103e 9548 21bc
00000070: 771a 7a3e 529d 00be 6eb2 7cbe 56ee c6be
00000080: f7cc 57bd ffec bebe 703f 1fbe af8c 97be
00000090: d1de d13d d6ee 11be 5055 a7be df49 8f3e
000000a0: 8f4b 59be 8a33 0d3e acd2 193d 6596 903d
000000b0: 8b2f b2bd da7e 983d d64f 50be 35dc ecbd
000000c0: 9468 05bd 0c6a 96be 4134 9a3e 4ab7 56bd
000000d0: 9b9b 023e 351e 3c3e 12b8 6f3e f060 0bbe
000000e0: db66 803e d0de 05bd 7f26 733c 4321 8b3e
000000f0: d8ce 84be c117 0dbe 5c06 f0bd 8c94 12be
00000100: 1743 073f 04ee c6be 73ec a8be 1509 0f3f
00000110: 189f 2bbf e72a 1fbf 2237 2f3d 9d3d 10bf
00000120: 9515 d93e 5c34 4c3f b3f5 22bf caf0 923d
00000130: 2787 ff3e a9b5 01bf da57 b63d be6b f43e
00000140: cee5 c5be 883c 44be ebe6 cbbe 3005 d43e
00000150: df5b 49bf d43a 00bf d1f2 463d 1583 37bf
00000160: 04f0 1c3f b32b 153f 6265 38bd 708b 10bf
00000170: d84f d83e 7c04 0b3f 5657 e8bb d6e1 13bf
00000180: a7bb d0bd 2c98 18bf f053 8dbd 0a9d ce3e
00000190: f075 e3be 7c9b 193f 7c2f 63bf d53e d4be
000001a0: 621a c1be aecf 12bc 5fe7 c33e 3e2f 0cbf
000001b0: 0d3f 0b3f 1847 cd3e f5a3 7c3d c320 d4bd
000001c0: 4b16 16bf 4aa7 aebe 5118 d1bd 79c9 4e3e
000001d0: 6a68 b63e 1745 a83e d907 993e 85cd d1be
000001e0: 56c6 ebbe 4036 1b3f acf9 89be c25c 723e
000001f0: c892 a0be 41b4 153f 3878 753e 2934 11bf
00000200: 0e06 c23e 3032 bdbe cd94 ccbb 45c3 aa3e
00000210: f4be 4fbf 650b 1bbf 708c bcbe c41d f0be
00000220: 9e7a cf3e fdf8 363f d77f c7be b1a9 dfbd
00000230: 1a21 b53e c620 59be 7527 6a3e 38c1 183f
00000240: fac4 03bf 65b0 f5be bd84 0abf 62c4 aa3e
00000250: 2ef1 4bbf 21fc 4cbf 770c bcbe cd17 22bf
00000260: fbef 1b3f ad4b 6a3e 64e4 7fbe 026a 11be
00000270: a05d ad3e 4d1a c03e e067 c3be 980a 80be
00000280: 7f39 ad3e c564 16bf 3525 6a3e 2035 503c
00000290: 4320 9bbe 666b b23e 92b9 7dbf d60c bdbd
000002a0: 356a 01bf 3fbc 87be 8021 013f 8f5d e6be
000002b0: b6f0 d53e 0b9a ce3e 466f b13e 860e d2be
000002c0: 9eae f8be f8f6 69be 92ce 233c 6cae 953e
000002d0: 6b0f 32bb 9a30 bf3e b53c d23e c0e1 33bf
000002e0: 8fa2 20be 4242 363f b4c3 25bf e8f8 023f
000002f0: 244a ebbe 4716 b53e 582f 18be c7d8 6cbe
0.32797974 -0.06627615 -0.28703836 0.23859257 0.0043756906 0.018531682 -0.3821142 -0.1656607
-0.20370829 -0.06792591 0.11154116 -0.34449157 0.15919192 -0.31968552 0.29833347 -0.25328916
-0.007340597 -0.07705299 -0.21140195 0.058085173 -0.01420949 -0.23085408 -0.12576507 0.31015956
0.05637178 0.028814347 0.14085867 -0.009843965 0.24424158 -0.12560013 -0.2467744 -0.3885371
-0.052685704 -0.3729019 -0.15551543 -0.2959952 0.10247577 -0.14251265 -0.32682276 0.27986047
-0.2122023 0.13789192 0.037554428 0.070599355 -0.08700474 0.0744607 -0.20342955 -0.11565439
-0.032570437 -0.29377782 0.30117992 -0.05242089 0.12754671 0.18370898 0.23410061 -0.13611197
0.25078472 -0.032683194 0.014840721 0.27173814 -0.2593906 -0.13778593 -0.11719963 -0.14314479
0.52836746 -0.38853467 -0.32992896 0.55873233 -0.6703963 -0.6217484 0.042777188 -0.56344014
0.42399278 0.79767394 -0.6365616 0.07174833 0.499078 -0.50667816 0.08903475 0.4773845
-0.3865189 -0.19163716 -0.39824614 0.41410208 -0.7865581 -0.50089765 0.04857141 -0.7168439
0.61303735 0.58269805 -0.04501856 -0.56462765 0.42248416 0.5430372 -0.0070904894 -0.57766473
-0.10192042 -0.59607196 -0.069007754 0.40354186 -0.44425917 0.60002875 -0.8874433 -0.41454187
-0.3771544 -0.0089606475 0.3826246 -0.54759586 0.5439308 0.40093303 0.0616798 -0.10357811
-0.58627766 -0.34112006 -0.10209716 0.20194043 0.35626537 0.3286521 0.298888 -0.4097711
-0.46049756 0.60629654 -0.26948297 0.23668197 -0.31361985 0.5847817 0.23971641 -0.56720215
0.37895244 -0.36952353 -0.0062433244 0.33352104 -0.81150746 -0.6056426 -0.36825895 -0.4689771
0.40523237 0.71473676 -0.38964722 -0.10921038 0.35376817 -0.21203908 0.22866614 0.5966983
-0.5147244 -0.4798614 -0.5410879 0.33352953 -0.79664886 -0.8007222 -0.3672826 -0.6331757
0.60913056 0.2288043 -0.24989468 -0.14200595 0.33860493 0.37520066 -0.38165188 -0.25008082
0.3383293 -0.5874751 0.22865756 0.0127079785 -0.3029805 0.34847564 -0.9911128 -0.09230964
-0.50552684 -0.26510808 0.5044174 -0.44993255 0.4178521 0.403519 0.34655207 -0.41026706
-0.48570722 -0.22848117 0.009997981 0.29234636 -0.0027169834 0.37341768 0.4106194 -0.7026634
-0.15687011 0.7119485 -0.64751744 0.5116105 -0.45955002 0.3536856 -0.1486181 -0.23129569

hiring_head.0.bias f4 [3]
00000000: d8cf 493d 3452 193e 01db 193e
0.04927048 0.14972764 0.1502495
