trained_policy_function.pt (torch, 21333 bytes, 6 tensors)

model.0.weight f4 [64, 1]
00000000: fd52 92bf 362b 7e3e d25d 413f ca48 b9bf
00000010: d4ff 91bf 461d 7d3f 4e14 eebf fc52 b13f
00000020: e76c a4bf 812f b23f 9a18 bb3f dbd1 be3d
00000030: db96 5e3f f36f c3bf 5993 ac3f 59cf 8a3f
00000040: f978 8bbf c7e5 4f3f 8558 11be 20c4 b43f
00000050: 87cc 6c3f 655b b73f c4f6 e0bf 7586 d33f
00000060: 6d8d 3c3f 04a2 533f d541 373f f610 883f
00000070: f44b c63f 48f8 8ebf 57b0 dcbf 00ea cf3f
00000080: 7f00 8abf 07df 91bf d2d8 9f3f 8931 983f
00000090: f2ea 0a3f 42b6 70bf 820d 89bf f115 b83f
000000a0: 47d2 9d3f 12ca 9f3f cbb9 933f 08c4 a3bf
000000b0: 6477 e63e 0ad7 01c0 0703 943f a854 e7bf
000000c0: 18e9 ebbf 1f09 f3bf 243b a83f e5dc eb3e
000000d0: 47ee 84bf b075 9f3d dd0d 94bf dd90 87bf
000000e0: 6556 b6bf b5af 84bf 2370 a3bf de6f c03e
000000f0: 3842 ba3f 4059 cabf 2c09 6f3f 51e2 c5bf
-1.1431576 0.24821171 0.75533783 -1.4475338 -1.1406198 0.9887279 -1.8599946 1.385345
-1.2845734 1.3920747 1.4616883 0.093173705 0.8694894 -1.5268539 1.3482467 1.0844527
-1.0896293 0.8120999 -0.14193924 1.4122353 0.92499584 1.4324766 -1.7575307 1.6525408
0.736533 0.8266909 0.71584827 1.0630176 1.5491929 -1.116952 -1.7241315 1.6243286
-1.0781401 -1.1396188 1.2488043 1.1890117 0.5426475 -0.94028103 -1.0707247 1.4381696
1.2329797 1.2483542 1.1541075 -1.2794199 0.45012963 -2.02875 1.1563424 -1.807271
-1.843051 -1.8987159 1.3143048 0.46066967 -1.0385216 0.07786119 -1.1566731 -1.0591084
-1.4245116 -1.0366122 -1.2768596 0.37585348 1.4551458 -1.5808487 0.9337337 -1.5459691

model.0.bias f4 [64]
00000000: 3fe0 1fbf f38a 02bf 3446 6bbe 0700 c3bf
00000010: dc57 7dbe 4cf9 15bf 6bcb febd df80 38bd
00000020: dd27 0cc0 a278 3cbf 98ca e5be a8b0 65bf
00000030: 5881 58bf 1839 02bf cb13 0c3f 6658 183f
00000040: 9980 bbbf 034d 8dbf 2835 b1bf b4cf 853e
00000050: f6a6 af3b 6c8e 9abe 3e43 15bf 7712 90be
00000060: c039 15bf 605d 113d dd6a 46bf 564d 5a3e
00000070: e494 42bc aa4e 1fc0 00ed 21bf 2b1f 513f
00000080: 9c49 93bf ee36 8e3e 720e 12bf c5fd 79bf
00000090: aee4 92bf ec0e 28c0 df7c 3fbf 906d a1be
000000a0: 0b40 183f 61ea 6dbf f41d 3f3e 482c 193f
000000b0: 543b 11bf 7e8d 85be a5c2 17be 9410 c13e
000000c0: 34e6 123f aa0d 1bbd 246a b4be 9164 6bbf
000000d0: 0c00 e0bf f675 2ebf d3c2 79bf 35b1 8bbf
000000e0: 30f4 e5bc 3e9f 433e 3e1f 213f 1479 96bf
000000f0: 77e2 333f 4510 553f a3db d53e f9dc c93d
-0.6245155 -0.5099327 -0.22975999 -1.5234383 -0.24740547 -0.5858352 -0.12441143 -0.045044776
-2.189933 -0.7362157 -0.4488113 -0.8972268 -0.8457236 -0.5086837 0.547177 0.59509885
-1.464862 -1.1039127 -1.3844347 0.26135027 0.0053604795 -0.30186784 -0.5830573 -0.28139088
-0.58291245 0.03548944 -0.7750681 0.21318564 -0.011876319 -2.4891763 -0.6325226 0.81688184
-1.1506839 0.27776283 -0.5705329 -0.97652847 -1.1476038 -2.6259108 -0.74799913 -0.31528902
0.5947272 -0.9293576 0.1866377 0.5983319 -0.5673115 -0.26084512 -0.14820345 0.3770796
0.5738251 -0.037854828 -0.3523723 -0.9195033 -1.7500014 -0.68148744 -0.97562903 -1.0913454
-0.02807054 0.19103715 0.62938297 -1.17557 0.7026743 0.8322795 0.41769132 0.098566

model.2.weight f4 [64, 64]
00000000: f151 e4bd 1f14 0ebe dda8 97be 71db 64be
00000010: 6c9a 55be 4ab5 9dbe 79a3 9dbe ffa2 fabd
00000020: 712c cfbd be36 fbbd 431e 65be 7e51 7ebe
00000030: 8c7d 12be 6773 5dbe 7c28 4abe dd6e 87be
00000040: 9931 f3bd 14f0 9cbe 3ec2 afbd 5335 dbbd
00000050: 9170 2dbe d263 05be 7164 45be 3e0b 89be
00000060: bf68 a2be 6729 39be 5495 11be 4d11 5dbe
00000070: a616 4cbe ea8f 6ebd 84cf 52be 6d53 fabd
00000080: 6e45 24be c06d 4abe 9191 82be 7702 81be
00000090: 7b1d 91be 61be 8cbd 8dad 9abd 535d 23be
000000a0: b230 5bbe 2dcd 8abe ba38 aabe d7d1 73be
000000b0: 6428 94be 4f1e b2be ecc1 77be 2520 8ebe
000000c0: 97e3 66be da1c b5be ee2d 0fbe 02bd a6be
000000d0: fec7 66be d782 68be 524d 4dbe 098e 0fbe
000000e0: 61e8 87be 1735 35be 432a 7fbe 1a94 86be
000000f0: 093d 71be 20af 54be 703c a9be 9499 a4be
00000100: f95e 37be 8d28 26be 3a5f 5abe c9c0 4abe
00000110: 89b3 82be 579c 37be 662d f5be ed39 71be
00000120: e107 a2be e779 97be 79b7 5ebe a24e 65be
00000130: fe2c f5bd e1b2 96be 1c28 68be 11c5 59be
00000140: 67d1 13be 3cd7 7bbe fdbe 75be e000 66be
00000150: 230e a0be 46f5 5dbe f3a6 02bf 5b8e 81be
00000160: 0a1f 94be 57bc dcbd b4a7 abbe e596 a1bd
00000170: 4b55 0fbe b94e 8dbe 91ee 8bbe cb3d 69be
00000180: 5695 a9be ba89 92be b8b8 0fbe abeb a6be
00000190: 1b4f 6ebe 6821 10be e6cd 94be 8fa0 30be
000001a0: 8989 84be d906 92be 209d d3bd 8157 bbbe
000001b0: 87c3 5bbe de53 b3be 8c64 8cbe 27e5 99be
000001c0: 22f9 ebbe f62d 8abe 09f2 18be 0d90 76be
000001d0: 8bc5 9fbe 0ed7 4cbe 77c7 69be 388c 9fbe
000001e0: 9876 a9be 6089 bcbe 4984 d0be 2566 77be
000001f0: 1170 cdbd 46fd a2be f12a 2fbe 9101 bfbe
00000200: 3c7a b6be a010 80be 22ed 90be 7cb5 17be
00000210: 1d2e 6ebe ae3f 9fbe 33a0 ddbe 2199 81be
00000220: ef57 97be 5b04 56be 9689 6abe 65f8 96be
00000230: 792c 55be b4de 99be 1e40 6abe 00bb 66be
00000240: 57ba 69be f960 89be 0366 31be c283 adbd
00000250: 9e8a 6dbe 96e6 40be 7138 bdbe bed9 9bbd
00000260: 148e 9fbe f1d8 88be 9821 b6be 0f7d 02be
00000270: dd0f afbd 9621 83be 6eac d1be a493 2ebe
00000280: 71e4 b7be 1426 84be 6ecd 0fbe a03a 4ebe
00000290: 0425 68be 85b9 3abe b06c 39be 6b94 8cbd
000002a0: 9481 4abe 5530 16be 4dd7 73be 0e46 7abe
000002b0: 31f9 8dbe 129b 14bf c2e6 18be 802f c6be
000002c0: 1ea6 cdbe 1935 d5be c437 43be eddc 4abe
000002d0: c494 33be 115c 92be 4ae6 a2be 17b5 83be
000002e0: ecc7 c6be 1aad c0be cb40 a1be 44c7 30be
000002f0: 3c5a 8cbe 18da 7bbe a17c 43be 9acb a8be
00000300: 7f87 8ebe 89bd 2bbe 4dba 9abd 5f34 60bd
00000310: 37a7 8cbe e8fc eb3d 2349 21bf e6d3 22bd
00000320: affb d9bd c3ec 2d3e 1b8b fc3b f0f9 4c3d
00000330: d9c0 343d f9e4 d6be 1a22 b73d c9ec 573d
00000340: b4c9 17be 2aea 1cbd c713 083d d7b6 e53d
00000350: 0e40 98bd 3a42 b83c 9771 ebbe 5ef6 1b3e
00000360: ca2c 52bc b518 d4bd 3a32 02be 5865 b9bc
00000370: 18df e93d 5e3c 65bd b54b 1ebf 7e62 723c
00000380: e2f4 bc3c 6549 9cbe 6d92 79bd 132d e03d
00000390: 2b5f 8f3d 6fda 32be 9e66 95be b35a d13c
000003a0: 42f3 083e 2554 02bd 8149 bf3c 602b 11be
000003b0: c2de cbbd 7478 30bf d2cc 89bd 4ee8 f0be
000003c0: 4cf5 b7be 2dd2 02bf 7d1c 013e baa4 8ebd
000003d0: 3fcc f8bd 8c54 aabd f2eb 20be 6a9a 24be
000003e0: 1248 e2be a6d3 39be b6e2 43be 17be 353d
000003f0: 61d2 133c d3f6 e4be fa78 e5bd 35c3 f3be
-0.111484416 -0.13874863 -0.2962102 -0.22349335 -0.20859689 -0.30802375 -0.30788782 -0.1223812
-0.101158984 -0.122663006 -0.22374825 -0.24835774 -0.14305705 -0.21626054 -0.19742006 -0.2645177
-0.118746944 -0.30651915 -0.08581971 -0.1070353 -0.16937472 -0.1302636 -0.19276597 -0.2676639
-0.3172054 -0.180822 -0.1421712 -0.21588631 -0.19930515 -0.058242716 -0.20586973 -0.122229435
-0.1604211 -0.19768429 -0.25501683 -0.25197193 -0.28342804 -0.068722494 -0.075526334 -0.15953569
-0.21405295 -0.27109662 -0.33246404 -0.23810516 -0.28937066 -0.3478875 -0.24195069 -0.277589
-0.22547756 -0.35373574 -0.13982365 -0.32566077 -0.22537228 -0.22706161 -0.20049027 -0.14019026
-0.2654448 -0.17696033 -0.24918465 -0.26284868 -0.2355844 -0.2076993 -0.33053923 -0.3214842
-0.17907323 -0.16226406 -0.21325389 -0.19800104 -0.255276 -0.17930733 -0.478862 -0.23557253
-0.31646636 -0.29585192 -0.21749677 -0.22393277 -0.11971472 -0.2943335 -0.2267155 -0.21266581
-0.1443535 -0.24593824 -0.23998637 -0.22461271 -0.31260785 -0.21675596 -0.51035994 -0.2530392
-0.2892993 -0.107781105 -0.33526385 -0.07890109 -0.1399738 -0.27599123 -0.2733045 -0.22777478
-0.33121747 -0.28620702 -0.14035308 -0.32601675 -0.23272364 -0.14075243 -0.29063338 -0.17248748
-0.2588618 -0.2852085 -0.103327036 -0.36590198 -0.21461307 -0.35024923 -0.2742046 -0.30057642
-0.4608851 -0.2698819 -0.14936079 -0.24078389 -0.312054 -0.20003912 -0.22829996 -0.31161666
-0.33098292 -0.3682356 -0.40725926 -0.24160059 -0.100311406 -0.31833857 -0.17106225 -0.37305883
-0.35640132 -0.25012684 -0.28305918 -0.14815325 -0.23259778 -0.3110327 -0.43286285 -0.2531214
-0.29559276 -0.20900099 -0.22904047 -0.29486385 -0.20817746 -0.30052722 -0.22876021 -0.22532272
-0.2282499 -0.26831797 -0.1732407 -0.084723964 -0.2319741 -0.18837962 -0.36957124 -0.076098904
-0.31163085 -0.26728013 -0.35572505 -0.12743019 -0.085479476 -0.25611562 -0.40951866 -0.17048508
-0.35916474 -0.258103 -0.14043209 -0.20139551 -0.2267037 -0.18234833 -0.18107867 -0.06864246
-0.19775993 -0.14666875 -0.238126 -0.24440786 -0.2772918 -0.5804912 -0.14931777 -0.38708115
-0.401658 -0.41642073 -0.19064242 -0.19810839 -0.17537218 -0.28585866 -0.31816322 -0.25724098
-0.38824403 -0.37632066 -0.31494746 -0.17263514 -0.27412593 -0.24594915 -0.19090511 -0.32967836
-0.2783775 -0.1677152 -0.07555065 -0.054737445 -0.27471325 0.115228474 -0.6300222 -0.039752863
-0.10643708 0.16984849 0.0077070124 0.050043046 0.044129226 -0.41971567 0.08942051 0.05271605
-0.14823037 -0.038309254 0.033221986 0.112165146 -0.074340925 0.022492517 -0.459851 0.152307
-0.012828061 -0.10356275 -0.12714472 -0.022631332 0.11419505 -0.055965774 -0.6183427 0.01479399
0.023065988 -0.30524746 -0.060930658 0.10946097 0.07000574 -0.17466138 -0.29179853 0.025555944
0.13374045 -0.031818528 0.02335048 -0.14176702 -0.09954597 -0.68933797 -0.067285195 -0.47052234
-0.35929334 -0.5110195 0.12608524 -0.06965013 -0.12148332 -0.08316907 -0.15715006 -0.1607453
-0.4419561 -0.18147144 -0.19129452 0.044370737 0.009022326 -0.44719562 -0.11204715 -0.4760987

model.2.bias f4 [64]
00000000: e026 b4be d9ae 87be 1e45 9abe dc6f 67be
00000010: 76f6 7fbe e876 50be 9179 94be 3995 033e
00000020: 1e6b 1a3c 8c12 c2bd df25 7cbe 21b3 abbe
00000030: be32 a03d 5c44 d0bd 70bd 5dbe ee9a b1bd
00000040: acb1 22bd 7374 073e 24c8 71be 7950 e3bd
00000050: 7158 98be b0f4 60be a69c c5bd 931c aebe
00000060: b561 ccbd 8d54 3abe a42d 87be 9c8c 8abd
00000070: 4c67 6e3d cebb 54be 81a0 b0be 834a c0bd
00000080: 98da 90be 9b39 66be 871a 0abe 3371 65bd
00000090: 8841 0e3e 572a 73be 26df 86bd d77a f7bd
000000a0: 2507 b6bd 1438 60bd 59f7 6dbe 695f 22be
000000b0: 22a5 a0be 6de2 32be f04f 96be bd2a 7bbe
000000c0: f47f 7bbd 4e53 5a3d 515f dfbd 487d 0fbd
000000d0: b85e 2ebe ac05 11be bf57 2abe ffdf 61bd
000000e0: 4c23 6dbe c8aa 2b3c 3499 d9bd 73e0 a9be
000000f0: d8e0 8c3d d4b0 1abe 5c8f 67be 0076 d6bc
-0.3518591 -0.26500586 -0.30130857 -0.22601265 -0.24996361 -0.20357859 -0.28998998 0.12849893
0.009424953 -0.09476194 -0.24623822 -0.33535102 0.07822178 -0.101692885 -0.21654296 -0.086721286
-0.039720222 0.13228016 -0.23611504 -0.11099333 -0.29754975 -0.21968341 -0.09649019 -0.34006175
-0.09979574 -0.18196316 -0.2640201 -0.067651 0.05820398 -0.20774767 -0.34497455 -0.09389212
-0.28291774 -0.22482912 -0.13486682 -0.05601616 0.13892186 -0.2374662 -0.06585531 -0.12083977
-0.088880815 -0.05474098 -0.23238887 -0.15856709 -0.31375986 -0.17469187 -0.29357862 -0.24528022
-0.061401322 0.0533021 -0.10906852 -0.035031587 -0.1702832 -0.1416232 -0.16635035 -0.05514526
-0.23157996 0.010477729 -0.10624924 -0.33179054 0.06878823 -0.15106517 -0.22613281 -0.026179314

model.4.weight f4 [3, 64]
00000000: db3a ccbc e646 94bc 668f d2bc 3118 cf3d
00000010: 99e2 a3bd cdf6 cd3d 9492 60be c9fc 823e
00000020: bef6 c23d dfd6 e03d a11e 49be bfe3 75bd
00000030: f697 163e e9aa cebc e017 d13d 50d2 2e3e
00000040: c72d c63d 3520 223e ad29 acbd 4965 453e
00000050: 8e1b 4b3d 1229 273d 49d9 233d ad32 303d
00000060: 2585 b03d cd45 5ebd 5eaf aabc 2f76 893d
00000070: 24f9 3a3e 79df b63d a93a 653b 91c2 1c3c
00000080: 27d4 023e 642b b43d fb9f 863d 3512 643e
00000090: 603f fabe c680 ae3d df71 423e f3b4 1c3d
000000a0: b1bd 3f3d f933 b73d cc42 3b3d 5136 10bd
000000b0: aabd 9b3c 2d82 d1bd ed7f bd3c fc4b 723d
000000c0: 44d1 2d3d 4c1a a13d 2129 1d3e a012 4a3e
000000d0: 7b45 e03d b9a4 dc3d 794e 33bc 6c06 973d
000000e0: 2c12 c73d 317e 153e 7a37 2abe f366 32bd
000000f0: 55f9 72be 0016 b73d fa43 ce3d a446 6d3d
00000100: 4d8a 9f3c 8aa9 8c3c 2270 ee3d 5966 23bd
00000110: df24 893d f07a e73b ce0f 8bbd ce27 4a3e
00000120: 2ca2 c53d faef 4c3d c0fd a7bc fdda e83d
00000130: 9a09 5e3e 58ac 5dbc 122f 333c 6e20 b93d
00000140: 52cb 323e daed 923e 5294 3e3c 1b89 af3d
00000150: 86e0 c73b a1ff 8a3d 2e9a 2dba 7732 07bd
00000160: 7af0 133d b0e6 8e3d 4506 0c3e 6472 733e
00000170: 55ce 1f3d 5aff 09bc e28f d03d bb84 fe3d
00000180: 87ac b7bc c537 93bc 0040 263d a13b 573e
00000190: 8fe0 febe 049d 5bbd bedd cd3c e693 453c
000001a0: 7d66 de3d c1e9 e23d 298c 033d a769 ea3d
000001b0: a930 7b3d 2908 8c3d 1903 903d ab05 a53d
000001c0: a0c7 c43d c121 423e 1b96 2e3e 9d8d e13d
000001d0: 45ba 33bd f7bf a8bd fa12 053d 8f3a 0dbd
000001e0: 6cbc a33c 83b7 443e 1a3b 093d 523f cb3d
000001f0: dc5e 52be 5426 ea3c ae7b 86ba f146 5cbd
00000200: d4bd 9f3a 6479 553d 9b3f 023d e35e 023d
00000210: 6ff7 2e3d 4964 88bd 27a5 1ebe 989a 7b3e
00000220: 92af d23d 8f4e b6bd dd45 7bbd 8e75 20bd
00000230: 02fb 523e 1c4c 023e e1af 78bc c9e8 103e
00000240: 1ad0 d33d b9a8 733e d9d9 1fbd 2bfe 423e
00000250: e229 d93d 1104 8dbc 6405 863d 655e 113d
00000260: 1851 aebd 20b3 24bd 8dcd e7bc 4842 d03d
00000270: 089f 113e d6cd d03b a849 9a3d e9cc 883b
00000280: 1c12 6cbd c4e6 24bd c578 89bd 8249 723e
00000290: 3cfe 02bf 552c 903d 31ec 003e 2805 2dbc
000002a0: 1084 4cbd c9cf e03d 6ef5 bfbd fb7e 3bbd
000002b0: e8a3 683d 1e9b 773d 6cf9 1bbd c326 9b3c
000002c0: f0e7 273d 2f0c 093e efa1 d03d 25b7 0b3e
000002d0: 25b8 87bc 564d 21bb 589c eb3d bdf0 983c
000002e0: 30f1 51bd 7bbf 283e a704 e4bc 6031 27bd
000002f0: acc0 89be abdd 003d 6f2b 90bd 2062 5a3d
-0.024930408 -0.018100213 -0.025703143 0.10112036 -0.080022044 0.10056839 -0.21930915 0.25583485
0.095197186 0.109784834 -0.1964059 -0.06003165 0.14706406 -0.02522798 0.10209632 0.17072415
0.096767 0.15832599 -0.084063865 0.19276918 0.049586825 0.040810652 0.04000214 0.04301708
0.08619145 -0.054265786 -0.020835575 0.06711995 0.18259102 0.08929343 0.003497759 0.009567873
0.12776242 0.087973386 0.065734826 0.2227257 -0.48876476 0.08520655 0.18988751 0.038258504
0.046811763 0.0894546 0.045718 -0.03520805 0.019011337 -0.10229907 0.023132289 0.059154496
0.0424359 0.07866344 0.1534772 0.19733667 0.10950752 0.10773606 -0.010944002 0.07374272
0.09720263 0.1459892 -0.16622725 -0.04355521 -0.23727925 0.08939743 0.10071559 0.057928696
0.019475127 0.017170686 0.116424814 -0.03989253 0.06696486 0.007064216 -0.06790124 0.19741747
0.096500725 0.050033547 -0.02050674 0.11369894 0.2168335 -0.0135298595 0.010936515 0.090393886
0.17460373 0.2869709 0.011632042 0.08571073 0.0060997633 0.067870386 -0.0006622401 -0.03300711
0.03611801 0.06977594 0.13674267 0.23774105 0.039015133 -0.008422697 0.101836935 0.1242766
-0.022421135 -0.017970929 0.04058838 0.2101884 -0.497807 -0.05361654 0.025130149 0.0120591875
0.10859392 0.11079741 0.03211609 0.11445933 0.061325703 0.06837494 0.07031841 0.08057722
0.09608388 0.18958189 0.17049448 0.11013339 -0.043878812 -0.082397394 0.0324888 -0.034479674
0.019987307 0.19210629 0.03350363 0.09924187 -0.20543998 0.02858273 -0.0010260248 -0.053778592
0.001218731 0.05211772 0.03179894 0.031828772 0.04271644 -0.06659753 -0.15492688 0.24570692
0.10287394 -0.089017026 -0.061345924 -0.03917461 0.20603564 0.12724346 -0.015178652 0.141513
0.103424266 0.23794831 -0.039026115 0.1904227 0.10603692 -0.017213853 0.06543997 0.035490412
-0.08511561 -0.04020989 -0.028296256 0.10168892 0.14220822 0.006372194 0.0753358 0.004174818
-0.057634458 -0.040259138 -0.06712488 0.23660854 -0.5116918 0.07039706 0.125901 -0.010560311
-0.049930632 0.10977132 -0.09372984 -0.045775395 0.05679694 0.060450666 -0.038079664 0.018939381
0.040992677 0.13383554 0.101871364 0.13644083 -0.0165673 -0.0024612746 0.115044296 0.01866948
-0.051255405 0.16479294 -0.02783425 -0.040818572 -0.2690481 0.0314614 -0.07039534 0.053316236

model.4.bias f4 [3]
00000000: 8d51 6c3d a534 4f3d bab6 dd3d
0.05769496 0.050587315 0.10825868
