Neural Net Approach/DRS no HMQ/trained_sup_function.pt (torch, 24707 bytes, 8 tensors)

trunk.0.weight f4 [64, 3]
0	0x3eaa53be	0.33267015
1	0xbc9986a7	-0.018740965
2	0x3ec2f918	0.38080668
3	0xbeff175d	-0.49822512
4	0x3eebb0ef	0.46033427
5	0x3df8411c	0.12121794
6	0xbe9d5fbc	-0.30737102
7	0xbc0230a3	-0.007946166
8	0x3ee7a42f	0.4524245
9	0x3d07ebe6	0.033183955
10	0x3e851e47	0.25999662
11	0x3d16c100	0.036805153
12	0xbef5c9fa	-0.48005658
13	0x3ec17f73	0.3779255
14	0xbd505bae	-0.050868683
15	0x3ea95bb3	0.33077773
16	0xbe813d8d	-0.25242272
17	0x3e8735d2	0.2640825
18	0x3e91a408	0.28445458
19	0xbeba56d4	-0.3639437
20	0xbf0b923d	-0.54520017
21	0x3d2c2fbf	0.04203772
22	0xbdddc495	-0.10828511
23	0xbe661aa1	-0.22471096
24	0xbe6b3d00	-0.22972488
25	0xbe0f59a1	-0.13999034
26	0xbe991e86	-0.299061
27	0xbe5d6735	-0.21621402
28	0xbee47cfd	-0.44626608
29	0x3e478cff	0.1948738
30	0x3ee39955	0.4445292
31	0x3ee52879	0.4475744
32	0x3e51f53d	0.20503707
33	0x3ee21fc4	0.4416486
34	0x3e2fc281	0.17164041
35	0xba78b686	-0.00094876473
36	0xbead6b5a	-0.33870965
37	0x3ef8a47f	0.48563
38	0x3e711049	0.23541369
39	0x3e36ce6a	0.17852178
40	0xbe4c3b56	-0.1994451
41	0x3d2b4cb4	0.041821197
42	0x3c83b2ea	0.016076524
43	0x3e3f1572	0.18660524
44	0x3d67924c	0.056536004
45	0x3f04cca3	0.5187475
46	0x3cce2d62	0.025168125
47	0x3e323c44	0.17405802
48	0x3e451177	0.19244944
49	0xbef331c5	-0.4749891
50	0x3e149a48	0.14511979
51	0xbe97763f	-0.29582402
52	0xbef42a57	-0.47688553
53	0x3e7595ed	0.23982973
54	0xbeabc6db	-0.33550152
55	0xbed21ef8	-0.41039252
56	0xbd928172	-0.07153596
57	0x3ed206df	0.41020867
58	0x3f2a50d2	0.6652957
59	0xbea1c83d	-0.31598082
60	0xbe9f5d71	-0.31125978
61	0xbed7ea92	-0.4217115
62	0xbe0dc818	-0.13845861
63	0xbf0150fa	-0.50514185
64	0xbe9acbfa	-0.30233747
65	0x3e4ae27a	0.19812956
66	0xbe13811d	-0.14404722
67	0xbf3227f7	-0.6959223
68	0x3d52deaa	0.05148188
69	0x3efa437e	0.48879617
70	0x3e7ad6ec	0.24496049
71	0xbc82c380	-0.015962362
72	0xbeb12163	-0.34595785
73	0xbf100238	-0.56253386
74	0xbe85ead2	-0.26155716
75	0xbe1b52c7	-0.15168296
76	0xbe78e585	-0.24306305
77	0xbd91e0d6	-0.07122962
78	0x3e44294a	0.19156376
79	0x3ee808d4	0.45319235
80	0xbe6a6bbc	-0.2289266
81	0xbf0ff362	-0.5623075
82	0xbe28f49b	-0.1649956
83	0x3f03e077	0.5151438
84	0xbf0743bf	-0.5283775
85	0xbe0c1dd3	-0.13683252
86	0x3ea19320	0.3155756
87	0xbdec0a62	-0.11525418
88	0x3f280cb4	0.65644383
89	0xbe669df3	-0.2252119
90	0x3e73f027	0.2382208
91	0x3e80db09	0.2516711
92	0xbe9fc12f	-0.31202075
93	0x3f086349	0.532765
94	0xbe99c794	-0.3003508
95	0x3e55d245	0.20880993
96	0xbdf0b8b4	-0.11753979
97	0xbea8fc00	-0.3300476
98	0x3d8473a9	0.06467373
99	0xbd3e7147	-0.04649475
100	0xbf15d918	-0.58534384
101	0x3ee32515	0.4436423
102	0x3e1e454d	0.15456124
103	0x3e7f9570	0.2495935
104	0x3ea0e88c	0.3142742
105	0x3e63bb73	0.22239475
106	0x3f09bc4e	0.53802955
107	0xbdc806c6	-0.09766917
108	0xbf1c25da	-0.60995257
109	0x3e89ac96	0.26889485
110	0xbe749a5a	-0.23887005
111	0x3e7a3b05	0.24436577
112	0xbe707786	-0.23483095
113	0x3d9fd3ef	0.07804095
114	0xbe7f3e63	-0.24926142
115	0xbecf1afb	-0.40450272
116	0xbeb0b5e7	-0.3451378
117	0x3e19fa75	0.15036948
118	0xbcb622ce	-0.022233393
119	0xbec44287	-0.38332006
120	0x3ee7f5c0	0.4530468
121	0x3ef66a51	0.48127988
122	0x3c227909	0.009916552
123	0x3e1f425d	0.1555266
124	0x3de912e0	0.11380553
125	0x3e82e7b0	0.2556739
126	0xbef29f2f	-0.47387072
127	0xbf047aa9	-0.51749665
128	0x3efcdf66	0.4938919
129	0x3eb41c74	0.35177958
130	0x3e10dd57	0.14146934
131	0xbe81c7cb	-0.25347742
132	0x3e712286	0.23548326
133	0x3f114db6	0.567592
134	0xbeaf464f	-0.3423333
135	0x3e7a602b	0.24450748
136	0x3ebc0893	0.36725292
137	0xbc8359f2	-0.0160341
138	0xbeba7f0c	-0.36425054
139	0x3deaf267	0.11472016
140	0xbbc57a30	-0.006026529
141	0x3dac1b12	0.08403601
142	0xbee3966f	-0.4445071
143	0x3e8f810c	0.28028142
144	0x3f04646e	0.51715744
145	0xbe40ef09	-0.18841185
146	0x3e8bd605	0.2731172
147	0x3e8b643e	0.27224916
148	0xbe7cccd8	-0.24687517
149	0xbe950b45	-0.2911016
150	0x3e8d6c54	0.2762171
151	0xbe214d42	-0.15752128
152	0x3e04094d	0.12894173
153	0xbedee9ec	-0.43537843
154	0xbeeb3bdd	-0.4594411
155	0x3e709234	0.23493272
156	0x3e95630e	0.29177135
157	0xbe8fda0f	-0.28096053
158	0x3bca2c11	0.006169804
159	0x3c45fbbf	0.012083947
160	0xbda30b24	-0.07961109
161	0xbe8292d1	-0.25502637
162	0x3ef71199	0.48255613
163	0xbf2332cd	-0.6374939
164	0xbddf24d4	-0.10895696
165	0x3db02723	0.08601215
166	0xbf10a27c	-0.5649793
167	0x3e56cdc8	0.20976937
168	0x3e673f47	0.22582732
169	0x3e8bd701	0.27312472
170	0x3c945839	0.018108474
171	0x3f09dd6a	0.53853476
172	0x3e47a85d	0.19497819
173	0x3e59c98c	0.2126829
174	0xbd0461e8	-0.032319933
175	0xbd1757fd	-0.036949147
176	0xbeeeeeeb	-0.46666655
177	0xbefa1996	-0.48847646
178	0x3e26ae19	0.1627735
179	0xbdcab958	-0.09898633
180	0xbe87e628	-0.26542783
181	0xbed16d4c	-0.409037
182	0xbe85cfc9	-0.2613509
183	0x3e25a9a5	0.16177996
184	0x3ecc60e4	0.39917672
185	0xbe96b386	-0.2943384
186	0x3efc389b	0.49261937
187	0xbf050ddb	-0.51974267
188	0xbecfb8d2	-0.40570694
189	0x3f07a275	0.52982265
190	0x3e46650c	0.19374484
191	0xbeaf9c67	-0.34299013

trunk.0.bias f4 [64]
0	0xbd905e63	-0.07049253
1	0xbe5d0929	-0.21585526
2	0xbdf4f716	-0.119611904
3	0xbd3829be	-0.044961683
4	0x3e22b36e	0.1588876
5	0x3e5eeb72	0.21769503
6	0xbcaf47ea	-0.021396596
7	0xbc8239e2	-0.015896741
8	0xbe871ccd	-0.2638916
9	0xbd2ad3de	-0.04170596
10	0x3e32ecdc	0.17473167
11	0xbd280dc6	-0.04102876
12	0xbdd20993	-0.102557324
13	0xbda36bc0	-0.07979536
14	0xbd5f241c	-0.054477796
15	0x3e83ee7d	0.2576789
16	0x3d916e97	0.071011715
17	0x3e96b7fa	0.29437238
18	0x3d7a5f90	0.06112629
19	0x3e115689	0.14193167
20	0x3d3ed464	0.04658927
21	0xbd153e06	-0.036436103
22	0xbc2cf7a9	-0.010557094
23	0x3df693ae	0.120398864
24	0x3a139683	0.0005630033
25	0xbd361b31	-0.044459525
26	0xbc1f5cd3	-0.009726721
27	0xbe563871	-0.20919968
28	0xbe6cfc13	-0.23143034
29	0xbbc3af68	-0.005971838
30	0xbe585f69	-0.21130146
31	0xbd7a361f	-0.06108677
32	0x3e73411e	0.23755309
33	0xbe376062	-0.17907861
34	0xb8ad1a81	-8.2542196e-05
35	0x3e6bfee2	0.23046449
36	0xbe29e13b	-0.16589825
37	0xbd5b577a	-0.05355022
38	0x3cdde5d6	0.027087133
39	0xbda07c97	-0.078362636
40	0x3bf124b5	0.007359112
41	0x3c79bdde	0.015243022
42	0xbd356d5d	-0.04429375
43	0xbcc89d09	-0.024488943
44	0x3d81cbd2	0.06337704
45	0xbd21ac17	-0.03947076
46	0x3bf21c92	0.0073886598
47	0x3d806e6c	0.06271061
48	0x3c0ae2b9	0.008476906
49	0xbe483a7c	-0.1955356
50	0x3d9cc662	0.07655026
51	0xbe17c27e	-0.14820287
52	0x3e66d00c	0.22540301
53	0x3e318d7e	0.17339131
54	0xbdb6654c	-0.089060396
55	0xbd4375c8	-0.047719747
56	0x3d38e083	0.045135986
57	0x3dfb805d	0.12280343
58	0x3e8d8b48	0.27645326
59	0x3ced7491	0.028986247
60	0xbcdb8540	-0.026796937
61	0xbdc77dbf	-0.09740781
62	0x3e3d7cb6	0.18504605
63	0xb9477d2b	-0.00019024748

trunk.2.weight f4 [64, 64]
0	0xbdf0b3c5	-0.11753038
1	0xbe722f71	-0.2365091
2	0xbf0423be	-0.5161704
3	0x3cad40b2	0.021149013
4	0x3e05ad0d	0.13054295
5	0x3f0fae6a	0.5612551
6	0x3e80808c	0.25098073
7	0x3d685ec7	0.05673101
8	0xbf160475	-0.5860055
9	0xbd40c2d2	-0.047060795
10	0x3b8b0273	0.0042422353
11	0xbd8e2260	-0.0694015
12	0x3e928bbf	0.28622243
13	0xbe8f12fb	-0.27944168
14	0xbea409cc	-0.32038724
15	0x3ec90cb6	0.3926751
16	0x3b9ef431	0.004850887
17	0x3ef94240	0.48683357
18	0x3da1e834	0.07905617
19	0xbc77e6df	-0.015130728
20	0xbde85b6e	-0.11345564
21	0xbf0a42da	-0.5400826
22	0xbd6c7891	-0.05773217
23	0x3defa9b0	0.11702287
24	0xbe00ed51	-0.12590529
25	0xbeb9e51c	-0.3630761
26	0x3f07b7f2	0.53015053
27	0xbe2f18b6	-0.1709927
28	0xbeffc8f9	-0.49958017
29	0x3c6df3ff	0.014523505
30	0xbeb56ebf	-0.35436055
31	0x3ca925be	0.02064788
32	0x3dd57198	0.10422057
33	0xbea28a04	-0.31745923
34	0x3d5732c8	0.052538663
35	0x3e7395f7	0.23787676
36	0xbd114f25	-0.03547587
37	0xbf001e9a	-0.50046694
38	0xbe8d5227	-0.2760174
39	0x3d4db5a5	0.050222058
40	0x3ef2cc1e	0.47421354
41	0x3e4981da	0.1967844
42	0xbe9f9103	-0.31165323
43	0x3ea48027	0.32129022
44	0x3ea7ad03	0.32749185
45	0x3eb10bc6	0.34579295
46	0xbeb03664	-0.34416497
47	0xbed11775	-0.4083821
48	0x3e819e03	0.25315866
49	0xbd7b97d9	-0.06142411
50	0x3ea89cef	0.3293223
51	0xbdee508d	-0.116364576
52	0x3e84f572	0.2596851
53	0xbd760dd9	-0.0600718
54	0xbe93d6c5	-0.28874794
55	0xbe63fdab	-0.22264735
56	0x3ee77422	0.4520579
57	0x3e805ce1	0.2507086
58	0x3f12b74e	0.5731095
59	0x3e33c882	0.17556956
60	0x3a800aae	0.0009768808
61	0xbdf9f604	-0.12205127
62	0x3e02fee0	0.1279254
63	0xbd5b1d10	-0.053494513
64	0x3e1d9fa9	0.15392937
65	0xbed27c76	-0.4111058
66	0xbe92e368	-0.28689122
67	0x3e6bbcb1	0.23021199
68	0x3e757283	0.23969464
69	0x3ec927c4	0.3928815
70	0x3d2b9716	0.041892134
71	0x3d266cc9	0.04063109
72	0xbeb360ae	-0.35034698
73	0xbd6a5967	-0.057214167
74	0xbe4811fe	-0.19538113
75	0xbd6fe450	-0.058567345
76	0xbdeed387	-0.116614394
77	0x3e6bb12e	0.23016807
78	0x3d3f18e2	0.04665459
79	0xbdc077ad	-0.09397826
80	0x3dc33d7e	0.09533213
81	0x3ea8fe00	0.33006287
82	0xbeddb210	-0.43299913
83	0xbdb26684	-0.087109596
84	0xbefa7da9	-0.48923996
85	0xbe46f0de	-0.19427821
86	0x3da5630f	0.080755346
87	0x3e62d61c	0.22151989
88	0xbe7bea52	-0.24601105
89	0xbe676bb9	-0.22599687
90	0x3e170fa9	0.14752068
91	0xbe82bba8	-0.25533795
92	0x3e61b53a	0.22041789
93	0x3e484ee6	0.19561347
94	0xbe4a7a6c	-0.19773263
95	0xbde4cc14	-0.11171737
96	0x3ebccb2c	0.36873758
97	0xbebcdd5b	-0.3688763
98	0x3f27c8fa	0.6554104
99	0x3e23792a	0.15964189
100	0xbe80cfdd	-0.25158587
101	0x3c8eadeb	0.017416915
102	0x3cea2644	0.0285827
103	0xbd8248a6	-0.06361513
104	0x3ed5a23e	0.41725343
105	0x3cc1925a	0.023629356
106	0xbe974400	-0.29544067
107	0x3ec130e7	0.37732622
108	0x3f0a3def	0.54000753
109	0xbc05557a	-0.008138055
110	0xbeaad2a8	-0.33363843
111	0xbef9d61e	-0.4879617
112	0x3dc0aca4	0.094079286
113	0xbe472e79	-0.19451322
114	0x3eb6b6dc	0.35686386
115	0xbd78d552	-0.060750313
116	0xbe1bb4d2	-0.15205696
117	0x3d8c6bce	0.068564996
118	0xbedba972	-0.42902714
119	0xbe414cdc	-0.18876976
120	0x3eb7c124	0.35889542
121	0xbe38624d	-0.18006249
122	0x3ed4afa6	0.4154026
123	0x3e90a370	0.28249693
124	0xbf0d7248	-0.55252504
125	0x3da03b67	0.0782383
126	0x3eb6f845	0.3573629
127	0x3e1205ce	0.14260027
128	0xbe9e0868	-0.30865788
129	0xbeb9ff54	-0.36327612
130	0xbf000898	-0.50013113
131	0xbe37aeed	-0.17937823
132	0xbde26f41	-0.11056376
133	0x3ef59c16	0.47970647
134	0x3ed7262a	0.42021304
135	0xbe482843	-0.19546609
136	0x3e1a39f1	0.15061165
137	0xbda4631e	-0.080267176
138	0xbe5828dd	-0.21109338
139	0xbe9e83b7	-0.30959865
140	0xbe9629b3	-0.2932869
141	0x3e92254c	0.2854408
142	0xbe47d712	-0.19515637
143	0x3b097e7b	0.002097993
144	0x3dae1cdd	0.08501599
145	0x3cbb5118	0.022865817
146	0xbe35e212	-0.1776202
147	0x3eba5bc3	0.36398134
148	0xbe8182b8	-0.25295043
149	0xbd6e55fc	-0.05818747
150	0x3dd1e472	0.102486506
151	0x3d04f6e4	0.032462016
152	0x3d41af77	0.047286477
153	0xbeaa49c0	-0.33259392
154	0xbe5b0509	-0.2138864
155	0xbeb47cec	-0.35251558
156	0x3e39735d	0.18110414
157	0xbdfa334d	-0.12216816
158	0xbecbcb1e	-0.39803404
159	0xbe4033bb	-0.18769734
160	0xbde2fa4e	-0.11082898
161	0xbe4aba6f	-0.19797681
162	0xbe736712	-0.23769787
163	0xbe6e9262	-0.23298028
164	0xbe7c66d7	-0.24648605
165	0x3dd4671b	0.10371228
166	0xbe6b3625	-0.22969873
167	0x3e18161a	0.14852181
168	0x3e88e423	0.26736555
169	0x3e36af80	0.17840385
170	0x3d53c55a	0.05170188
171	0x3e396d18	0.18108022
172	0xbe0ee2cf	-0.13953708
173	0xbebe1571	-0.37125733
174	0xbeb2e504	-0.3494035
175	0xbe8c154a	-0.27359992
176	0x3e8ed557	0.2789714
177	0xbddf6c76	-0.10909359
178	0xbe408647	-0.18801223
179	0xbeaae52d	-0.33377972
180	0x3e08e2da	0.13367787
181	0x3edd4ef3	0.43224296
182	0xbd0481e9	-0.032350454
183	0x3ccaa910	0.024738818
184	0xbe19a812	-0.1500552
185	0x3c9e7b17	0.019345803
186	0x3ecff5b1	0.40617135
187	0x3e376a08	0.17911541
188	0xbdb3ab51	-0.087729104
189	0x3eb03599	0.34415892
190	0x3efa9b17	0.4894645
191	0x3e304938	0.1721543
192	0x3eaebbfc	0.34127796
193	0x3e80c171	0.25147584
194	0xbdc16326	-0.09442739
195	0x3e0b737d	0.13618274
196	0xbd7a8ca9	-0.0611693
197	0xbd842923	-0.06453159
198	0xbde1f377	-0.11032765
199	0xbed08483	-0.40726098
200	0x3e630198	0.22168577
201	0xbee22987	-0.44172308
202	0xbdbab12c	-0.09115824
203	0x3dfb73fa	0.1227798
204	0x3f03e11b	0.5151536
205	0xbdf24225	-0.11829022
206	0x3d2b21df	0.04178035
207	0x3e903745	0.28167167
208	0xbeb6b1c3	-0.35682496
209	0x3e834169	0.2563584
210	0xbd1d76f7	-0.03844353
211	0x3e918ff6	0.28430146
212	0xbe7d2cd7	-0.24724136
213	0x3d82c2ed	0.063848354
214	0xbebf34a3	-0.37344846
215	0x3e36add3	0.17839746
216	0x3cb2732e	0.021783438
217	0xbec0833b	-0.3760012
218	0x3e928a94	0.28621352
219	0x3e61c4d3	0.22047739
220	0xbca8cec8	-0.020606413
221	0x3ddb947a	0.10721679
222	0x3dd5357e	0.104105935
223	0x3c8013eb	0.015634498
224	0xbeb9c0c0	-0.3627987
225	0xbdf24ea7	-0.11831408
226	0x3e9bb6eb	0.30412993
227	0x3ebc8b3d	0.3682498
228	0xbd834101	-0.06408883
229	0xbeac0a0e	-0.3360142
230	0x3d4f622c	0.050630733
231	0x3dfa249b	0.12214013
232	0x3e074b8b	0.13212411
233	0x3ef2cf00	0.47423553
234	0x3dfab83f	0.122421734
235	0x3ecdf68a	0.40227157
236	0x3f00d077	0.5031809
237	0x3dff481b	0.12464925
238	0x3e864646	0.2622549
239	0xbc93aff3	-0.018028235
240	0xbe03a531	-0.12855984
241	0x3dae0c8f	0.08498489
242	0xbe07ccfb	-0.13261788
243	0x3ca90227	0.02063091
244	0xbe3db2df	-0.18525265
245	0x3e277279	0.16352262
246	0xbeaae711	-0.33379415
247	0xbe23208d	-0.15930386
248	0x3e40f2ff	0.18842696
249	0x3eaebbfa	0.3412779
250	0xbd48d475	-0.04903074
251	0x3e55d390	0.20881486
252	0xbeba4293	-0.36378917
253	0x3ed63557	0.4183757
254	0x3e0dabbc	0.13835043
255	0x3e1b069b	0.15139239

trunk.2.bias f4 [64]
0	0x3e6054dd	0.21907373
1	0x3e0d3fab	0.13793819
2	0x3e05f844	0.13082987
3	0x3daee0e0	0.08538985
4	0xbda5265b	-0.08063956
5	0xbe307372	-0.17231539
6	0xbc2e8244	-0.010651175
7	0x3e8cae2a	0.27476627
8	0xbd7f4cf1	-0.062329236
9	0x3b7896bb	0.003793164
10	0x3d232b78	0.039836377
11	0x3dc7b093	0.09750476
12	0x3d18a6ba	0.037268378
13	0x3e64c33b	0.223401
14	0x3e28631a	0.16444054
15	0x3bd19713	0.0063961833
16	0xbd38e281	-0.045137886
17	0x3c97d5f7	0.018534644
18	0xbd8497a7	-0.06474238
19	0xbd263bdb	-0.040584426
20	0xbd049f32	-0.032378383
21	0xbb2500b4	-0.002517742
22	0x3e82edbc	0.25572002
23	0x3d6650a2	0.05622924
24	0x3d4a1bef	0.049343046
25	0xbc484abc	-0.012224849
26	0xbdb2d9d5	-0.087329544
27	0x3e1200ff	0.14258192
28	0x3dc5604c	0.09637508
29	0x3e37c624	0.17946678
30	0xbcfbab5b	-0.030721357
31	0x3db4e285	0.08832268
32	0x3b7e5afa	0.003881155
33	0x3e180589	0.14845861
34	0x3ceb02b1	0.028687807
35	0xbd2e7a7f	-0.04259729
36	0xbe1b04d0	-0.15138555
37	0xbdd35b45	-0.10320143
38	0x3ddc6ce8	0.1076296
39	0x3e10bc08	0.14134228
40	0xbcf90169	-0.03039618
41	0xba083b6c	-0.0005196843
42	0xbba412b3	-0.005007112
43	0xbcaf8ddc	-0.021429949
44	0x3e402a66	0.18766174
45	0xbd33bf21	-0.043883447
46	0xbddc14ae	-0.10746132
47	0xbd811131	-0.06302107
48	0x3c8c6b5c	0.017141037
49	0x3e44367b	0.19161408
50	0xbd8a4527	-0.06751471
51	0xbddb4c98	-0.107079685
52	0x3d8b7f6b	0.068114124
53	0x3d586447	0.052830007
54	0x3da005bd	0.078135945
55	0xbe3d71ac	-0.18500394
56	0x3d3a7f8f	0.045531806
57	0xbc2445dc	-0.010026421
58	0xbd91ffb5	-0.0712885
59	0xbd8c4795	-0.06849591
60	0xbd0d09a5	-0.034433026
61	0xbd495037	-0.049148764
62	0x3c9bebef	0.0190334
63	0x3d8d59a7	0.069018655

value_head.0.weight f4 [9, 64]
0	0xbef7c463	-0.4839202
1	0xbf2853ca	-0.6575285
2	0xbe9ba5ae	-0.3039984
3	0xbe9a2a74	-0.30110514
4	0x3f3e93be	0.74444187
5	0x3ef8264e	0.48466724
6	0x3f1b3f3b	0.6064336
7	0xbf3d2a60	-0.73892784
8	0x3f0e2db0	0.55538464
9	0x3d4b6d0c	0.049664542
10	0xbe556144	-0.20837885
11	0xbe9d9e64	-0.30784905
12	0x3f100416	0.56256235
13	0xbef8fb6f	-0.4862933
14	0xbf0dc1b0	-0.5537367
15	0xbeb0eeef	-0.34557292
16	0x3eecef93	0.4627653
17	0xbefd0145	-0.4941503
18	0x3f3d96e2	0.74058354
19	0xbda172ca	-0.078832224
20	0xbe3eec78	-0.18644893
21	0x3ed03b9f	0.40670487
22	0xbf47dc74	-0.7807076
23	0xbe68a874	-0.2272051
24	0xbf09573b	-0.5364873
25	0xbf382cd5	-0.7194341
26	0x3e59b93b	0.21262066
27	0xbf057798	-0.5213561
28	0xbeaca393	-0.33718547
29	0xbeeb7a08	-0.4599154
30	0x3ec9bb23	0.39400586
31	0xbeda1cfa	-0.42600232
32	0x3f468fcd	0.7756317
33	0xbf14bb34	-0.5809815
34	0x3f10b90b	0.56532353
35	0x3d47e93a	0.048806407
36	0x3efb1c7a	0.49045163
37	0x3eda4bd4	0.42635977
38	0xbf3bec5e	-0.7340754
39	0xbf195674	-0.5989754
40	0x3f12e1fa	0.5737606
41	0x3f339c62	0.70160496
42	0x3f324764	0.69640183
43	0xbd6ad6fb	-0.057333928
44	0xbf17b268	-0.592566
45	0x3e968042	0.29394728
46	0x3eb96d3c	0.36216152
47	0x3f0cc368	0.54985666
48	0xbe9df0b2	-0.30847698
49	0xbf21fd8e	-0.6327752
50	0x3f3cd2e5	0.737593
51	0x3f30a62e	0.6900357
52	0xbe622fb9	-0.22088517
53	0x3f36d661	0.71420866
54	0xbe9fed1c	-0.31235588
55	0x3f2a7d96	0.6659788
56	0xbf02004d	-0.5078171
57	0x3e16afe0	0.14715528
58	0x3e8666dc	0.2625035
59	0xbf0acacd	-0.542157
60	0x3f44bf10	0.7685404
61	0x3f372ff8	0.7155757
62	0x3de41655	0.11137072
63	0xbf1184e8	-0.56843424
64	0xbf325478	-0.6966014
65	0xbedbd26d	-0.4293398
66	0xbf545389	-0.82939965
67	0xbf149c42	-0.5805093
68	0x3eb2f7e0	0.3495474
69	0x3f455d50	0.7709551
70	0x3f2f5b74	0.6849892
71	0xbf559cc5	-0.83442336
72	0xbc298a10	-0.010347858
73	0xbecb2442	-0.396761
74	0x3d472a45	0.048624296
75	0x3c2ca2be	0.010536848
76	0x3f335736	0.7005495
77	0xbeffb13b	-0.49939904
78	0xbf430629	-0.76181275
79	0xbe69f6ae	-0.22848007
80	0x3f313d43	0.692341
81	0xbf07d579	-0.5306011
82	0x3eec6157	0.46168014
83	0x3e5a7347	0.21333037
84	0xbdc6cc91	-0.09706987
85	0xbda07c4a	-0.07836206
86	0xbf3631e6	-0.7116989
87	0xbee5f705	-0.44915023
88	0xbf3bc5b8	-0.7334857
89	0xbeda5922	-0.42646128
90	0x3ec4d203	0.38441476
91	0xbece1f13	-0.40258083
92	0xbed2cbf4	-0.4117123
93	0xbf22bab1	-0.6356612
94	0x3d9c2b70	0.076254725
95	0x3d992aaa	0.07478841
96	0x3f01002a	0.50390875
97	0xbf51a7e5	-0.8189681
98	0x3f18240e	0.59430015
99	0x3e75e2ee	0.24012348
100	0x3f3be1bc	0.7339132
101	0x3f5b560a	0.8567816
102	0xbf18bdb5	-0.5966447
103	0xbe979ee8	-0.29613423
104	0x3f1f92e0	0.6233349
105	0x3f0aca33	0.5421478
106	0x3f03e176	0.515159
107	0x3e4fa8b8	0.20279205
108	0xbf30f5a6	-0.6912483
109	0x3f3cb6d8	0.737165
110	0x3f1398bb	0.57654923
111	0x3f32e249	0.69876534
112	0xbeac052c	-0.33597696
113	0xbed1a6af	-0.40947482
114	0x3f14dcd1	0.5814944
115	0x3ee19f2d	0.44066754
116	0xbe1ef373	-0.15522556
117	0x3ef71c4a	0.4826377
118	0xbea2bda0	-0.31785297
119	0x3f5e3d6a	0.8681246
120	0xbdd54f20	-0.104154825
121	0xbdcdcfbe	-0.10049389
122	0xbe09a1f0	-0.1344068
123	0xbe46ab94	-0.1940139
124	0x3eab52da	0.33461648
125	0x3f2c2f9d	0.6726015
126	0x3edeb52e	0.43497604
127	0xbe714ff9	-0.23565663
128	0xbf12e0c6	-0.5737423
129	0xbf3723c4	-0.7153895
130	0xbf54f01b	-0.8317887
131	0xbec43016	-0.38317937
132	0x3f49e1fe	0.7886046
133	0x3f091e63	0.5356199
134	0x3f082806	0.5318607
135	0xbf41ce94	-0.7570584
136	0x3e9144ef	0.28372905
137	0xbeb6e7e6	-0.357238
138	0xbece2906	-0.40265673
139	0xbe50cedd	-0.20391412
140	0x3ef3b186	0.47596377
141	0xbf438cf4	-0.7638695
142	0xbf50995a	-0.81483996
143	0xbe7585f5	-0.23976882
144	0x3f098cec	0.53730655
145	0xbf1e6257	-0.61868805
146	0x3f1dfc90	0.61713505
147	0xbc25eff8	-0.010128014
148	0x3ddc986d	0.107712604
149	0x3e76ae69	0.2408997
150	0xbf1b3ee3	-0.6064283
151	0xbf159f8e	-0.58446586
152	0xbf0e43a1	-0.55571944
153	0xbf2df2f5	-0.6794885
154	0x3ee9821f	0.45607087
155	0xbf69733e	-0.9119147
156	0xbeee17c5	-0.4650251
157	0xbedcfc07	-0.43161032
158	0x3e11578f	0.14193557
159	0xbe0ef864	-0.13961941
160	0x3f45cdcd	0.7726715
161	0xbf4ac2cf	-0.79203504
162	0x3e885d2f	0.26633593
163	0xbdd2e620	-0.10297799
164	0x3f334556	0.70027673
165	0x3f592456	0.8482107
166	0xbefef98e	-0.4979977
167	0xbf14002e	-0.57812774
168	0x3e9727c8	0.29522538
169	0x3ed755a1	0.42057517
170	0x3e9eace8	0.30991292
171	0x3e8fae03	0.28062448
172	0xbed4c315	-0.41555086
173	0x3f4c3281	0.7976456
174	0x3e5c07b4	0.21487314
175	0x3f27a98a	0.6549307
176	0xbf08f78b	-0.5350272
177	0xbf513b01	-0.8173066
178	0x3f40e695	0.7535184
179	0x3f40cf31	0.7531615
180	0xbe39069d	-0.18068929
181	0x3ee4d6b1	0.44695047
182	0xbeb7aa6b	-0.35872206
183	0x3f4828d0	0.78187275
184	0xbef272b3	-0.47353134
185	0x3dc7dd93	0.09759059
186	0x3eaed2ee	0.34145302
187	0xbee1dbf2	-0.44113117
188	0x3f5697a5	0.8382514
189	0x3f3a7f4e	0.728505
190	0x3d824c2c	0.06362185
191	0xbf06169b	-0.52378243
192	0xbf539612	-0.82650864
193	0xbec5aa15	-0.38606325
194	0xbf0e5b58	-0.5560813
195	0xbf04ad64	-0.51827073
196	0x3f4bcc78	0.7960887
197	0x3efa428c	0.48878896
198	0x3f27a96b	0.65492886
199	0xbef62b31	-0.48079827
200	0x3e718ad2	0.23588112
201	0xbf11f97c	-0.5702131
202	0xbe924c7c	-0.28573978
203	0xbeffd30f	-0.49965712
204	0x3f4b4ad8	0.7941108
205	0xbea69636	-0.32536477
206	0xbe8f05d7	-0.27934143
207	0xbe0d6428	-0.13807738
208	0x3eebcc11	0.46054128
209	0xbf11ceb6	-0.5695604
210	0x3e92b4fd	0.28653708
211	0xbd81a386	-0.06330018
212	0xbe8d4039	-0.2758806
213	0x3cf5edb1	0.030020567
214	0xbf3fed74	-0.749717
215	0xbf02a165	-0.5102752
216	0xbf01de1d	-0.5072954
217	0xbf27744f	-0.6541185
218	0x3ef4a1a0	0.4777956
219	0xbf111682	-0.5667497
220	0x3b3f2946	0.0029168888
221	0xbed85848	-0.42254853
222	0x3eceeaac	0.40413415
223	0xbed009d8	-0.4063251
224	0x3f18c2a5	0.59672004
225	0xbf393c01	-0.72357184
226	0x3f3038c0	0.68836594
227	0x3ebb041f	0.36526582
228	0x3ea9687f	0.33087537
229	0x3f53886d	0.82630044
230	0xbf3c1338	-0.73466825
231	0xbef8edd8	-0.4861896
232	0x3ea33888	0.31879067
233	0x3f216c92	0.6305629
234	0x3ea6a57b	0.32548127
235	0xbc29ae2a	-0.010356465
236	0xbf10ab02	-0.5651094
237	0x3ed721f5	0.42018095
238	0x3f2f1cb9	0.684032
239	0x3f0399c7	0.5140652
240	0xbec1ccca	-0.37851554
241	0xbecaf098	-0.39636683
242	0x3ec750f4	0.3892895
243	0x3f52dfdf	0.8237285
244	0x3ca23b9e	0.019803818
245	0x3f0b7d5b	0.5448815
246	0xbeddce87	-0.4332163
247	0x3f60344e	0.8757981
248	0xbf1337e0	-0.57507133
249	0x3ea51cfb	0.32248673
250	0x3e947e9b	0.29002842
251	0xbe969a2b	-0.29414496
252	0x3f303fef	0.68847555
253	0x3ebaeaa7	0.3650715
254	0x3ee79e65	0.45238033
255	0xbea7c53d	-0.32767668

value_head.0.bias f4 [9]
0	0xbf12fda2	-0.5741826
1	0xbf0875c0	-0.5330467
2	0xbf08f835	-0.53503734
3	0xbf10a1ce	-0.56496894
4	0xbf0b57f3	-0.54431075
5	0xbf152380	-0.58257294
6	0xbf00ed7f	-0.5036239
7	0xbefcfeb9	-0.49413088
8	0xbf18a476	-0.5962595

hiring_head.0.weight f4 [3, 64]
0	0xbcdb2ee7	-0.026755763
1	0xbe8bcade	-0.27303213
2	0x3e84c419	0.2593086
3	0xbec5c3a2	-0.38625818
4	0xbcb27a3b	-0.0217868
5	0x3d1b1467	0.037861254
6	0x3e809040	0.25110054
7	0x3e4a7a9d	0.19773336
8	0x3e9dfdc3	0.30857667
9	0xbe201ebb	-0.15636723
10	0x3e81aa4b	0.25325236
11	0x3dc64182	0.096804634
12	0xbdb79f90	-0.08965981
13	0x3be721b0	0.0070535764
14	0x3ccdec05	0.025136957
15	0xbe5e5c0b	-0.21714799
16	0x3e22777c	0.15865892
17	0xbea34fa7	-0.31896707
18	0x3e7c06a1	0.24611904
19	0xbd75f965	-0.060052294
20	0x3d7c476c	0.06159155
21	0xbe530a41	-0.2060938
22	0x3d564ce2	0.052319415
23	0x3da47687	0.0803042
24	0xbea33fb3	-0.31884536
25	0xbe07289b	-0.13199084
26	0x3e2db3cf	0.16963123
27	0xbe8447d1	-0.25836042
28	0xbd4bffc8	-0.04980448
29	0xbe2a0e92	-0.1660712
30	0x3d2a6304	0.041598335
31	0xbe848fad	-0.25890866
32	0x3e8e6e33	0.2781845
33	0xbd0f8b1e	-0.035044782
34	0xbdc1d5be	-0.09464596
35	0xbe40f0fa	-0.18841925
36	0x3e005206	0.1253129
37	0x3d89070b	0.066907965
38	0xbec4563a	-0.38347036
39	0xbe0ad88d	-0.1355917
40	0x3ed27aee	0.41109413
41	0xbdd20a95	-0.102559246
42	0xbdf6bbc9	-0.12047536
43	0x3e2839bd	0.16428275
44	0xbe46c6b8	-0.19411743
45	0xbcc19043	-0.02362836
46	0xbe4bd29e	-0.19904563
47	0x3e0e0077	0.13867365
48	0xbe1762ab	-0.14783733
49	0x3cd6e0b2	0.02623019
50	0x3e5a7db1	0.2133701
51	0x3e4c0661	0.19924308
52	0xbe254912	-0.16141155
53	0x3e0aaeb6	0.1354321
54	0xbeecfe05	-0.46287552
55	0xbde4b99d	-0.111682154
56	0x3e105942	0.14096549
57	0xbdc93a70	-0.09825599
58	0xbe90ab8e	-0.28255886
59	0xbeb8c40f	-0.3608708
60	0x3eb9f752	0.36321503
61	0xbdbeca02	-0.09315874
62	0xbe0d4b00	-0.13798141
63	0x3de52baf	0.111899726
64	0xbe72a8be	-0.23697183
65	0xbe437d6d	-0.19090815
66	0x3e4f7a48	0.2026149
67	0xbeb2271e	-0.3479547
68	0x3e2308fb	0.15921395
69	0x3e3dd5b4	0.18538553
70	0x3db0af73	0.08627214
71	0xbe1d81d9	-0.15381564
72	0xbe8f38b9	-0.27972963
73	0xbed1544e	-0.40884632
74	0x3e7e2232	0.24817732
75	0x3dd83440	0.10556841
76	0x3d3f6b06	0.046732925
77	0xbe19164d	-0.14949913
78	0xbe844841	-0.25836375
79	0xbe8cb44d	-0.2748131
80	0x3e96f177	0.29481098
81	0x3db1a4dc	0.086740226
82	0x3eab6c95	0.3348128
83	0xbdd9220b	-0.10602196
84	0xbed53e53	-0.41649112
85	0x3deba869	0.11506731
86	0xbdb918f9	-0.09037966
87	0x3ddbc56a	0.10731013
88	0xbe206a8f	-0.15665649
89	0xbe25a4e3	-0.1617618
90	0xbe38bd06	-0.18040857
91	0xbd642bea	-0.055705942
92	0xbe2364ac	-0.15956372
93	0xbe6b19e5	-0.22959097
94	0xbd10ac09	-0.035320316
95	0x3e6085c0	0.21926022
96	0x3ee3a673	0.44462928
97	0x3e561b2c	0.20908803
98	0x3e9e4d56	0.30918378
99	0xbe21021a	-0.15723458
100	0x3d8cc632	0.0687374
101	0xbdb74203	-0.089481376
102	0xbe67edab	-0.22649257
103	0x3ebafd5a	0.36521417
104	0x3e98f9e1	0.29878142
105	0x3eb90748	0.36138368
106	0x3e68529e	0.22687766
107	0xbe634f36	-0.22198185
108	0xbe995576	-0.29948014
109	0x3edd05f0	0.43168592
110	0xbeaf0213	-0.3418127
111	0xbd841468	-0.06449205
112	0xbe9f372c	-0.3109678
113	0x3e6433bb	0.22285359
114	0x3e94d9f7	0.29072544
115	0xbcfdb37a	-0.03096937
116	0x3db69014	0.089141995
117	0x3dbaba6e	0.0911759
118	0xbe30ace3	-0.17253451
119	0x3eaa447c	0.33255374
120	0x3e6299a4	0.22128922
121	0xbe32cffc	-0.17462152
122	0xbee507c5	-0.4473249
123	0xbe8bcaca	-0.27303153
124	0xbce15e4a	-0.02751078
125	0x3eafbeb6	0.34325188
126	0xbdcdf217	-0.100559406
127	0x3e240ec3	0.16021256
128	0x3e7ae0d0	0.24499822
129	0x3d2f863e	0.042852633
130	0x3e410f3d	0.18853469
131	0xbe071f63	-0.13195567
132	0x3d09952f	0.03358954
133	0xbd8bcd3d	-0.068262555
134	0x3e3a2d17	0.18181263
135	0x3e97c6c9	0.2964385
136	0xbe9f4589	-0.3110774
137	0xbe0a8cf0	-0.13530326
138	0xbda97458	-0.08274144
139	0x3ea31056	0.318484
140	0x3e92ae57	0.28648636
141	0x3e9b37df	0.30316064
142	0x3dfe372c	0.12412867
143	0xbe37bc21	-0.17942859
144	0x3e29a48e	0.16566679
145	0xbeaa805f	-0.33301064
146	0x3c0f4120	0.008743554
147	0xbe86ff77	-0.2636678
148	0xbe82f507	-0.25577566
149	0xbed96595	-0.42460313
150	0x3e54d603	0.20784764
151	0x3ea093c1	0.31362727
152	0xbdefd0b7	-0.11709731
153	0xbe816bbc	-0.25277507
154	0xbe59a2b7	-0.21253477
155	0x3e322eb9	0.17400636
156	0x3ec4df8f	0.38451812
157	0x3e33f980	0.17575645
158	0xbe114677	-0.14187036
159	0x3ed4971e	0.41521543
160	0x3e5bfa44	0.21482188
161	0x3da003e8	0.07813245
162	0x3e77d88f	0.24203704
163	0xbe953b3a	-0.2914675
164	0xbd1fcef6	-0.039015733
165	0x3d02b63d	0.031912077
166	0x3cde840b	0.027162572
167	0x3ed293ec	0.4112848
168	0x3e6c64ea	0.2308537
169	0x3dc3ec70	0.09566581
170	0x3dedc459	0.11609716
171	0xbe8114f3	-0.25211295
172	0x3e85fee0	0.26171017
173	0x3cef995b	0.02924793
174	0xbe88614e	-0.26636738
175	0x3daa0f85	0.08303741
176	0xbe281c27	-0.1641699
177	0x3e3fffbe	0.18749902
178	0x3cdfd1a1	0.027321639
179	0xbbcef6f9	-0.0063160625
180	0x3e67427c	0.22583956
181	0x3e6e60d7	0.23279129
182	0x3e877763	0.26458272
183	0xbe79a048	-0.24377549
184	0xbd7368f8	-0.059426278
185	0xbe1aa8aa	-0.15103403
186	0xbe88e95e	-0.26740545
187	0xbeba8d35	-0.36435857
188	0x3e460351	0.19337203
189	0xbbb62af5	-0.00555932
190	0x3e9d4f47	0.30724546
191	0x3eec4a8f	0.46150634

hiring_head.0.bias f4 [3]
0	0xbcbea3c2	-0.023271445
1	0xbd9efa4d	-0.07762585
2	0x3bcdc7e5	0.006279933
