Neural Net Approach/DRS no HMQ/trained_value_function.pt (torch, 21833 bytes, 6 tensors)

trunk.0.weight f4 [64, 3]
0.49373567 1.0975782 -0.8353914 -0.6160837 -0.59188455 0.23147792 -0.40353835 -0.15926497
0.6796266 0.71517956 0.24049586 -0.52826476 0.20578445 1.0612825 -0.14932615 -0.51012665
-0.2304071 0.103786334 0.5571217 0.7948125 -0.2868242 0.4972146 1.0776708 -0.5406793
-0.49024302 -0.69640017 0.6862923 -0.15601708 -1.0660764 1.0515792 0.21125744 1.2434088
-0.36694813 0.59726506 0.08755645 -0.7488958 -0.27333528 -0.56481194 0.8232329 0.29096362
0.80221653 -0.43634248 -0.7164809 -0.46935657 0.08606207 -0.60188925 -0.46328002 0.31018707
-0.1237144 -1.1630142 0.9091062 -0.68756163 -0.31435516 0.14302386 0.22421518 1.0183116
-0.7030264 -0.28457308 -0.6050966 0.24524748 -0.29022047 -0.06965081 -0.2513963 0.68588936
-1.7296072 0.015740441 0.12116465 1.3629786 -0.41573176 -0.038679983 0.26315138 -0.27084494
-0.5682385 -0.9582887 0.34786528 0.13486794 0.8470504 -0.48546723 -0.07606167 1.0451283
-0.31319112 -0.38163823 -0.5772174 0.24159661 -0.48460406 -0.8309313 -0.22959481 -0.19693998
-1.3620869 0.82255095 -0.8248776 -0.34172943 0.65779155 -0.1807153 1.1167897 -0.5715555
-0.5946274 -0.6050406 0.6564604 -0.6262098 -0.8443034 0.8088614 -0.59105664 -0.16222423
0.2808711 -0.84190774 0.38303977 0.24621117 -0.10838542 -0.4272522 0.22534071 1.3150128
-0.78634554 -0.42575917 0.1584375 1.5885584 -0.6966733 -0.51092434 0.2192482 0.23896863
-0.022938179 -1.5086205 -0.12300263 0.070305206 1.3833283 -0.5130284 0.27993906 0.35186782
-0.49559385 -0.34625918 -0.9710215 0.7356928 0.498169 0.56327146 -0.4736768 -0.43297315
-0.8204477 0.29793903 -0.18501528 -1.15861 0.49034417 0.21938275 0.7811022 -0.5425896
-0.40867767 -0.50936764 0.42306492 0.9258822 0.39002776 -0.55172986 0.45124987 1.103747
-0.82463104 -0.4053924 -1.2732168 0.8160878 1.0481722 -0.13755171 0.15478197 -0.025064914
-1.504307 0.7292998 0.3459596 0.9665409 -0.3293321 0.36970627 0.6792316 0.18055025
0.48496288 0.50277406 -0.56605595 0.4043396 1.4364679 -1.1781242 0.3425313 0.99843955
-0.3626006 0.3944797 0.46055087 -0.17468077 0.37479538 1.0148805 -0.73298013 0.9717416
0.0668929 -1.273154 0.2815548 0.6419413 -0.65347385 1.6487894 -0.041305725 -0.38591164
00000000: ecca fc3e 717d 8c3f 36dc 55bf a9b7 1dbf
00000010: bf85 17bf 8c08 6d3e 949c cebe 5b16 23be
00000020: 02fc 2d3f 0216 373f 8c44 763e 5c3c 07bf
00000030: 29b9 523e 1bd8 873f f4e8 18be a997 02bf
00000040: d7ef 6bbe ee8d d43d 879f 0e3f d578 4b3f
00000050: 9fda 92be e992 fe3e 1ef1 893f f569 0abf
00000060: 2201 fbbe 4847 32bf dab0 2f3f f1c2 1fbe
00000070: 3175 88bf 269a 863f df53 583e 0528 9f3f
00000080: a0e0 bbbe 5de6 183f cc50 b33d a3b7 3fbf
00000090: 9af2 8bbe 8497 10bf 64bf 523f 2ff9 943e
000000a0: 105e 4d3f 4868 dfbe 4b6b 37bf 814f f0be
000000b0: 5041 b03d 6a15 1abf 0a33 edbe d7d0 9e3e
000000c0: fa5d fdbd a6dd 94bf 2fbb 683f 0a04 30bf
000000d0: 29f3 a0be d974 123e aa98 653e 0958 823f
000000e0: 8af9 33bf 90b3 91be 9ce7 1abf 2822 7b3e
000000f0: c797 94be 15a5 8ebd 04b7 80be 7296 2f3f
00000100: c563 ddbf 19f2 803c 2c25 f83d 1576 ae3f
00000110: cbda d4be e76e 1ebd c7bb 863e 30ac 8abe
00000120: 1478 11bf 6952 75bf 661b b23e d21a 0a3e
00000130: 4cd8 583f 298f f8be 39c6 9bbd c4c6 853f
00000140: 965a a0be 1666 c3be 85c4 13bf 1a65 773e
00000150: 061e f8be eab7 54bf e71a 6bbe a2aa 49be
00000160: dd58 aebf b392 523f 2e2b 53bf 29f7 aebe
00000170: 0765 283f 6e0d 39be f7f2 8e3f 7651 12bf
00000180: 8039 18bf f1e3 1abf ca0d 283f 494f 20bf
00000190: 4524 58bf 8a11 4f3f 7d4f 17bf 1c1e 26be
000001a0: 56ce 8f3e 4487 57bf ca1d c43e c81e 7c3e
000001b0: 2df9 ddbd cdc0 dabe b7bf 663e 5752 a83f
000001c0: f14d 49bf 1bfd d9be 713d 223e e255 cb3f
000001d0: 2e59 32bf f0cb 02bf 9a82 603e 31b4 743e
000001e0: d9e8 bbbc 7a1a c1bf cee8 fbbd 2dfc 8f3d
000001f0: e710 b13f d455 03bf 2c54 8f3e 0528 b43e
00000200: 7abe fdbe e248 b1be dd94 78bf 5d56 3c3f
00000210: 0210 ff3e 8f32 103f c485 f2be a8ae ddbe
00000220: dc08 52bf 778b 983e a574 3dbe 554d 94bf
00000230: 640e fb3e dfa5 603e 50f6 473f 27e7 0abf
00000240: 333e d1be eb65 02bf f79b d83e 9e06 6d3f
00000250: b8b1 c73e 2b3e 0dbf 390a e73e 9547 8d3f
00000260: 051b 53bf 988f cfbe c5f8 a2bf 21eb 503f
00000270: 822a 863f 5bda 0cbe 2a7f 1e3e ef54 cdbc
00000280: 228d c0bf 64b3 3a3f 9e21 b13e 396f 773f
00000290: 389e a8be 244a bd3e 1fe2 2d3f 2ae2 383e
000002a0: 0e4d f83e cdb5 003f 0be9 10bf 9a05 cf3e
000002b0: 2ede b73f c6cc 96bf 4360 af3e bc99 7f3f
000002c0: c9a6 b9be 3ef9 c93e 53cd eb3e 84df 32be
000002d0: 2ee5 bf3e 9be7 813f 96a4 3bbf 0fc4 783f
000002e0: 25ff 883d b6f6 a2bf f327 903e 4456 243f
000002f0: 104a 27bf 880b d33f 3130 29bd 3696 c5be

trunk.0.bias f4 [64]
-0.53918487 -0.24041203 -0.7606756 -0.150058 0.5070656 0.46156064 -0.42351735 0.14468515
-0.4629623 -0.24873519 -0.41830727 -0.50398505 -0.53378654 -0.37198192 0.35157448 0.30729622
-0.24973987 0.2007232 0.31300667 -0.16756041 -0.18730968 -0.6954014 0.5485727 0.74502665
0.39836207 -0.34262058 -0.33286178 0.26727223 0.22247042 0.14643185 -0.49707922 -0.4019956
0.036040377 0.41358313 0.21753246 0.4619016 -0.2618879 -0.071341015 0.64483356 0.5206215
0.054820407 -0.2812217 0.6663315 -0.22045302 0.65436256 -0.05852827 0.38345477 0.43606478
-0.56353784 -0.4471939 0.22582544 0.44655138 0.40801236 -0.06249193 -0.3103606 0.023207247
-0.25053686 0.9242203 -0.4214495 -0.1816685 0.059025604 0.08148382 -0.08347872 0.36493388
00000000: 0508 0abf 922e 76be a3bb 42bf cea8 19be
00000010: 0dcf 013f ad51 ec3e 44d7 d8be 5828 143e
00000020: 6509 edbe 70b4 7ebe 5f2c d6be 2a05 01bf
00000030: 3ca6 08bf 6a74 bebe 9201 b43e ee55 9d3e
00000040: cfbb 7fbe 628a 4d3e 6942 a03e f594 2bbe
00000050: 1cce 3fbe d305 32bf 436f 0c3f 11ba 3e3f
00000060: 1df6 cb3e f76b afbe dc6c aabe e8d7 883e
00000070: 49cf 633e 3bf2 153e 2b81 febe 5ed2 cdbe
00000080: 139f 133d 2bc1 d33e d4c0 5e3e 5e7e ec3e
00000090: 2c16 86be 3d1b 92bd d013 253f 7347 053f
000000a0: 5d8b 603d 4afc 8fbe b494 2a3f 70be 61be
000000b0: 4e84 273f 57bb 6fbd 2f54 c43e e243 df3e
000000c0: 0444 10bf 99f6 e4be c93e 673e 62a2 e43e
000000d0: ffe6 d03e 8af7 7fbd 96e7 9ebe 201d be3c
000000e0: 5e46 80be b499 6c3f 3bc8 d7be 4f07 3abe
000000f0: d5c4 713d fde0 a63d e4f6 aabd 9dd8 ba3e

trunk.2.weight f4 [64, 64]
-0.46064207 0.29820403 0.101388775 -0.6010544 -0.57867724 0.53745717 -0.75815904 -1.2512095
0.3675852 0.5671712 -0.63895017 0.20675546 0.3254992 -0.98941696 0.7084067 0.6934155
0.32223412 0.494177 -0.17606415 0.94241613 0.7084778 0.056411576 -0.28853142 -0.03713019
0.6569335 -0.680678 -0.375779 0.66311085 1.602106 0.6674721 -0.05693557 -0.34953806
1.0896086 -0.023346236 0.33529723 0.29998016 0.8007414 -0.6859722 -0.68128306 0.0054789134
1.6357698 -0.90131646 -0.21336201 0.8935892 -0.37216476 1.0201 0.58569044 -0.2663549
0.91323084 -0.18314067 -0.32011792 0.7088016 -0.65611786 0.57881045 -0.6790263 -1.5648546
-0.71365243 -0.42339134 -0.29406604 -0.37019563 -0.41702703 -0.6663999 -0.9276998 -0.9814063
0.22266677 0.9123484 0.9401162 0.03181167 -0.6277878 0.2565965 0.11839197 -0.5865414
0.9878217 0.9381199 -0.31756532 -0.104541846 0.89907897 -0.09733508 -0.26185915 -0.13495749
0.5071995 0.4046272 -0.58625317 0.56175363 0.6245682 0.71479404 -0.6160568 -1.1662395
-0.13326445 -0.39180577 0.22378393 0.13990352 0.68769836 0.6071465 0.5963689 0.05689423
0.42123005 0.14193705 0.12501895 -0.006392033 0.72716534 -0.32278514 -1.1217835 -0.48166728
0.71953917 -0.28045803 -0.82236385 0.6162497 -1.1259124 0.4607336 0.12604135 -1.1032927
0.5996567 -0.25866705 -1.0320652 0.38192552 -0.62421 0.93845093 -0.68847144 -0.32122135
-0.25739074 -0.7331482 -0.11694241 -0.07891387 -1.0986129 -0.44887513 -0.18993086 -0.6275798
-0.5211978 -0.62210596 -0.77149105 0.24323478 0.6300851 0.19903482 -0.09284179 0.6666853
-0.8633455 -0.81362295 -0.28691697 0.07213782 -0.3538413 0.32918411 0.31844717 0.23788297
-0.8536358 -0.1859199 0.41742468 -0.46930945 -0.42663124 -0.70868206 1.0902125 0.5564572
-0.30660272 -0.26801938 -0.39931315 0.13316259 -0.7884498 -0.55213356 -0.54944694 -0.564605
-0.8269001 0.38771096 -0.321402 0.111788735 -0.5723556 -0.19067052 0.8730432 0.50842404
-0.66858363 0.5645016 0.3196547 -0.55494213 0.5473404 -0.6390412 -0.018828452 0.23799932
-0.77943015 0.23522416 0.89882386 -0.55911636 0.7957198 -0.2891348 -0.04523354 0.5269267
-0.07839911 0.9062309 -0.41042665 0.3113501 0.5936595 0.6650083 0.38667077 0.6687087
-0.21016566 -0.8007786 -0.87111235 0.064701855 0.40685087 0.3666178 -0.18083796 0.4959737
-0.763507 -0.9179393 0.027700908 -0.33234137 -0.93040305 0.22865851 0.31231746 0.02266382
-0.36211 -0.07069788 0.5362605 -0.35667586 -0.647429 -0.95956707 0.91516477 0.89915913
-0.3103371 0.21044736 -0.17109795 -0.29863077 -0.5565547 -0.48583502 -0.8779906 -0.04183019
-0.5530081 0.35695982 -0.12836093 -0.098846674 -0.84248996 -0.23894677 0.91862774 0.04066558
-0.5805034 0.37527883 0.40239078 -0.8570148 0.91192365 -0.65888757 -0.46496376 0.823647
-0.7444427 0.231715 0.20573804 -0.043070912 0.5263479 -0.89341795 0.13260171 0.0874114
0.4873475 0.6505694 -0.36953998 0.4822201 0.8197298 0.601243 0.752125 0.93802977
00000000: 47d9 ebbe 33ae 983e eba4 cf3d b3de 19bf
00000010: 3124 14bf cb96 093f b616 42bf a227 a0bf
00000020: 2134 bc3e 2232 113f 3d92 23bf b4b7 533e
00000030: d5a7 a63e 6e4a 7dbf 245a 353f ae83 313f
00000040: dffb a43e c504 fd3e 294a 34be 2f42 713f
00000050: cd5e 353f d30f 673d 64ba 93be d315 18bd
00000060: cb2c 283f ea40 2ebf 1b66 c0be a2c1 293f
00000070: cf11 cd3f 74df 2a3f 4635 69bd a7f6 b2be
00000080: 4b78 8b3f 9b40 bfbc 14ac ab3e 0097 993e
00000090: 63fd 4c3f e09b 2fbf 9168 2ebf 7588 b33b
000000a0: e860 d13f adbc 66bf 927b 5abe 43c2 643f
000000b0: 618c bebe a392 823f cfef 153f ab5f 88be
000000c0: 7fc9 693f 3a89 3bbe 7fe6 a3be 0674 353f
000000d0: 57f7 27bf ec2c 143f abd4 2dbf 284d c8bf
000000e0: edb1 36bf c0c6 d8be d38f 96be 488a bdbe
000000f0: 9184 d5be 2f99 2abf bc7d 6dbf 713d 7bbf
00000100: c202 643e aa8f 693f 75ab 703f f44c 023d
00000110: b4b6 20bf 9e60 833e 7d77 f23d 9427 16bf
00000120: e2e1 7c3f a028 703f ec97 a2be 091a d6bd
00000130: 0a2a 663f 9d57 c7bd 6712 86be 4c32 0abe
00000140: d4d7 013f 4c2b cf3e b014 16bf 16cf 0f3f
00000150: b4e3 1f3f befc 363f e6b5 1dbf 5647 95bf
00000160: 7a76 08be c49a c8be 9d27 653e de42 0f3e
00000170: 000d 303f f46d 1b3f a2ab 183f ed09 693d
00000180: 77ab d73e f257 113e f804 003e 4274 d1bb
00000190: 8227 3a3f 1844 a5be 9a96 8fbf 189d f6be
000001a0: b833 383f 3298 8fbe 7086 52bf 8ac2 1d3f
000001b0: e61d 90bf 46e5 eb3e fc10 013e b238 8dbf
000001c0: 1a83 193f 0270 84be b61a 84bf be8b c33e
000001d0: 3acc 1fbf 523e 703f aa3f 30bf 2077 a4be
000001e0: b8c8 83be 9aaf 3bbf 817f efbd 989d a1bd
000001f0: 599f 8cbf f6d2 e5be 3c7d 42be 12a9 20bf
00000200: 386d 05bf 5642 1fbf 7080 45bf 8a12 793e
00000210: 424d 213f c9cf 4b3e d623 bebd e3ab 2a3f
00000220: 3604 5dbf 9849 50bf c8e6 92be febc 933d
00000230: b02a b5be d28a a83e 820b a33e 9897 733e
00000240: e087 5abf c961 3ebe b0b8 d53e 5449 f0be
00000250: 696f dabe 306c 35bf 158c 8b3f fb73 0e3f
00000260: 08fb 9cbe d639 89be c672 ccbe c65b 083e
00000270: d9d7 49bf a058 0dbf 8ea8 0cbf f489 10bf
00000280: baaf 53bf 0d82 c63e ce8e a4be 7ef1 e43d
00000290: e685 12bf 223f 43be c27f 5f3f 1428 023f
000002a0: 4c28 2bbf 2d83 103f c8a9 a33e b010 0ebf
000002b0: 801e 0c3f 3498 23bf 203e 9abc 18b6 733e
000002c0: bc88 47bf 9ade 703e 5219 663f 4022 0fbf
000002d0: 4bb4 4b3f 7a09 94be ce46 39bd abe4 063f
000002e0: b68f a0bd c0fe 673f 7123 d2be 4869 9f3e
000002f0: 12fa 173f fc3d 2a3f b6f9 c53e 7e30 2b3f
00000300: ab35 57be d4ff 4cbf 3801 5fbf 6882 843d
00000310: c24e d03e 54b5 bb3e 962d 39be 44f0 fd3e
00000320: 3275 43bf 12fe 6abf 04ed e23c a628 aabe
00000330: e52e 6ebf 7525 6a3e 13e8 9f3e 7aa9 b93c
00000340: 7b66 b9be 0dca 90bd 5e48 093f 389e b6be
00000350: e8bd 25bf 30a6 75bf 3d48 6a3f 4b2f 663f
00000360: 81e4 9ebe 837f 573e 4d34 2fbe 22e6 98be
00000370: 5e7a 0ebf 5ebf f8be fec3 60bf 2256 2bbd
00000380: f091 0dbf 70c3 b63e 0c71 03be 2070 cabd
00000390: 6cad 57bf 76ae 74be 302b 6b3f f490 263d
000003a0: df9b 14bf 8c24 c03e 2a06 ce3e 5265 5bbf
000003b0: d473 693f dbac 28bf bb0f eebe 88da 523f
000003c0: cc93 3ebf b246 6d3e feac 523e 206b 30bd
000003d0: bcbe 063f 0ab7 64bf bec8 073e c004 b33d
000003e0: 9d85 f93e b78b 263f 5834 bdbe 8ee5 f63e
000003f0: d0d9 513f 10eb 193f 448b 403f b822 703f

trunk.2.bias f4 [64]
-0.12943389 -0.42850864 0.4612117 0.34857893 -0.27304733 -0.22960213 0.06257246 0.12493437
0.25645962 -0.29041862 -0.01501894 -0.41947696 0.3756832 -0.38744274 0.28075305 0.14019677
0.4647534 0.47028428 -0.23818627 0.41223252 -0.50183326 -0.35405207 -0.2574336 -0.42872173
-0.33649424 -0.42124194 -0.17258504 0.45234725 0.3829623 0.45511448 -0.4366532 0.45704374
-0.2712791 0.3078826 -0.18728757 -0.25393534 0.3133987 0.42543167 0.33973923 -0.3949912
-0.5039283 -0.19523665 -0.04369647 0.013755315 0.39660364 -0.35803252 -0.44572866 0.48212647
-0.43538702 0.30202258 0.2524244 -0.46806005 -0.19836964 0.38819027 0.32270765 0.34790692
-0.31055808 0.39193267 -0.1257206 0.41499496 -0.44110328 0.36019957 0.61502653 0.44873494
00000000: 518a 04be 7c65 dbbe f123 ec3e f078 b23e
00000010: dccc 8bbe d21c 6bbe fd25 803d 97dd ff3d
00000020: ad4e 833e c0b1 94be 0012 76bc afc5 d6be
00000030: 8c59 c03e e55e c6be ddbe 8f3e be8f 0f3e
00000040: 28f4 ed3e 1ac9 f03e 1ae7 73be 2410 d33e
00000050: 2578 00bf 5046 b5be 56ce 83be 6a81 dbbe
00000060: f948 acbe 06ad d7be 22ba 30be 0f9a e73e
00000070: a213 c43e c404 e93e 0291 dfbe a301 ea3e
00000080: 18e5 8abe caa2 9d3e 50c8 3fbe d003 82be
00000090: cb75 a03e 2ed2 d93e 4df2 ad3e 493c cabe
000000a0: 7201 01bf 1eec 47be 12fb 32bd f95d 613c
000000b0: a20f cb3e 0a50 b7be 8c36 e4be 48d9 f63e
000000c0: 0ceb debe b4a2 9a3e c53d 813e 91a5 efbe
000000d0: 6921 4bbe e0c0 c63e f039 a53e db20 b23e
000000e0: 7801 9fbe 66ab c83e e7bc 00be 387a d43e
000000f0: 4ad8 e1be 146c b83e 6172 1d3f 96c0 e53e

value_head.0.weight f4 [3, 64]
-4.8378854 -3.447794 3.2902455 3.4943213 -3.456777 -3.6401668 -2.8019693 5.2780895
4.6236367 -3.7365193 -3.738718 -3.6724143 3.660522 2.673379 4.1960306 3.618888
3.3764272 3.404904 -3.6191726 3.5334492 -3.26057 -3.2789044 4.075691 -3.435914
-3.5450783 -3.553104 -4.2469473 3.3877292 3.4705577 3.3933673 -3.43298 3.4542346
-4.119178 3.168316 -4.1438193 3.6549478 -3.4801948 3.5052705 4.433019 -3.5681648
-3.4909897 2.6756213 -3.6765957 -5.014682 3.3241563 -3.4972281 -3.3837914 3.3448672
3.4837449 4.9608407 3.4882965 3.4797137 -3.5808587 3.356781 3.4170141 3.3799753
-3.4307737 3.672431 -3.5996418 3.1661792 -4.1373906 3.4015498 -3.6052828 3.4471636
-1.3882824 -1.3102626 1.5287187 1.504468 -1.2674161 -1.2500051 -2.7618628 1.7780952
0.6728128 -1.5980786 -1.1116546 -1.6353134 1.4729481 2.7161992 0.78639466 0.98715264
1.2799952 1.3120208 -1.5607165 1.3680608 -1.4614888 -1.6021308 2.5522714 -1.2894582
-1.1264886 -1.6925257 -2.625292 1.362086 0.94322884 1.3243079 -1.5406624 1.2900095
-1.2855744 1.4873393 -1.5213789 2.9934685 -2.688643 1.3520105 0.64254636 -1.6935059
-1.5380665 2.915435 -1.3430029 -1.841518 1.417002 -1.5458716 -1.3961943 1.3510308
2.4864883 1.390964 1.3843882 2.8042212 -1.2363175 1.4459045 1.2081909 1.365946
-1.1622356 1.4782574 -1.0529612 1.3655889 -0.5966939 1.3526778 -3.0015557 1.1434691
-3.359425 -5.853192 5.812972 6.024993 -5.7357316 -5.8026404 -1.7445215 2.6677997
3.937824 -5.7510076 -5.727567 -5.772527 6.0176535 2.184591 4.6918707 5.6524525
5.7755184 5.974554 -5.46059 5.850175 -5.951506 -5.713961 2.4633217 -5.718476
-5.898934 -5.574549 -1.1686208 5.8487616 6.1305876 6.1926517 -5.703259 6.2060432
-5.16459 5.875743 -5.0542955 2.035867 -1.4397383 6.1868353 5.0409694 -5.6428857
-5.739351 1.8860829 -5.6647 -2.269963 5.9328766 -5.401569 -5.748217 6.1380644
2.355726 3.1772106 5.65265 -0.5390648 -5.6031175 5.72278 5.833666 5.4134436
-5.72907 6.010499 -5.807674 6.0689745 -5.571216 5.5737696 0.23123616 6.043621
00000000: f5cf 9ac0 a8a8 5cc0 6293 5240 f6a2 5f40
00000010: d63b 5dc0 7ef8 68c0 7753 33c0 1ce6 a840
00000020: d5f4 9340 2223 6fc0 2847 6fc0 d608 6bc0
00000030: fe45 6a40 a418 2b40 e245 8640 dc9b 6740
00000040: 6217 5840 f2e9 5940 86a0 67c0 0824 6240
00000050: 2ead 50c0 92d9 51c0 106c 8240 04e6 5bc0
00000060: 90e2 62c0 0e66 63c0 fee6 87c0 8ed0 5840
00000070: 9e1d 5e40 ee2c 5940 f2b5 5bc0 2e12 5d40
00000080: 4ed0 83c0 b0c5 4a40 2b9a 84c0 aaea 6940
00000090: 83bb 5ec0 5a56 6040 4bdb 8d40 d05c 64c0
000000a0: 606c 5fc0 613d 2b40 584d 6bc0 4678 a0c0
000000b0: fabe 5440 96d2 5fc0 0a90 58c0 4e12 5640
000000c0: adf5 5e40 35bf 9e40 4040 5f40 a1b3 5e40
000000d0: ca2c 65c0 80d5 5640 5cb0 5a40 8451 5840
000000e0: cc91 5bc0 1c09 6b40 8860 66c0 aea2 4a40
000000f0: 8165 84c0 feb2 5940 f4bc 66c0 549e 5c40
00000100: 3db3 b1bf afb6 a7bf 0ead c33f 6892 c03f
00000110: b13a a2bf 2b00 a0bf 5cc2 30c0 a098 e33f
00000120: 763d 2c3f d78d ccbf b34a 8ebf f351 d1bf
00000130: 9089 bc3f 35d6 2d40 2951 493f 09b6 7c3f
00000140: e2d6 a33f 4cf0 a73f 8fc5 c7bf 9e1c af3f
00000150: 1112 bbbf 9f12 cdbf 6a58 2340 f70c a5bf
00000160: c730 90bf afa4 d8bf c904 28c0 d658 ae3f
00000170: 7277 713f ec82 a93f 6d34 c5bf 081f a53f
00000180: b48d a4bf 2261 be3f 8bbc c2bf fd94 3f40
00000190: ba12 2cc0 ae0e ad3f eb7d 243f cdc4 d8bf
000001a0: 5ddf c4bf 7d96 3a40 85e7 abbf ddb6 ebbf
000001b0: 5260 b53f 1fdf c5bf 7fb6 b2bf 94ee ac3f
000001c0: a022 1f40 1c0b b23f a233 b13f 5c78 3340
000001d0: a73f 9ebf 6613 b93f 00a6 9a3f 52d7 ae3f
000001e0: 23c4 94bf 8a37 bd3f 6fc7 86bf 9ecb ae3f
000001f0: eec0 18bf 8c24 ad3f 7d19 40c0 325d 923f
00000200: d200 57c0 594d bbc0 de03 ba40 becc c040
00000210: 1d8b b7c0 3baf b9c0 7b4c dfbf 3bbd 2a40
00000220: 4f05 7c40 4108 b8c0 3b48 b7c0 8bb8 b8c0
00000230: 9e90 c040 57d0 0b40 ce23 9640 e4e0 b440
00000240: 0cd1 b840 8c2f bf40 27bd aec0 a234 bb40
00000250: bd72 bec0 c5d8 b6c0 10a7 1d40 c1fd b6c0
00000260: 11c4 bcc0 b562 b2c0 5e95 95bf 0e29 bb40
00000270: c62d c440 342a c640 1981 b6c0 e897 c640
00000280: 5244 a5c0 1606 bc40 cabc a1c0 a54b 0240
00000290: 5849 b8bf 8efa c540 9f4f a140 8592 b4c0
000002a0: c3a8 b7c0 2a6b f13f 3945 b5c0 1347 11c0
000002b0: 20da bd40 a7d9 acc0 65f1 b7c0 066b c440
000002c0: 37c4 1640 6b57 4b40 82e2 b440 2700 0abf
000002d0: bd4c b3c0 0421 b740 64ad ba40 ee3a ad40
000002e0: 8b54 b7c0 0256 c040 77d8 b9c0 0a35 c240
000002f0: 6747 b2c0 525c b240 2cc9 6c3e 5865 c140

value_head.0.bias f4 [3]
4.048154 2.613644 5.222873
00000000: 7a8a 8140 f145 2740 c721 a740
