Neural Net Approach/DRS no HMQ/trained_value_function.pt (torch, 24501 bytes, 10 tensors)

trunk.0.weight f4 [64, 3]
0.36916304 0.032221816 -0.36474323 -0.79363227 -0.84852505 -0.070105664 0.39857185 0.39720494
0.10881174 0.6313198 -0.38603896 -0.025345927 -0.22417004 -0.4371803 0.0071843714 0.05035395
0.39267617 0.13282259 -0.26167184 -0.7001567 0.23216993 0.57196873 0.1038001 0.2732428
0.0421282 -0.55569655 0.5313482 -0.87160695 -0.82168907 -0.33182645 0.20748973 0.42375126
-0.19745786 0.4969306 -0.37203142 -0.08874686 -0.6646265 -0.2532106 0.3238928 0.10651225
0.13870256 -0.17137645 0.27955347 -0.3169398 -0.32098767 -0.35290432 0.41438836 0.19569127
-0.2518566 -0.5677669 0.43927628 0.6967419 0.7729539 -0.008338701 0.8446278 -0.16478096
-0.0016361034 -0.24140474 -0.41939214 -0.1582597 0.29001322 0.7366914 -0.3663585 0.2768348
0.818773 0.23659354 0.11580051 -0.15740672 0.50805837 0.4001164 -0.38587692 -1.0472445
0.23702914 -0.025906151 0.5807722 0.7236044 0.35993758 -0.80337167 -0.08011381 -0.71756434
-0.6529856 0.91448885 0.43366462 -0.47837016 0.16328049 0.40878242 -0.05752878 -0.42484334
0.43218386 -0.2949661 0.22288084 0.44728345 0.10629356 0.42159778 -0.525407 -1.1767426
0.7429846 0.21969746 -0.22998309 -0.19962944 0.38785088 0.43986148 0.21103741 0.07253264
-0.28930262 0.18629615 -0.3613502 -0.70617044 0.17228916 -0.19161147 0.041210905 0.3779748
-0.037486985 0.43815088 0.488509 -0.001420665 -0.49668813 -0.10042358 0.3883097 0.03937463
0.32260162 0.4938562 0.014831916 0.30952165 -0.64882964 -0.265862 -0.33976233 -0.6970343
-0.39267296 -0.4339973 -0.3957367 0.36159894 -0.12826484 0.0010185792 0.3546873 0.34311786
-0.27645615 0.12818633 0.36176154 0.72625536 0.72643626 0.2407614 1.0757006 -0.09552114
-0.48899654 -0.68073916 0.41940814 -0.33447975 0.33668974 -0.5295439 -0.085494466 -0.5217701
-0.0011899294 0.5498302 0.51007473 -0.792202 0.26067773 -0.7157473 0.17090514 0.11773976
-0.12530594 0.25813118 -0.34638324 -0.47429565 0.08142675 0.28243747 -0.661386 0.43101126
-0.43994907 -0.5022359 0.76667994 -0.17180742 -0.004708129 0.27002874 -1.1839526 0.184589
0.02074502 -0.33430028 0.35782084 -0.6085868 0.18786095 -0.5039893 0.25641012 0.22671553
0.5114379 0.29610342 0.41743743 0.0010778195 -0.21793604 0.22079691 0.94797045 0.66630626
00000000: f002 bd3e 06fb 033d a0bf babe 7c2b 4bbf
00000010: f038 59bf 8f93 8fbd 9c11 cc3e 725e cb3e
00000020: b1d8 de3d 2d9e 213f e6a6 c5be 43a2 cfbc
00000030: d58c 65be 19d6 dfbe e06a eb3b f23f 4e3d
00000040: da0c c93e a502 083e daf9 85be 783d 33bf
00000050: f4bd 6d3e 8b6c 123f 2695 d43d 7be6 8b3e
00000060: 9f8e 2c3d 2142 0ebf 7006 083f a221 5fbf
00000070: 375a 52bf 28e5 a9be 3078 543e edf5 d83e
00000080: 6532 4abe b06d fe3e e77a bebe eac0 b5bd
00000090: f624 2abf d2a4 81be 47d5 a53e 1823 da3d
000000a0: 0b08 0e3e 4f7d 2fbe a221 8f3e ef45 a2be
000000b0: 7f58 a4be e0af b4be b62a d43e 4b63 483e
000000c0: 59f3 80be 2c59 11bf d2e8 e03e ad5d 323f
000000d0: 4fe0 453f 0c9f 08bc 8739 583f 57bc 28be
000000e0: 8572 d6ba ce32 77be 91ba d6be d50e 22be
000000f0: 9d7c 943e cf97 3c3f 5793 bbbe 4abd 8d3e
00000100: 1b9b 513f 9445 723e d128 ed3d 3a2f 21be
00000110: 1d10 023f 0fdc cc3e a991 c5be 1c0c 86bf
00000120: c4b7 723e 2339 d4bc 7dad 143f 233e 393f
00000130: bd49 b83e c4a9 4dbf b612 a4bd 4cb2 37bf
00000140: 102a 27bf f11b 6a3f 4a09 de3e efec f4be
00000150: 0033 273e ee4b d13e 4ca3 6bbd 1185 d9be
00000160: 3447 dd3e cc05 97be e03a 643e 5602 e53e
00000170: 70b0 d93d aadb d73e 1381 06bf 809f 96bf
00000180: 3d34 3e3f 5ff8 603e b080 6bbe a96b 4cbe
00000190: 6494 c63e 8635 e13e 311a 583e fe8b 943d
000001a0: 791f 94be 6bc4 3e3e e502 b9be 96c7 34bf
000001b0: 926c 303e cc35 44be c4cc 283d ea85 c13e
000001c0: f48b 19bd 5055 e03e da1d fa3e 9b35 baba
000001d0: e84d febe e1aa cdbd 87d0 c63e 4b47 213d
000001e0: 0a2c a53e b8da fc3e 9101 733c 9f79 9e3e
000001f0: b319 26bf 101f 88be 54f5 adbe d770 32bf
00000200: 6e0c c9be e534 debe 009e cabe 7f23 b93e
00000210: dc57 03be d981 853a 9399 b53e 25ad af3e
00000220: a98b 8dbe 4743 033e cf38 b93e dfeb 393f
00000230: baf7 393f 288a 763e 8fb0 893f 96a0 c3bd
00000240: c15d fabe ec44 2ebf aabc d63e ee40 abbe
00000250: 9962 ac3e 3090 07bf b917 afbd ba92 05bf
00000260: 68f7 9bba acc1 0c3f 4294 023f c0cd 4abf
00000270: 8d77 853e 373b 37bf c201 2f3e 8b21 f13d
00000280: 3350 00be c529 843e 2559 b1be e1d6 f2be
00000290: 11c3 a63d a59b 903e 9850 29bf 82ad dc3e
000002a0: 0141 e1be 8892 00bf 2345 443f 49ee 2fbe
000002b0: a646 9abb 3541 8a3e c28b 97bf e604 3d3e
000002c0: 76f1 a93c 6829 abbe 4b34 b73e 58cc 1bbf
000002d0: 9f5e 403e 7105 01bf 3048 833e 1e28 683e
000002e0: 98ed 023f de9a 973e 5cba d53e 9f45 8d3a
000002f0: a02a 5fbe 9618 623e 31ae 723f 0c93 2a3f

trunk.0.bias f4 [64]
0.012373886 0.05205742 -0.33527094 -0.08885459 -0.14872187 0.13893434 -0.34626108 -0.0075898306
-0.007007223 0.38783646 -0.2935176 -0.010038646 -0.43770704 0.3587001 0.062052768 0.44836146
0.18206054 0.08451317 0.038075782 0.069296904 0.12096732 -0.05375976 -0.059616372 0.13732472
-0.48831728 -0.17795925 0.5200468 -0.24270669 -0.024576655 0.54756784 0.16333194 0.18418182
-0.20930806 0.23742056 -0.18906051 0.103064366 -0.08188441 -0.11457771 -0.053823546 0.4149225
0.082853615 0.5034689 0.37602443 -0.2941381 0.24783593 -0.2759737 -0.28388315 0.14440995
0.17049487 0.39843407 -0.13045403 0.06859507 0.30149892 -0.3277873 0.38212997 -0.49455598
0.061573647 -0.18293247 -0.18212155 0.16262902 0.38474274 -0.19279957 -0.10276205 -0.1332686
00000000: d7bb 4a3c 293a 553d a2a8 abbe 65f9 b5bd
00000010: 8c4a 18be ce44 0e3e 2249 b1be 1db4 f8bb
00000020: d99c e5bb 8092 c63e f047 96be 2279 24bc
00000030: 231b e0be 8aa7 b73e 0b2b 7e3d a28f e53e
00000040: 146e 3a3e 3e15 ad3d 5af5 1b3d 89eb 8d3d
00000050: b7bd f73d 3233 5cbd 4c30 74bd da9e 0c3e
00000060: b904 fabe f33a 36be c921 053f 1a88 78be
00000070: fb54 c9bc 682d 0c3f 7d40 273e 299a 3c3e
00000080: da54 56be 601e 733e 1499 41be 6913 d33d
00000090: 03b3 a7bd b8a7 eabd 1476 5cbd b970 d43e
000000a0: 28af a93d 56e3 003f 4686 c03e 4599 96be
000000b0: b4c8 7d3e 6d4c 8dbe 2259 91be 34e0 133e
000000c0: 3596 2e3e 8dff cb3e be95 05be 927b 8c3d
000000d0: 115e 9a3e bdd3 a7be 8aa6 c33e 7136 fdbe
000000e0: a634 7c3d a652 3bbe 127e 3abe 3988 263e
000000f0: 00fd c43e 406d 45be e974 d2bd 9077 08be

trunk.1.weight f4 [64]
0.93417346 2.167665 1.338169 0.98016727 0.83440626 0.94172114 1.0429772 0.8956842
1.0386925 1.11125 1.0592815 0.8055261 1.5396879 0.90481925 0.9960481 0.9497613
1.0090581 1.0820318 1.1167591 0.9540781 1.1170568 1.3660088 0.9090684 1.3917695
1.4714125 1.2483354 1.066863 1.3098142 1.0794195 0.9723406 0.9190566 1.8866429
1.0882983 0.92302054 0.98824984 1.338258 0.9681368 1.0323595 1.0565029 0.9489325
1.0178077 0.97959566 1.1379054 1.431786 0.95519114 1.1075633 1.1182544 1.0475891
1.0711946 0.9481291 0.89909697 1.212206 0.9390694 1.2276634 0.96940523 1.4456261
1.1227694 0.9448838 1.2525966 1.2598634 0.8746606 1.1488385 0.8708647 1.4400374
00000000: fe25 6f3f 06bb 0a40 1f49 ab3f 3eec 7a3f
00000010: a69b 553f a314 713f 4780 853f 8f4b 653f
00000020: e0f3 843f 713d 8e3f 8996 873f f536 4e3f
00000030: 7e14 c53f 3ca2 673f 02fd 7e3f 8e23 733f
00000040: d128 813f 0580 8a3f f6f1 8e3f 763e 743f
00000050: b8fb 8e3f 60d9 ae3f b5b8 683f 8125 b23f
00000060: 3f57 bc3f 74c9 9f3f f78e 883f fea7 a73f
00000070: 6b2a 8a3f 50eb 783f 4b47 6b3f 847d f13f
00000080: 5c4d 8b3f 134b 6c3f f1fd 7c3f 0a4c ab3f
00000090: d0d7 773f 5b24 843f 7d3b 873f 3eed 723f
000000a0: 8647 823f c8c6 7a3f e2a6 913f c344 b73f
000000b0: 6887 743f a2c4 8d3f f622 8f3f 6617 863f
000000c0: e81c 893f 97b8 723f 382b 663f 9129 9b3f
000000d0: da66 703f 1324 9d3f f12a 783f 470a b93f
000000e0: e8b6 8f3f e8e3 713f 1655 a03f 3443 a13f
000000f0: c2e9 5f3f 240d 933f fdf0 5e3f 2553 b83f

trunk.1.bias f4 [64]
0.120686516 0.017052364 -0.26638094 0.15606943 0.2305976 -0.071164556 0.16942756 -0.024355115
-0.022554869 -0.020085398 -0.17018981 0.25231764 0.076855935 -0.035193633 0.14048965 -0.06493147
-0.024633491 0.0100875655 -0.00989371 0.10073047 0.036634345 0.06897507 -0.06334469 -0.08356184
-0.07088027 0.030040527 -0.04757153 -0.28270885 0.013040418 -0.022388818 -0.090014055 -0.060744666
-0.17935301 -0.07972234 -0.002979002 0.112419054 0.014319388 -0.0029695951 -0.08877309 -0.08154206
-0.01110811 -0.038834356 -0.012543269 -0.15964878 -0.040147148 -0.022912385 0.014791403 -0.03134187
-0.01768985 -0.043702878 0.06867241 0.0018414232 -0.027582958 -0.2677083 -0.05582184 0.10995409
0.056828078 -0.0675185 0.10677553 -0.024533875 -0.1183163 -0.019360913 0.106658824 0.06949739
00000000: 7e2a f73d 66b1 8b3c 1563 88be aad0 1f3e
00000010: c721 6c3e b9be 91bd 6b7e 2d3e 6184 c7bc
00000020: fdc4 b8bc 228a a4bc 3d46 2ebe c72f 813e
00000030: a566 9d3d 3327 10bd 85dc 0f3e cafa 84bd
00000040: 2dcc c9bc 5146 253c 3a19 22bc c74b ce3d
00000050: e50d 163d cd42 8d3d dcba 81bd 7822 abbd
00000060: ad29 91bd 8d17 f63c 5dda 42bd 37bf 90be
00000070: 7aa7 553c c168 b7bc 4a59 b8bd 66cf 78bd
00000080: 51a8 37be 7745 a3bd 5c3b 43bb f63b e63d
00000090: de9b 6a3c 8a9d 42bb aace b5bd 86ff a6bd
000000a0: cafe 35bc c610 1fbd 4982 4dbc f87a 23be
000000b0: 5671 24bd c1b2 bbbc a457 723c 5560 00bd
000000c0: 4eea 90bc ca01 33bd 1fa4 8c3d e95b f13a
000000d0: a8f5 e1bc 1011 89be 71a5 64bd 9c2f e13d
000000e0: 8fc4 683d 2447 8abd 21ad da3d 44fb c8bc
000000f0: d14f f2bd c79a 9ebc f16f da3d a654 8e3d

trunk.3.weight f4 [64, 64]
-0.13854872 0.2791263 -0.07256216 -0.07454706 -0.07876527 0.07993321 0.28893647 0.15496211
0.21047023 -0.04150148 -0.06323511 0.021913396 0.2350751 0.043750156 -0.04705631 -0.056808267
-0.02789663 0.0057720067 -0.067027695 -0.12881145 0.071291134 -0.16065598 0.08957136 0.11687663
0.18581565 -0.07090138 -0.0488974 0.093855284 0.015401021 0.0862204 -0.033511654 0.18256524
-0.040425625 0.008698264 -0.11146019 0.07712195 0.02293561 0.15879612 0.046518408 -0.080004066
0.08007237 -0.07735843 0.08838806 -0.01726853 -0.02109214 0.0138940355 -0.0056241304 -0.04868833
0.11993159 -0.059178144 0.021429587 -0.010075117 0.08720108 -0.062461216 -0.07406009 0.09993464
0.13708061 0.00076725776 0.053397223 -0.02771432 -0.047406703 -0.0825774 0.032299217 -0.097866625
-0.00556753 0.59770095 -0.12816207 -0.0324746 0.037434902 0.17067324 -0.081485376 0.020551674
0.0101525625 -0.18959278 -0.1033305 -0.1427908 -0.07093089 0.1180932 -0.13781416 0.11518938
0.10002422 0.20661312 0.0372131 0.055425316 0.14892806 -0.035960488 0.062466707 -0.06864521
-0.37444812 0.10478875 -0.088704236 0.07987134 0.12220043 0.13208224 0.02216656 -0.010430732
-0.019522738 0.07642278 0.0058741355 -0.03310198 -0.09184172 0.1062085 -0.15255845 0.100900225
0.0062761274 -0.16104436 -0.24353239 0.05485306 0.09238984 0.072579846 -0.05227396 0.043050334
-0.0384812 0.0427513 -0.124615505 0.05682659 -0.07420668 -0.07948743 -0.04601843 -0.2112172
0.060908336 -0.010162092 0.08858713 0.07377497 0.13571955 -0.22205125 0.033683036 0.08890866
0.02884107 -0.06803249 0.07573963 0.11765688 -0.0020504342 0.008659819 0.15832448 0.0021691301
-0.046720635 -0.052831903 -0.120639205 0.09675896 0.24896075 -0.026686376 -0.038671557 0.022525262
0.054970093 -0.07802539 -0.016578257 0.13458979 -0.08551584 -0.06417653 0.19488868 0.214122
0.17668846 -0.0135208005 0.0330735 0.008990129 -0.10744724 -0.09235717 -0.132317 0.07492794
-0.032654338 -0.07432277 0.0052223555 0.16052996 0.044902883 -0.06097936 0.027267689 0.0036101122
-0.004365253 -0.061819352 0.049527265 -0.039939936 -0.10640082 0.07004817 -0.080258794 -0.095237866
0.07718804 -0.05166145 -0.0454328 -0.048561756 0.05210288 -0.092355035 0.0056336387 0.10636337
-0.011375569 -0.098451935 -0.11020953 0.025388021 -0.117423795 0.09117183 -0.049115494 0.04857228
0.012487093 -0.73774624 0.08301192 -0.011639351 0.12330653 0.056697838 -0.008194952 0.08522273
-0.06603622 -0.02982492 -0.11785741 -0.06089564 -0.25106594 -0.047123738 0.038161788 -0.11589152
-0.023613838 0.11134811 -0.07575512 -0.061353497 0.048617832 0.08133126 0.00860931 0.24328984
0.14883515 0.17422874 0.04338047 -0.15403359 -0.05422957 0.05228877 -0.07853754 0.22451434
-0.1184222 -0.05798096 -0.08683664 0.16409121 -0.0044163195 0.05897121 0.16044177 0.055493146
0.01599483 -0.11402136 -0.058343068 -0.05237456 0.031924054 -0.07530227 0.2156615 0.02851353
-0.1947219 -0.010477761 0.11843633 0.33092508 -0.16911623 0.0827943 -0.0070337825 0.16743939
-0.075859375 -0.042120613 -0.07231394 0.21841872 -0.07247054 0.26735702 -0.04229004 0.15096316
00000000: b7df 0dbe a4e9 8e3e 789b 94bd 21ac 98bd
00000010: b04f a1bd 06b4 a33d 7bef 933e 63ae 1e3e
00000020: 8285 573e 75fd 29bd 6981 81bd b983 b33c
00000030: 87b7 703e 5d33 333d 1ebe 40bd c9af 68bd
00000040: 7987 e4bc 1a23 bd3b d145 89bd 26e7 03be
00000050: 1601 923d 0083 24be 3071 b73d 045d ef3d
00000060: 7546 3e3e be34 91bd a448 48bd 3337 c03d
00000070: 9054 7c3c 5294 b03d 8443 09bd 62f2 3a3e
00000080: 5795 25bd 2a83 0e3c 3d45 e4bd 1df2 9d3d
00000090: 76e3 bb3c 739b 223e 168a 3e3d 2cd9 a3bd
000000a0: fcfc a33d 196e 9ebd cd04 b53d bb76 8dbc
000000b0: 6cc9 acbc cfa3 633c a04a b8bb 6a6d 47bd
000000c0: b29e f53d c864 72bd 1a8d af3c 1b12 25bc
000000d0: 7b96 b23d 55d7 7fbd d1ac 97bd 88aa cc3d
000000e0: dc5e 0c3e cc21 493a 0cb7 5a3d 2409 e3bc
000000f0: 882d 42bd 571e a9bd 2f4c 043d 4c6e c8bd
00000100: d46f b6bb ee02 193f eb3c 03be 1604 05bd
00000110: 5755 193d f7c4 2e3e cee1 a6bd fc5b a83c
00000120: ef56 263c 9c24 42be f19e d3bd c037 12be
00000130: 3744 91bd d9da f13d 281f 0dbe 69e8 eb3d
00000140: 80d9 cc3d 6492 533e c36c 183d a805 633d
00000150: 9980 183e 4e4b 13bd 17dd 7f3d dc95 8cbd
00000160: aab7 bfbe 7c9b d63d 91aa b5bd 9693 a33d
00000170: 3844 fa3d 9140 073e a596 b53c a9e5 2abc
00000180: 26ee 9fbc 8c83 9c3d d27b c03b f195 07bd
00000190: 8317 bcbd d883 d93d 4838 1cbe c7a4 ce3d
000001a0: f9a7 cd3b d0e8 24be 8e60 79be 9aad 603d
000001b0: e236 bd3d bea4 943d 381d 56bd 8c55 303d
000001c0: 769e 1dbd fd1b 2f3d 6a36 ffbd 00c3 683d
000001d0: acf9 97bd 4eca a2bd d27d 3cbd 5249 58be
000001e0: 057b 793d e77e 26bc 2b6d b53d 5517 973d
000001f0: 11fa 0a3e 6761 63be 39f7 093d be15 b63d
00000200: 1c44 ec3c 9e54 8bbd 611d 9b3d 17f6 f03d
00000210: 9460 06bb eae1 0d3c d01f 223e f727 0e3b
00000220: 235e 3fbd 4466 58bd b011 f7bd 9029 c63d
00000230: 91ef 7e3e 639d dabc 1166 1ebd e686 b83c
00000240: 5228 613d c7cb 9fbd 20cf 87bc e8d1 093e
00000250: ee22 afbd fc6e 83bd e690 473e cc42 5b3e
00000260: d2ed 343e 5986 5dbc 1478 073d 564b 133c
00000270: 4c0d dcbd c225 bdbd 1c7e 07be d273 993d
00000280: 8ec0 05bd 8936 98bd 4b20 ab3b f761 243e
00000290: 16ec 373d 7ec5 79bd 7d60 df3c a297 6c3b
000002a0: 650a 8fbb 4a36 7dbd 1add 4a3d 0f98 23bd
000002b0: ace8 d9bd 6a75 8f3d b95e a4bd 120c c3bd
000002c0: c314 9e3d f59a 53bd be17 3abd b1e8 46bd
000002d0: d469 553d a324 bdbd 639a b83b 0ad5 d93d
000002e0: 9860 3abc 2ba1 c9bd 89b5 e1bd 8afa cf3c
000002f0: e37b f0bd 4cb8 ba3d 542d 49bd baf3 463d
00000300: aa96 4c3c f0dc 3cbf 2702 aa3d fab2 3ebc
00000310: 2288 fc3d fe3b 683d 1f44 06bc 4189 ae3d
00000320: ff3d 87bd 6453 f4bc 3a5f f1bd b56d 79bd
00000330: b78b 80be d204 41bd 894f 1c3d 8958 edbd
00000340: cf71 c1bc 7a0a e43d 8025 9bbd ce4d 7bbd
00000350: 7e23 473d 0191 a63d 100e 0d3c f920 793e
00000360: 3e68 183e 0569 323e b8af 313d fbba 1dbe
00000370: d31f 5ebd c02c 563d 4ad8 a0bd 16e7 653e
00000380: 5787 f2bd 717d 6dbd 69d7 b1bd 8707 283e
00000390: c6b6 90bb cc8b 713d d94a 243e c84c 633d
000003a0: 9707 833c 0884 e9bd 24f9 6ebd b586 56bd
000003b0: ccc2 023d 1438 9abd 5ed6 5c3e 3595 e93c
000003c0: 2e65 47be eaaa 2bbc bf8e f23d 036f a93e
000003d0: ce2c 2dbe 0f90 a93d a57b e6bb 3b75 2b3e
000003e0: 295c 9bbd aa86 2cbd 5519 94bd 28a9 5f3e
000003f0: 6f6b 94bd 05e3 883e 5238 2dbd 1696 1a3e

trunk.3.bias f4 [64]
-0.02624371 0.046193954 0.112970665 0.0023903614 -0.038675014 0.018855574 -0.091530666 -0.08527991
-0.01784145 -0.09438955 0.11642223 0.082319565 0.068372674 0.027770333 -0.017756762 0.05447191
0.029698951 -0.023437655 -0.069076315 0.1112787 0.1537815 -0.12934056 -0.037823357 -0.104681745
-0.05210461 0.10242555 0.09948466 -0.01768932 0.056447905 0.009731157 0.05250183 -0.13518378
0.05258669 -0.09326408 -0.07990798 0.005398078 -0.011342249 -0.10423374 0.049263306 0.020819293
-0.031538263 0.022657372 0.10118347 -0.012552068 -0.068296015 -0.20191784 -0.103837654 -0.07706333
-0.08671147 -0.0150204 0.08196249 0.074459024 0.1383945 0.0987048 -0.06902747 -0.052404884
-0.004903452 -0.082277976 0.054267284 -0.02713077 -0.13273424 -0.13354792 -0.0662207 0.04350504
00000000: 0dfd d6bc df35 3d3d 2a5d e73d 9ca7 1c3b
00000010: b169 1ebd 0177 9a3c 6e74 bbbd 3ca7 aebd
00000020: 3c28 92bc 4f4f c1bd c76e ee3d 2997 a83d
00000030: f906 8c3d 9c7e e33c a176 91bc f01d 5f3d
00000040: 374b f33c 5300 c0bc e277 8dbd 16e6 e33d
00000050: e678 1d3e da71 04be aaec 1abd 6263 d6bd
00000060: a56b 55bd 7dc4 d13d 9dbe cb3d 31e9 90bc
00000070: eb35 673d 6e6f 1f3c 290c 573d 9e6d 0abe
00000080: 2465 573d 3d01 bfbd cca6 a3bd 5ce2 b03b
00000090: d7d4 39bc 8078 d5bd 52c8 493d 398d aa3c
000000a0: 442e 01bd f49b b93c 4739 cf3d 30a7 4dbc
000000b0: c8de 8bbd 8dc3 4ebe d6a8 d4bd 61d3 9dbd
000000c0: c895 b1bd 2018 76bc f3db a73d f97d 983d
000000d0: 4ab7 0d3e be25 ca3d 465e 8dbd 81a6 56bd
000000e0: 23ad a0bb 5b81 a8bd 5f47 5e3d 5941 debc
000000f0: 7ceb 07be c9c0 08be b89e 87bd 5732 323d

trunk.4.weight f4 [64]
1.4554347 4.3564982 1.7012742 4.559268 1.2724143 1.2989985 1.2966889 1.5997967
1.6131572 1.3324702 1.3412805 4.4416366 4.65694 4.576876 1.6843308 1.3529916
4.094425 4.6330705 1.3145567 1.6921747 3.8091147 1.5401528 1.6041716 1.5938189
1.7437214 1.6095499 4.101849 1.349617 1.6975634 2.0319836 1.7011194 4.4836206
1.823456 1.7555428 1.3934107 1.6029836 5.1611414 1.7715592 1.4157362 1.4292017
1.6212301 1.3271909 1.6862161 1.598949 1.2106322 -4.2337456 1.1297162 4.7604265
1.7823972 5.0218515 1.7648516 1.2215494 1.6117395 1.6779417 1.9320208 1.2598754
1.6423874 4.1191964 1.7521054 4.5556417 4.7020965 4.7029905 5.0909386 5.119999
00000000: af4b ba3f 6f68 8b40 5ac3 d93f 86e5 9140
00000010: 79de a23f 9545 a63f e7f9 a53f 23c6 cc3f
00000020: ef7b ce3f 628e aa3f 14af ab3f e321 8e40
00000030: a705 9540 c575 9240 2798 d73f d42e ad3f
00000040: 8805 8340 1d42 9440 6543 a83f 2e99 d83f
00000050: 89c8 7340 ba23 c53f 7f55 cd3f 4202 cc3f
00000060: 4332 df3f bb05 ce3f 5942 8340 40c0 ac3f
00000070: c249 d93f 050c 0240 48be d93f d279 8f40
00000080: 0267 e93f a0b5 e03f 485b b23f 912e cd3f
00000090: 1228 a540 74c2 e23f d836 b53f 15f0 b63f
000000a0: 7884 cf3f 64e1 a93f eed5 d73f 5caa cc3f
000000b0: fff5 9a3f d87a 87c0 8a9a 903f 6a55 9840
000000c0: 9725 e43f 02b3 a040 a8e6 e13f bb5b 9c3f
000000d0: 7b4d ce3f cbc6 d63f 754c f73f 9943 a13f
000000e0: c039 d23f 75d0 8340 fd44 e03f d1c7 9140
000000f0: 9377 9640 e67e 9640 f8e8 a240 08d7 a340

trunk.4.bias f4 [64]
-0.47005612 2.9989579 -0.3336111 3.129244 -0.5715859 -0.55679 -0.55795103 -0.39017713
-0.381511 -0.5384621 -0.5337621 3.0382488 3.1947277 3.0803154 -0.3417816 -0.5270308
2.8822148 3.2520866 -0.548235 -0.33775586 2.818373 -0.42307523 -0.386638 -0.39213464
-0.30948943 -0.38479134 2.886724 -0.528261 -0.33510068 -0.14771883 -0.33253136 3.122329
-0.26650628 -0.30351096 -0.5048918 -0.3876497 3.3525224 -0.29417497 -0.4924806 -0.48495862
-0.37722567 -0.5414521 -0.3406562 -0.38979882 -0.60590285 4.9228654 -0.6508929 3.2497182
-0.2894386 3.3233228 -0.2987177 -0.6001097 -0.3824359 -0.346844 -0.20289083 -0.578338
-0.36572772 2.9711137 -0.3036559 3.1394958 3.1596806 3.1787832 3.2885523 3.322959
00000000: 32ab f0be edee 3f40 13cf aabe 8945 4840
00000010: 7453 12bf ca89 0ebf e1d5 0ebf 4cc5 c7be
00000020: 6955 c3be a7d8 09bf a2a4 08bf ab72 4240
00000030: 6b76 4c40 e323 4540 fffd aebe 7eeb 06bf
00000040: 3576 3840 3022 5040 2159 0cbf 56ee acbe
00000050: 3960 3440 519d d8be 6af5 c5be dfc5 c8be
00000060: 6675 9ebe 5f03 c5be 16c0 3840 1d3c 07bf
00000070: 5192 abbe 9b43 17be 8d41 aabe 3dd4 4740
00000080: 8373 88be ca65 9bbe 9740 01bf 057a c6be
00000090: ba8f 5640 1a9e 96be 6b26 fcbe 7f4c f8be
000000a0: b923 c1be 9b9c 0abf 7d6a aebe b693 c7be
000000b0: 731c 1bbf 1d88 9d40 eba0 26bf 62fb 4f40
000000c0: 4c31 94be 52b1 5440 87f1 98be caa0 19bf
000000d0: a3ce c3be 8995 b1be 9dc2 4fbe f60d 14bf
000000e0: aa40 bbbe ba26 3e40 c978 9bbe 80ed 4840
000000f0: 3538 4a40 2f71 4b40 a477 5240 5cab 5440

value_head.0.weight f4 [5, 64]
-0.7535332 1.1413041 0.08358117 0.6237267 -0.5004287 -0.7283691 -0.7655194 -0.6168566
-0.54147017 -0.78071076 -0.44300738 1.1487665 0.84751225 0.9562028 -0.29033595 -0.65801686
1.193428 1.1174222 -0.6138378 -0.32518798 1.1668086 -0.23963687 -0.6471521 -0.62304306
-0.8952265 -0.39702323 1.2573063 -0.727972 -0.35865802 -0.11100645 -0.74545795 1.0917091
-0.025504783 -0.05235792 -0.4880016 -0.33116242 1.1476691 0.047975197 -0.3454975 -0.4484403
-0.475457 -0.37507376 -0.5300411 -0.7326694 -0.4451735 -0.948512 -0.5592883 1.0181103
-0.4754442 1.0175647 -0.360513 -0.7261658 -0.30990776 -0.55483353 -0.39199886 -0.8530014
-0.29018882 1.0869343 -0.53147846 1.2191486 0.90577996 0.99195784 0.712886 0.5700135
-0.5325995 1.311832 -0.58689386 1.3119165 -0.6188832 -0.61911416 -0.513231 -0.15039462
-0.6441588 -0.14411584 -0.24116306 1.1196369 1.1655205 1.298007 -0.6562846 -0.44849247
1.5962923 1.2173272 -0.5735893 -0.67736745 1.3326713 -0.22176674 -0.5048905 -0.69800985
-0.80720496 -0.4716599 1.3085698 -0.6164829 -0.8229386 -0.5979193 -0.2882412 0.7626989
-0.53666157 -0.13991493 -0.08803066 -0.71796566 0.90060323 -0.6853982 0.01617691 -0.5919475
-0.5481171 -0.17979202 -0.6387855 -0.64121485 -0.6166567 -0.91653526 -0.1612348 1.1460845
-0.07728751 1.0059828 -0.43470168 -0.45642763 -0.31921408 -0.4789245 -0.9066852 -0.53670186
-0.42275092 1.3834916 -0.6013237 0.85110694 0.730449 0.66389275 1.0225861 1.0941283
-0.27153254 1.5971175 -0.4331058 1.4269027 -0.22263263 -0.18414482 -0.30479997 -0.24517205
-0.77266747 -0.56672055 -0.33390185 1.2862551 0.92502177 1.1307632 -0.85099256 -0.13117741
1.574711 1.0548681 -0.34830815 -0.78560233 1.5652981 -0.591134 -0.82332426 -0.80391204
-0.46490204 -0.5289018 1.4420878 -0.46411464 -0.79722625 -0.9313394 -0.8099957 1.1900711
-0.7757946 -0.42274317 -0.35607588 -0.7599372 1.2621931 -0.9074178 -0.3575253 -0.30330506
-0.62284714 -0.62830144 -0.94023883 -0.69991106 -0.64811844 -1.093182 -0.57029516 1.0369318
-0.65753186 1.2184784 -0.28549382 -0.24668865 -0.8637125 -0.3251978 -0.827319 -0.24471994
-0.6999501 1.4028615 -0.9816978 1.4366617 1.3094072 1.05873 0.75324017 0.9798909
-0.3846934 1.7666323 -0.7788599 1.3203722 -0.4870068 -0.37786192 -0.37804165 -0.56421864
-0.8055824 -0.12501374 -0.1395777 1.3112973 1.5191027 1.7347116 -0.87465763 -0.48813778
1.310206 1.3631898 -0.37425464 -0.76200944 1.6798655 -0.44027656 -0.78778845 -0.81407803
-0.8278027 -0.07251349 1.2232513 -0.6322067 -0.56836843 -1.4111849 -1.078852 1.4140648
-0.7452021 -0.80794793 -0.46153635 -0.60774606 1.5211235 -0.6222649 -0.7208735 -0.07859157
-0.8468278 -0.35478708 -0.81970894 -0.7242956 -0.12590194 -1.2153101 -0.27623236 1.5208352
-0.088759884 0.9242382 -0.34540802 -0.04712208 -0.8563093 -0.4036046 -1.3263835 -0.34751686
-0.85163075 1.4850844 -0.91744405 1.6565973 1.1334503 0.9283501 1.0241519 0.84728587
00000000: 8de7 40bf 4116 923f 9b2c ab3d 8eac 1f3f
00000010: 181c 00bf 6676 3abf 14f9 43bf 50ea 1dbf
00000020: ca9d 0abf a9dc 47bf ddd1 e2be c80a 933f
00000030: 90f6 583f b5c9 743f eaa6 94be cb73 28bf
00000040: 40c2 983f b107 8f3f 7924 1dbf 0a7f a6be
00000050: fc59 953f 5e63 75be c3ab 25bf c07f 1fbf
00000060: 902d 65bf a146 cbbe 6aef a03f 5f5c 3abf
00000070: 06a2 b7be 5a57 e3bd 55d6 3ebf 20bd 8b3f
00000080: 68ef d0bc 4275 56bd 59db f9be 1f8e a9be
00000090: d2e6 923f a481 443d 0ce5 b0be f899 e5be
000000a0: 1a6f f3be ab09 c0be c6b0 07bf 3990 3bbf
000000b0: c8ed e3be afd1 72bf 852d 0fbf 7051 823f
000000c0: 6c6d f3be 8f3f 823f 2995 b8be 00e6 39bf
000000d0: 3bac 9ebe 9209 0ebf 13b4 c8be 4d5e 5abf
000000e0: a193 94be aa20 8b3f f90e 08bf 100d 9c3f
000000f0: 32e1 673f f3f0 7d3f b27f 363f 68ec 113f
00000100: 7158 08bf 1cea a73f ad3e 16bf e1ec a73f
00000110: 216f 1ebf 447e 1ebf 1b63 03bf 0c01 1abe
00000120: 97e7 24bf 1a93 13be 73f3 76be 4350 8f3f
00000130: c72f 953f 1825 a63f 4402 28bf cea0 e5be
00000140: 4e53 cc3f 61d1 9b3f c0d6 12bf f467 2dbf
00000150: f994 aa3f d216 63be 8140 01bf c6b0 32bf
00000160: fca4 4ebf 687d f1be 377f a73f d3d1 1dbf
00000170: 1bac 52bf 3d11 19bf 5a94 93be 3c40 433f
00000180: a762 09bf dc45 0fbe 6b49 b4bd 99cc 37bf
00000190: ef8d 663f 4276 2fbf 7085 843c df89 17bf
000001a0: 6751 0cbf 661b 38be 7287 23bf a826 24bf
000001b0: 37dd 1dbf 0ea2 6abf bc1a 25be e6b2 923f
000001c0: ea48 9ebd 0bc4 803f 3891 debe e2b0 e9be
000001d0: 0770 a3be 9835 f5be 851c 68bf 4b65 09bf
000001e0: cf72 d8be 4116 b13f 5af0 19bf 25e2 593f
000001f0: b5fe 3a3f e0f4 293f 1ae4 823f 650c 8c3f
00000200: 5006 8bbe 596e cc3f 0bc0 ddbe bfa4 b63f
00000210: cff9 63be 7690 3cbe be0e 9cbe 620e 7bbe
00000220: 89cd 45bf 9914 11bf 2ff5 aabe 02a4 a43f
00000230: 3ace 6c3f d9bc 903f a6da 59bf 5f53 06be
00000240: 2190 c93f eb05 873f 7255 b2be 3c1d 49bf
00000250: b05b c83f 8f54 17bf 61c5 52bf 2ecd 4dbf
00000260: a407 eebe 1c66 07bf 5596 b83f 6fa0 edbe
00000270: 0517 4cbf 426c 6ebf e15b 4fbf 4054 983f
00000280: 7a9a 46bf cb71 d8be 944f b6be 3f8b 42bf
00000290: 8b8f a13f 884c 68bf 8e0d b7be cd4a 9bbe
000002a0: e972 1fbf 5dd8 20bf 7eb3 70bf 5f2d 33bf
000002b0: 17eb 25bf 63ed 8bbf ddfe 11bf 2eba 843f
000002c0: 0254 28bf 1af7 9b3f 3f2c 92be f39b 7cbe
000002d0: 431c 5dbf 5380 a6be 2ecb 53bf dd97 7abe
000002e0: ee2f 33bf f790 b33f 8c50 7bbf 88e4 b73f
000002f0: a89a a73f 7784 873f 59d4 403f 21da 7a3f
00000300: 89f6 c4be 0221 e23f 5d63 47bf f501 a93f
00000310: f558 f9be 1e77 c1be ad8e c1be a270 10bf
00000320: a63a 4ebf 9a03 00be 75ed 0ebe 97d8 a73f
00000330: f571 c23f 080b de3f 90e9 5fbf 32ed f9be
00000340: d5b4 a73f 017d ae3f 4e9e bfbe 0d13 43bf
00000350: d505 d73f ee6b e1be 81ac 49bf 6b67 50bf
00000360: e1ea 53bf f481 94bd 8093 9c3f 4cd8 21bf
00000370: 9880 11bf b5a1 b4bf d317 8abf 1300 b53f
00000380: 91c5 3ebf add5 4ebf 7e4e ecbe 3f95 1bbf
00000390: 2db4 c23f c14c 1fbf 2a8b 38bf 9ef4 a0bd
000003a0: b5c9 58bf a7a6 b5be 72d8 51bf 706b 39bf
000003b0: 70ec 00be 488f 9bbf 546e 8dbe baaa c23f
000003c0: bec7 b5bd e09a 6c3f 52d9 b0be 1503 41bd
000003d0: 1637 5bbf 43a5 cebe efc6 a9bf bbed b1be
000003e0: 7904 5abf 3f17 be3f 9ddd 6abf 610b d43f
000003f0: e614 913f 5aa8 6d3f 6917 833f bae7 583f

value_head.0.bias f4 [5]
0.55212224 0.39096895 0.35642332 0.33217895 3.1158125
00000000: e257 0d3f 152d c83e 1e7d b63e 5c13 aa3e
00000010: 7969 4740
