cont_ap_ch/trained_value_function.pt (torch, 20318 bytes, 5 tensors)

model.0.weight f4 [64, 1]
00000000: a86b 803e 71d0 523f 8edf 48bf 6db2 18bf
00000010: edbb 1cbe fc93 053f 3013 813e 8868 8a3f
00000020: 22fe 173e 2a0d e43e 2328 e6bd 87b3 383d
00000030: 96d5 85bf 48d1 1bbf fb0e 46be 5be4 993e
00000040: 2cf9 253f 475e 563f a5ab 04bf 5d9f 84be
00000050: 3300 243f d746 8d3f ce27 813b 8701 843f
00000060: 7178 b03d 0a5b a93e c99e 943f 6c7c 52bf
00000070: fbd3 f4be 421b 46bc fedd 45be a78e 933f
00000080: 181b 0abf 92a1 8fbe 2705 5bbf 6e2c 8abf
00000090: 61f0 c3be 4f04 923f 335e 343f a963 363f
000000a0: 02a7 a83e 7de8 a3be da4d e63e 9d6c a4bf
000000b0: b328 1bbf 9e62 bfbe 9094 5e3f a3fb 5c3f
000000c0: 90f5 82be 3ae2 293e 3969 5d3f 717d a53f
000000d0: 2b40 1e3f a52c af3e f765 723f 7878 0abf
000000e0: 2c61 e63e 690d 2ebf c656 1dbf 4665 9bbe
000000f0: 3d62 3a3f 69b7 243f 98d9 dfbe 5bf9 143f
0.25082135 0.82349306 -0.7846612 -0.59647256 -0.15306063 0.5217893 0.2520995 1.081315
0.14843038 0.44541293 -0.11238124 0.045093086 -1.0455806 -0.6086621 -0.19341652 0.30057034
0.6483333 0.83737606 -0.5182441 -0.25902835 0.64062804 1.1037244 0.0039415127 1.0312966
0.086167224 0.3307727 1.1610957 -0.822211 -0.47817978 -0.01209146 -0.19322965 1.1527909
-0.5394759 -0.28052956 -0.85554737 -1.0794809 -0.38269332 1.1407565 0.70456237 0.7124582
0.32939917 -0.32013312 0.4498127 -1.2845646 -0.6060898 -0.37379926 0.8694544 0.8632147
-0.25577974 0.16590205 0.8648868 1.2928907 0.6181666 0.3421375 0.94686836 -0.5409007
0.4499601 -0.6798921 -0.6146053 -0.30350703 0.7280615 0.6434236 -0.43720698 0.58192986

model.0.bias f4 [64]
00000000: d689 b33f d3ab 293f 95df 713f e794 933f
00000010: 889b bf3f 729f e03f 5998 b93d 8a1a bb3e
00000020: 89c3 9c3f 3c6a cc3f 32ad d93f 62c4 dd3f
00000030: b98e 8a3f e10e 853d ad45 7e3f cc79 5c3e
00000040: 336d 2cbe 46ca d33f 7cda d03f c5bb 92bd
00000050: c74c 813f 1396 143f 6061 303f cb11 913e
00000060: d8f4 9d3f 4a8b 583e c934 8e3f 4213 b73f
00000070: ef22 ca3f 7b65 a03f 3451 87bd c27c 9d3d
00000080: 0387 ae3f e08a 8b3f 8d96 e83d 1d16 bb3e
00000090: 7699 e83f 7942 ba3f a8af a43e ad92 fe3e
000000a0: da86 eabd ae99 663f 2a1c 893d 6f61 dd3d
000000b0: 250f 5d3f ca3e 823f 4bac a43e a96c b23f
000000c0: 351c a03e eb9c db3f f7c2 b83f 4ecb 13be
000000d0: 48fc ff3e 7bce 563f b530 6c3f 4414 8b3f
000000e0: 63bb 9a3f 22c0 7e3f acbc e23e 8e39 ad3f
000000f0: 3b28 48be 049b 263e 8859 2a3f ff23 9c3e
1.4026439 0.6627781 0.94481784 1.1529816 1.4969339 1.7548659 0.09062261 0.36543685
1.2247173 1.596992 1.700598 1.7325556 1.0824805 0.064969786 0.99325067 0.21530837
-0.16838531 1.6546104 1.6316676 -0.071647204 1.0101556 0.58041495 0.6889858 0.28333887
1.2340345 0.21146885 1.1109859 1.4302752 1.5791911 1.2530969 -0.06607285 0.07689811
1.3634952 1.0901756 0.1135684 0.3654031 1.8171833 1.4551536 0.32165265 0.4972128
-0.11451502 0.90078247 0.06694825 0.108095996 0.86351234 1.0175412 0.321627 1.393941
0.3127152 1.7157263 1.4434499 -0.14433023 0.49997163 0.83908814 0.9226182 1.086556
1.2088436 0.9951192 0.4428457 1.3533189 -0.19546597 0.16270071 0.66542864 0.30496213

model.2.weight f4 [64, 64]
00000000: a53c f1bd 26eb 31be 056f dabd cb9f 58bd
00000010: 26c3 21be aa7c a1bd 75d7 6f3c ad17 aabd
00000020: e340 91bd 8561 a7bd 034a 4abd f1b7 943b
00000030: a5c1 1d3d ffd4 86ba 6866 293d 3a53 aabd
00000040: 5167 3bbe c017 05be a30f f03b 4181 a2bd
00000050: a864 09be 456b 29be e2a1 44be 44f8 33be
00000060: 06e5 cdbd b1c2 71bb cad8 03bb fce7 4dbe
00000070: 96cf 3d3a a1c1 31be b124 d6bd 3298 f6bd
00000080: 9197 cfbd 99fd cfbd 9084 43be e684 42be
00000090: cf5c c6bd dfeb 8cbd 8ded 02be 4d3a bbbc
000000a0: 7161 3fbe e192 b1bd 9466 153d 1e74 06be
000000b0: 0b30 073d 90ef 01bd b69b 3abe a9e0 003c
000000c0: e5dd bdbd 8ee1 03be 357a f43c a785 2ebe
000000d0: c624 69bd 7f9d c8bd 1fb6 983c 9b5a 2abd
000000e0: a383 53bc 3f8b 13bd eeec e1bd 20db d4bd
000000f0: b46e 32be 65aa 3abb a49f a43c 2b27 553c
00000100: d7d9 083f a052 043f 83f0 2d3f 5b8b 2e3f
00000110: 81af 1d3f a6b5 1d3f 395f 103f 6468 e93e
00000120: 1dbb 253f aa7a 2b3f 6e6b 153f c1c9 103f
00000130: a2bb 343f 4d3f 5b3f 58e3 293f 18eb 3a3f
00000140: 6642 143f 12b5 0b3f a550 3b3f 40d9 363f
00000150: f456 113f 14fc df3e de87 2e3f a9b0 f53e
00000160: b01c 0e3f 8b98 0d3f 13c1 133f 3602 293f
00000170: da86 383f 24f5 4b3f 1295 463f 866a e23e
00000180: c80b 223f b6c1 473f 1c8d 313f 3648 413f
00000190: 05ac 2b3f 74cd f03e 4aec 063f 673e 223f
000001a0: 5326 223f ee15 573f b055 293f 2306 393f
000001b0: 4a0c 503f 9e9e 243f de7f e23e e203 0f3f
000001c0: effa 453f c01f 3a3f 1863 f73e 390e d23e
000001d0: 930d 1d3f cb18 fb3e d3d9 163f 4dc3 243f
000001e0: d73f 163f bd1f 3d3f cbc4 323f 9ecc 3a3f
000001f0: d073 1d3f 089b 003f 35ca 2b3f f37f 013f
00000200: f059 e63e 8975 053f bf7d 2b3f 87ab 203f
00000210: eb40 123f 1885 183f 3905 283f 6736 033f
00000220: 07a1 233f 769d fe3e 72c3 183f b1f5 233f
00000230: 5c61 583f 0eb6 433f 09f0 1a3f 1f6e 043f
00000240: b0be bc3e 4235 023f 5a00 1f3f bbd9 153f
00000250: 70f0 1c3f 2403 af3e cd37 1f3f a725 ea3e
00000260: 78ef 1b3f 4c83 f83e cd59 a93e f7cf 523f
00000270: 4153 353f 4ce2 3a3f e849 253f d121 df3e
00000280: 56fc 2b3f 8d63 2b3f f855 2b3f a745 4c3f
00000290: c370 353f a39f e13e 8bb3 e63e 47c6 cf3e
000002a0: f9d9 273f 33be 173f 086e 163f 9ecb 393f
000002b0: 2d3e 283f f62f 363f c423 c53e 52c8 003f
000002c0: bdce 363f 78a7 fb3e 8b10 fe3e f5b1 da3e
000002d0: 0dcf 0c3f 3dc8 0b3f 2476 b33e dfc9 2f3f
000002e0: a150 143f e201 2d3f 77e0 453f 82c3 403f
000002f0: ce35 cd3e a722 fc3e c798 413f c68f 033f
00000300: 236d 323f 7885 1e3f 92d5 2a3f 6872 443f
00000310: efba 4f3f f4d7 433f c0db 453f d86e 113f
00000320: b4c5 413f 0a00 1a3f 6b22 1d3f 5f6f 183f
00000330: c18a 643f 2dc1 593f ceba 263f 1b2b 3d3f
00000340: 793c 373f 407f 3e3f 1601 5b3f fedf 5a3f
00000350: f8e0 1b3f f103 043f d191 533f 437b 203f
00000360: 5147 213f be05 4c3f 8e8a 213f bc36 543f
00000370: 849b 2a3f 70c6 403f 6ac7 353f 3039 203f
00000380: 4e7c 3a3f 3560 4a3f 0a20 4c3f 20b2 543f
00000390: 8c87 313f 9f02 253f 2024 073f 1298 253f
000003a0: a5f0 193f 3c04 203f b1ee 0f3f 2c0b 613f
000003b0: 2947 543f 6488 5d3f cff4 2f3f de60 003f
000003c0: afef 2a3f d4c9 2b3f 4045 083f d421 143f
000003d0: 3cfc 093f 4716 1e3f 4b8a f13e eee6 2e3f
000003e0: 0aad 433f 0877 5d3f f954 5b3f eba9 553f
000003f0: b1b3 363f 55f0 173f 87ff 4f3f 8fad 3f3f
-0.11779145 -0.17374858 -0.106657065 -0.052886765 -0.157971 -0.07885106 0.014638771 -0.08305297
-0.07092454 -0.08172897 -0.04938699 0.004538529 0.038514752 -0.0010286866 0.041357428 -0.083166555
-0.18301131 -0.12997341 0.007326083 -0.079348095 -0.13417304 -0.16544826 -0.19202378 -0.17575175
-0.100534484 -0.0036889727 -0.002011823 -0.20108026 0.00072407105 -0.1735902 -0.10456217 -0.12040748
-0.10136331 -0.10155792 -0.19093537 -0.18996009 -0.096856706 -0.06880926 -0.12785931 -0.022854948
-0.18689515 -0.08670593 0.03647478 -0.13130233 0.0330048 -0.031722605 -0.18223462 0.007866063
-0.09270839 -0.12879011 0.02984343 -0.17043172 -0.056919836 -0.09795665 0.01864153 -0.041590314
-0.012909803 -0.036021467 -0.11031519 -0.10393357 -0.17425042 -0.002848291 0.020095654 0.013009827
0.534574 0.51688576 0.67945117 0.6818139 0.6159592 0.616053 0.563953 0.45587456
0.6473864 0.66984046 0.5836705 0.5655785 0.70598805 0.85643464 0.66362524 0.73014975
0.57913816 0.54573166 0.7316993 0.7142525 0.56773305 0.43747008 0.68176067 0.47986344
0.55512524 0.5531089 0.5771648 0.66019 0.7208077 0.7967093 0.77571213 0.44221896
0.63299227 0.78029954 0.6935594 0.7550081 0.67059356 0.47031748 0.527043 0.6337647
0.6333973 0.8401784 0.66146374 0.7227499 0.8126875 0.6430453 0.4423818 0.558653
0.7733602 0.72704697 0.4831779 0.41026476 0.6134884 0.49042353 0.58926123 0.64360505
0.5869116 0.73876554 0.6983153 0.7296847 0.6150484 0.5023656 0.6710542 0.5058586
0.44990492 0.5213247 0.6698875 0.6276173 0.57130307 0.59578085 0.6563297 0.51254886
0.63917583 0.49729508 0.59673226 0.6404677 0.8452356 0.7644967 0.60522515 0.5173053
0.36864233 0.50862515 0.6210991 0.58535355 0.6130438 0.34182084 0.6219452 0.4573185
0.60912275 0.48537672 0.33076325 0.8234858 0.7083016 0.7300155 0.64565897 0.43580487
0.6718191 0.6694878 0.6692805 0.7979378 0.70875186 0.44067106 0.45058855 0.4058096
0.65566975 0.59274596 0.58761644 0.7257632 0.6571987 0.7116693 0.3850385 0.50305665
0.7140921 0.49151206 0.49621996 0.42713895 0.55003434 0.54602414 0.35051072 0.68667406
0.5793553 0.67581 0.7729563 0.7529832 0.40080112 0.49245188 0.75623745 0.51391256
0.6969778 0.6192241 0.6673213 0.7673707 0.81144613 0.76501393 0.77288437 0.5680976
0.75692296 0.6015631 0.6138064 0.5954494 0.8927422 0.8506039 0.6512879 0.738939
0.7157665 0.7441292 0.8554853 0.85498035 0.6089015 0.51568514 0.82644373 0.6268808
0.62999445 0.7969626 0.6310204 0.8289602 0.6664355 0.7530279 0.71007407 0.6258726
0.72845924 0.7905305 0.7973639 0.830843 0.69347453 0.64457124 0.527895 0.64685166
0.6013282 0.6250646 0.5622359 0.8790767 0.8292108 0.8653624 0.68732923 0.5014781
0.6677198 0.6710484 0.5323067 0.5786412 0.53900504 0.6175274 0.47175822 0.6832112
0.7643591 0.8650975 0.85676533 0.834624 0.7136794 0.5935109 0.8124928 0.74874204

model.2.bias f4 [64]
00000000: ffce 8abc 429e 303f 79c2 283f 410b 443f
00000010: 7c3e 0b3f 065c 1f3f 5ca4 093f f42b 173f
00000020: 9b06 d33c 9646 173f f705 e33e e172 0c3f
00000030: fa42 fe3e d903 4cbc 4cb6 2b3f ddf3 0b3f
00000040: 4b5f 0f3f c3b2 15bc 33d1 1f3f 68c1 493f
00000050: 2feb 093f 8d02 15bd 4a9c 133f 4808 0b3f
00000060: 10f1 90bd 4968 383f 52e7 193f 9cab fd3e
00000070: 0b87 003f 48d1 e23e f7ef e8bd cc39 0a3f
00000080: b7fd 3c3f b137 073f b9cc 223f 7cf3 333f
00000090: 5cde f03e 81f3 d53e 5ff4 0e3f 0e9a 86bc
000000a0: c711 103f af83 4ebd cf08 de3e 682c 063f
000000b0: 9635 23bd 06cf 1d3f da64 023f d5ca 173f
000000c0: 7983 dabd ef39 203f 7574 0e3f 7cd1 13be
000000d0: cde9 013f 0095 e93e 35bc 253f 77d9 cbbd
000000e0: 8d8b 2ebe 92d9 25bd 7ade e43e 457e 8bbd
000000f0: dbaf 2d3f f640 303f 44f6 1f3f eb50 1f3f
-0.016944407 0.6899148 0.6592174 0.7657967 0.5439222 0.6224979 0.5376642 0.5905144
0.025759986 0.5909208 0.44340488 0.5486279 0.49660474 -0.012452089 0.6707504 0.5466898
0.5600478 -0.009136858 0.6242859 0.7881074 0.53874487 -0.036379386 0.57660353 0.5430951
-0.07077229 0.72034127 0.6011859 0.4954499 0.5020606 0.44300294 -0.11373895 0.5399444
0.7382464 0.52819353 0.6359363 0.702934 0.47044647 0.4178734 0.5584163 -0.01643088
0.56277126 -0.050418552 0.43366095 0.5241151 -0.039846025 0.6164402 0.5093514 0.5929387
-0.10669608 0.625884 0.5564645 -0.1443538 0.50747377 0.4562149 0.64740306 -0.099535875
-0.17045422 -0.040490694 0.44700986 -0.068111934 0.6784646 0.6884912 0.62485147 0.62232846

model.4.weight f4 [1, 64]
00000000: 7211 49bc e482 293f 8eaf 383f 5a26 483f
00000010: c6d0 2c3f d7a4 203f 1460 2e3f 6a58 303f
00000020: a5c1 0ebd 8f01 3c3f d07c 303f a84a 283f
00000030: deb5 303f e2f5 6dbc fc52 4f3f 40e8 3e3f
00000040: 32d5 353f a0d9 1b3d 5f78 2e3f 24ea 493f
00000050: acfc 3e3f d121 b7bc 29a4 2f3f 4667 343f
00000060: 2fdb 3dbc 0477 293f 0c51 2c3f a994 323f
00000070: 9d66 303f 7b58 2f3f 1d66 0fbb 1ac7 3d3f
00000080: 1c81 283f 8d3c 393f a987 2a3f 040d 433f
00000090: 92ad 343f b7a2 443f 7451 423f 1e6c 9dbc
000000a0: 83b7 2e3f db67 85bb f920 3c3f ca96 343f
000000b0: 9b11 b33b 3b06 303f 7279 363f 64a4 3a3f
000000c0: 95da ffbb 2bea 363f 0ccb 4c3f 68ee 93bc
000000d0: f5de 383f 3d9b 393f 62e4 3c3f 18ce 293c
000000e0: 0eb1 64ba ead5 58ba 1920 333f 3e01 ccbc
000000f0: 6afc 2a3f 7257 533f 6124 323f a790 2e3f
-0.012272226 0.6621535 0.72142875 0.7818352 0.67506063 0.62751526 0.68115354 0.6888491
-0.034852643 0.7343988 0.6894045 0.65738916 0.6902751 -0.014523955 0.80986 0.74573135
0.71028435 0.03804934 0.6815242 0.78872895 0.74604297 -0.022354992 0.68609864 0.7047008
-0.011587902 0.6619723 0.6731117 0.6975809 0.68906575 0.68494385 -0.0021880933 0.7413193
0.65822005 0.7235802 0.6661325 0.76191735 0.7057735 0.76810783 0.7590554 -0.019216593
0.68248767 -0.0040712184 0.7348781 0.70542586 0.005464745 0.68759507 0.7127906 0.7290709
-0.0078080394 0.7145106 0.79997325 -0.018058017 0.72215205 0.725025 0.73785985 0.010364078
-0.0008723893 -0.0008271622 0.6997085 -0.024902936 0.66791403 0.82555306 0.6958676 0.6818947
