cont_ap_ch/trained_value_function.pt (torch, 20318 bytes, 5 tensors)

model.0.weight f4 [64, 1]
0.2322575 0.7732162 -0.2904319 -0.28588918 -0.11989338 0.49195066 0.21861419 1.0164869
0.14340355 0.4166425 -0.08761094 0.04619959 -0.3605161 -0.21049431 -0.12914427 0.27436382
0.5898338 0.8035152 -0.3233352 -0.115376346 0.5805753 1.0410763 0.014346781 0.9736214
0.08233853 0.29153875 1.1176976 -0.3539363 -0.30482927 -0.00084213295 -0.09049189 1.0797836
-0.27929696 -0.18332139 -0.17784798 -0.39553028 -0.28109848 1.0967588 0.6497034 0.6622403
0.29025394 -0.18200386 0.4051055 -0.6249505 -0.27432156 -0.21797614 0.80181783 0.82410634
-0.12867333 0.15677036 0.8250747 1.2278087 0.5758738 0.30502436 0.9061188 -0.22141358
0.4228162 -0.2603882 -0.23220289 -0.22124657 0.66219485 0.5926434 -0.21976425 0.5373125
00000000: e9d4 6d3e 7ff1 453f 7db3 94be 1160 92be
00000010: a98a f5bd f5e0 fb3e 66dc 5f3e 3e1c 823f
00000020: 61d8 123e 2a52 d53e 5d6d b3bd c83b 3d3d
00000030: 9195 b8be d28b 57be 653e 04be 6a79 8c3e
00000040: 59ff 163f 2cb3 4d3f 318c a5be 6f4a ecbd
00000050: 95a0 143f fd41 853f c30e 6b3c 413f 793f
00000060: 1aa1 a83d 9144 953e b710 8f3f 2437 b5be
00000070: 9512 9cbe 96c2 5cba d053 b9bd 5936 8a3f
00000080: 0300 8fbe 9ab8 3bbe c81d 36be f282 cabe
00000090: 24ec 8fbe 9862 8c3f f652 263f 9588 293f
000000a0: 2a9c 943e 385f 3abe fd69 cf3e c2fc 1fbf
000000b0: e073 8cbe 2335 5fbe ef43 4d3f a2f8 523f
000000c0: f1c2 03be 6988 203e 1838 533f d628 9d3f
000000d0: 776c 133f 272c 9c3e 67f7 673f 3eba 62be
000000e0: 5d7b d83e 9a51 85be 98c6 6dbe 768e 62be
000000f0: 9a85 293f 7ab7 173f e109 61be 508d 093f

model.0.bias f4 [64]
0.96361816 0.21630277 0.84841204 1.0510023 1.2450298 1.3244778 -0.38807267 -0.05216116
0.81108373 1.1482879 1.4122283 1.3519669 0.9838497 -0.04800368 0.7881112 -0.25992686
-0.6565185 1.2309015 1.523244 -0.23548618 0.5377744 0.14992215 0.35205287 -0.14306232
0.834451 -0.27647918 0.6985016 1.3392156 1.4623034 0.91795677 -0.25739956 -0.34599292
1.2591293 0.92661685 0.0051542833 0.24937433 1.67287 1.0397601 -0.13977036 0.033896837
-0.6057903 0.75383896 -0.4208649 -0.027030453 0.7595603 0.8847086 -0.13850759 0.96407306
0.14676185 1.3006464 1.0093086 -0.5333901 0.03680015 0.36722594 0.50053316 0.98204356
0.7639014 0.89563876 0.33556068 1.1867994 -0.6707377 -0.3087418 0.5441373 -0.15805009
00000000: aeaf 763f 797e 5d3e 8831 593f 3e87 863f
00000010: 235d 9f3f 7d88 a93f 76b1 c6be f1a6 55bd
00000020: 2fa3 4f3f 19fb 923f e6c3 b43f 400d ad3f
00000030: 93dd 7b3f 829f 44bd a8c1 493f 2215 85be
00000040: 9911 28bf 2e8e 9d3f a9f9 c23f 4a23 71be
00000050: 95ab 093f 3185 193e 4640 b43e ee7e 12be
00000060: 959e 553f ae8e 8dbe 00d1 323f 6b6b ab3f
00000070: c22c bb3f 37ff 6a3f e0c9 83be fc25 b1be
00000080: 262b a13f c336 6d3f 43e5 a83b fc5b 7f3e
00000090: 9b20 d63f dc16 853f f61f 0fbe 69d7 0a3d
000000a0: 1315 1bbf 97fb 403f 9b7b d7be f86e ddbc
000000b0: 8b72 423f 437c 623f efd4 0dbe 7ecd 763f
000000c0: bd48 163e 957b a63f 0631 813f 418c 08bf
000000d0: c1bb 163d 0a05 bc3e f122 003f 3567 7b3f
000000e0: 0b8f 433f 9548 653f 9cce ab3e 0be9 973f
000000f0: 77b5 2bbf 6813 9ebe 954c 0b3f e2d7 21be

model.2.weight f4 [64, 64]
-0.11159836 -0.15920497 -0.120884195 -0.065659635 -0.16311234 -0.06771275 0.02019288 -0.06753608
-0.067386545 -0.070442446 -0.051579878 0.005309791 0.023586087 -0.014230577 0.034644384 -0.07578883
-0.16750959 -0.11674094 -0.0036958905 -0.08805202 -0.120736465 -0.15039705 -0.19264175 -0.16018759
-0.0992673 0.0065196445 0.012204028 -0.21560296 -0.0093892235 -0.17535089 -0.112022035 -0.10441202
-0.11216243 -0.10908249 -0.20411271 -0.20593864 -0.105921 -0.054822206 -0.112847835 -0.008420522
-0.17875534 -0.096023865 0.04799451 -0.14666498 0.019953389 -0.040567003 -0.16700926 0.02139751
-0.10120243 -0.12291122 0.043352883 -0.1544636 -0.04294783 -0.08748868 0.03291462 -0.051421907
-0.002342443 -0.04963131 -0.12355307 -0.11245672 -0.15803343 0.011938063 0.008857153 0.026550107
0.21504085 0.24946901 0.5726025 0.5731042 0.4032341 0.3124554 0.22486326 0.23303689
0.3330846 0.3549953 0.34963885 0.27821583 0.59792155 0.7376836 0.47137496 0.3905563
0.28947908 0.2677972 0.61823875 0.54125863 0.27146694 0.20823632 0.4029822 0.25186855
0.2543996 0.21539229 0.34050015 0.55848175 0.6035804 0.5252308 0.5807149 0.23637548
0.5204146 0.6222136 0.5803762 0.6374041 0.53443027 0.22412758 0.24685404 0.3493141
0.29442063 0.68973637 0.33805987 0.5912146 0.7014686 0.5067403 0.18660925 0.28568232
0.601652 0.41741565 0.20884705 0.23024228 0.31510326 0.16223271 0.33280128 0.52998126
0.2726025 0.6316195 0.5835911 0.5751195 0.34417453 0.21030569 0.542924 0.20556629
0.16550712 0.29100502 0.5797823 0.53552896 0.37859908 0.3295298 0.35393226 0.32297543
0.35778293 0.21977669 0.38477287 0.38219365 0.7541667 0.6615993 0.43070585 0.21562386
0.11776396 0.2682396 0.5242166 0.42799923 0.35509717 0.14666758 0.36880744 0.2630779
0.33891338 0.18601704 0.12905096 0.73903024 0.60751235 0.48430708 0.46724057 0.2612649
0.57561684 0.5277409 0.5721392 0.6969224 0.5891317 0.23018077 0.20835766 0.15973003
0.35544875 0.4582407 0.30365953 0.6104902 0.5624249 0.5912083 0.16565265 0.26744404
0.558317 0.21478684 0.25946075 0.27509382 0.290586 0.25518352 0.13045496 0.58898836
0.30284956 0.5853142 0.67437094 0.6150096 0.16735397 0.23916441 0.64390445 0.25241882
0.40109512 0.19343501 0.6200725 0.72866213 0.73220867 0.40136355 0.43987283 0.15821818
0.50822157 0.23852476 0.5114006 0.4138293 0.8320643 0.80460346 0.58811045 0.37211955
0.26017386 0.3442041 0.8201873 0.80192804 0.19948521 0.1032901 0.676952 0.21120681
0.42437053 0.41614082 0.22408146 0.7834364 0.6302585 0.61045384 0.6464778 0.2239805
0.69090474 0.7431405 0.74207366 0.7573323 0.65576756 0.24072762 0.09144783 0.21091165
0.21323825 0.5819177 0.13785477 0.77760607 0.7877926 0.8239616 0.25452387 0.09399274
0.6155549 0.4188222 0.124000534 0.20045115 0.10581669 0.25760373 0.0538162 0.64308584
0.39050016 0.82353896 0.8129525 0.78963816 0.26438797 0.14873424 0.7726696 0.3160842
00000000: ae8d e4bd a106 23be 2292 f7bd 8f78 86bd
00000010: ec06 27be fbac 8abd 8a6b a53c 5b50 8abd
00000020: f501 8abd 2144 90bd 6c45 53bd c1fd ad3b
00000030: 9c37 c13c 5e27 69bc 45e7 0d3d 2d37 9bbd
00000040: a287 2bbe e015 efbd c136 72bb 9e54 b4bd
00000050: ae44 f7bd af01 1abe e143 45be 3708 24be
00000060: a74c cbbd bea2 d53b 67f3 473c 06c7 5cbe
00000070: 42d5 19bc 2f8f 33be cf6b e5bd f8d5 d5bd
00000080: 6bb5 e5bd a466 dfbd ec02 51be 94e1 52be
00000090: 1ced d8bd 408d 60bd c41c e7bd 3bf6 09bc
000000a0: a40b 37be 29a8 c4bd e495 443d 582f 16be
000000b0: 4a75 a33c 9629 26bd 7a04 2bbe d549 af3c
000000c0: 3843 cfbd e1b8 fbbd cb92 313d b52b 1ebe
000000d0: 10ea 2fbd 442d b3bd 7bd1 063d c79f 52bd
000000e0: ac83 19bb 334a 4bbd 6409 fdbd b54f e6bd
000000f0: 84d3 21be de97 433c 981d 113c 9c7f d93c
00000100: ab33 5c3e ce74 7f3e 1496 123f f5b6 123f
00000110: b374 ce3e 27fa 9f3e 8e42 663e 39a1 6e3e
00000120: 118a aa3e f2c1 b53e dd03 b33e 4e72 8e3e
00000130: 6311 193f d5d8 3c3f 0f58 f13e fff6 c73e
00000140: 9a36 943e b71c 893e e544 1e3f ed8f 0a3f
00000150: b7fd 8a3e e73b 553e af53 ce3e eaf4 803e
00000160: aa40 823e cc8f 5c3e 0956 ae3e a9f8 0e3f
00000170: 3f84 1a3f 8775 063f bba9 143f 6a0c 723e
00000180: e439 053f 6449 1f3f 8993 143f ea2c 233f
00000190: 6cd0 083f b381 653e 4ec7 7c3e 4cd9 b23e
000001a0: 4dbe 963e 9092 303f 2f16 ad3e d759 173f
000001b0: 7293 333f bbb9 013f 7f16 3f3e f444 923e
000001c0: de05 1a3f 81b7 d53e 00dc 553e a2c4 6b3e
000001d0: 3755 a13e 5520 263e ee64 aa3e daac 073f
000001e0: 8e92 8b3e d1b1 213f 3a66 153f 083b 133f
000001f0: a537 b03e 605a 573e 11fd 0a3f f87f 523e
00000200: b37a 293e 9cfe 943e 9d6c 143f 6d18 093f
00000210: bdd7 c13e 21b8 a83e 9c36 b53e 095d a53e
00000220: 532f b73e 240d 613e f300 c53e e3ae c33e
00000230: 1211 413f 925e 293f 7a85 dc3e 80cc 5c3e
00000240: 3b2e f13d b356 893e 0f33 063f b722 db3e
00000250: 4ccf b53e 0730 163e 54d4 bc3e 26b2 863e
00000260: 0e86 ad3e 407b 3e3e ef25 043e 1631 3d3f
00000270: ee85 1b3f 19f7 f73e 283a ef3e 83c4 853e
00000280: a05b 133f 071a 073f b777 123f 8269 323f
00000290: 56d1 163f 82b4 6b3e b65b 553e 4590 233e
000002a0: 61fd b53e 869e ea3e 4379 9b3e 1649 1c3f
000002b0: 14fb 0f3f 6d59 173f d9a0 293e 6dee 883e
000002c0: dded 0e3f 15f1 5b3e 0ad8 843e 19d9 8c3e
000002d0: b0c7 943e 6aa7 823e fc95 053e f1c7 163f
000002e0: 190f 9b3e 27d7 153f 93a3 2c3f 4571 1d3f
000002f0: d75e 2b3e 84e7 743e ecd6 243f 0a3d 813e
00000300: 575c cd3e d413 463e 12bd 1e3f 9a89 3a3f
00000310: 0772 3b3f 867f cd3e 0337 e13e f203 223e
00000320: cf1a 023f d63f 743e 26eb 023f 6fe1 d33e
00000330: 2a02 553f 7efa 4d3f 688e 163f 7486 be3e
00000340: 8235 853e 853b b03e cbf7 513f 284b 4d3f
00000350: da45 4c3e c389 d33d ba4c 2d3f 9946 583e
00000360: 1847 d93e 6910 d53e 9c75 653e 4a8f 483f
00000370: 9f58 213f b446 1c3f 927f 253f 255b 653e
00000380: 22df 303f 753e 3e3f 8af8 3d3f 88e0 413f
00000390: 62e0 273f 4d81 763e 0049 bb3d 39f9 573e
000003a0: 215b 5a3e 8ff8 143f cd29 0d3e 3111 473f
000003b0: c7ac 493f 26ef 523f f450 823e 447f c03d
000003c0: 0295 1d3f dd6f d63e fef3 fd3d 1143 4d3e
000003d0: 6cb6 d83d a3e4 833e 606e 5c3d 46a1 243f
000003e0: a3ef c73e 73d3 523f a81d 503f ba25 4a3f
000003f0: dc5d 873e ca4d 183e adcd 453f cad5 a13e

model.2.bias f4 [64]
-0.010210674 0.41837817 0.41745496 0.5584901 0.2616074 0.3505174 0.2536024 0.32166174
0.038995042 0.35687995 0.18919604 0.2723614 0.22141324 -0.0041392148 0.45060927 0.23785867
0.28695738 -0.018462721 0.34178072 0.55191636 0.29701525 -0.024415456 0.29378498 0.30631754
-0.06452918 0.42627203 0.3528778 0.24065043 0.21901494 0.18840179 -0.10464457 0.3051238
0.45199347 0.28651312 0.36662987 0.38642374 0.2133561 0.18919215 0.3337115 -0.004123264
0.2754186 -0.04141056 0.18185797 0.29217002 -0.03121726 0.31361696 0.27363724 0.35442394
-0.09633124 0.38829148 0.37286544 -0.13478224 0.22494274 0.19731814 0.39849606 -0.09427056
-0.16054158 -0.033715196 0.20411997 -0.056727182 0.38688955 0.6057874 0.37290847 0.34764147
00000000: ac4a 27bc aa35 d63e a8bc d53e 35f9 0e3f
00000010: 68f1 853e 0477 b33e 2cd8 813e d9b0 a43e
00000020: 44b9 1f3d f8b8 b63e 9bbc 413e f472 8b3e
00000030: 27ba 623e 40a2 87bb 42b6 e63e 3991 733e
00000040: 14ec 923e 223f 97bc e2fd ae3e 644a 0d3f
00000050: 6212 983e ec02 c8bc fc6a 963e a7d5 9c3e
00000060: e027 84bd 5440 da3e 66ac b43e 116d 763e
00000070: 7445 603e 66ec 403e e44f d6bd 3039 9c3e
00000080: b06b e73e d9b1 923e e9b6 bb3e 55d9 c53e
00000090: 057a 5a3e 96bb 413e 3cdc aa3e 721c 87bb
000000a0: ab03 8d3e 1f9e 29bd fa38 3a3e 4f97 953e
000000b0: 57bb ffbc 6792 a03e 2e1a 8c3e 0e77 b53e
000000c0: 5049 c5bd 24ce c63e 38e8 be3e 5b04 0abe
000000d0: 6457 663e c40d 4a3e ad07 cc3e ec10 c1bd
000000e0: 0365 24be f218 0abd d304 513e c35a 68bd
000000f0: 6316 c63e e214 1b3f dced be3e 10fe b13e

model.4.weight f4 [1, 64]
-0.020917589 0.31179455 0.3791969 0.4972579 0.31820312 0.2902449 0.32213122 0.3368448
-0.054038066 0.3961236 0.3456325 0.3128344 0.33638266 -0.026670238 0.5126236 0.3483669
0.3506115 -0.003031586 0.32107478 0.49690235 0.39314783 -0.04465171 0.32675818 0.37148225
-0.033710785 0.29916117 0.3405159 0.35748973 0.32511097 0.34572887 -0.026251236 0.3951638
0.30909595 0.38089454 0.31904152 0.36983922 0.35551283 0.4223237 0.42115244 -0.041675914
0.31832662 -0.028763218 0.37560564 0.3801559 -0.0154308425 0.31099412 0.3807741 0.39047337
-0.029481208 0.38019696 0.5693514 -0.032499056 0.34406358 0.36395404 0.38295364 0.00040201563
-0.023734609 -0.025358934 0.36701483 -0.041093048 0.31032023 0.73160917 0.35841563 0.32430688
00000000: 5d5b abbc 89a3 9f3e 1926 c23e 9698 fe3e
00000010: 85eb a23e fb9a 943e 62ee a43e ec76 ac3e
00000020: 0557 5dbd b6d0 ca3e bef6 b03e d52b a03e
00000030: 593a ac3e 8b7b dabc 4d3b 033f 255d b23e
00000040: 5a83 b33e 93ad 46bb ea63 a43e fc69 fe3e
00000050: ac4a c93e b6e4 36bd d94c a73e ec32 be3e
00000060: 5214 0abd a72b 993e 1a58 ae3e e508 b73e
00000070: f274 a63e 6003 b13e d50c d7bc e952 ca3e
00000080: d341 9e3e 9c04 c33e 6959 a33e 915b bd3e
00000090: c705 b63e d03a d83e 4ba1 d73e 5db4 2abd
000000a0: b5fb a23e d7a0 ebbc 624f c03e cba3 c23e
000000b0: a5d1 7cbc 9f3a 9f3e d3f4 c23e 20ec c73e
000000c0: 9382 f1bc 2da9 c23e 03c1 113f bb1d 05bd
000000d0: 1a29 b03e 2f58 ba3e 8012 c43e a0c5 d239
000000e0: 156f c2bc 8abd cfbc 5ee9 bb3e 2f51 28bd
000000f0: 4be2 9e3e bd4a 3b3f 4182 b73e 8d0b a63e
